models/inception/Inception1_RMSprop_32_lr1e-06_m0.99_wd0.001/Inception1_RMSprop_32_lr1e-06_m0.99_wd0.001_best.pth (torch, 823647 bytes, 262 tensors)

input_net.block.0.weight f4 [32, 1, 3, 3]
000000 87 32 01 be 16 2d 88 3d 16 ba 32 be a6 50 81 be
       -0.12616931 0.066492245 -0.17453799 -0.25256842
000010 52 5b ea bd 47 51 84 bc cf d6 99 be a0 f8 9c 3e
       -0.11443199 -0.016152037 -0.30046698 0.30658436
000020 1c 14 7f 3e 38 e7 bc 3c 56 97 56 bc 8b a8 e6 3d
       0.24910015 0.023059472 -0.013097605 0.11262616
000030 20 9a da 3d 2c 2f 13 be 93 60 47 be 2e 44 d3 bd
       0.10673928 -0.14373463 -0.19470434 -0.103157386
000040 75 6e 65 be 91 9f 21 be 7e 37 76 be a8 2d bb 3d
       -0.22405417 -0.15783526 -0.24044606 0.091395676
000050 ac 09 46 be e5 23 0f be 55 03 a5 3e eb 63 31 be
       -0.19339627 -0.13978536 0.32229105 -0.17323272
000060 e2 09 fe bb 46 89 9b bd 0f a2 7f 3e f8 c5 6a 3e
       -0.007752643 -0.07594542 0.24964164 0.22927082
000070 7f 00 13 bd f3 5f 9d be 1a 39 3c be 76 37 23 3e
       -0.035889145 -0.30737266 -0.18381158 0.15939125
000080 81 14 86 be a8 08 87 be f5 d6 6d 3e 57 db 6b 3e
       -0.26187518 -0.26373792 0.23226531 0.2303289
000090 5d a1 ca 3c 83 e3 e6 bd 08 29 a1 bd 4f fb 9c 3e
       0.024735147 -0.11273863 -0.07869154 0.30660483
0000a0 7f 0a 5b 3e 49 df 28 bd 69 7c 42 3b ad 81 36 3d
       0.21390723 -0.041228566 0.0029676205 0.044557262
0000b0 c2 58 3f 3e 11 44 ba 3c c1 f1 e9 3d de e9 af bd
       0.18686202 0.022737535 0.11423064 -0.085895285
0000c0 82 49 5d be 3a 22 24 3e 93 94 65 be cb 8b 5e 3e
       -0.21610072 0.16028681 -0.22419958 0.21733014
0000d0 6b 32 50 3e be 5a 35 3e 5e 50 c9 bd dc 9a 32 be
       0.20331733 0.17710397 -0.09829782 -0.17441887
0000e0 04 f4 0f be 15 84 ef bd 75 60 86 be c4 05 44 be
       -0.14057928 -0.116951145 -0.26245466 -0.19142824
0000f0 62 3a 8a 3e 5e 9a 0f 3d 2d bf cc bd 66 7c 4b bd
       0.26997668 0.035059325 -0.099974014 -0.049679182
000100 fa 97 9f 3e f6 49 af bc 01 a4 cf bd fe 09 78 be
       0.31170636 -0.021397572 -0.10138703 -0.24222562
000110 9a 55 1c 3e e7 bf c0 bd 8a bc 71 3e 8d 8a 88 3e
       0.1526703 -0.094116025 0.23607078 0.26668206
000120 fc a9 a5 3e 64 35 e3 bd 9b f8 9b be e9 9d 9a bc
       0.3235625 -0.11094168 -0.30463108 -0.018874126
000130 7a 92 8d be 14 04 06 3e 6d 79 e3 bd 79 99 42 bd
       -0.27650815 0.13087493 -0.111071445 -0.047509644
000140 d0 7f 1a 3e e0 9e d6 bd 62 0f 93 bd 06 09 82 be
       0.15087819 -0.10479522 -0.071806684 -0.2539751
000150 b4 ec 04 3e a9 03 87 3e c7 05 3c be 2e b7 6d bd
       0.1298092 0.2636998 -0.18361579 -0.058036022
000160 2b 73 8f 3e f7 40 b1 3d a4 66 57 3e 8b 6c 18 be
       0.28017554 0.08654969 0.21035248 -0.14885156
000170 59 b4 1a 3e eb 43 40 3e ae 31 06 3e 97 50 9c be
       0.1510786 0.18775909 0.13104889 -0.30530235
000180 47 7c f1 bd 71 44 90 be a7 fe 42 3e 2f b8 fa 3d
       -0.11791282 -0.28177217 0.19042455 0.122421615
000190 39 34 58 3e 0b d6 d0 bc 9c b9 09 3d 9a 84 ef bd
       0.21113671 -0.025492689 0.033624277 -0.116952136
0001a0 64 e5 42 3e 94 1f 34 be 9a 22 28 bd 0c 2f 9b 3e
       0.19032818 -0.17590171 -0.041048624 0.3030933
0001b0 58 22 24 be 34 b7 1e be 29 16 ee 3d e4 67 f0 3d
       -0.16028726 -0.15499574 0.116253205 0.117385656
0001c0 3a 7a 0e 3e b0 c8 53 3e 89 1a c7 3d 4e 6b 9b 3e
       0.13913813 0.20682025 0.09721858 0.30355304
0001d0 c2 b9 a7 3c c5 0c 46 3c 32 26 02 3e 3f e0 8b bd
       0.020474318 0.012088005 0.12709883 -0.06829881
0001e0 66 52 45 3d 65 c3 81 3e d2 fc ad 3d a0 b9 0d bc
       0.048174284 0.25344387 0.08495487 -0.0086502135
0001f0 26 52 ca bd 16 e2 f1 bd 57 0b 41 be 51 b9 5b 3d
       -0.0987895 -0.118107006 -0.18851982 0.05364353
000200 8a b0 1e be bc fd 31 bd 34 06 90 be 9f 0b 49 3e
       -0.15497032 -0.04345487 -0.28129733 0.1963334
000210 75 ae 89 bd 82 dc ab 3d eb 7d 27 3d 1c 3f 01 3d
       -0.06722728 0.08391668 0.04089157 0.031554326
000220 b2 9f 98 be 1c 56 1a be 4e f3 ab 3e 04 9a 96 3d
       -0.29809338 -0.1507191 0.33584064 0.07353595
000230 82 2d 2b be b3 a2 81 3e cc b5 d9 3d f1 0e f9 bd
       -0.16716579 0.25319442 0.10630378 -0.12161053
000240 f4 53 f8 3d e1 10 55 be 8e 66 e8 bd 0c fb df bd
       0.12125388 -0.2080722 -0.11347686 -0.10936555
000250 d8 9b e5 bd 94 1f db 3d c5 8b 78 be f5 bb 10 be
       -0.112113655 0.106993824 -0.24272068 -0.141342
000260 ae f9 46 3e 1e 40 5b 3e 46 3d f2 bd c0 50 86 be
       0.19431183 0.21411178 -0.11828093 -0.26233482
000270 f6 04 3b bd f7 00 96 be c0 f9 27 be bc f3 31 3e
       -0.045659028 -0.2929761 -0.16403866 0.17378134
000280 15 35 03 3e 1e 3a 94 3e 74 c7 08 be 37 dd 72 3e
       0.12813218 0.2895059 -0.13357335 0.237172
000290 d6 28 1b 3e 26 66 8b 3e 63 fe 83 3c 34 d8 56 bd
       0.15152296 0.2722637 0.016112512 -0.05245228
0002a0 15 0c 86 3e d2 85 4e 3e 6b 5e cd 3d 60 38 63 3e
       0.26181093 0.20168236 0.100277744 0.22189474
0002b0 7d de 56 be 42 a4 32 bd 58 ab 5a 3e 39 80 87 3e
       -0.2098331 -0.04361368 0.21354425 0.26465014
0002c0 af 75 f2 3d f4 86 2d 3e 8b f7 13 3c c5 5d 6f bd
       0.118388526 0.16946012 0.009031187 -0.058439035
0002d0 25 89 0d 3e fa e0 4d 3e 6b 35 0f bd dc 0b 82 be
       0.13821848 0.20105353 -0.034963053 -0.25399673
0002e0 f8 53 63 3e 7f 44 49 3e 0d c6 95 3c 2a 49 85 3e
       0.222 0.19655035 0.018282915 0.26032382
0002f0 12 e0 0c 3e 12 ab 07 3e 77 83 31 3e 7c 61 a3 be
       0.13757351 0.13248852 0.17335306 -0.31910312
000300 3e 18 a5 3c 61 6d 91 3e e9 bd 2f 3d b6 55 86 3e
       0.020153161 0.28403762 0.04290572 0.26237267
000310 16 2e cf ba 82 1d a4 be 78 49 a9 bd 2c ea 79 bc
       -0.0015806581 -0.32053763 -0.08265966 -0.015253585
000320 18 8b 2a be 76 e0 9f bc bb 07 54 be fb 88 61 be
       -0.16654623 -0.019516211 -0.20706074 -0.2202491
000330 b7 c0 1b be 47 2e d0 bc 63 4f 9d 3e 78 ed 53 be
       -0.15210234 -0.025412692 0.3072463 -0.20696056
000340 3e 84 38 be 88 19 0d be d1 54 72 be 01 d5 33 3e
       -0.18019196 -0.1377927 -0.23665167 0.17561723
000350 d5 aa 30 3e ff ea 86 bd ab 08 56 be e6 02 ce bd
       0.17252667 -0.06587791 -0.20901744 -0.100591466
000360 24 2c 99 3e de d3 6b be 1d 2c 62 be 95 49 c3 bd
       0.2991649 -0.2303004 -0.2208714 -0.09535519
000370 eb 4a 8f be e7 4b 0f 3e 24 db 0c bc 8c 85 dd bc
       -0.27986845 0.13993798 -0.008597169 -0.02704122
000380 20 60 1e 3e ce 1a 92 3e 0b ed 86 be a5 4a 9b 3d
       0.15466356 0.28536075 -0.26352724 0.07582597
000390 10 62 8e be b0 52 63 3e ac 81 8e be 1f 01 91 be
       -0.2780919 0.22199512 -0.27833307 -0.28321168
0003a0 5b 9c 31 3e 64 15 ee 3d e6 bf 5c bb 5f d5 34 3e
       0.17344801 0.11625174 -0.0033683716 0.1765952
0003b0 aa dc 3c 3d 05 c1 19 3e 5d b4 9f 3e 76 c9 88 3e
       0.04610888 0.15015037 0.31192294 0.26716202
0003c0 7f df 64 3e 97 49 81 be 5a fa 8d be b8 86 5a be
       0.22350882 -0.25251457 -0.27730066 -0.21340454
0003d0 1a f6 10 be 4e 8b 91 3e 14 66 b6 3d b8 39 c0 bd
       -0.1415638 0.28426594 0.089061886 -0.09386009
0003e0 2f 32 96 3d 8a 9d 10 bd ce 87 b4 3d 55 60 d4 3b
       0.073337905 -0.03530649 0.08814965 0.0064812102
0003f0 b4 88 10 bd 95 d8 35 3d af ad 63 be a2 da aa 3d
       -0.03528662 0.044396 -0.22234224 0.08342482

input_net.block.0.bias f4 [32]
000000 99 53 de 37 b2 62 1f b8 fa ad 5f 37 64 38 68 b8
       2.650339e-05 -3.800047e-05 1.3332343e-05 -5.536563e-05
000010 c8 df b9 b7 fe 05 b6 b8 59 f3 fa b6 2e c8 b0 37
       -2.2157925e-05 -8.6795524e-05 -7.47891e-06 2.107405e-05
000020 86 31 ee b7 71 e4 32 38 fd 47 36 38 0a 8b a3 37
       -2.8394872e-05 4.265126e-05 4.3459226e-05 1.949586e-05
000030 d0 99 b9 37 ed 3c 2c 38 a8 99 8e 37 83 81 53 38
       2.2125343e-05 4.1064737e-05 1.699927e-05 5.0426937e-05
000040 6b 00 a1 36 28 24 88 38 81 cf ba b6 19 3d ad 37
       4.7982226e-06 6.49172e-05 -5.5673886e-06 2.0651658e-05
000050 52 7d 33 b7 af 8e 40 36 6e 5b 7b 37 ea 6a a3 b6
       -1.069841e-05 2.8693282e-06 1.49820535e-05 -4.870225e-06
000060 2b c9 8e 38 a2 90 48 38 81 83 e1 36 6e 52 86 38
       6.808558e-05 4.7818416e-05 6.7208316e-06 6.404972e-05
000070 70 43 8f b8 b1 83 76 38 3e 46 58 b8 5c df 3c b8
       -6.8313326e-05 5.8773618e-05 -5.156383e-05 -4.5030712e-05

input_net.block.1.weight f4 [32]
000000 d7 f0 67 3f a7 10 6b 3f 66 17 6d 3f 46 dc 60 3f
       0.9060187 0.91822284 0.9261383 0.8783611
000010 84 3d 78 3f b9 58 78 3f d9 b8 6e 3f b5 ef 70 3f
       0.96968865 0.9701038 0.93250805 0.94115764
000020 76 9a 64 3f b6 73 76 3f ce 3c 76 3f d7 8b 75 3f
       0.8929819 0.9627031 0.9618653 0.95916504
000030 cb e8 75 3f eb 35 74 3f 09 f4 5d 3f 4f 39 71 3f
       0.9605834 0.9539477 0.86700493 0.9422807
000040 53 c3 64 3f d3 07 70 3f 83 56 6f 3f 7c 21 6d 3f
       0.8936054 0.9376194 0.9349138 0.9262922
000050 36 4d 6f 3f 79 cd 70 3f d7 d3 62 3f 6b 6d 66 3f
       0.9347719 0.94063526 0.8860449 0.9001071
000060 cf de 71 3f 5a fb 68 3f bb a0 70 3f d3 c1 76 3f
       0.94480604 0.9100853 0.93995255 0.963895
000070 8a 69 6e 3f 62 ba 73 3f f9 c4 73 3f cd 5c 70 3f
       0.9312979 0.9520627 0.9522243 0.938916

input_net.block.1.bias f4 [32]
000000 34 a4 5d 3c 92 d7 a2 bb 7e 3a 0c 3d 6c eb 3f bc
       0.013527919 -0.0049695456 0.03423547 -0.011713844
000010 aa ca 6c 3c bd 51 4e bc d6 07 e5 bc 22 17 3f 3d
       0.014452616 -0.01259273 -0.027957838 0.04665292
000020 b4 4b 96 3c 8b 5c 77 3d 13 05 dd 3c cc 6f 8c 3b
       0.018346645 0.06039099 0.026979959 0.004285788
000030 9a 02 b9 3c a4 fc 03 3d 66 ad b7 39 3d 9b 52 3d
       0.022584248 0.03222336 0.00035033672 0.051417578
000040 ce 0f 91 bc fe d1 de 3c 5f 7b 03 3d 6f 33 99 3c
       -0.017707732 0.027199741 0.032100078 0.018701283
000050 7a ee 63 3c 38 04 46 3c 6d 86 95 bc 1c 03 b5 3a
       0.013911838 0.012085967 -0.018252576 0.0013810131
000060 58 65 04 3d 20 c3 b5 bc b0 61 fc 3b bc ef 2c 3d
       0.03232321 -0.02218777 0.007702075 0.042220816
000070 05 44 5f 3d 07 ee bc 3c d4 23 eb 3c 15 d7 9e 3b
       0.054508228 0.023062719 0.028703608 0.004847417

input_net.block.1.running_mean f4 [32]
000000 50 c1 e4 bb 97 05 f6 bb 71 8c 1a bb d8 74 8a bb
       -0.0069810525 -0.0075079906 -0.0023582245 -0.0042253546
000010 f1 03 0e 3c c7 62 07 3b eb e2 57 bc ca 7e 7f 3b
       0.008667932 0.002065824 -0.01317666 0.0038985484
000020 7e 2b 8c bb 98 53 d8 3a 4a 3b 3c 3a 26 b9 d6 3b
       -0.0042776456 0.0016504405 0.00071804656 0.006552833
000030 0b 3c 21 3c d3 6f b5 3b fd 3b b3 bb 33 63 be 3a
       0.0098409755 0.005537012 -0.0054697976 0.0014525413
000040 04 7a dc bb 18 1d a1 bb 2a 4c 58 3c 11 9c 38 3c
       -0.0067284126 -0.0049167983 0.013201753 0.011267678
000050 fd c0 36 3c 4b 41 bb 3b 39 cf 22 bc 97 45 0d bc
       0.01115441 0.0057145706 -0.009937101 -0.008622549
000060 90 fd a5 bb ab d5 91 bb db 13 4d 3c 02 67 52 3a
       -0.0050656274 -0.00445052 0.012516941 0.00080262136
000070 36 84 f9 b9 1e 73 92 3b 23 3f 46 ba df f3 d6 bb
       -0.00047591486 0.0044692894 -0.00075625087 -0.0065598334

input_net.block.1.running_var f4 [32]
000000 4e 37 25 3e d7 5f ba 3e f0 90 42 3d 15 73 6e 3d
       0.16134378 0.36401245 0.047501504 0.05821522
000010 30 b1 a0 3e e6 6f 18 3e 88 5f 21 3f 12 ab 49 3e
       0.31385183 0.14886436 0.63036394 0.19694164
000020 60 23 9b 3d 2d a4 70 3d f1 98 92 3c 0f ae 75 3e
       0.075751066 0.05875032 0.017895194 0.2399218
000030 a0 54 fb 3e c6 f3 91 3d e9 b4 08 3e b8 10 61 3d
       0.49088 0.07126574 0.13350262 0.054947585
000040 2c 50 79 3e 18 a0 93 3d d2 0c 85 3f fa d9 f2 3e
       0.2434699 0.0720827 1.0394537 0.47431928
000050 8a b0 3b 3f 41 95 c2 3d 59 48 b2 3e aa 29 11 3f
       0.7331625 0.09501124 0.34820822 0.567042
000060 c0 2f af 3d d7 54 7e 3d 45 2a ea 3e f0 02 15 3c
       0.085540295 0.06209263 0.45735374 0.009094939
000070 31 45 2b 3c 04 e9 a6 3d 7a bd d1 3c ed 61 73 3e
       0.010453508 0.08149913 0.025603045 0.23767824

inception_blocks.0.conv_1x1.block.0.weight f4 [8, 32, 1, 1]
000000 83 a7 1a 3e 0d 26 29 3e 59 a7 60 bb 04 45 70 3c
       0.15102963 0.16518421 -0.0034279434 0.014664892
000010 a4 91 52 bd d2 f3 c8 bd bd ed ef 3d b1 a9 ee ba
       -0.051408425 -0.0981213 0.11715267 -0.0018208531
000020 26 c4 29 be 49 9d 32 be ef 72 8d 3d 84 dc c5 3d
       -0.16578731 -0.17442812 0.069066875 0.09661201
000030 93 28 ea bd f1 71 99 3d 14 bf cf bd a7 03 3a 3c
       -0.1143352 0.07492436 -0.10143867 0.01135341
000040 9a a0 c7 bd b6 69 c9 3d 8f 6e 12 be 3c 1c d6 3d
       -0.09747429 0.09834616 -0.14299987 0.10454604
000050 90 f7 09 bd 55 43 29 bd c8 14 66 3c 72 1b 21 be
       -0.03368336 -0.04132398 0.014043041 -0.15733126
000060 80 07 a3 bd 2b 3c 2b be 2f 4b 0c be a8 54 22 3e
       -0.07960415 -0.16722171 -0.13700555 0.15852606
000070 c0 87 2b be 26 6e bd 3d ca 7f bb 3b 74 47 da 3d
       -0.16751003 0.09249525 0.0057220208 0.1065816
000080 ea af ab bd a6 21 96 3d 8d a4 0a be da 0c 99 3d
       -0.08383162 0.07330637 -0.13539334 0.07473154
000090 38 23 da 3d 7e 7b 10 be 24 ce 53 3d 59 d1 d5 3d
       0.10651249 -0.14109609 0.051710263 0.104403205
0000a0 f8 1e 1f 3d a3 0f 10 3d c3 83 40 3e 16 87 2c be
       0.038847893 0.035171162 0.18800263 -0.16848406
0000b0 a1 74 3a be 72 d7 85 bd 5b 75 80 bd 80 45 a3 bc
       -0.18208553 -0.065352336 -0.06272384 -0.019930601
0000c0 14 00 c1 3d 24 31 90 bc 12 16 ba 3d 96 5c fe bc
       0.09423843 -0.017601557 0.09086241 -0.031050008
0000d0 5e 37 b7 3d f2 90 2c 3e d2 05 29 3d ac 19 7a bd
       0.08946107 0.16852167 0.041265316 -0.06105964
0000e0 63 58 b1 bd 89 1e 18 3d 06 53 9f 3c a4 2e 83 bb
       -0.086594366 0.037138496 0.019448768 -0.0040033627
0000f0 37 22 20 3c 52 b7 cf 3d 7a 1f 37 bb 4f d5 10 be
       0.009773782 0.101423874 -0.0027942345 -0.14143871
000100 52 a8 40 3d 69 fb 84 bd 36 f1 2f bd 66 05 f3 bd
       0.047035523 -0.06493265 -0.042954646 -0.11866264
000110 d4 67 b5 3d 0b 2e dd bd d3 cd 07 be 89 aa 14 3e
       0.08857694 -0.107997976 -0.1326211 0.14518179
000120 86 bb d7 bd 2f 88 48 3d 51 1d 90 3d 21 ad d5 3d
       -0.10533814 0.048958 0.07036842 0.10433412
000130 ed b9 92 bd 31 ed d2 bc 29 12 5f bc 37 78 0c 3d
       -0.07164369 -0.025747867 -0.01361517 0.034294333
000140 04 6b eb 3c ad c4 10 3e ec c7 ea 3d c3 31 c7 3d
       0.028737552 0.14137526 0.11463913 0.09726288
000150 2b 5f e3 3d 63 c9 03 be 5a a4 86 3d b4 e8 a9 3c
       0.11102136 -0.12869792 0.06574316 0.020740844
000160 bf 01 4b bd dc 6c 8f bd 9c 89 bb bc 6d bc 30 3c
       -0.049562212 -0.07003185 -0.022892766 0.010787112
000170 c9 f8 cb bd 17 a6 06 be 18 a0 48 be a6 81 5f bd
       -0.099595614 -0.13149296 -0.19592321 -0.054567
000180 d0 0b d2 bd 21 03 57 3d 1d ff ae 3c b1 c7 17 3e
       -0.10256159 0.05249322 0.021361882 0.1482227
000190 24 d2 09 be f4 85 ec bd 47 54 07 bc fb eb e8 bd
       -0.13459069 -0.11548987 -0.008259839 -0.11373135
0001a0 b2 f1 16 3e 72 27 11 be 85 74 c7 bd 8c bf 2b bd
       0.14740637 -0.14175203 -0.09739021 -0.04193072
0001b0 5e be e0 bd b2 c3 ea 3c f6 91 80 3c fc 52 14 3d
       -0.1097381 0.028657768 0.0156946 0.036211953
0001c0 fe 16 f8 bd 0d f9 6c 3c 33 be 93 bd 41 25 e1 bd
       -0.121137604 0.014463675 -0.07214012 -0.10993434
0001d0 88 2d 76 bd ac 65 08 be fd 28 55 bd b1 74 d5 bd
       -0.060102016 -0.13320035 -0.052041043 -0.10422648
0001e0 62 1a f7 3d 71 a8 c4 3c 98 cb bd 3d 4c a9 d7 bd
       0.12065579 0.0240061 0.09267348 -0.10530338
0001f0 74 41 b8 bc 0b a5 17 3d 8c 3e be bc e1 74 ce bd
       -0.022492148 0.03702263 -0.023223184 -0.10080887
000200 97 21 3f 3d 4c 31 2a be 4b 5c 5b 3d a2 4a f2 bc
       0.046662893 -0.16620368 0.053554814 -0.029576603
000210 2a 58 de bd d4 01 18 bd c0 62 eb bd a9 93 13 3e
       -0.1085666 -0.03711112 -0.114934444 0.14411797
000220 45 37 ac 3c d9 50 ec 3c 67 ce 91 bd d5 d8 e4 3d
       0.021022448 0.028847145 -0.07119446 0.1117417
000230 92 80 07 3d 17 bd 36 be 2f 98 0f 3e ce 81 e2 bc
       0.0330816 -0.1784557 0.14022897 -0.027649786
000240 e4 37 19 3e a9 e4 11 3a 69 17 ac 3c aa e6 51 bc
       0.14962727 0.0005565384 0.021007257 -0.012811342
000250 c8 0e 03 3e b5 ac 1b be 78 71 24 3d ae b1 db bc
       0.12798607 -0.15202601 0.040147275 -0.026818123
000260 39 89 ee 3d 4a 94 35 3d 1c 14 22 be f4 0c 3b 3d
       0.11647267 0.044330873 -0.15827984 0.04566665
000270 98 6a 02 be 9e 09 a6 3d 69 48 96 3d 19 e9 4e be
       -0.12735975 0.08107303 0.0733803 -0.20206107
000280 ae 11 cf bc 36 73 92 3b 96 c0 01 3e fd b7 cc bc
       -0.025276985 0.0044693006 0.12671122 -0.024990076
000290 a1 e5 49 3d 68 f8 13 3e 1e 8c 81 3d 42 6f f1 3d
       0.049291257 0.14450228 0.06325553 0.11788799
0002a0 55 e4 06 be 90 83 34 bc f2 2e e5 3b 99 81 dd 3d
       -0.1317304 -0.011017695 0.0069941217 0.108157344
0002b0 66 70 19 be a5 20 db 3d bd fa ab bd 26 dc 8b 3d
       -0.14984283 0.10699586 -0.08397434 0.06829099
0002c0 44 56 1b bd e4 bd 21 be 29 6d 29 3d 16 9a 57 3d
       -0.037924066 -0.15795094 0.04136387 0.052637182
0002d0 95 b8 f5 bd 99 19 a0 bc d8 e2 43 bc a3 4c da bd
       -0.11998097 -0.019543456 -0.011955939 -0.106591485
0002e0 41 81 a8 bd 32 02 dc bd 4c a3 3b 3b ca 31 e0 3d
       -0.08227778 -0.10742606 0.0028631268 0.109469965
0002f0 1d 82 f2 3d cc 4b 2c be 79 98 30 bd 75 9f 22 be
       0.118412234 -0.16825789 -0.04311416 -0.1588114
000300 54 cf eb 3d 75 d7 11 3e 2c 4b cb 3c cc 87 d8 bd
       0.11514154 0.14242347 0.024816118 -0.10572776
000310 36 73 24 3d d7 dd 0a be 1b 2b 1a 3e ce 3f 1c 3e
       0.040148936 -0.13561188 0.15055506 0.15258715
000320 f5 fd 4c 3c a4 13 35 bd 74 79 ab 3d 57 8f 65 bc
       0.01251172 -0.044208184 0.08372775 -0.014011226
000330 5d 95 8c bd 50 4a 62 bd 95 49 bd 3d a2 e4 41 bc
       -0.06864426 -0.05524665 0.0924255 -0.0118342955
000340 d8 f3 13 3e 6b 4d ad 3d 9c ba 07 bd 0d 81 9e 3c
       0.14448488 0.08462032 -0.03313695 0.019348646
000350 23 35 ba bc 72 9e 1f bd 19 3c e6 3d 0a 43 37 bd
       -0.022730416 -0.038969465 0.112419315 -0.044741668
000360 84 42 db 3d 3d 9c ac 3d 93 1a 3a 3e b3 59 a9 3d
       0.10706046 0.084282376 0.181742 0.08269062
000370 5c 9c 63 3b 86 52 00 be 89 27 8d 3d eb 9f 82 3d
       0.0034730649 -0.1253148 0.06892306 0.06378158
000380 83 52 c6 bc 74 3d 0e be 90 ee 8f bd 81 32 7d 3d
       -0.024209267 -0.1389063 -0.07027924 0.061815742
000390 f6 43 35 3c 6c 4e ae 3d ac 46 f6 3d 04 0b 50 3d
       0.011063566 0.085110515 0.12025198 0.050791755
0003a0 25 39 ed 3d ed 21 04 3d 66 97 b0 bb e1 85 06 3e
       0.11583165 0.032258917 -0.005389142 0.13137008
0003b0 4b 19 87 3d 5e db 94 bd a1 b9 38 3d 99 da 4e be
       0.06596621 -0.072684035 0.045098905 -0.20200576
0003c0 16 ef 63 3d 9e be 80 3d 3f 10 78 bd 8c e4 85 bc
       0.055647932 0.06286357 -0.06056237 -0.016344331
0003d0 31 46 82 bb 73 86 9e 3d 46 2d 2e bd 31 65 2b 3d
       -0.0039756526 0.07740488 -0.042523645 0.04184455
0003e0 46 ac 7f bc 2e 8d 9f 3d 33 70 32 bd f7 c7 69 bd
       -0.015605038 0.077906 -0.043564033 -0.057075467
0003f0 96 b3 14 3e bb e5 17 be b0 57 4d be c7 5f 84 3d
       0.14521632 -0.14833729 -0.20052981 0.064635806

inception_blocks.0.conv_1x1.block.0.bias f4 [8]
000000 d3 c9 29 38 b0 7f a2 b8 2a 17 ed 37 bb be 2b b7
       4.0480703e-05 -7.7485456e-05 2.8263388e-05 -1.0236802e-05
000010 9f c8 c6 b7 33 67 73 36 4c af 2b 38 ba b7 5c b8
       -2.369686e-05 3.6269892e-06 4.0932835e-05 -5.2623196e-05

inception_blocks.0.conv_1x1.block.1.weight f4 [8]
000000 01 42 6b 3f 66 22 76 3f e7 96 69 3f 45 44 5d 3f
       0.9189759 0.9614624 0.91245884 0.86432296
000010 b6 c5 70 3f 8f 3c 6d 3f c9 29 6e 3f 4e fb 6a 3f
       0.9405168 0.9267053 0.9303251 0.9178971

inception_blocks.0.conv_1x1.block.1.bias f4 [8]
000000 7c 2a 8b 3c 59 0f a2 3c 21 0f b7 3c 77 d3 41 3b
       0.016988032 0.019782709 0.022346081 0.0029575506
000010 cb 1b 0a 3d 47 9e e0 3b 5d 9e 36 bb 18 cb ce 3c
       0.03371791 0.0068548056 -0.0027865388 0.025243327

inception_blocks.0.conv_1x1.block.1.running_mean f4 [8]
000000 e6 ca 17 be 98 66 95 3c 54 65 d9 bd 27 ed a5 be
       -0.14823493 0.018237397 -0.1061503 -0.32407495
000010 8a 9c 07 bd 5b 41 b8 bd 6c 2d a4 3e 49 70 36 3d
       -0.03310827 -0.089968406 0.32065904 0.044540677

inception_blocks.0.conv_1x1.block.1.running_var f4 [8]
000000 96 82 83 3d 79 1b 44 3d 4f c8 ef 3d 24 69 fa 3e
       0.06421392 0.047877762 0.11708128 0.4890834
000010 e3 7e 33 3d 5f f7 e8 3d 51 6e 8e 3d 6c da 24 3d
       0.04382218 0.11375307 0.06954635 0.040247366

inception_blocks.0.conv_3x3.0.block.0.weight f4 [12, 32, 1, 1]
000000 67 60 7e 3d c5 ac 8c bd 8a b0 ef bd 85 0e cd 3c
       0.062103655 -0.06868891 -0.11703594 0.025031338
000010 30 47 07 3d b7 78 ff bd 31 a1 8b bd 32 d0 de bd
       0.033026874 -0.124741964 -0.06817854 -0.10879554
000020 4f 3d c8 3c 2f 8b 0a 3e d0 78 ed 3c ce e2 b0 bd
       0.024443297 0.13529657 0.028988272 -0.086370096
000030 ea a1 82 3d a9 b0 29 bd c3 64 83 bd a9 07 f8 3d
       0.06378539 -0.041428242 -0.06415703 0.12110836
000040 f5 4e af bd 93 e0 f6 bd dc 17 00 3e d6 91 ed bc
       -0.08559982 -0.12054553 0.12509102 -0.029000204
000050 a3 a6 dd bd e1 26 15 3e be 86 01 be 04 db 89 bd
       -0.10822799 0.14565612 -0.12649056 -0.06731227
000060 60 89 0e bc d8 31 55 bd fd 04 99 bc 3c 6b 00 be
       -0.008699745 -0.052049488 -0.018679136 -0.12540907
000070 64 8a 0c 3e c2 35 c5 3d 16 4f 08 3d 80 12 11 bc
       0.13724667 0.09629394 0.033278547 -0.008854508
000080 8e 67 36 3d 10 bc 0b be bd 08 03 be 98 94 cb bd
       0.04453235 -0.13645959 -0.12796302 -0.099404514
000090 d5 93 16 3e a1 c0 31 3e 4d e1 a2 bd fc 13 18 3e
       0.14704831 0.17358638 -0.07953129 0.14851373
0000a0 32 fe ed bd a1 cb 9b 3d a1 fe 8a bc 23 24 2d 3d
       -0.116207495 0.076071985 -0.01696712 0.04227079
0000b0 46 a4 9a bd e5 30 40 bc 59 9d 08 be 58 39 85 3d
       -0.07550864 -0.011730407 -0.13341273 0.06505078
0000c0 02 ac 47 3d 58 a7 27 bd 3a fd c9 39 df 1d 00 3e
       0.048748024 -0.040931076 0.00038526376 0.12511395
0000d0 9e 12 1c be 06 85 57 be 0b ad 80 bd ad e8 f0 3d
       -0.15241477 -0.21046838 -0.06283005 0.117631294
0000e0 56 ea 08 3d b0 8e 86 bd af 92 09 3e f6 f1 03 be
       0.033426605 -0.06570184 0.13434862 -0.1288527
0000f0 0a 2f 8d bd 47 77 48 3d f8 7a df bd da 92 87 3c
       -0.068937376 0.048941877 -0.10912126 0.016549516
000100 01 23 d4 bb f8 bc 1b 3d 1c 97 29 be f8 76 a4 bc
       -0.0064738994 0.03802201 -0.1656155 -0.02007626
000110 6c c6 ec bd 93 63 b9 3b a7 e7 0e 3e 63 b7 9d bd
       -0.115612835 0.005657622 0.13955556 -0.07700994
000120 7b be 1b 3e db d0 c9 bd 0b 55 86 3c 07 29 97 bc
       0.15209381 -0.09854289 0.016397974 -0.01845218
000130 ea b2 f8 3c 7b 1d f4 3c ca f3 93 3d 1a e9 53 bd
       0.03035875 0.029799214 0.072242334 -0.051735975
000140 b2 07 c9 3c 6b 3b 6c 3d 3b 7c c0 bd 4f a9 66 bd
       0.024539802 0.057673853 -0.09398695 -0.05631381
000150 89 e7 91 3d d4 8d 85 3a 94 49 b6 bd 6b 9d 5f 3c
       0.0712424 0.0010189363 -0.08900753 0.013648371
000160 e5 48 00 3e 17 02 bf 3c df cc 17 3e d0 07 0b 3e
       0.12527807 0.023316426 0.14824246 0.13577199
000170 e7 71 29 3e 2c df 18 3e b7 20 19 3e de c7 df 3d
       0.16547357 0.14928883 0.14953886 0.109267935
000180 86 5e 90 3d 28 40 12 3d 7f f7 a9 bd 21 38 0a 3e
       0.07049279 0.035705715 -0.08299159 0.13497974
000190 06 af 0b 3d f1 28 03 3e 07 0b 31 be de 3f 1a bd
       0.034102462 0.12808587 -0.17289363 -0.037658565
0001a0 60 77 c7 bd eb d1 a8 3d f5 80 86 bd 6c 31 a9 bd
       -0.09739566 0.08243164 -0.06567565 -0.082613796
0001b0 b8 a3 a9 3d 09 e7 37 bd 28 0e 95 bd 03 16 0e be
       0.0828318 -0.044898067 -0.07278091 -0.13875584
0001c0 9d c3 1d be 97 da 0f be c6 0e 5f bd 7f 12 34 3e
       -0.15406652 -0.14048229 -0.05445745 0.1758518
0001d0 0e 24 fc bc 4c ef 61 3d 26 00 a2 bd 68 30 43 bd
       -0.030778911 0.055159852 -0.079101846 -0.047653586
0001e0 23 8e d7 3c 4e 2d b8 bd c1 d3 e9 bd df 18 f7 bd
       0.026312893 -0.08993016 -0.11417342 -0.12065291
0001f0 c6 03 e4 bc a2 b4 10 3e cf 74 fc 3d 1b c4 d1 3d
       -0.02783383 0.14131406 0.12326967 0.10242482
000200 a2 e8 c7 bd 9c f2 f2 3d 8e 23 94 3b 49 28 a2 ba
       -0.09761168 0.1186268 0.00452084 -0.0012371625
000210 ef e6 1d be 78 1a c7 bd 9b 40 9a bd 4c 99 dd bd
       -0.15420125 -0.097218454 -0.07531854 -0.10820255
000220 67 57 08 3e 2c 9b 04 bd 70 dd fc 3d 2e 16 e7 3c
       0.13314591 -0.032374546 0.12346923 0.028208818
000230 3a 9a 14 be cf f0 d2 bc ff cc 76 3d 59 d4 11 bd
       -0.14511958 -0.025749592 0.060254093 -0.0356029
000240 2f 09 07 bd 98 47 98 3d 05 73 85 bd f0 cf 10 3e
       -0.032967743 0.074355304 -0.06516079 0.14141822
000250 37 de 3d 3d 1b 79 03 bd fa 82 07 be 7a fc 10 3e
       0.0463545 -0.032097917 -0.13233557 0.14158812
000260 54 57 56 bd 2b c1 14 3e 23 18 05 bd a3 a9 1c 3e
       -0.052329376 0.14526813 -0.03249372 0.15299086
000270 f6 58 8e bd f4 21 0c 3e 0d d0 5e bd 3c 6c 31 3e
       -0.06950562 0.13684827 -0.05439763 0.17326444
000280 6c d8 27 3e 18 fe 29 be 43 27 4a 3d e1 1b d3 3d
       0.16391152 -0.16600835 0.04935385 0.10308052
000290 65 e4 3b bd 4b df 90 3d 8b de d1 bd f3 a4 ab bd
       -0.04587211 0.0707384 -0.10247525 -0.08381071
0002a0 7e 93 44 bc ef 96 03 bd 69 4b e0 bd ca bc 58 bd
       -0.0119980555 -0.032126363 -0.10951883 -0.05291442
0002b0 76 a5 b6 3d 36 f5 1c bd c7 4b 3c bd 7c 20 99 bd
       0.08918278 -0.03831979 -0.045970704 -0.07476899
0002c0 9f 91 05 3e 07 39 1d bc 3a 5d 06 be 65 47 05 be
       0.13043831 -0.009596116 -0.131215 -0.13015516
0002d0 0a e8 3a 3d d9 2b ad 3d 5b c3 12 be c1 76 83 3d
       0.045631446 0.08455629 -0.14332335 0.06419135
0002e0 c8 4e ba 3b 32 82 8a bd d4 75 70 3d 2f 9d 0d bd
       0.005685661 -0.06763114 0.05870612 -0.03457373
0002f0 25 61 10 be 2f 07 93 3d 6f d9 f6 bc a6 62 c6 3d
       -0.14099558 0.071791045 -0.030132977 0.096867844
000300 a9 44 15 bc 1b 63 26 3e fd 1b 1e 3e 03 ce 29 3c
       -0.009110608 0.16248743 0.15440364 0.010364058
000310 98 e1 5b bd fe ee 1c 3e ae da 89 3d 70 cc b3 bd
       -0.05368194 0.15325543 0.06731163 -0.08779228
000320 31 cf 02 be 5e ab 0e be 04 e7 75 3d d2 c4 6e bd
       -0.1277435 -0.13932559 0.060034767 -0.05829317
000330 60 d3 e6 3d 2c 34 0a 3e 8c 86 d1 3d e2 4e 33 3d
       0.11270785 0.13496464 0.10230741 0.0437764
000340 32 de 16 bd fe 3b 3f 3e 91 61 d5 bb d2 d8 c5 bd
       -0.036832996 0.18675229 -0.006511875 -0.09660496
000350 b9 c8 c5 3d da 04 f3 3d c7 25 85 3c 7a 6d da 3d
       0.096574254 0.1186616 0.016253365 0.10665412
000360 f7 3f 1e 3e 1c d9 3e bd 16 3b 10 3d 69 a7 9a 3d
       0.15454088 -0.04659377 0.0352126 0.07551462
000370 c2 69 13 3e 04 56 07 bd a7 6a a8 bd d1 a3 3b 3e
       0.14395812 -0.033041015 -0.08223467 0.1832421
000380 dd 33 f2 bd ca 6b 8f 3d c0 45 0d 3d e0 03 fc bd
       -0.118262984 0.07002981 0.034490347 -0.123054266
000390 4b fb 74 bc 2b 24 7d bc e5 c7 14 be 84 f9 95 3d
       -0.014952491 -0.015450518 -0.14529379 0.07322982
0003a0 56 96 73 3d d0 bc 02 be 94 42 9a 3d 20 4a e6 3d
       0.059469543 -0.12767339 0.0753223 0.11244607
0003b0 7c 19 84 bc 2a 4d 3e bd 2f f7 e0 3b 23 f4 8f bc
       -0.016125433 -0.046460308 0.006865404 -0.017572468
0003c0 21 4d d6 3d 5b c1 31 be b9 fc cf 3c 1a 59 e2 3c
       0.1046393 -0.17358916 0.025389062 0.027630378
0003d0 33 fb d0 3c 1a 96 e4 bd e9 be fa 3c ea 11 82 bd
       0.025510406 -0.11161442 0.030608611 -0.06351073
0003e0 2f 62 31 be a8 5f 94 3d de 86 0c be 2f f6 37 bd
       -0.1732261 0.072448075 -0.13723323 -0.044912513
0003f0 34 4c 1e bd 52 f8 0d be 4f 54 96 bd 6a 3f cb 3d
       -0.03864689 -0.13864258 -0.07340299 0.09924205

inception_blocks.0.conv_3x3.0.block.0.bias f4 [12]
000000 e5 f5 42 38 e7 75 41 b8 d6 4e f3 b7 9b 7b 1e b9
       4.648221e-05 -4.612459e-05 -2.9004568e-05 -0.00015114101
000010 d6 4e 2f b7 0e d1 b4 38 37 21 a7 37 d2 f8 c4 37
       -1.0449168e-05 8.622008e-05 1.9923418e-05 2.3480887e-05
000020 0c 48 d3 37 3e 02 ff b6 86 9a 8e b8 65 0d f8 37
       2.518671e-05 -7.5998532e-06 -6.79987e-05 2.9570141e-05

inception_blocks.0.conv_3x3.0.block.1.weight f4 [12]
000000 c8 a3 6f 3f 22 09 74 3f 3a bb 71 3f ec ad 68 3f
       0.93609285 0.95326436 0.9442631 0.90890384
000010 8e 51 66 3f bc 74 5c 3f d9 b7 6b 3f b0 e6 68 3f
       0.8996819 0.8611562 0.92077404 0.90977
000020 ad 94 7f 3f fa d5 6f 3f f5 a5 68 3f 9b d7 72 3f
       0.99836236 0.9368588 0.9087823 0.9486024

inception_blocks.0.conv_3x3.0.block.1.bias f4 [12]
000000 aa 5b 03 3d 5e d3 32 3c 81 fb a1 bb 04 e6 53 3c
       0.03206984 0.010914652 -0.0049433117 0.012933258
000010 49 5a b7 bc 00 aa 08 bd bf a4 d8 bc fc 07 0c 3d
       -0.022381919 -0.03336525 -0.026445745 0.034187302
000020 04 06 0a 3d a6 5a c1 3c bb 22 d5 3c 31 52 00 3d
       0.033697143 0.023602795 0.026017537 0.031328384

inception_blocks.0.conv_3x3.0.block.1.running_mean f4 [12]
000000 60 35 01 be 82 3d f0 bd b6 3c 8d 3e af 72 f0 bd
       -0.12618017 -0.11730482 0.2758538 -0.11740624
000010 ba f5 6c 3d c3 25 ee bd 7c 3f d2 3e 58 9f 68 be
       0.05785153 -0.11628296 0.4106406 -0.22717035
000020 ce 6f 83 3c 37 a3 6e 3e 6f 72 82 bd fa 45 8d 3d
       0.016044524 0.23304449 -0.06369483 0.068981126

inception_blocks.0.conv_3x3.0.block.1.running_var f4 [12]
000000 80 73 91 3d 3e c5 04 3e 32 bd 02 3d d1 ca 46 3d
       0.07102108 0.12965867 0.031918712 0.048533265
000010 08 ef 91 3d 2f aa 12 3d 7e ca b5 3d a2 04 fb 3d
       0.0712567 0.03580683 0.08876513 0.12256743
000020 23 7d 62 3d c2 47 67 3e 75 bc 54 3d 59 ed 49 3e
       0.05529512 0.22585967 0.05193754 0.19719447

inception_blocks.0.conv_3x3.1.block.0.weight f4 [16, 12, 3, 3]
000000 9f 90 07 bd 68 4f 0d 3d 50 ba af 3d a5 81 47 3d
       -0.033096906 0.034499556 0.08580458 0.048707623
000010 4f 8e a5 3d f4 0a 92 ba 63 ad 62 bd 3b f7 c5 bc
       0.08083784 -0.001114218 -0.055341136 -0.02416574
000020 01 07 b9 bc 11 91 a5 bc 5b b6 e0 bc 5f cb 3c bd
       -0.022586348 -0.020210775 -0.027430704 -0.046092387
000030 fb 63 a8 3c 97 e2 b0 3d 34 b8 ba bc 3f 71 64 3d
       0.020555487 0.086369686 -0.022792913 0.055772062
000040 00 1e 30 3d ff 19 60 bd 61 2b c2 bc 61 b4 21 3d
       0.04299736 -0.05471229 -0.023702325 0.039478663
000050 40 be 40 bd 4f d0 c7 bd bc 57 2e bd cb eb 90 bd
       -0.047056437 -0.097565286 -0.04256414 -0.07076224
000060 8b 5b b7 3d 8e 7c 02 bc c6 23 67 3d 0f 00 95 3d
       0.08953007 -0.007964266 0.0564306 0.07275402
000070 49 6d 1e 3c b0 db a9 3d 04 f9 5a 3b a4 10 e3 3b
       0.00966961 0.08293855 0.0033412585 0.006929474
000080 be f1 ae 3d fa 5d 26 3d 4f ac 57 3c 7f b5 3c bc
       0.085422024 0.040616967 0.01316364 -0.011517881
000090 29 98 93 bd a1 0f de bd 55 d2 89 bd ac 31 97 bd
       -0.072067566 -0.10842825 -0.06729571 -0.07382521
0000a0 c4 6c c2 bd 95 40 93 3b ff 1d 32 3d ba 81 41 bd
       -0.09493402 0.0044937828 0.043485638 -0.047242858
0000b0 6f b8 2a bd fe e2 f5 3c ed f6 87 3d f6 0c 40 bd
       -0.041679796 0.030015465 0.06638894 -0.04688736
0000c0 c9 8d cd bd b1 a8 7b bd 0d 39 0b 3d 38 2d 9e bd
       -0.10036809 -0.061440174 0.033989955 -0.077234685
0000d0 cb ec a6 3c 13 cd e4 3c 92 84 f7 bc 18 eb 63 3c
       0.020376584 0.027929818 -0.030214582 0.013911031
0000e0 45 8c d9 3c ca ee cc 3c 00 49 4e bd 89 aa 63 3c
       0.026556144 0.025016207 -0.050362587 0.013895639
0000f0 04 e7 8e 3d 91 5f ac bc 0b 2b f0 b9 0d 2b 56 bb
       0.069776565 -0.021041663 -0.00045808437 -0.003267947
000100 32 30 15 3d 8a 45 b6 bc 10 3a b0 bc 01 3d fe bc
       0.036422916 -0.022249956 -0.021512061 -0.031034948
000110 4e f4 35 bd 3d db 8d 3d a2 32 3f 3c ff 90 6d 3d
       -0.04442244 0.06926582 0.011669787 0.057999607
000120 c4 1d cc 3d 97 78 2f 3d 15 b7 aa 3c 2b d7 cd bd
       0.09966615 0.042839613 0.020839253 -0.10050806
000130 1a 1c 84 bd 06 d3 5c 3d 6c 99 a3 bd ca af f0 bd
       -0.064506724 0.053912185 -0.07988247 -0.11752279
000140 e0 fd cb bd c5 b5 81 bc 90 20 9a bd 32 ad 41 3d
       -0.09960532 -0.015833745 -0.07525742 0.047284313
000150 92 89 0b bb ab 47 92 3c 44 e5 9b bd 7b b5 1d bd
       -0.0021291715 0.01785644 -0.07612088 -0.03850315
000160 87 6a 8d ba 7d 6a 27 bd e5 16 b4 3c c4 86 ed bc
       -0.0010789194 -0.04087304 0.021983573 -0.028994925
000170 24 49 ac bd ab e0 11 3d 39 40 60 bc 5f ab c2 bc
       -0.08412388 0.03561465 -0.013687187 -0.023763357
000180 58 06 8e bd eb 58 bd bd c0 2c c9 bd 2c 47 47 3d
       -0.06934804 -0.092454754 -0.098229885 0.04865186
000190 61 7a 76 bd 11 a3 50 3d e2 47 ae 3d 22 3d 63 3d
       -0.060175303 0.050936762 0.08509804 0.055478223
0001a0 bd c8 d3 3c 67 88 f7 3c fa 41 97 bd 26 eb 97 bd
       0.025852555 0.030216409 -0.07385631 -0.07417898
0001b0 43 f6 9f 3d 7e fe af bd de 79 c9 bd a5 27 af 3d
       0.078106426 -0.085934624 -0.098376974 0.085524835
0001c0 4d 9c 49 3d 3f f8 e1 3b 8f 7b c9 3d 36 81 9e 3d
       0.049221326 0.0068960483 0.0983802 0.07739489
0001d0 d4 be 57 bd c6 e6 ec bc be 1d 1d 3d bd cc 32 3d
       -0.052672222 -0.028918635 0.038358442 0.043652285
0001e0 b6 f4 a2 bd a3 6e 40 bd 01 b9 82 bd 27 7b d6 bc
       -0.07956831 -0.04698051 -0.06382943 -0.02618177
0001f0 f3 55 ac bd e2 d1 9d bc 19 7d d5 3b d3 72 ca 3d
       -0.08414831 -0.019265119 0.006515157 0.09885182
000200 f3 c9 d4 bd 88 7d e3 3c f8 9e 6b bd f8 5a 80 3c
       -0.10390081 0.027769819 -0.05752465 0.015668377
000210 b4 91 db 3d 01 9b 91 3d 4a ef 14 bc dc 9f 2f 3d
       0.1072115 0.07109643 -0.009090254 0.042877063
000220 1b 6f 80 bd c0 da 9d 3d 82 6f e3 3c 77 4a 9b bd
       -0.06271192 0.07707739 0.027763132 -0.075825624
000230 3d e4 34 bd 61 f1 8d bd af 44 68 3d 4d 10 e4 3b
       -0.044162977 -0.06930805 0.056706127 0.006959951
000240 73 0b b3 bd fb c6 cd bc 62 a9 3a bd 1a 1c 9b 3d
       -0.08742418 -0.025119295 -0.045571692 0.07573719
000250 17 32 a4 3d 45 22 1d 3d fa 2e 01 3d 0e ab a2 3c
       0.080173664 0.03836276 0.03153894 0.019856956
000260 e2 91 7f 3d e3 02 10 3d 28 7b ce bd 27 2c 3b 3c
       0.062394984 0.035159003 -0.10082084 0.011424101
000270 8b 8b bc 3c b2 d0 b7 bd 28 94 ad 3b 66 a9 17 3d
       0.023015758 -0.08975352 0.0052972026 0.037026785
000280 57 27 a0 3d 99 c2 a1 3d 2e 45 69 bd c4 da ce bd
       0.078200035 0.07898445 -0.05695074 -0.1010032
000290 a2 3e a6 bd e9 25 0e bd b9 ef 57 bd 9e f7 87 3d
       -0.08117415 -0.034704123 -0.05271885 0.06639026
0002a0 2d 68 8d 3c d4 db ce 3c ac b6 36 bc cc 8e 79 bd
       0.017261589 0.025251307 -0.011151951 -0.060927197
0002b0 fc 3f a9 bc 68 53 9b bc 15 b9 18 bd 9a c2 89 3d
       -0.020660393 -0.01896067 -0.037285883 0.067265704
0002c0 e7 17 eb bc a1 ba e1 b9 cc ed 28 bd 22 7d 59 bd
       -0.028697921 -0.00043054394 -0.041242406 -0.05309785
0002d0 9a 2d 04 3d 94 e4 9c bc aa 6c 8c bd 33 74 be bd
       0.03227005 -0.019151963 -0.068566635 -0.09299507
0002e0 bc 3d 19 3c 77 22 33 3d 95 6c 80 3d c5 43 24 bd
       0.0093530975 0.04373404 0.062707104 -0.040103693
0002f0 f6 21 a8 bd 03 4f 90 3d 42 07 43 bd 8d 96 12 bd
       -0.082096025 0.0704632 -0.047614343 -0.035788108
000300 b1 19 97 3d 26 cf 6d 3d 67 03 20 bc 96 30 ba 3d
       0.07377947 0.05805888 -0.009766436 0.09091298
000310 f2 3b db 3c 1c 79 50 3d 92 58 84 bd e7 7b dd bc
       0.026761983 0.05089675 -0.06462206 -0.02703662
000320 66 59 a0 3c f8 5e 69 bd 20 75 3a bd ac 29 61 bd
       0.019573878 -0.056975335 -0.045521855 -0.054971382
000330 c7 72 c1 3c 61 41 8e b9 09 21 3e bd 7c 4b 44 bd
       0.0236143 -0.00027133062 -0.046418224 -0.04792355
000340 6b cc 10 3b 83 8f f2 3c d3 b2 03 bb c9 a9 b0 3c
       0.00220945 0.029609447 -0.0020095601 0.021565335
000350 f4 83 90 3b fa b7 a9 bd 04 9f 9e 3d 27 8b 5f bd
       0.0044102613 -0.08287044 0.077451736 -0.054576065
000360 9a 4c 22 bc 9f ec 1b bd ef f4 73 bd ca 6f 05 bd
       -0.009905959 -0.038067456 -0.05955976 -0.032577313
000370 88 d4 31 3b 6b 4a b8 3d 07 c0 0f ba 4f d1 87 3d
       0.0027134735 0.08998569 -0.00054836314 0.06631719
000380 7f 3b ce 3d 87 90 94 bd f9 89 01 bd ec f8 68 3d
       0.10069942 -0.07254129 -0.03162572 0.056878015
000390 66 d9 ac bd 5f 65 db 3b f8 66 8b bb 8a 87 8e 3a
       -0.08439903 0.006695434 -0.004254218 0.0010874134
0003a0 a6 d7 14 bd 63 b3 e1 3d 42 ed 9f bc 63 d7 cd 3c
       -0.03633847 0.110205434 -0.019522313 0.025127118
0003b0 59 61 61 3d 92 12 17 3c 51 4d 8c 3d 5c ac a3 3d
       0.05502448 0.009220736 0.068506844 0.07991859
0003c0 b4 b0 63 bc 4c 97 c1 bb 99 02 d3 bc 7f 3a 31 bd
       -0.01389711 -0.0059079286 -0.025758075 -0.043268677
0003d0 a9 7d f8 bc 42 7d a0 bc 89 bb d5 3d 9b 01 b3 3d
       -0.030333357 -0.019590978 0.1043616 0.087405406
0003e0 7d 63 80 ba 26 3a b3 bc 35 ef 00 3d 07 5e 47 bd
       -0.0009795275 -0.021878313 0.031478126 -0.048673656
0003f0 e1 24 7a 3c cc b4 ab bd 0d 02 db 3d 3d cf 34 3d
       0.015267582 -0.08384094 0.106937505 0.04414295

inception_blocks.0.conv_3x3.1.block.0.bias f4 [16]
000000 2a e0 45 38 c1 66 8e b7 37 f3 e3 37 09 72 20 38
       4.717723e-05 -1.6975568e-05 2.7173764e-05 3.8253176e-05
000010 90 30 24 b8 88 66 a5 37 c8 ab 4f 38 05 5b 07 b8
       -3.9145874e-05 1.9717278e-05 4.951263e-05 -3.2271277e-05
000020 12 45 26 38 62 5b c2 37 a6 92 1e 37 5b 36 44 b5
       3.964181e-05 2.3169156e-05 9.451678e-06 -7.309479e-07
000030 4b b1 73 37 88 44 a8 36 ab 5e c4 b7 5c 65 75 37
       1.4525208e-05 5.0147682e-06 -2.3409104e-05 1.46267375e-05

inception_blocks.0.conv_3x3.1.block.1.weight f4 [16]
000000 42 0a 79 3f da 99 6c 3f b2 5c 7a 3f ce 8e 71 3f
       0.9728128 0.9242226 0.9779769 0.9435853
000010 f1 74 73 3f 63 38 6f 3f aa d8 64 3f 80 c5 5f 3f
       0.95100313 0.93445414 0.89393103 0.87410736
000020 70 15 6a 3f 08 d0 65 3f 9d 1f 61 3f e1 0d 56 3f
       0.9143896 0.89770555 0.87938863 0.8361493
000030 59 2d 5d 3f 64 2e 6e 3f 92 6d 68 3f 5c 57 56 3f
       0.8639732 0.93039536 0.9079219 0.8372705

inception_blocks.0.conv_3x3.1.block.1.bias f4 [16]
000000 fd aa 02 3d a5 d7 47 39 bc 07 74 3c b1 cc 06 3d
       0.03190135 0.00019058453 0.014894422 0.032910053
000010 ae 26 d3 3c 8d d3 b7 bb 27 dc 89 3c 52 3d ea ba
       0.02577528 -0.0056099356 0.01682861 -0.0017871058
000020 55 d3 83 3b 0f e6 eb 3b 22 34 cc 3c 9e 64 0c 3d
       0.0040229955 0.007199056 0.024927203 0.034275644
000030 16 e1 62 bc ef 24 2d bb ed 73 b5 ba 25 6a 10 bd
       -0.01384761 -0.002641972 -0.0013843753 -0.035257477

inception_blocks.0.conv_3x3.1.block.1.running_mean f4 [16]
000000 f7 5d 6b be 84 56 02 be b4 5d 3f 3d f3 07 48 be
       -0.22985063 -0.12728316 0.04672022 -0.19534282
000010 84 86 46 be f2 be 1f bc 55 12 01 be 75 84 ab be
       -0.19387251 -0.009750115 -0.1260465 -0.33499494
000020 b5 97 a5 ba ba 5e e2 bd 1c 53 a2 bd 38 3b ba bd
       -0.0012633713 -0.11053224 -0.07926008 -0.09093326
000030 fb 3b 02 3e e3 b4 73 3d 84 2a 08 bd 7f d9 5d bd
       0.12718193 0.05949868 -0.03324367 -0.0541625

inception_blocks.0.conv_3x3.1.block.1.running_var f4 [16]
000000 e2 9c 5d 3e b5 fa 08 3e 79 0c e5 3d 6f 9b c3 3d
       0.21641877 0.13376887 0.111840196 0.09551131
000010 f7 64 1e 3e cf 00 a7 3d ea b5 03 3e d4 7c a5 3e
       0.15468203 0.08154451 0.12862363 0.323218
000020 5e 86 20 3e 83 18 b3 3d 7b 3d 8a 3e 33 84 8c 3d
       0.15676257 0.087449096 0.2700003 0.068611525
000030 c1 ae ed 3d a7 f6 29 3e da 9c aa 3d 1e 86 90 3e
       0.11605597 0.16597997 0.08330698 0.28227323

inception_blocks.0.conv_5x5.0.block.0.weight f4 [4, 32, 1, 1]
000000 1a 3e 7c bd 3a 53 c9 3d b6 06 39 be fd 81 a6 bd
       -0.061582662 0.09830327 -0.18068966 -0.08130262
000010 5c 59 4d bd 50 35 b4 bd 50 e9 54 bd c9 43 06 be
       -0.050134048 -0.08799231 -0.051980317 -0.13111795
000020 6c 6c 5f 3d a6 84 03 3e ba 73 01 3e 43 97 ce bd
       0.05454676 0.1284357 0.12641802 -0.10087445
000030 50 40 a8 bd cc 83 d1 3d b0 dd 32 bd 8e 79 b4 bd
       -0.08215392 0.102302164 -0.04366845 -0.08812247
000040 8d c8 f9 3d 77 fd a8 bc 33 dc e4 3d 03 1d 0f 3e
       0.12196455 -0.020628674 0.11174812 0.13975911
000050 12 bf a6 3d 4a 85 a3 3d 16 f7 c0 bd 34 ab be 3d
       0.081419125 0.07984407 -0.09422128 0.09309998
000060 c1 a3 ff bd 8e 1d 90 bd 8e b6 df 3c 58 7f 22 be
       -0.124824055 -0.07036887 0.027308729 -0.1586889
000070 05 2b 89 bd 96 93 b9 3c a8 03 95 bd 7f 39 e0 3d
       -0.066976584 0.022653382 -0.07276088 0.109484665
000080 78 43 e7 3d 5a 46 9c 3d b4 39 23 3e 00 57 8b 3d
       0.112921655 0.07630606 0.15939981 0.06803703
000090 eb 2c a0 bd 72 5d 0c 3e 0d 22 ec 3d 5b 40 08 3e
       -0.078210674 0.13707522 0.11529932 0.133058
0000a0 f2 ec 00 3e 64 2d d9 bc 43 c9 a8 bd f2 3c ee bd
       0.12590387 -0.026510902 -0.082415126 -0.11632718
0000b0 e5 2a 73 bc 98 28 79 bd df a9 28 3e 09 bc 1c bd
       -0.01484177 -0.06082973 0.1647105 -0.03826526
0000c0 d5 2c f2 3d d1 d8 24 3e 31 a5 7c 3d 9c ae c2 3d
       0.11824957 0.16098334 0.061680976 0.0950596
0000d0 da 9d 0f bd dc 06 d5 3d 19 a1 c4 3d cb 28 96 3d
       -0.03506265 0.10401699 0.096010394 0.073319994
0000e0 79 f1 b5 3c dd 96 ee 3d 07 c2 9c 3b c0 90 ca 3d
       0.02220987 0.11649869 0.004783872 0.0989089
0000f0 3a d4 36 3e 08 70 05 bd 83 41 b5 3d eb 62 24 3e
       0.17854396 -0.032577544 0.08850386 0.16053359
000100 b7 6b 26 3d 29 12 f6 3c c8 8b 57 bd 61 52 9e 3c
       0.04063007 0.030037956 -0.05262354 0.01932639
000110 21 cc 15 3e eb 6f 08 be 69 c6 03 be 27 64 f6 bd
       0.1462865 -0.13323943 -0.12868656 -0.12030821
000120 7b 55 12 be 5b f5 eb 3d 72 d4 0f bd 83 ea 17 be
       -0.1429042 0.11521407 -0.035114713 -0.14835553
000130 4f 31 f6 3d b4 a1 31 3d f8 70 b2 bd 32 c7 01 3e
       0.120211236 0.043367103 -0.08712953 0.12673643
000140 da c8 32 be fb f0 14 3e 7d 44 e9 bb ef 21 29 3e
       -0.17459431 0.14545052 -0.00711876 0.16516851
000150 17 a1 78 3d 93 23 2f 3e 31 ca d4 3d a8 d9 f6 bd
       0.060700502 0.17103414 0.103901275 -0.120532334
000160 95 f4 18 be 59 fd 8b 3c 74 93 34 bb f9 11 8e bd
       -0.1493705 0.017088579 -0.002755371 -0.06937022
000170 ee cd 25 3d 1a a0 6a 3d ae 90 8d bd 41 c6 d1 bd
       0.040479593 0.05728159 -0.06912361 -0.10242892
000180 15 fe 06 bd bf 8c ff 3d 94 1b 1a bc 56 d1 24 3c
       -0.032957155 0.12478017 -0.009405989 0.010059675
000190 29 da 2f 3e 87 07 f9 bd be 98 da bd 4e 82 06 be
       0.17173065 -0.12159639 -0.106736645 -0.13135645
0001a0 35 19 6f bd 2c 6d d9 bc 31 dd 2a be b4 19 22 3e
       -0.05837365 -0.026541315 -0.1668594 0.15830117
0001b0 a0 8f 48 bd 15 44 6d bc f1 19 dd 3d 48 3b 0a 3c
       -0.048965096 -0.014481564 0.107959636 0.008436985
0001c0 2d 27 5f bd db 85 66 bd 7e 51 f2 3c c1 3e d0 bd
       -0.05448072 -0.05628 0.029579874 -0.10168219
0001d0 01 e7 f7 3c 60 f8 46 3c 6e 48 18 be 1c f7 2c be
       0.030261518 0.012144178 -0.1487138 -0.1689114
0001e0 94 67 04 3d b3 9d cf bd 6d 2b 6a bb f5 fa 13 be
       0.032325342 -0.101375006 -0.003573145 -0.14451201
0001f0 12 74 fd bd 3a ac c1 3c 5d 93 5f bd 25 64 70 bd
       -0.12375654 0.023641694 -0.054583896 -0.058689255

inception_blocks.0.conv_5x5.0.block.0.bias f4 [4]
000000 b3 87 27 b8 f0 ae 27 b7 a4 7c 27 38 c4 9c 56 b7
       -3.9942282e-05 -9.9947065e-06 3.9931983e-05 -1.2791894e-05

inception_blocks.0.conv_5x5.0.block.1.weight f4 [4]
000000 ad a0 71 3f b9 9b 66 3f 01 9e 6d 3f f2 a5 6a 3f
       0.94385797 0.90081364 0.9281922 0.9165946

inception_blocks.0.conv_5x5.0.block.1.bias f4 [4]
000000 d0 3f 22 3d 50 58 ec 3b 48 95 f3 3c 7a 3f 9c 3c
       0.039611638 0.007212676 0.029734269 0.019073237

inception_blocks.0.conv_5x5.0.block.1.running_mean f4 [4]
000000 ee 67 bf bd 0d 96 1c 3f 7c f9 86 bd 4b 0a 99 be
       -0.09345995 0.6116646 -0.06590554 -0.29890665

inception_blocks.0.conv_5x5.0.block.1.running_var f4 [4]
000000 2e 1f aa 3d 18 5b 46 3e db 86 8f 3e 9b ae 2e 3d
       0.08306728 0.19370687 0.28032574 0.042646986

inception_blocks.0.conv_5x5.1.block.0.weight f4 [4, 4, 5, 5]
000000 19 c9 44 3d 96 75 e5 3c 2d 9c 53 3d 07 f5 05 3e
       0.048043344 0.02801017 0.051662613 0.13081752
000010 50 1a 2a bc 5e 96 7f 3d eb 4b 80 3d c7 93 52 3c
       -0.01038225 0.06239926 0.0626448 0.012852616
000020 f6 e1 9c bc ac 3b 6e 3b 93 19 78 3d 47 73 87 3b
       -0.019150715 0.0036351485 0.060571264 0.004133615
000030 ef 8c ab bd 8e 98 6e bd 76 a2 c7 bd c2 de ff bc
       -0.0837649 -0.058250956 -0.09747784 -0.031234149
000040 bb ce c2 3c ef 52 99 3d d5 9e ee 3b 0d 2a bf bd
       0.023780217 0.074865215 0.007282118 -0.093341924
000050 47 26 ce 3b d4 91 9d bc 7d 81 4d bd 32 09 72 bd
       0.006291184 -0.019234575 -0.050172318 -0.0590908
000060 f7 4d a5 3c c2 6a 9c 3c 0d e9 a8 bb 45 3c 57 bd
       0.020178778 0.019093875 -0.005154735 -0.052547712
000070 cb 0c 79 bd 5e 03 61 bd a3 22 41 3d 51 cc 24 bd
       -0.060803216 -0.05493485 0.047152173 -0.040233914
000080 6f ad 82 bd 82 11 62 3d ac 65 9c 3d 40 e8 29 bd
       -0.06380736 0.055192478 0.0763658 -0.041481256
000090 62 e7 21 bd fb 71 7f bd d0 fb 96 3d 41 4c ba 3c
       -0.039527304 -0.06236456 0.07372248 0.022741439
0000a0 43 20 10 bd a7 6c 48 bd 77 f6 78 3d 77 1d 80 bd
       -0.035187017 -0.048931744 0.060781922 -0.0625562
0000b0 6c 21 c0 bd 15 11 a2 bd a8 a5 06 bd 69 07 7e 3d
       -0.09381375 -0.079134144 -0.032872826 0.062018786
0000c0 01 62 47 3c 7b 9a 28 3c 9b c2 e0 3b ba db 2b 3c
       0.012169362 0.010290737 0.0068591363 0.010489399
0000d0 be 77 1d bb 74 f2 a7 3d 89 5c 47 3d 08 59 92 bc
       -0.002402767 0.08200541 0.048672233 -0.017864719
0000e0 57 a2 11 bd bb 04 1c bd 7b b1 79 bd 9f db 3a bd
       -0.03555521 -0.03809045 -0.060960274 -0.045619603
0000f0 93 34 b1 3d c1 c6 55 bd 64 0c 20 bd 9b 33 60 3c
       0.08652606 -0.0521915 -0.039074317 0.013684179
000100 0e 7f 3b 3d c3 d8 88 3d 6f 78 b8 3c 1c 50 a5 3d
       0.045775466 0.06681969 0.022518365 0.0807192
000110 a3 26 a3 3c ed a8 0b bd 2b 24 ac bd 9d d1 b1 3d
       0.019915884 -0.034096647 -0.08405336 0.08682559
000120 aa 74 98 bc 8f ec 64 3c 93 c0 7f 3d 80 eb 3c 3d
       -0.018610317 0.013972416 0.062439512 0.046123028
000130 9f 21 35 bd f9 64 92 3d 47 f5 9e 3d ed 15 a0 3c
       -0.044221517 0.07148165 0.07761627 0.019541705
000140 28 ae 0b bc d5 8c 89 3d b9 8a 6d 3d 97 01 29 bd
       -0.008525409 0.06716315 0.057993624 -0.04126128
000150 59 0d 30 3d 8c 61 88 bd 10 c2 a2 ba f6 d4 72 bd
       0.04298148 -0.066592306 -0.0012417454 -0.059285127
000160 8f 41 3f bd 45 c7 88 bd fc 7e 9b 3c 4a 0b 86 3d
       -0.04669338 -0.06678633 0.01898145 0.06545122
000170 fd 91 b6 3c f6 44 05 bd eb 84 90 bd 37 a0 bd 3c
       0.02228641 -0.03253647 -0.07056602 0.023147685
000180 ac 9e a9 3d a1 bd 8f 3d c2 9c e3 3c c3 5e 64 bc
       0.082822174 0.07018591 0.027784709 -0.013938609
000190 06 4d 7c bc f6 b7 44 3d db ee b7 bd 14 85 c9 bd
       -0.015399223 0.048027 -0.08981105 -0.09839836
0001a0 ab e1 9f bc 4d 01 78 bd 8e 86 18 bd c5 e2 1e 3d
       -0.019516787 -0.060548116 -0.037237696 0.038790483
0001b0 33 7e 50 bd 80 51 ac ba a5 76 45 bb e5 ba 37 3c
       -0.050901603 -0.0013146847 -0.0030130532 0.011213993
0001c0 8d c0 84 bd 87 bb bc 3d 73 71 0b 3d b6 0e 84 3d
       -0.06482039 0.092154555 0.03404374 0.064481184
0001d0 6b b8 36 3d ca be 84 3d d9 6c 34 3c ba bb 89 bd
       0.04460947 0.064817026 0.011012279 -0.06725259
0001e0 61 8a f0 3c f4 72 aa 3d e9 b6 ec 3c b1 3f 84 3c
       0.02936286 0.08322707 0.028895812 0.016143652
0001f0 6a e9 b5 bd a7 d7 c3 bd c8 b7 a4 bd 0c 1a b1 bd
       -0.08882411 -0.09562617 -0.08042866 -0.08647546
000200 40 bc 1c 3d d3 1e 31 3c 14 2e 08 bd cd 4d 8a bd
       0.038265467 0.010810572 -0.03324707 -0.067531206
000210 c4 31 9b 3d cb c5 6f 3d 2d d0 bd bd 33 0e 4e 3c
       0.075778514 0.05853824 -0.09268222 0.012576628
000220 b8 c7 56 3c ab 11 8f bd 08 16 b8 38 63 3d 61 bd
       0.01310914 -0.06985792 8.777907e-05 -0.054990184
000230 b2 23 8c bd 32 1a 75 bd 57 18 a9 bc c0 6e 32 3c
       -0.06842746 -0.059839435 -0.020641489 0.010890663
000240 92 d3 b6 3d 23 5a 30 bd e3 2f a4 3d 00 5a 8d 3d
       0.089270726 -0.04305471 0.08016946 0.06901932
000250 65 28 a7 bd 98 da 2e bd d4 8c 20 bd e2 5d ac 3d
       -0.081620015 -0.042688936 -0.039196804 0.08416344
000260 5f b0 ac bc ba 31 ab bd 5c b8 1e bd 8e 74 8f bd
       -0.021080194 -0.08359094 -0.038750038 -0.07004653
000270 4c c2 98 3c 58 1b 43 bd 00 32 aa 3d 4f 81 10 3d
       0.018647335 -0.0476335 0.08310318 0.03527957
000280 11 5d 8b 3d f0 87 14 bc 0b 84 c6 3d 77 80 9e 3c
       0.068048604 -0.009065613 0.09693154 0.019348366
000290 e2 37 b7 bc 77 10 81 3b 2f d7 56 3d af 37 83 bd
       -0.022365514 0.0039387303 0.05245131 -0.06407105
0002a0 ae 8e 4f 3c ce 28 b8 3d 91 63 48 3d e2 97 7b bd
       0.012668295 0.08992158 0.04892308 -0.061424144
0002b0 32 66 a3 3d de 8e c5 bc 19 9c e3 3c 56 94 b8 3c
       0.079784766 -0.024115976 0.027784394 0.02253167
0002c0 37 fd 87 3c f6 1c 69 3d e1 12 c6 3d ac e1 cb 3d
       0.016600234 0.056912385 0.096715696 0.09955153
0002d0 f7 8c 55 bd 73 6f ec 3c 3d 41 68 bc 32 f1 09 3d
       -0.052136388 0.028861737 -0.01417571 0.033677287
0002e0 64 38 ab bd bc 2f 91 3d c6 a6 35 3d 79 ab 8a bd
       -0.08360365 0.07089183 0.0443485 -0.06770987
0002f0 dd 18 da 3d fe 10 8d 3c ea ba 7b 3d ba c5 ae bc
       0.106492735 0.017220017 0.061457552 -0.021334518
000300 6c 99 66 3c ad 05 be 3d 0f 19 04 bd 24 f5 e7 bd
       0.014074665 0.09278426 -0.03225046 -0.11326054
000310 53 20 46 bd 15 dd 98 bd 55 aa 2d 3d 69 56 a1 bd
       -0.04837067 -0.07464043 0.04239877 -0.078778096
000320 4c c5 94 bd 7f b7 dc bd bb 45 17 3d a2 9c f1 bd
       -0.07264194 -0.107771866 0.036931735 -0.117974535
000330 f1 33 c2 bd 9d cf 06 bd 7f 89 ce bd 2a 5d 55 3d
       -0.09482563 -0.03291284 -0.10084819 0.0520908
000340 5c e8 81 bd 83 2a 23 bb 33 7f ad 3d db a5 5d bd
       -0.06343147 -0.0024897165 0.08471527 -0.05411325
000350 60 ca 9e bd 3d 0d bd 3d 91 f8 5b bd 9a c5 97 bc
       -0.07753444 0.092310406 -0.05370385 -0.018526841
000360 17 f4 83 3d 60 30 fc bc da 7f 42 bc b1 16 d6 bc
       0.06443041 -0.030784786 -0.0118713025 -0.026133867
000370 22 31 88 bd e0 e1 83 bd f3 72 13 3d 2d 91 a8 bc
       -0.06649996 -0.064395666 0.035998296 -0.020577038
000380 f2 91 68 3d 99 88 35 3d 05 99 a8 bd 9f c2 30 3b
       0.05677981 0.044319723 -0.08232311 0.0026971472
000390 07 20 7f bd 91 a4 a5 bd f0 fc 94 bd 77 dc 46 bd
       -0.062286403 -0.08088029 -0.072748065 -0.048550095
0003a0 bc 8a 9b bd 27 b8 a3 3c 70 bb 21 bd f5 39 81 bd
       -0.07594821 0.019985272 -0.039485395 -0.063098826
0003b0 13 84 91 3d 56 dd 2a bd 7b f5 cb 3d d3 39 d4 bc
       0.07105269 -0.04171499 0.09958931 -0.025906479
0003c0 f7 d9 0e 3d b7 17 88 3d ea ed b7 bb 12 a9 8f bc
       0.034875836 0.06645148 -0.0056130784 -0.017536674
0003d0 e1 c6 e5 3a 6a 40 8e 3c 2c 4b 2c bd ad d6 36 3c
       0.0017530584 0.0173647 -0.042063877 0.011159581
0003e0 1b 58 97 3c 2c 5c 8d bd 12 90 c7 3c cd c5 7e bd
       0.01847463 -0.06902346 0.02436069 -0.062200356
0003f0 d3 0d cc bc 71 06 56 bd cf 3c dc bb 61 6b bb 3c
       -0.024908936 -0.052252237 -0.006721116 0.02287835

inception_blocks.0.conv_5x5.1.block.0.bias f4 [4]
000000 4f 6c f7 37 8c 6e df 36 23 34 02 38 40 de 16 38
       2.949513e-05 6.6587872e-06 3.104297e-05 3.5969773e-05

inception_blocks.0.conv_5x5.1.block.1.weight f4 [4]
000000 05 2d 72 3f 55 22 71 3f 0a e7 6d 3f e3 b3 6a 3f
       0.94599944 0.9419301 0.9293066 0.91680735

inception_blocks.0.conv_5x5.1.block.1.bias f4 [4]
000000 22 9b 17 3d 20 b1 26 3c 7a fb bc 3c 86 2f 97 3c
       0.03701318 0.010174066 0.023069132 0.018455278

inception_blocks.0.conv_5x5.1.block.1.running_mean f4 [4]
000000 53 c9 24 3d 82 42 2e bc 7e 39 44 be 89 d5 21 3e
       0.04023106 -0.010635974 -0.19162557 0.15804113

inception_blocks.0.conv_5x5.1.block.1.running_var f4 [4]
000000 26 6e e7 3d fd de ca 3d 84 1c be 3d 31 91 74 3e
       0.11300306 0.09905813 0.09282783 0.23883511
