models/inception/Inception1_RMSprop_32_lr1e-05_m0.99_wd0.0001/Inception1_RMSprop_32_lr1e-05_m0.99_wd0.0001.pth (torch, 823647 bytes, 262 tensors)

input_net.block.0.weight f4 [32, 1, 3, 3]
-0.005490403 -0.4778294 -0.3203454 -0.31222558 0.016976418 0.4345461 -0.24269056 0.27552113
0.33291656 0.3185504 0.022378035 0.341482 -0.14740798 -0.2579027 0.2289377 -0.19588913
-0.45456043 -0.33098173 -0.28238267 -0.12195279 0.02631055 0.06873048 0.42418036 -0.16006085
0.19346505 0.0061405636 -0.18993992 4.4913188e-05 3.8203165e-05 0.00059476896 -0.0021101139 2.4287468e-05
-5.7967236e-06 -0.0065506673 -0.0003313666 0.0010971894 0.122170396 -0.2876661 0.3264436 -0.17383067
-0.04185699 0.18303725 -0.2418115 0.4111725 0.17724153 0.22790733 0.3563385 0.2869309
-0.37707597 0.055150907 0.21286899 -0.24234645 -0.5283598 -0.035504106 0.18853644 0.03965592
-0.30948722 0.019125082 0.23349477 -0.2929216 0.34762698 -0.15934452 -0.34246114 -0.28016102
-0.46830094 -0.03299755 0.17844848 0.18016005 -0.27156493 0.23563346 0.40294847 -0.09900505
-0.22569686 0.085553296 -0.1546435 0.042652544 -0.2778408 0.009979123 0.0047785393 -0.0961331
0.28762817 0.28558925 0.32312113 0.010337904 0.2286277 0.08071406 -0.08343199 -0.046464838
0.019066975 -0.067626186 0.004100777 0.008956925 -0.027748711 -0.004384747 -0.016025774 -0.037100855
-0.008384009 -0.020567158 -0.017798387 0.23893008 -0.1402031 -0.47385362 0.000603535 0.46308768
0.11078268 -0.2548869 -0.23003975 0.4287657 -0.023524117 0.01763792 0.21020913 0.078915745
0.04076117 0.2386506 0.21288909 0.076511495 -0.013054096 -0.083966255 0.17913471 -0.19188792
0.22320645 -0.1481039 -0.33273932 -0.1879006 0.42813557 0.21418032 -0.025992993 -0.025241543
-0.022100871 -0.01515613 -0.011745464 -0.0046321005 -0.008492422 -0.0106247375 0.003940436 -0.40106824
-0.15079527 0.2600415 -0.29467553 0.0014644314 0.2874901 0.5699227 0.012471784 -0.14411227
-0.0010428163 -0.00046050813 -0.0009219406 0.00048616118 0.0009259036 -0.00020403424 -0.00027587943 -0.00044040196
-0.0011872648 0.004361292 -0.006928819 0.03252603 0.0018904975 0.010178142 0.024060225 0.054779727
0.052212395 0.05999181 -0.17302985 -0.35378417 -0.29294717 0.31846854 0.42659742 0.22824183
-0.11302338 0.003747675 0.009888716 -0.10078881 -0.3452048 -0.4350077 0.1167401 -0.026678791
-0.25170475 0.44141755 -0.09548019 0.28768668 0.30481127 -0.32000363 -0.19273305 0.24262154
-0.04577755 -0.544591 0.10347069 0.339692 -0.3113406 0.15389462 0.07099595 0.033823483
0.11898232 0.33400506 0.039345052 -0.06450149 0.18968067 -0.33786288 -0.16324522 0.16131067
0.10481696 0.12138136 -0.35281837 0.013779096 0.1729725 0.18767618 0.05380252 -0.14841214
0.3376846 0.40703395 -0.48513758 -0.45517585 0.27492702 -0.07397186 -0.045621905 0.264808
0.14280082 0.5082458 0.08481675 -0.021992873 -0.1910418 -0.4723047 0.26380977 -0.24646816
0.12404868 0.35177413 0.057359282 0.36870998 0.123830356 -0.27151066 -0.2990141 -0.34159487
-0.24813879 -0.017282488 -0.02116372 -0.012443507 -0.012512712 -0.022868734 -0.009303625 -0.008293523
-0.016839195 -0.009835952 -0.010788515 0.11996044 0.099054314 -0.028932009 -0.12265773 0.32703373
0.28789008 -0.5406107 -0.103893384 -0.08952844 0.3509113 0.119463004 0.04087195 -0.12615553
00000000: d7e8 b3bb 0ea6 f4be 5004 a4be 08dc 9fbe
00000010: 2112 8b3c d47c de3e e083 78be 1b11 8d3e
00000020: 0a74 aa3e 0a19 a33e 2452 b73c bbd6 ae3e
00000030: 1ef2 16be d30b 84be a56e 6a3e 2997 48be
00000040: 25bc e8be 7076 a9be 7694 90be 62c2 f9bd
00000050: 3989 d73c 91c2 8c3d 2b2e d93e fee6 23be
00000060: b41b 463e c836 c93b 9c7f 42be 2b61 3c38
00000070: 563c 2038 45ea 1b3a d649 0abb f1bc cb37
00000080: 7a81 c2b6 fba6 d6bb 46bb adb9 91cf 8f3a
00000090: 7934 fa3d f948 93be 9e23 a73e ab00 32be
000000a0: 3c72 2bbd 1e6e 3b3e 6f9d 77be 3485 d23e
000000b0: ce7e 353e 8a60 693e 0072 b63e 9be8 923e
000000c0: 1a10 c1be ebe5 613d 54fa 593e ab29 78be
000000d0: 9642 07bf c16c 11bd b20f 413e 3f6e 223d
000000e0: 1c75 9ebe 34ac 9c3c 4119 6f3e d2f9 95be
000000f0: 2afc b13e 362b 23be 1157 afbe 4471 8fbe
00000100: 24c5 efbe 7028 07bd 33bb 363e e07b 383e
00000110: 8f0a 8bbe e649 713e 434f ce3e 29c3 cabd
00000120: 141d 67be 9136 af3d de5a 1ebe 6fb4 2e3d
00000130: 2641 8ebe 7a7f 233c 4b95 9c3b 6ee1 c4bd
00000140: 0044 933e c138 923e 2270 a53e 5060 293c
00000150: 611d 6a3e 6a4d a53d 64de aabd ea51 3ebd
00000160: 5832 9c3c 997f 8abd d05f 863b 11c0 123c
00000170: 4451 e3bc ecad 8fbb 7c48 83bc 11f7 17bd
00000180: 155d 09bc 757c a8bc eccd 91bc 16aa 743e
00000190: 6791 0fbe f19c f2be 8c36 1e3a d419 ed3e
000001a0: 08e2 e23d 8980 82be 8a8f 6bbe 2e87 db3e
000001b0: a6b5 c0bc 667d 903c 1041 573e 949e a13d
000001c0: 2ff5 263d d360 743e 99ff 593e 0fb2 9c3d
000001d0: d9e0 55bc 80f6 abbd 176f 373e 447e 44be
000001e0: 3b90 643e 8ca8 17be cf5c aabe 0469 40be
000001f0: 9634 db3e 1652 5b3e 42ef d4bc 5ac7 cebc
00000200: e30c b5bc 6b51 78bc 0c70 40bc e0c8 97bb
00000210: cd23 0bbc 6113 2ebc c61e 813b d158 cdbe
00000220: 136a 1abe 2924 853e b6df 96be 2af2 bf3a
00000230: e731 933e 74e6 113f 7456 4c3c 2b92 13be
00000240: 1caf 88ba 5b70 f1b9 63ae 71ba 73e3 fe39
00000250: 57b8 723a 06f2 55b9 e9a3 90b9 c0e5 e6b9
00000260: ff9d 9bba 2be9 8e3b 260b e3bb 043a 053d
00000270: 92ca f73a 39c2 263c f319 c53c b560 603d
00000280: aadc 553d f9b9 753d bd2e 31be 3323 b5be
00000290: 2cfd 95be 4f0e a33e fa6a da3e 3ab8 693e
000002a0: cd78 e7bd 8e9b 753b 4804 223c 5d6a cebd
000002b0: afbe b0be 54b9 debe 6f15 ef3d 7b8d dabc
000002c0: 72df 80be 7b01 e23e 1e8b c3bd ab4b 933e
000002d0: 3910 9c3e 84d7 a3be d05b 45be c871 783e
000002e0: 3e81 3bbd 516a 0bbf 71e8 d33d 1cec ad3e
000002f0: 0968 9fbe 8d96 1d3e 5366 913d 7e8a 0a3d
00000300: 01ad f33d b602 ab3e 4728 213d 5b19 84bd
00000310: a63b 423e 5dfc acbe c129 27be a02e 253e
00000320: 46aa d63d ca96 f83d 9ca4 b4be b8c1 613c
00000330: b41f 313e 2f2e 403e 0860 5c3d 5af9 17be
00000340: ffe4 ac3e c166 d03e f463 f8be cf0c e9be
00000350: 3cc3 8c3e 8f7e 97bd 09de 3abd ea94 873e
00000360: 613a 123e 661c 023f 67b4 ad3d 662a b4bc
00000370: 76a0 43be ecd1 f1be 1312 873e 2662 7cbe
00000380: 3c0d fe3d bd1b b43e 91f1 6a3d 8ec7 bc3e
00000390: c59a fd3d 7203 8bbe 6018 99be 86e5 aebe
000003a0: 1818 7ebe 0194 8dbc 8a5f adbc dadf 4bbc
000003b0: 1e02 4dbc 3657 bbbc 3b6e 18bc 8fe1 07bc
000003c0: 5af2 89bc f926 21bc 50c2 30bc d2ad f53d
000003d0: fddc ca3d d202 edbc fa33 fbbd f770 a73e
000003e0: 5466 933e 7665 0abf 0ec6 d4bd b05a b7bd
000003f0: a5aa b33e 05a9 f43d 5969 273d ea2e 01be

input_net.block.0.bias f4 [32]
-0.00079400017 0.0001526784 0.00022050165 3.897537e-08 -5.872983e-05 0.00041947697 -0.00026870728 -8.314753e-05
-3.427261e-05 3.7855734e-05 -1.5169535e-07 0.00040442884 0.00013370252 -0.00030845162 -1.5493112e-06 -6.940128e-05
1.7409262e-08 2.6653239e-05 0.00010250935 -0.00029723757 0.0010531248 -0.00021848112 2.248391e-05 0.00064342516
-0.00063287345 0.00038647238 5.547654e-07 -0.00021609892 -0.00026247994 1.0450607e-05 -7.026544e-06 0.00091214373
00000000: 7324 50ba 4c18 2039 7636 6739 df65 2733
00000010: ad54 76b8 3fed db39 48e1 8cb9 7e5f aeb8
00000020: efbf 0fb8 49c7 1e38 b3e1 22b4 8509 d439
00000030: 7f32 0c39 adb7 a1b9 edf1 cfb5 878b 91b8
00000040: 5f8b 9532 6595 df37 4afa d638 8dd6 9bb9
00000050: 0109 8a3a 1418 65b9 d49b bc37 88ab 283a
00000060: 6be7 25ba 729f ca39 30eb 1435 9d98 62b9
00000070: 769d 89b9 0455 2f37 8ec5 ebb6 ee1c 6f3a

input_net.block.1.weight f4 [32]
1.2977653 0.96712273 0.32145834 0.0021406943 0.38603318 0.94022673 0.62659675 0.4459531
0.22801542 0.43752587 -0.020024408 0.7574096 0.48752365 0.5288022 -0.0067311754 0.7348006
-0.0023845325 -0.03498308 0.97801995 0.85534114 0.88623756 0.45188028 0.041706048 0.8498417
0.594005 0.8930795 -0.00014239603 0.3123485 0.457038 0.39137343 0.38490683 0.70149475
00000000: 2c1d a63f 5b95 773f 3096 a43e e44a 0c3b
00000010: 24a6 c53e b3b2 703f a568 203f f753 e43e
00000020: e07c 693e 6403 e03e 3a0a a4bc 98e5 413f
00000030: b39c f93e 955f 073f 3191 dcbb e41b 3c3f
00000040: d145 1cbb 6b4a 0fbd 845f 7a3f a3f7 5a3f
00000050: 77e0 623f da5c e73e f6d3 2a3d 3a8f 593f
00000060: b610 183f dca0 643f 2550 15b9 25ec 9f3e
00000070: e200 ea3e 1962 c83e 8212 c53e 2995 333f

input_net.block.1.bias f4 [32]
0.34137303 0.16663988 -0.0032595508 -0.00884744 -0.13596757 0.5024361 -0.15039442 0.2572801
-0.123349264 -0.05708283 -0.016146721 0.32281148 -0.21221833 -0.1976391 -0.044658825 0.4352566
-0.016801056 0.039085217 0.068222195 0.29426724 0.30892593 -0.005791186 0.084823884 0.81375265
0.37391484 -0.00080346136 -0.05916977 0.32712093 0.04362366 -0.27876735 -0.16360967 0.7731483
00000000: 72c8 ae3e a5a3 2a3e 309e 55bb daf4 10bc
00000010: 153b 0bbe a79f 003f ff00 1abe 38ba 833e
00000020: 8a9e fcbd b0cf 69bd 2146 84bc 8c47 a53e
00000030: c34f 59be e761 4abe 2cec 36bd f4d9 de3e
00000040: 5ea2 89bc d217 203d 14b8 8b3d 32aa 963e
00000050: 8a2b 9e3e fdc3 bdbb 25b8 ad3d 1852 503f
00000060: c471 bf3e 619f 52ba 005c 72bd 657c a73e
00000070: b9ae 323d 98ba 8ebe 4b89 27be 0ced 453f

input_net.block.1.running_mean f4 [32]
-0.005274109 -0.0044710445 0.0015047926 -7.1485076e-05 0.004424618 0.0013395041 -0.0027161627 -0.0028375916
-0.005609914 0.010524428 -0.0015128586 0.004730784 0.010733668 -0.0007607017 -0.001532904 0.00034744723
-1.8331879e-05 0.0025236076 0.0045737014 -0.007379727 -0.005495803 0.009511983 0.0015521117 -0.002377573
-0.00071207655 -0.0035371382 -0.0015603935 0.0034458123 -0.0042716837 -0.0076787574 -0.0040936577 0.0053398916
00000000: 6fd2 acbb d781 92bb 763c c53a 42ea 95b8
00000010: 63fc 903b 4d92 af3a a601 32bb e3f6 39bb
00000020: 5fd3 b7bb a76e 2c3c 1c4b c6ba b104 9b3b
00000030: 44dc 2f3c d469 47ba b9eb c8ba 9429 b639
00000040: 69c7 99b7 1c63 253b fdde 953b a3d1 f1bb
00000050: 2316 b4bb 26d8 1b3c 3a70 cb3a 0ed1 1bbb
00000060: a6aa 3aba 55cf 67bb 1e86 ccba 23d3 613b
00000070: 7bf9 8bbb 169e fbbb 1724 86bb 42fa ae3b

input_net.block.1.running_var f4 [32]
0.20060682 0.43176353 0.02401431 6.8980866e-05 0.21329434 0.2296989 0.09423448 0.16448936
0.12295632 0.566291 0.0138407 0.062056184 0.66332155 0.040659085 0.014465921 0.07078805
1.7737833e-05 0.047891088 0.10076281 0.3421947 0.2212846 0.30950907 0.08480486 0.07754442
0.0863047 0.23749219 0.014505812 0.08836605 0.2548783 0.16473338 0.10725248 0.06966643
00000000: e06b 4d3e 1c10 dd3e a9b9 c43c d2a9 9038
00000010: d569 5a3e 3036 6b3e 02fe c03d e66f 283e
00000020: 86d0 fb3d 72f8 103f 1ac4 623c a02e 7e3d
00000030: 71cf 293f 248a 263d 7802 6d3c 53f9 903d
00000040: b5cb 9437 7229 443d bb5c ce3d 2534 af3e
00000050: 6e98 623e f977 9e3e 2cae ad3d 9ccf 9e3d
00000060: 85c0 b03d 2731 733e c9a9 6d3c 42f9 b43d
00000070: 697f 823e deaf 283e 30a7 db3d 46ad 8e3d

inception_blocks.0.conv_1x1.block.0.weight f4 [8, 32, 1, 1]
-0.46811154 -0.1225456 -0.1339576 -0.00014141717 -0.0046154326 0.07916828 -0.18305923 -0.25870755
-0.24304108 0.06873722 0.004872054 -0.04558054 -0.002813377 -0.04548623 0.050918493 -0.3380981
0.006379786 -0.0077712713 -0.24736474 -0.3358004 -0.27411762 0.20416263 -0.039160267 -0.16784278
-0.23943211 -0.2808554 -0.009533099 0.19199678 -0.275381 -0.11802179 0.009372759 0.16589439
-0.21592589 -0.18333828 -0.23774503 -1.7173203e-05 -0.14701885 0.121646054 -0.061422147 -0.36237642
-0.09290346 0.087250285 0.0005904115 -0.09143936 -0.0806295 -0.13534777 0.0051782173 -0.48140845
0.0020392546 0.00821778 -0.34885767 -0.1776469 -0.016063355 0.085963674 -0.08173092 0.011126833
0.33567593 0.15424997 -0.0063201184 0.050073385 0.14506501 0.017846413 -0.20298341 0.25584733
0.03432988 -0.009783037 0.19913143 3.0102274e-06 -0.01735969 -0.44522947 0.049198173 0.14491045
0.0074570007 -0.14453153 0.03447202 -0.15013298 -0.117714025 -0.010093971 0.018090872 0.264221
-0.0006207138 0.010391715 -0.23231928 0.3096304 0.25218835 -0.13705568 0.057605285 -0.0599289
0.18395817 -0.06819272 0.0002487868 -0.25497293 0.048915517 0.11310166 0.047487307 -0.09374958
0.10803613 0.08039374 0.00026147816 -6.2370156e-05 0.050407745 0.12808557 0.0074309753 -0.02599001
-0.0036541123 0.04452063 -0.006209972 0.013914572 0.08723157 -0.015087444 -0.0016051836 0.038754754
2.250328e-05 -0.013994527 -0.008320299 -0.037650928 0.04232217 0.04123224 -0.0097392285 0.20421456
-0.018449979 0.03297019 0.00050471287 0.11727379 0.010192974 -0.02709653 0.008103884 0.07949227
0.38970664 -0.12209425 0.046243813 -5.085233e-05 0.07707139 -0.03824803 0.116918534 -0.07099862
-0.0033134331 -0.15765586 -0.007922099 0.60427594 -0.16247714 -0.027638385 -0.033564914 -0.073831856
0.004326126 0.06943815 0.1978686 0.22139902 0.3001002 -0.17965287 -0.11317298 -0.07268049
-0.07607509 0.044287033 0.00014489573 0.19604346 0.017780963 -0.035400778 0.046320986 0.06929284
0.0042392625 0.0695055 0.016314898 -0.00026060338 0.14158247 -0.031274933 0.116282634 0.04762877
0.21104465 0.22248237 0.009066221 0.11264616 0.31574574 0.28053233 -0.0041631707 0.10310901
0.0007969543 0.018300422 -0.12165989 0.017003799 0.12684488 0.2655099 0.052867092 0.21949826
-0.0057618744 -0.22897223 0.0130716385 0.13767327 0.12762989 0.26780462 0.08551487 -0.06804924
0.004203112 -0.06042575 0.16582814 -1.3653003e-05 0.030628733 -0.43074873 0.0040746974 0.21888322
0.013430494 0.042034246 0.032215517 -0.06564046 0.1918001 0.23131278 0.025175745 0.49319524
0.0044578174 0.008871915 0.07443067 0.14619933 0.019472426 0.16213584 0.094539344 0.006485887
-0.12919807 -0.18484628 -0.0008229029 -0.12250153 -0.034793533 0.15591688 0.032978915 -0.030104673
-0.19203517 -0.06824787 -0.008445035 -8.351327e-05 0.06882664 0.2751171 0.055857964 -0.2183067
0.08725203 0.073249936 0.009246937 0.033768572 0.056579355 -0.11163831 0.0053230743 -0.05009314
-0.0030314499 0.0031446693 -0.0657827 0.026759837 0.056625724 -0.16583954 -0.062782645 0.6229969
0.07614749 -0.02465739 -0.00450639 0.08635514 -0.068812504 0.017349156 0.052078553 -0.2455807
00000000: 51ac efbe 30f9 fabd 2e2c 09be 6249 14b9
00000010: 0e3d 97bb fb22 a23d e173 3bbe 5175 84be
00000020: c3df 78be 19c6 8c3d c0a5 9f3b a9b2 3abd
00000030: a260 38bb c54f 3abd e98f 503d 321b adbe
00000040: 860d d13b 26a6 febb 2f4d 7dbe 08ee abbe
00000050: 2559 8cbe 0210 513e 8466 20bd fade 2bbe
00000060: b12d 75be 47cc 8fbe b730 1cbc ce9a 443e
00000070: bdfe 8cbe 69b5 f1bd 3390 193c 38e0 293e
00000080: ad1b 5dbe 08bd 3bbe 6f73 73be 2c0f 90b7
00000090: 1c8c 16be 9121 f93d ca95 7bbd 6789 b9be
000000a0: 2b44 bebd 47b0 b23d d8c5 1a3a 8f44 bbbd
000000b0: 1421 a5bd 9b98 0abe 09ae a93b 2b7b f6be
000000c0: 04a5 053b dea3 063c 799d b2be 12e9 35be
000000d0: 4c97 83bc b90d b03d 8a62 a7bd 524d 363c
000000e0: b7dd ab3e b4f3 1d3e ff18 cfbb c019 4d3d
000000f0: ec8b 143e a432 923c e2da 4fbe 6cfe 823e
00000100: 7d9d 0c3d 0849 20bc 1ce9 4b3e 5003 4a36
00000110: e935 8ebc 1ef5 e3be 0684 493d 6863 143e
00000120: db59 f43b 1300 14be 8832 0d3d 76bc 19be
00000130: 0d14 f1bd 2f61 25bc 4f33 943c fa47 873e
00000140: 66b7 22ba 0342 2a3c 1be5 6dbe e087 9e3e
00000150: d51e 813e 5358 0cbe 85f3 6b3d 0278 75bd
00000160: 885f 3c3e a0a8 8bbd 996f 8239 d08b 82be
00000170: a35b 483d d8a1 e73d 0d82 423d c8ff bfbd
00000180: 0c42 dd3d 79a5 a43d 0117 8939 b9cc 82b8
00000190: 5a78 4e3d dd28 033e 8a7f f33b 00e9 d4bc
000001a0: d579 6fbb 445b 363d 057d cbbb f2f9 633c
000001b0: 77a6 b23d 5431 77bc 0665 d2ba 4ebd 1e3d
000001c0: 6dc5 bc37 4d49 65bc dd51 08bc dc37 1abd
000001d0: 035a 2d3d 23e3 283d 4991 1fbc 9f1d 513e
000001e0: 6924 97bc c00b 073d b54e 043a 3e2d f03d
000001f0: 6e00 273c 8bf9 ddbc 27c6 043c d8cc a23d
00000200: a187 c73e 8d0c fabd 276a 3d3d 464a 55b8
00000210: 9bd7 9d3d f7a9 1cbd fc72 ef3d b967 91bd
00000220: 2f26 59bb 8a70 21be b1cb 01bc d4b1 1a3f
00000230: 6860 26be e569 e2bc 5d7b 09bd 2835 97bd
00000240: 2dc2 8d3b 9735 8e3d 119e 4a3e 6db6 623e
00000250: bca6 993e ecf6 37be 3cc7 e7bd 82d9 94bd
00000260: 42cd 9bbd 5266 353d 27ef 1739 9ebf 483e
00000270: 62a9 913c 6800 11bd 13bb 3d3d 68e9 8d3d
00000280: 83e9 8a3b e658 8e3d d2a6 853c 98a1 88b9
00000290: fffa 103e 251a 00bd 9725 ee3d 6316 433d
000002a0: 171c 583e 6bd2 633e 7d8a 143c 08b3 e63d
000002b0: 6da9 a13e efa1 8f3e 356b 88bb d12a d33d
000002c0: b3ea 503a c4ea 953c d228 f9bd 8d4b 8b3c
000002d0: a0e3 013e eaf0 873e 2a8b 583d 27c4 603e
000002e0: 1bce bcbb b277 6abe 6d2a 563c 39fa 0c3e
000002f0: 69b1 023e b01d 893e 6c22 af3d 665d 8bbd
00000300: 42ba 893b fe80 77bd dace 293e 340f 65b7
00000310: 1ce9 fa3c 198b dcbe 0a85 853b ec22 603e
00000320: 930b 5c3c 1a2c 2c3d 6bf4 033d 816e 86bd
00000330: 3f67 443e 42dd 6c3e 5d3d ce3c 1684 fc3e
00000340: e212 923b 825b 113c 1b6f 983d 47b5 153e
00000350: a384 9f3c f006 263e d89d c13d 9087 d43b
00000360: 804c 04be 5848 3dbe 14b8 57ba 15e2 fabd
00000370: aa83 0ebd ada8 1f3e e614 073d 139e f6bc
00000380: dea4 44be 8ac5 8bbd 0b5d 0abc d823 afb8
00000390: fbf4 8c3d 26dc 8c3e 52cb 643d cb8b 5fbe
000003a0: 31b1 b23d 1004 963d 7780 173c ea50 0a3d
000003b0: c1bf 673d a0a2 e4bd 2f6d ae3b 772e 4dbd
000003c0: 4aab 46bb cc16 4e3b 15b9 86bd 7237 db3c
000003d0: 60f0 673d d7d1 29be 3094 80bd ba7c 1f3f
000003e0: 37f3 9b3d 4bfe c9bc 57aa 93bb f7da b03d
000003f0: 92ed 8cbd d11f 8e3c 5250 553d 8279 7bbe

inception_blocks.0.conv_1x1.block.0.bias f4 [8]
-1.6085729e-05 0.00017482803 -1.3840034e-05 4.4271537e-06 0.00013148662 -1.5524354e-05 -5.294304e-05 0.00011888964
00000000: d7ef 86b7 0b52 3739 7e32 68b7 f68c 9436
00000010: acdf 0939 4c3a 82b7 280f 5eb8 6454 f938

inception_blocks.0.conv_1x1.block.1.weight f4 [8]
0.94297993 0.85809344 0.65092343 0.15295619 0.8891087 0.56059754 0.6081811 0.6747579
00000000: 2267 713f 03ac 5b3f eba2 263f 8ca0 1c3e
00000010: a19c 633f 5283 0f3f c2b1 1b3f efbc 2c3f

inception_blocks.0.conv_1x1.block.1.bias f4 [8]
0.02870409 0.18105076 0.03688441 -0.3119957 -0.18187018 -0.33817816 0.2450321 -0.23807712
00000000: d724 eb3c 5f65 393e 1b14 173d e6bd 9fbe
00000010: 2d3c 3abe b025 adbe b2e9 7a3e 7dca 73be

inception_blocks.0.conv_1x1.block.1.running_mean f4 [8]
-1.0927054 -0.30979136 -0.09431226 0.51350075 0.6553619 0.48979324 0.022481296 0.33905548
00000000: c5dd 8bbf f99c 9ebe c926 c1bd c974 033f
00000010: ccc5 273f 2ec6 fa3e b22a b83c ae98 ad3e

inception_blocks.0.conv_1x1.block.1.running_var f4 [8]
0.7410607 1.0602797 0.41063836 0.06973196 0.49012244 0.20075957 0.60276455 0.34772572
00000000: 27b6 3d3f 3fb7 873f 313f d23e a1cf 8e3d
00000010: 54f1 fa3e eb93 4d3e c74e 1a3f 1b09 b23e

inception_blocks.0.conv_3x3.0.block.0.weight f4 [12, 32, 1, 1]
0.27182567 0.30776167 -0.13029085 -1.1424789e-05 -0.08462348 0.4250273 -0.10551343 -0.12541494
0.01492155 -0.22861078 -0.01611113 -0.33006153 -0.20124683 -0.14943095 0.036492977 0.045700036
-0.010464308 -0.05692182 0.09540796 0.034522664 -0.28334773 -0.27423203 0.010983411 0.45515138
0.118373506 0.20608155 0.005168087 0.0072597354 -0.07078566 -0.089923084 -0.17840628 -0.1631641
-0.40627965 -0.10843031 -0.050690953 -2.2669961e-05 -0.2666616 0.15030299 -0.08540047 -0.18972202
0.026820384 0.04138286 0.010943273 -0.1850987 0.115003 0.009664618 0.024847377 0.119575284
0.018025648 0.07522314 -0.1489345 -0.19317076 -0.34266254 0.019705992 0.08507784 0.5481326
0.15619402 -0.2704342 -0.0027087391 0.07942686 -0.19446559 0.2021685 -0.14490484 -0.3019717
0.6097624 -0.14477335 -0.11345985 0.0001689446 0.019268801 -0.09451558 0.04766295 0.08589288
0.08577667 -0.021207038 -0.00022743916 0.1072069 0.122309186 0.09954131 -0.015729135 0.4095177
0.0035367184 -0.00550044 -0.013681608 0.076304965 0.1359467 -0.014290895 0.033157177 0.24372782
0.10121855 -0.08809473 -0.0011626353 -0.24677058 -0.06367559 0.11851727 0.008898202 -0.34806633
-0.5025353 0.34356382 -0.04170447 0.00011333977 0.0016224532 0.34725967 0.3964869 -0.09982959
-0.020817691 -0.17456315 0.026409931 -0.056171674 -0.042172052 -0.20811091 -0.0023820824 -0.22023024
0.0057177325 0.017132314 0.20449011 0.12575254 0.422876 -0.017227728 -0.10243832 0.066591136
-0.16294849 -0.005264573 0.014308604 0.26836908 0.17764813 -0.23120707 -0.027875422 0.29778165
0.06398217 0.09903081 0.41054627 -0.00012539593 0.17324331 -0.29824105 0.056438632 0.20555092
-0.28810465 -0.08005899 0.046598632 -0.16186471 -0.014938546 -0.38893312 -0.027209837 0.40918663
-0.007817216 0.02790816 0.29444766 -0.012537454 0.13776946 0.07397884 -0.06263369 -0.22394782
-0.34452644 0.059089627 0.018654967 -0.062367715 0.15573731 -0.077370584 0.098449655 0.2111371
0.3152405 -0.16761012 -0.07353325 8.0354286e-05 0.082968555 -0.16416855 -0.10614383 -0.01410492
-0.0040908563 -0.35420415 -0.009176628 -0.122502565 -0.20129563 -0.2026702 0.036039792 0.0020464044
0.013075542 0.036643174 0.02597738 -0.08993363 -0.325135 -0.15057471 -0.0815585 0.22473434
-0.47254565 -0.14096451 0.001471733 0.032054715 -0.25391743 -0.041656923 0.010698083 -0.3234457
-0.52789986 0.015407356 0.12946633 -4.162769e-05 -0.1303702 0.009139388 0.382276 0.13585754
-0.10458 0.018553112 -0.012382915 0.06149758 -0.1716777 -0.19638757 0.022019804 0.1634973
-0.0018472093 0.046533637 -0.15692456 0.46286762 0.6356698 -0.13872582 -0.030484492 -0.32739034
0.21224552 0.06961047 -0.003760126 -0.025948696 0.25050926 -0.06136668 -0.09183886 0.15038703
-0.07969815 -0.554791 0.009561685 -0.00014417032 -0.10981726 -0.59388155 -0.12589331 0.07884343
0.24824372 0.05704053 -0.015333475 -0.17229281 -0.057934478 0.30570483 0.000303411 -0.042763337
0.02167977 -0.06735231 -0.12831816 0.28067744 -0.019810975 -0.16527383 0.21974786 -0.04853787
0.13040303 -0.29255083 0.006752913 -0.1838396 -0.0031448572 0.1492434 -0.12080572 -0.24011098
00000000: bc2c 8b3e f092 9d3e f76a 05be 18ad 3fb7
00000010: 134f adbd 2e9d d93e 6d17 d8bd c66c 00be
00000020: 8479 743c f218 6abe 7dfb 83bc d3fd a8be
00000030: a613 4ebe 6d04 19be a979 153d f62f 3b3d
00000040: 7d72 2bbc db26 69bd 4065 c33d a367 0d3d
00000050: f412 91be 2468 8cbe c4f3 333c 9a09 e93e
00000060: cf6d f23d 0b07 533e 0e59 a93b 13e3 ed3b
00000070: 12f8 90bd 9829 b8bd 23b0 36be 7d14 27be
00000080: e303 d0be b610 debd 51a1 4fbd 5f2b beb7
00000090: df87 88be 07e9 193e 71e6 aebd 7d46 42be
000000a0: 6cb6 db3c 1381 293d 6a4b 333c 838a 3dbe
000000b0: b186 eb3d 5958 1e3c ba8c cb3c e3e3 f43d
000000c0: 86aa 933c 970e 9a3d 4982 18be 8ece 45be
000000d0: 7771 afbe 766e a13c 4a3d ae3d 6b52 0c3f
000000e0: 53f1 1f3e 5a76 8abe 1a85 31bb 8daa a23d
000000f0: fd21 47be 4205 4f3e ef61 14be 099c 9abe
00000100: 6319 1c3f 773f 14be a35d e8bd b926 3139
00000110: 9bd9 9d3c 6291 c1bd 3a3a 433d 9be8 af3d
00000120: aeab af3d 62ba adbc bc7c 6eb9 4b8f db3d
00000130: 3d7d fa3d 50dc cb3d 63da 80bc 4eac d13e
00000140: 4ac8 673b 093d b4bb d328 60bc c745 9c3d
00000150: 9d35 0b3e 5c24 6abc d2cf 073d c993 793e
00000160: ac4b cf3d 036b b4bd 9163 98ba 6db1 7cbe
00000170: 5968 82bd 2fb9 f23d c4c9 113c c035 b2be
00000180: 27a6 00bf 99e7 af3e 4ed2 2abd d3b0 ed38
00000190: 7fa8 d43a 05cc b13e 5500 cb3e 7573 ccbd
000001a0: dd89 aabc afc0 32be a459 d83c 4514 66bd
000001b0: 9abc 2cbd 071b 55be b61c 1cbb 0984 61be
000001c0: d15b bb3b 1159 8c3c db65 513e 46c5 003e
000001d0: 3483 d83e 2a21 8dbc 2fcb d1bd ef60 883d
000001e0: f8db 26be 7082 acbb a36e 6a3c ac67 893e
000001f0: 64e9 353e 8cc1 6cbe ff5a e4bc d676 983e
00000200: 1509 833d aad0 ca3d 1f33 d23e b77c 03b9
00000210: b266 313e 0db3 98be 322c 673d f17b 523e
00000220: 7482 93be f8f5 a3bd 35de 3e3d ddbf 25be
00000230: cec0 74bc 3e22 c7be 2ae7 debc e980 d13e
00000240: c813 00bc a79f e43c d8c1 963e e569 4dbc
00000250: 7013 0d3e 3882 973d 1846 80bd 9452 65be
00000260: c565 b0be f707 723d 4dd2 983c 4a75 7fbd
00000270: 9a79 1f3e 7874 9ebd f99f c93d 5334 583e
00000280: 3467 a13e fda1 2bbe 9a98 96bd e183 a838
00000290: 6beb a93d cd1b 28be f061 d9bd 5318 67bc
000002a0: 970c 86bb 3f5a b5be 9159 16bc a0e2 fabd
000002b0: 7120 4ebe c788 4fbe 769e 133d f81c 063b
000002c0: cc3a 563c 2717 163d 84ce d43c 1f2f b8bd
000002d0: 1878 a6be 4230 1abe 2508 a7bd c220 663e
000002e0: 81f1 f1be 0059 10be 2ae7 c03a ce4b 033d
000002f0: 7701 82be 73a0 2abd 0347 2f3c ad9a a5be
00000300: 7224 07bf 236f 7c3c d292 043e 6499 2eb8
00000310: c47f 05be 5fbd 153c aeb9 c33e 3d1e 0b3e
00000320: 0a2e d6bd b2fc 973c b6e1 4abc e3e4 7b3d
00000330: 47cc 2fbe d319 49be e062 b43c d66b 273e
00000340: 0f1e f2ba 0e9a 3e3d d5b0 20be fcfc ec3e
00000350: 42bb 223f 240e 0ebe 9dba f9bc b59f a7be
00000360: e456 593e ef8f 8e3d 726c 76bb 5c92 d4bc
00000370: c042 803e a15b 7bbd 0316 bcbd 0fff 193e
00000380: c938 a3bd c806 0ebf 9da8 1c3c 6d2c 17b9
00000390: dfe7 e0bd 9f08 18bf 2dea 00be aa78 a13d
000003a0: 9a33 7e3e 55a3 693d 4139 7bbc 876d 30be
000003b0: b44c 6dbd 5885 9c3e 2313 9f39 9c28 2fbd
000003c0: c699 b13c 02f0 89bd d665 03be f4b4 8f3e
000003d0: a04a a2bc 8b3d 29be 9505 613e a5cf 46bd
000003e0: 5f88 053e 39c9 95be 8a47 dd3b 7340 3cbe
000003f0: f319 4ebb 43d3 183e fd68 f7bd a7df 75be

inception_blocks.0.conv_3x3.0.block.0.bias f4 [12]
-0.00022190345 -0.00038578047 -1.6407335e-05 0.000120364435 1.7979357e-05 3.3974695e-05 -0.00042183345 -0.0003034155
0.00024897838 -7.768978e-06 0.00014202257 -9.995116e-06
00000000: c1ae 68b9 9442 cab9 7ca2 89b7 2a6c fc38
00000010: 60d2 9637 0d80 0e38 8729 ddb9 bd13 9fb9
00000020: 5089 8239 8257 02b7 e5eb 1439 b2b0 27b7

inception_blocks.0.conv_3x3.0.block.1.weight f4 [12]
0.916653 0.6946355 0.8276333 0.86980265 0.6567116 0.6980981 0.97680944 0.90657634
0.81647074 0.0059606275 0.63929087 0.64085317
00000000: c5a9 6a3f a2d3 313f c7df 533f 63ab 5e3f
00000010: 401e 283f 8fb6 323f 2f10 7a3f 6315 683f
00000020: 3a04 513f 5e51 c33b 91a8 233f f40e 243f

inception_blocks.0.conv_3x3.0.block.1.bias f4 [12]
0.1105813 0.4458766 -0.1033042 0.22583427 -0.12758803 0.054968987 -0.16516674 0.4700411
0.13349338 0.022784641 0.43695787 0.22669342
00000000: 7378 e23d f049 e43e 2791 d3bd 1941 673e
00000010: 70a6 02be 2927 613d 7821 29be 3aa9 f03e
00000020: 7db2 083e dba6 ba3c f1b8 df3e 5222 683e

inception_blocks.0.conv_3x3.0.block.1.running_mean f4 [12]
0.5202805 -0.3856779 0.51673585 0.55070907 0.09731718 -0.68625206 0.2948291 -0.94190645
-0.90497226 0.08084581 -0.088219315 0.4625632
00000000: 1a31 053f 9377 c5be cd48 043f 45fb 0c3f
00000010: 3b4e c73d 37ae 2fbf d7f3 963e c820 71bf
00000020: 43ac 67bf 7d92 a53d 54ac b4bd 15d5 ec3e

inception_blocks.0.conv_3x3.0.block.1.running_var f4 [12]
0.5207004 0.62956816 0.7319503 0.56454873 0.39133736 0.5131669 0.35850146 0.6373096
0.33735278 0.023934478 0.36451462 0.32057366
00000000: 9f4c 053f 612b 213f 1861 3b3f 4486 103f
00000010: 5f5d c83e e85e 033f 818d b73e b926 233f
00000020: 81b9 ac3e 3d12 c43c a9a1 ba3e 3b22 a43e

inception_blocks.0.conv_3x3.1.block.0.weight f4 [16, 12, 3, 3]
0.21413307 -0.011445415 -0.10291924 0.034777146 0.20347947 -0.106969155 -0.49156368 -0.06600544
-0.006133042 0.14001296 -0.013444877 -0.11102123 0.2248702 0.22681978 -0.11901531 0.08524995
0.18261524 -0.22374369 0.011579921 0.24499246 0.10731035 0.019808061 0.18605806 0.029533723
-0.12168042 -0.14056285 -0.41416818 0.20727755 0.13562787 0.020264281 -0.09402139 0.23989762
0.18227638 -0.35162628 -0.24819262 -0.09960084 -0.12241693 0.009310107 0.25574479 0.21076018
0.119004466 0.16526401 0.21719344 -0.06968786 -0.20420408 -0.047540195 0.10870503 -0.10516803
0.009841452 -0.07763516 -0.22649316 -0.14863485 -0.09907914 -0.05337916 -0.110529594 -0.1309834
-0.12542655 -0.15327547 -0.05003297 0.033459682 0.26467362 -0.14768676 0.03684021 0.07551609
0.049941774 0.088275425 -0.22812249 -0.24972595 -0.14218359 0.25812265 -0.067203104 -0.121524096
0.061576158 -0.03593103 -0.32467264 -0.21216728 -0.17347135 -0.0726502 0.28295952 -0.018283512
0.1742004 0.017509455 0.0051803067 0.0085335355 0.0149805555 0.004906589 -0.018913597 0.01945319
0.017062742 0.010856058 0.09857259 0.15670289 0.2473791 -0.21266429 -0.00655837 0.28341347
-0.2515351 -0.3682931 0.15315044 0.049917 -0.06829494 0.38123405 -0.25202915 -0.08885582
0.6287841 -0.23961888 -0.07021007 0.21727864 0.07090812 0.0153378155 -0.0967762 0.0038536298
-0.061384473 -0.053589296 0.17449257 0.17592318 -0.042653963 -0.3496568 -0.31146652 -0.36325884
-0.2199781 -0.23137592 -0.23424233 0.05333057 -0.07611852 -0.067721725 0.18099587 0.028365484
-0.04340443 0.04630247 -0.033562038 0.06957786 -0.26231214 -0.36923036 -0.17107017 0.024630558
-0.061706677 -0.15026692 0.10620608 0.08730432 0.006744834 0.09768081 0.053430032 -0.15443228
0.27717626 -0.004426062 -0.21236466 -0.11850032 0.019369025 0.11590874 -0.12876 -0.22096361
-0.124128364 0.30164862 0.16256274 0.12591082 0.16126634 0.024333611 0.019885443 -0.1865407
-0.20338061 0.010772471 -0.07012418 -0.11552106 0.010876249 -0.14714955 -0.11915887 0.1225684
-0.21129471 -0.14500865 -0.10783571 0.11779074 0.15473475 0.24317813 -0.055410616 -0.047909837
-0.27186972 -0.53635556 -0.40571076 -0.19729108 -0.33445713 -0.06631987 0.0077977865 -0.12846182
-0.12630463 0.14564267 -0.16792911 0.11075555 0.16543233 0.011601159 -0.0005503153 0.015008298
0.009021178 0.0048348075 0.014272036 -0.0054118764 -0.0106655145 -0.0043992675 -0.27989507 -0.18640086
-0.29760966 0.21203756 0.082822606 0.13840222 -0.07689307 0.03330539 -0.16521071 -0.20424585
-0.13124405 0.063876845 0.09206851 -0.023326922 -0.37476337 -0.08896253 -0.08390206 0.14984378
0.36309126 -0.024311278 0.27978244 0.20768279 -0.18245761 -0.07447906 -0.20102064 -0.09046201
0.01907593 0.07378245 -0.13456884 0.14136241 0.08148976 -0.17769869 -0.13306864 -0.33307824
0.08528246 -0.016770078 0.28350455 0.16699293 -0.11261363 0.21974105 -0.073170654 -0.07430937
0.14941588 0.031013899 -0.09773887 0.102571726 0.31206205 0.22299002 -0.14587261 0.14212132
0.11329872 0.030735957 0.073965594 -0.086571455 -0.13295656 -0.0014989313 0.038228013 0.3564612
00000000: b345 5b3e 8d85 3bbc 53c7 d2bd 7b72 0e3d
00000010: ec5c 503e a512 dbbd 3cae fbbe dc2d 87bd
00000020: aff7 c8bb 8f5f 0f3e e747 5cbc 195f e3bd
00000030: 6044 663e 7243 683e 4dbe f3bd 8797 ae3d
00000040: 7dff 3a3e 111d 65be b5b9 3d3c 4edf 7a3e
00000050: 87c5 db3d 8444 a23c 0186 3e3e b5f0 f13c
00000060: 9633 f9bd b5ef 0fbe da0d d4be 9140 543e
00000070: 08e2 0a3e 4701 a63c 498e c0bd b9a7 753e
00000080: a9a6 3a3e 5c08 b4be 3526 7ebe 86fb cbbd
00000090: bab5 fabd 6b89 183c fbf0 823e 84d1 573e
000000a0: 9db8 f33d f83a 293e f567 5e3e 82b8 8ebd
000000b0: e01a 51be 82b9 42bd bea0 de3d 5662 d7bd
000000c0: 0b3e 213c 2fff 9ebd d3ed 67be bc33 18be
000000d0: 01ea cabd 1ba4 5abd 575d e2bd 8320 06be
000000e0: d16f 00be 3ff4 1cbe 5fef 4cbd 050d 093d
000000f0: 4d83 873e 333b 17be c3e5 163d 2ea8 9a3d
00000100: bf8f 4c3d bfc9 b43d f198 69be 29b8 7fbe
00000110: 9398 11be a728 843e c8a1 89bd a0e1 f8bd
00000120: 4837 7c3d 6a2c 13bd 7e3b a6be 6142 59be
00000130: 79a2 31be a1c9 94bd 12e0 903e 4ec7 95bc
00000140: 9761 323e fd6f 8f3c 90bf a93b 3ed0 0b3c
00000150: 0171 753c 74c7 a03b b0f0 9abc 4c5c 9f3c
00000160: 2ac7 8b3c 9cdd 313c 6de0 c93d b976 203e
00000170: f250 7d3e abc4 59be 98e7 d6bb 921b 913e
00000180: 35c9 80be ea90 bcbe 78d3 1c3e c575 4c3d
00000190: 38de 8bbd 1c31 c33e f709 81be 0afa b5bd
000001a0: fff7 203f a75e 75be 4cca 8fbd 4b7e 5e3e
000001b0: 4738 913d 764b 7b3c 9a32 c6bd 2e8d 7c3b
000001c0: 496e 7bbd 7380 5bbd 2eae 323e 3525 343e
000001d0: ecb5 2ebd 3706 b3be 8a78 9fbe 10fd b9be
000001e0: f041 61be cfed 6cbe 39dd 6fbe 2871 5a3d
000001f0: 07e4 9bbd b0b1 8abd fb56 393e bb5e e83c
00000200: d8c8 31bd a9a7 3d3d 5978 09bd d67e 8e3d
00000210: c74d 86be c30b bdbe 052d 2fbe 06c6 c93c
00000220: 24c0 7cbd 92df 19be 9382 d93d 9bcc b23d
00000230: c503 dd3b e00c c83d 73d9 5a3d 7f23 1ebe
00000240: 0cea 8d3e 8008 91bb 1f76 59be 4cb0 f2bd
00000250: caab 9e3c 9061 ed3d a9d9 03be 4944 62be
00000260: 0337 febd b071 9a3e d976 263e c4ee 003e
00000270: 0123 253e 4857 c73c cce6 a23c 8604 3fbe
00000280: 0243 50be 057f 303c 449d 8fbd 4e96 ecbd
00000290: 4b32 323c 5fae 16be 9109 f4bd 2405 fb3d
000002a0: a45d 58be 267d 14be f8d8 dcbd 463c f13d
000002b0: c972 1e3e b003 793e 3ef6 62bd 1b3d 44bd
000002c0: 8232 8bbe 994e 09bf 52b9 cfbe ac06 4abe
000002d0: f73d abbe b6d2 87bd 9384 ff3b 7f8b 03be
000002e0: 0056 01be 5a23 153e 9cf5 2bbe ced3 e23d
000002f0: 1867 293e ca12 3e3c 0943 10ba 5de5 753c
00000300: 90cd 133c 4e6d 9e3b 42d5 693c 1c56 b1bb
00000310: 69be 2ebc bb27 90bb 684e 8fbe dedf 3ebe
00000320: 4b60 98be 6020 593e e69e a93d 50b9 0d3e
00000330: 1d7a 9dbd 3c6b 083d ff2c 29be d325 51be
00000340: d764 06be ddd1 823d 6a8e bc3d 1a18 bfbc
00000350: fce0 bfbe fd31 b6bd d8d4 abbd a670 193e
00000360: 19e7 b93e 7228 c7bc a53f 8f3e ccaa 543e
00000370: 2bd6 3abe 7a88 98bd 5bd8 4dbe 2544 b9bd
00000380: 2045 9c3c 411b 973d 6acc 09be 4fc1 103e
00000390: 1ae4 a63d a5f6 35be 2543 08be 3b89 aabe
000003a0: 92a8 ae3d 6761 89bc 8227 913e 3200 2b3e
000003b0: faa1 e6bd cc03 613e 7fda 95bd 832f 98bd
000003c0: 7a00 193e dc10 fe3c 512b c8bd 2011 d23d
000003d0: 99c6 9f3e 7f57 643e a15f 15be 4088 113e
000003e0: 2909 e83d f9c9 fb3c 467b 973d 604c b1bd
000003f0: c425 08be ca77 c4ba fa94 1c3d 1582 b63e

inception_blocks.0.conv_3x3.1.block.0.bias f4 [16]
0.00014509396 5.5237244e-05 6.521228e-05 4.133259e-05 -0.00015896157 -0.00032437302 -0.00022279625 0.00019254965
0.00017914067 -0.00011000151 8.485875e-05 4.292703e-05 5.178138e-05 1.733487e-05 -0.0001624879 -0.00015606997
00000000: 5d24 1839 8aae 6738 94c2 8838 885c 2d38
00000010: ecae 26b9 9c10 aab9 6a9e 69b9 27e7 4939
00000020: b5d7 3b39 9cb0 e6b8 32f6 b138 8c0c 3438
00000030: d52f 5938 5a6a 9137 8361 2ab9 b7a6 23b9

inception_blocks.0.conv_3x3.1.block.1.weight f4 [16]
0.88189447 0.79552746 0.4474203 0.8687453 0.8094475 0.9808929 0.9692394 0.90201074
0.946876 0.75964075 0.7714561 0.6223009 0.58399254 0.706916 1.0433499 0.8444889
00000000: d6c3 613f b0a7 4b3f 4614 e53e 1866 5e3f
00000010: f437 4f3f cc1b 7b3f 1320 783f 2dea 663f
00000020: 7766 723f d177 423f 267e 453f 1d4f 1f3f
00000030: 8980 153f 72f8 343f 7d8c 853f 6d30 583f

inception_blocks.0.conv_3x3.1.block.1.bias f4 [16]
0.19362022 -0.019185184 0.05815393 0.096279986 0.22320732 0.5662007 0.15750392 0.2841491
0.15342964 -0.13020515 0.053130176 0.23478517 -0.15963107 0.10155511 -0.045555662 0.30462512
00000000: 6144 463e 3f2a 9dbc d132 6e3d 712e c53d
00000010: 7690 643e 87f2 103f b548 213e fe7b 913e
00000020: a91c 1d3e 8054 05be 079f 593d 866b 703e
00000030: 5476 23be 20fc cf3d 9398 3abd d3f7 9b3e

inception_blocks.0.conv_3x3.1.block.1.running_mean f4 [16]
-0.15057424 -2.2385993 -0.04708307 0.6468473 0.29324925 -0.58557504 0.37546813 -1.1477909
-0.23450962 -0.052114982 1.0919629 -0.48187566 0.8934475 0.8968073 1.3087565 -1.0112749
00000000: 2230 1abe 3645 0fc0 2dda 40bd c997 253f
00000010: c424 963e 3fe8 15bf 5c3d c03e d0ea 92bf
00000020: 4a23 70be 8576 55bd 71c5 8b3f 68b8 f6be
00000030: fab8 643f 2a95 653f 5585 a73f 7571 81bf

inception_blocks.0.conv_3x3.1.block.1.running_var f4 [16]
1.9906127 2.5757601 1.0297112 2.9572933 1.7547112 3.1538336 2.1862738 2.1283677
2.2424073 1.8991646 2.8655732 1.6812701 1.6254052 1.855296 3.5812786 1.9216973
00000000: 66cc fe3f 41d9 2440 94cd 833f 4b44 3d40
00000010: 609a e03f 69d8 4940 e9eb 0b40 2d37 0840
00000020: 9a83 0f40 d317 f33f 8d65 3740 dc33 d73f
00000030: 470d d03f 577a ed3f ab33 6540 2dfa f53f

inception_blocks.0.conv_5x5.0.block.0.weight f4 [4, 32, 1, 1]
0.10487084 -0.158656 0.15823749 0.00010543695 -0.019000584 0.10124047 -0.12604955 -0.16674155
-0.1297906 0.18051387 0.033371914 -0.33808216 0.30279145 -0.23358425 -0.03094962 -0.014876057
-0.0033653972 0.027895942 0.026975768 -0.16293377 -0.21714617 0.21702348 -0.129841 -0.3594691
0.060569543 0.0058344477 0.008200075 0.1110976 0.009410952 -0.10773005 0.011717647 0.50594777
-0.1781983 -0.13935605 -0.056940235 -0.00029522783 -0.32882118 -0.4203335 -0.13863145 0.29735324
0.094346575 0.104811475 -0.012362717 0.17609362 0.052963547 0.30351588 0.017403765 -0.12482258
0.0047323904 -0.03094439 0.3439879 0.42135543 0.17500772 0.07991802 -0.0073573045 -0.53298366
-0.08096394 -0.15390751 0.015628396 -0.030602075 -0.20728001 0.024045704 -0.120294504 0.10161357
-0.05367879 -0.28893924 -0.09165322 1.6270194e-05 -0.15901916 -0.20655055 0.007530752 0.13427278
-0.06433339 -0.22295822 0.016230848 -0.14167091 -0.18622091 0.18441705 -0.03671062 -0.07362389
-0.0066773994 0.04434853 -0.45984766 0.31681645 0.2173344 -0.1384284 0.042019594 -0.03450396
0.12372406 -0.20411423 0.000395689 -0.0792876 -0.1728044 0.052210383 -0.16585101 -0.0627777
0.567415 -0.0142159145 -0.115262024 -0.00020829197 0.2286329 0.13317475 -0.476442 -0.07075154
-0.16997743 -0.158521 -0.04153934 -0.17735198 -0.35577947 -0.1844447 0.014951408 0.078571744
-0.023055956 -0.0070750946 -0.36726558 0.22177881 -0.13629498 -0.05700239 -0.05376838 0.3425657
-0.055755448 0.068254046 0.007853587 0.11959571 -0.07752669 -0.08428552 0.11371313 -0.18112025
00000000: 86c6 d63d b876 22be 0209 223e 081e dd38
00000010: 1da7 9bbc 2a57 cf3d 2213 01be 4cbe 2abe
00000020: d4e7 04be a1d8 383e fdb0 083d 1b19 adbe
00000030: 7b07 9b3e b630 6fbe 0f8a fdbc b5ba 73bc
00000040: ff8d 5cbb 0886 e43c 49fc dc3c 1cd8 26be
00000050: 915b 5ebe 673b 5e3e 0af5 04be 550c b8be
00000060: c517 783d e52e bf3b 9b59 063c 2387 e33d
00000070: 6530 1a3c 93a1 dcbd 60fb 3f3c cb85 013f
00000080: 9d79 36be 5ab3 0ebe 2a3a 69bd cfc8 9ab9
00000090: 405b a8be f435 d7be 67f5 0dbe af3e 983e
000000a0: c738 c13d 66a7 d63d fe8c 4abc e351 343e
000000b0: 4ef0 583d 6f66 9b3e 5792 8e3c fba2 ffbd
000000c0: 2b12 9b3b 177f fdbc 2f1f b03e e6bb d73e
000000d0: 3935 333e 0fac a33d 8b15 f1bb 9e71 08bf
000000e0: 6cd0 a5bd ee99 1dbe 1f07 803c 34b1 fabc
000000f0: 3641 54be 7ffb c43c f75c f6bd c61a d03d
00000100: 4ade 5bbd d8ef 93be afb4 bbbd fa7b 8837
00000110: ebd5 22be fd81 53be 87c4 f63b ce7e 093e
00000120: 39c1 83bd 294f 64be 8ef6 843c 2e12 11be
00000130: b2b0 3ebe d3d7 3c3e e05d 16bd 1fc8 96bd
00000140: 16ce dabb cea6 353d 2771 ebbe c435 a23e
00000150: e98c 5e3e 2dc0 0dbe bd1c 2c3d 0654 0dbd
00000160: 0a63 fd3d 5203 51be 7b74 cf39 8a61 a2bd
00000170: a3f3 30be 8eda 553d d9d4 29be 9891 80bd
00000180: 1c42 113f dee9 68bc 7f0e ecbd f368 5ab9
00000190: be1e 6a3e f65e 083e 35f0 f3be 2fe6 90bd
000001a0: 900e 2ebe 5453 22be 2825 2abd c29b 35be
000001b0: ba28 b6be 12df 3cbe c0f6 743c 39ea a03d
000001c0: d8df bcbc 32d6 e7bb 3c0a bcbe fc19 633e
000001d0: e990 0bbe 577b 69bd 3c3c 5cbd c564 af3e
000001e0: d35f 64bd c7c8 8b3d 55ac 003c 98ee f43d
000001f0: 50c6 9ebd e39d acbd 6ee2 e83d 9677 39be

inception_blocks.0.conv_5x5.0.block.0.bias f4 [4]
-0.00012008032 -0.0002447817 0.00016569413 0.00039047064
00000000: a2d3 fbb8 0b56 80b9 2ebe 2d39 15b8 cc39

inception_blocks.0.conv_5x5.0.block.1.weight f4 [4]
0.6349688 0.9425029 0.7404856 0.65539366
00000000: 518d 223f df47 713f 7790 3d3f e1c7 273f

inception_blocks.0.conv_5x5.0.block.1.bias f4 [4]
-0.17108211 0.19003081 -0.0683947 0.33368203
00000000: 2630 2fbe 7097 423e 8512 8cbd 5fd8 aa3e

inception_blocks.0.conv_5x5.0.block.1.running_mean f4 [4]
-0.09504392 -0.45503265 -0.38416338 0.3820546
00000000: 63a6 c2bd 0afa e8be 10b1 c4be a99c c33e

inception_blocks.0.conv_5x5.0.block.1.running_var f4 [4]
0.240405 0.7874511 0.47819406 0.44772923
00000000: ba2c 763e 6596 493f dad5 f43e c43c e53e

inception_blocks.0.conv_5x5.1.block.0.weight f4 [4, 4, 5, 5]
0.01446358 -0.07591303 -0.14757276 -0.17178628 -0.17787172 0.07645034 -0.074169084 -0.11645172
-0.3380795 -0.15327021 -0.11233324 0.023894168 0.07387916 0.05875741 -0.0698587 -0.04609301
-0.08474167 -0.12670815 0.055592343 0.015847394 -0.085111655 -0.09296558 0.14129278 0.5685346
0.38278213 0.430562 0.31306902 -0.1887071 -0.36707258 -0.37195042 -0.06346949 0.15721194
0.23057653 0.15072846 -0.09996157 0.62121534 0.13994363 -0.04907467 -0.2914411 -0.2501347
0.0007626731 0.20692495 0.35167557 0.23904726 -0.013402155 0.018255562 0.05799333 0.14277148
-0.14662021 -0.33567584 -0.040830422 0.22912072 0.40315267 0.26424897 0.04335502 0.26312193
0.055746756 0.034676235 0.19191132 0.08966851 0.19389342 0.16019464 0.05709332 -0.050691266
0.0278885 0.034852643 0.035642862 0.10716133 -0.028076915 -0.12422027 0.058780544 -0.014451797
-0.005330528 0.01937249 0.120936975 -0.20958248 0.03352952 -0.00345816 0.2693751 0.17548034
-0.021878233 -0.0035377291 -0.20412245 0.06881355 0.090164065 -0.15262279 0.018449316 0.10459083
0.11517233 -0.21048672 -0.0069897603 0.09370398 -0.063243926 -0.02485755 -0.076551825 -0.012489653
0.06224735 -0.24325538 -0.1792819 -0.21578994 -0.028777342 0.05349747 0.050654106 0.11957667
0.2421621 -0.11769843 -0.06704472 0.04921543 0.33775035 0.6468913 -0.23445548 -0.14973679
0.098838255 0.18298171 0.1528263 -0.038668066 0.007238767 0.16454795 0.06685526 -0.13719916
0.14105688 0.104766294 -0.3162967 -0.19901249 -0.35670692 -0.13811795 0.057264898 -0.18587098
-0.17344859 0.40066978 0.014897719 0.17275207 -0.13111164 -0.12375807 -0.08875053 -0.0767231
-0.017855892 -0.05317351 -0.25800112 -0.09678699 0.2408764 0.19412884 -0.22006401 -0.42098254
-0.24829075 -0.2525404 0.12169721 -0.09396547 -0.28289723 -0.016541766 -0.03833889 -0.0518051
-0.10565137 -0.11981729 -0.20906648 0.061387554 0.006831009 -0.18849231 0.22122642 0.29587054
0.027600808 -0.03365703 -0.097390525 -0.03303589 -0.1526282 0.018711474 0.01900889 -0.11511323
-0.21094908 -0.177543 0.06297366 0.14534557 0.060632907 0.074979395 0.13569005 0.0014185704
0.06965384 0.1895147 0.10399835 -0.277913 0.1461356 0.1448137 0.09443299 0.1915836
-0.26419997 0.34105554 0.39903712 -0.126499 -0.23045531 -0.13006067 0.09303576 0.014075183
-0.20188616 0.1387328 0.15751465 0.28381026 0.38272962 -0.19755378 -0.025365943 -0.27863407
-0.14580812 -0.018528892 0.07849448 -0.10310605 -0.18569677 -0.1592595 -0.025309367 -0.15725955
-0.14966226 0.014721731 -0.24876603 -0.0027471203 0.031381834 0.15769611 -0.00931307 -0.084619984
-0.15236142 -0.05672461 0.11528806 0.22768359 -0.23826511 -0.21565868 -0.13277996 0.34774685
0.22806863 0.24697976 0.08097954 -0.3658258 -0.1432319 -0.14507076 0.2863043 0.36764786
0.22306061 0.23397115 -0.18576214 -0.15184931 -0.20787528 0.02390539 -0.018858742 -0.3132503
0.018995667 0.16418533 -0.06818105 -0.014224465 -0.26574463 -0.064575665 0.09442851 0.16962062
0.28906 -0.14384364 0.3360807 0.3734342 0.14248703 0.07905423 -0.11510782 -0.11424228
00000000: a7f8 6c3c 4a78 9bbd 501d 17be bee8 2fbe
00000010: 0124 36be ff91 9c3d f6e5 97bd 3d7e eebd
00000020: c218 adbe def2 1cbe f80e e6bd b4bd c33c
00000030: f54d 973d 9cab 703d 1412 8fbd 06cc 3cbd
00000040: 0a8d adbd c8bf 01be ccb4 633d 65d2 813c
00000050: 054f aebd bd64 bebd 0eaf 103e 7c8b 113f
00000060: 05fc c33e 9f72 dc3e 954a a03e 6f3c 41be
00000070: f0f0 bbbe 4970 bebe 4bfc 81bd 2bfc 203e
00000080: 411c 6c3e 9058 1a3e a7b8 ccbd f807 1f3f
00000090: 624d 0f3e 8502 49bd c537 95be a811 80be
000000a0: 20ee 473a 22e4 533e d20e b43e cec8 743e
000000b0: b694 5bbc b08c 953c 6a8a 6d3d b032 123e
000000c0: 9c23 16be b4dd abbe cd3d 27bd 9f9e 6a3e
000000d0: 076a ce3e a44b 873e 0995 313d ebb7 863e
000000e0: b656 643d ab08 0e3d 6784 443e 20a4 b73d
000000f0: ff8b 463e 100a 243e afda 693d a5a1 4fbd
00000100: 6c76 e43c a5c1 0e3d 40fe 113d 6677 db3d
00000110: 8f01 e6bc 3267 febd dec3 703d 3bc7 6cbc
00000120: b6ab aebb 0eb3 9e3c cead f73d ca9c 56be
00000130: 4056 093d 4ca2 62bb 88eb 893e 1eb1 333e
00000140: fb39 b3bc 3fd9 67bb 7a05 51be 1eee 8c3d
00000150: f0a7 b83d 2649 1cbe 0523 973c b833 d63d
00000160: 78df eb3d d589 57be 5c0a e5bb dfe7 bf3d
00000170: 0886 81bd 10a2 cbbc 34c7 9cbd 67a1 4cbc
00000180: 14f7 7e3d f017 79be ad95 37be 0af8 5cbe
00000190: 76be ebbc 2a20 5b3d ae7a 4f3d 9de4 f43d
000001a0: 57f9 773e e00b f1bd be4e 89bd 1e96 493d
000001b0: 9ded ac3e ab9a 253f 1915 70be 9a54 19be
000001c0: b66b ca3d 8f5f 3b3e 7f7e 1c3e 6862 1ebd
000001d0: 2e33 ed3b 427f 283e 69eb 883d f07d 0cbe
000001e0: 3771 103e b68f d63d a4f1 a1be eec9 4bbe
000001f0: 4aa2 b6be cb6e 0dbe 998e 6a3d f654 3ebe
00000200: 829c 31be 9724 cd3e 9015 743c ebe5 303e
00000210: 2142 06be df74 fdbd d6c2 b5bd 0021 9dbd
00000220: 8546 92bc 77cc 59bd b918 84be 4238 c6bd
00000230: 4ea8 763e b6c9 463e 7658 61be 068b d7be
00000240: ee3f 7ebe fa4c 81be 633c f93d f870 c0bd
00000250: e8d7 90be 9982 87bc 3d09 1dbd 9631 54bd
00000260: bf5f d8bd c462 f5bd 8615 56be 8471 7b3d
00000270: a8d6 df3b 2104 41be 2e89 623e 587c 973e
00000280: 171b e23c f4db 09bd af74 c7bd a450 07bd
00000290: 914a 1cbe ce48 993c 88b8 9b3c 7cc0 ebbd
000002a0: 0903 58be d5cd 35be 56f8 803d 78d5 143e
000002b0: 365a 783d cc8e 993d 55f2 0a3e 53ef b93a
000002c0: aca6 8e3d 2410 423e 16fd d43d 9d4a 8ebe
000002d0: 92a4 153e 0b4a 143e 1566 c13d 7e2e 443e
000002e0: 3845 87be d59e ae3e 984e cc3e f488 01be
000002f0: 7afc 6bbe a02e 05be 8889 be3d 999b 663c
00000300: 3fbb 4ebe f90f 0e3e 854b 213e 944f 913e
00000310: 23f5 c33e 8a4b 4abe 3dcc cfbc 20a9 8ebe
00000320: b94e 15be e7c9 97bc b7c1 a03d 4429 d3bd
00000330: 4b27 3ebe ec14 23be 9755 cfbc a608 21be
00000340: 1041 19be 6a33 713c 86bc 7ebe 0809 34bb
00000350: 3d8a 003d 177b 213e d995 18bc 3e4d adbd
00000360: a204 1cbe 1158 68bd 251c ec3d e325 693e
00000370: c5fb 73be a1d5 5cbe 78f7 07be e00b b23e
00000380: d38a 693e 43e8 7c3e 9ad8 a53d 854d bbbe
00000390: 62ab 12be 6e8d 14be 7a96 923e 573c bc3e
000003a0: 006a 643e 2296 6f3e 6e38 3ebe 637e 1bbe
000003b0: 42dd 54be 3dd5 c33c a67d 9abc 5862 a0be
000003c0: cd9c 9b3c 3320 283e 82a2 8bbd bb0d 69bc
000003d0: ae0f 88be 3f40 84bd bc63 c13d 07b1 2d3e
000003e0: acff 933e bf4b 13be c512 ac3e c432 bf3e
000003f0: 1fe8 113e 2fe7 a13d a6bd ebbd dbf7 e9bd

inception_blocks.0.conv_5x5.1.block.0.bias f4 [4]
-4.294292e-05 0.00012369889 6.748822e-05 -0.00014629957
00000000: 9c1d 34b8 2bb5 0139 7688 8d38 fe67 19b9

inception_blocks.0.conv_5x5.1.block.1.weight f4 [4]
0.7761671 0.93975264 0.93596333 0.7539644
00000000: e3b2 463f a193 703f 4b9b 6f3f d003 413f

inception_blocks.0.conv_5x5.1.block.1.bias f4 [4]
0.020360984 -0.04919657 0.3141688 0.1753227
00000000: 14cc a63c 5882 49bd bcda a03e cb87 333e

inception_blocks.0.conv_5x5.1.block.1.running_mean f4 [4]
0.3424124 -0.12056415 0.060292684 -1.207446
00000000: ae50 af3e 56ea f6bd 76f5 763d 978d 9abf

inception_blocks.0.conv_5x5.1.block.1.running_var f4 [4]
1.4088334 1.1371857 1.3021979 1.7381296
00000000: a754 b43f 4d8f 913f 6cae a63f 087b de3f

inception_blocks.0.max_pool.1.block.0.weight f4 [4, 32, 1, 1]
0.025588136 0.01309001 -0.007680255 -6.7640784e-08 0.037926678 0.0034374653 -0.02502455 0.006129608
0.00071361737 0.055534713 0.004991625 0.034704067 0.07437781 0.008530532 0.00037395905 0.02966542
4.4242434e-08 -0.00381351 0.04481683 0.0070951767 -0.047573682 0.04784639 0.005721575 0.0091972705
0.01543459 0.028280273 -0.00040568496 0.012410988 -0.009785664 0.009642358 0.011139884 0.026507597
0.474531 -0.21084328 -0.06332373 0.00018130713 -0.04966562 0.028630467 0.12407733 0.057090778
-0.077188864 -0.08966734 -0.0009804145 -0.015883975 -0.040398438 -0.09194898 -0.031246249 -0.389091
0.0016773653 0.013991212 0.17716113 0.3485069 0.038969986 0.18967547 -0.12984337 0.08544633
-0.28948697 -0.40011728 -0.00093818095 0.50172496 -0.058831118 -0.06674399 0.09431844 0.072863735
-0.051108573 -0.5115983 -0.27533337 -9.544782e-05 -0.20839448 -0.1412386 -0.1262888 -0.02953823
0.034859523 0.048670735 -0.032085817 0.2181572 0.055583145 -0.09466367 0.014904146 -0.096959576
-0.005136151 0.027242582 0.28326952 -0.12353994 -0.39634064 -0.12136437 -0.088980526 0.07240563
-0.22917366 -0.62889445 0.0024334132 0.04919176 -0.32008234 -0.16965616 -0.08133984 -0.29813933
0.32089794 0.57961154 0.023336181 -2.9800754e-05 0.1853743 0.3246337 0.034246184 0.17164916
-0.15049994 -0.2111953 -0.005137526 -0.04266225 -0.23381324 0.016358474 -0.024007315 0.12551485
-0.0005281203 -0.052548226 -0.20266554 0.17106038 0.15338871 -0.14501104 0.07444079 -0.07026375
0.13218631 0.42123413 -0.007834241 0.12645118 0.09081337 0.10122676 0.12117924 0.04093436
00000000: 369e d13c 7b77 563c a6aa fbbb ea41 91b3
00000010: 0159 1b3d 1947 613b 4900 cdbc e1da c83b
00000020: 0d12 3b3a 5e78 633d c990 a33b da25 0e3d
00000030: 6553 983d a5c3 0b3c ef0f c439 e504 f33c
00000040: 1205 3e33 15ec 79bb da91 373d a87e e83b
00000050: 9fdc 42bd 94fa 433d 0d7c bb3b 26b0 163c
00000060: 5de1 7c3c 08ac e73c 1db2 d4b9 7557 4b3c
00000070: 0d54 20bc fbfa 1d3c 0f84 363c 7626 d93c
00000080: baf5 f23e 4de7 57be dfaf 81bd 431d 3e39
00000090: 2d6e 4bbd 718a ea3c 411c fe3d 05d8 693d
000000a0: 3215 9ebd 83a3 b7bd 4081 80ba 1c1f 82bc
000000b0: d578 25bd bf4f bcbd 22f8 ffbc f036 c7be
000000c0: 0adb db3a 653b 653c ba69 353e 7f6f b23e
000000d0: fe9e 1f3d 493a 423e a9f5 04be 7cfe ae3d
000000e0: a337 94be 2cdc ccbe 42f0 75ba 0c71 003f
000000f0: e6f8 70bd 13b1 88bd 072a c13d 9539 953d
00000100: 3957 51bd 1bf8 02bf 7ff8 8cbe 282b c8b8
00000110: 5d65 55be daa0 10be da51 01be 28fa f1bc
00000120: dcc8 0e3d f75a 473d 6b6c 03bd 9a64 5f3e
00000130: 27ab 633d 07df c1bd 8530 743c be92 c6bd
00000140: 284d a8bb d62b df3c b408 913e 8202 fdbd
00000150: 29ed cabe e28d f8bd 6c3b b6bd 6749 943d
00000160: 80ac 6abe 3aff 20bf e679 1f3b 4d7d 493d
00000170: d5e1 a3be 58ba 2dbe 8195 a6bd b8a5 98be
00000180: bc4c a43e 6c61 143f 852b bf3c a2fc f9b7
00000190: c3d2 3d3e 6336 a63e ba45 0c3d ccc4 2f3e
000001a0: a81c 1abe 9543 58be b158 a8bb 9dbe 2ebd
000001b0: bd6c 6fbe 3502 863c fdaa c4bc f786 003e
000001c0: 8e71 0aba cf3c 57bd 8e87 4fbe 742a 2f3e
000001d0: ee11 1d3e c67d 14be 6a74 983d 71e6 8fbd
000001e0: d95b 073e 00ac d73e 305b 00bc 6b7c 013e
000001f0: 5cfc b93d fa4f cf3d d22c f83d caaa 273d

inception_blocks.0.max_pool.1.block.0.bias f4 [4]
2.9941995e-07 -4.5903707e-05 0.00019457634 1.467103e-05
00000000: f7bf a034 bb88 40b8 3007 4c39 9823 7637

inception_blocks.0.max_pool.1.block.1.weight f4 [4]
0.012717455 0.75884783 0.590622 0.6750587
00000000: df5c 503c da43 423f 0133 173f a6d0 2c3f

inception_blocks.0.max_pool.1.block.1.bias f4 [4]
-0.0014464406 -0.26979658 0.38122937 0.0072765984
00000000: 7e96 bdba c722 8abe 7f30 c33e 8870 ee3b

inception_blocks.0.max_pool.1.block.1.running_mean f4 [4]
0.19455603 0.5067861 -1.5738173 1.5562168
00000000: b239 473e bcbc 013f d872 c9bf 1d32 c73f

inception_blocks.0.max_pool.1.block.1.running_var f4 [4]
0.052660186 0.39417914 0.8793351 0.6970593
00000000: 35b2 573d d9d1 c93e 1b1c 613f 7a72 323f
