models/inception/Inception1_RMSprop_32_lr1e-05_m0.99_wd0.0001/Inception1_RMSprop_32_lr1e-05_m0.99_wd0.0001_best.pth (torch, 823647 bytes, 262 tensors)

input_net.block.0.weight f4 [32, 1, 3, 3]
0.039697263 -0.43028906 -0.29421473 -0.24307042 0.0020881193 0.36503178 -0.22584987 0.25704113
0.32425633 0.28678212 -0.004289482 0.3110487 -0.15409523 -0.23364668 0.19306855 -0.10805946
-0.40047336 -0.32614285 -0.2732847 -0.13706768 0.006786559 0.050626352 0.43239012 -0.1852526
0.118336774 -0.005998203 -0.18157135 -0.24148217 0.088666774 0.32903475 -0.18881628 0.1447355
0.13686101 -0.05240638 0.014434843 -0.023877205 0.12705995 -0.30917373 0.29451784 -0.19372796
-0.16504866 0.008412489 -0.3292615 0.3587957 0.12608452 0.23414123 0.30057395 0.22364438
-0.3886955 0.026324235 0.1844968 -0.15359023 -0.4561626 -0.010419214 0.1841276 0.035365067
-0.28449476 -0.0066204844 0.23920614 -0.30310944 0.31643674 -0.15532696 -0.29006243 -0.18762796
-0.4331029 -0.020630686 0.15099992 0.21597965 -0.2485217 0.211226 0.3572599 -0.12986459
-0.14821884 0.15831855 -0.0682106 0.06455193 -0.2097273 0.2151099 0.054930095 -0.03913998
0.46572167 0.28427255 0.2969446 -0.09508714 0.29701772 0.06913677 -0.08574463 -0.08093534
-0.018598337 -0.06783251 0.009927887 0.1606607 -0.069292225 0.16434295 0.17071976 0.10731236
0.041853566 0.05054561 -0.3521229 0.2226072 -0.12856616 -0.44943917 0.013114238 0.38874847
0.14698803 -0.22982334 -0.23855357 0.34758446 -0.029802045 -0.020535886 0.24900869 0.101588555
0.17202988 0.16329095 0.17802855 0.041060872 -0.0853256 -0.07397062 0.16065377 -0.19254717
0.21401814 -0.10533726 -0.33540484 -0.15416378 0.40660256 0.17491208 0.10963925 0.039143104
0.1474916 0.0013207453 0.030616004 0.014008788 0.08041937 0.0075634355 -0.064310454 -0.34269854
-0.14720768 0.1993492 -0.29635847 0.009163525 0.23810323 0.48029137 -0.054323915 -0.13519502
0.15789203 0.21973065 -0.15485103 0.033812 0.29109135 -0.3978887 -0.05568333 -0.3293752
0.25100997 0.2826481 -0.008385643 0.22425489 -0.2965412 0.1506407 -0.12547575 -0.23085819
-0.19536081 0.06601903 -0.09206054 -0.31485522 -0.27496964 0.30654526 0.38432273 0.22914156
-0.113455474 -0.011407865 -0.0035026034 -0.062091816 -0.25720912 -0.3676338 0.06139699 -0.005659318
-0.23289168 0.3959529 -0.123601586 0.27823442 0.29917526 -0.2818116 -0.13691498 0.24782354
-0.053838734 -0.4416476 0.11208378 0.30565965 -0.27901912 0.17566848 0.07254124 -0.08673037
0.17323187 0.36586493 0.032981638 -0.0845465 0.11917692 -0.26204935 -0.2611189 0.115033194
0.06434378 0.19301873 -0.4519732 -0.013907723 0.17175175 0.16134217 0.015652796 -0.153475
0.28197277 0.3708264 -0.41048738 -0.38392827 0.24718152 -0.073756285 0.0025607883 0.27058575
0.14637129 0.41763744 0.066491954 -0.024081735 -0.1641168 -0.4149668 0.25960335 -0.25405157
0.08576009 0.27351397 -0.012267073 0.35322973 0.1170265 -0.25086698 -0.2643142 -0.2657814
-0.2223076 0.01498608 -0.28761908 0.17430551 0.1969312 -0.17812869 -0.29232267 0.17871623
0.16145216 -0.05877418 0.25045466 0.14488162 0.109989315 -0.09000609 -0.039523073 0.359646
0.297935 -0.4959753 -0.07895434 -0.07963425 0.26969236 0.055816043 0.061371785 -0.14231086
00000000: 9999 223d d94e dcbe 50a3 96be 74e7 78be
00000010: d4d8 083b 72e5 ba3e 3045 67be e59a 833e
00000020: ed04 a63e 1bd5 923e c88e 8cbb c641 9f3e
00000030: 24cb 1dbe 1341 6fbe c3b3 453e 474e ddbd
00000040: d80a cdbe 32fc a6be f9eb 8bbe 785b 0cbe
00000050: c861 de3b 945d 4f3d 3d62 dd3e dcb2 3dbe
00000060: 8d5a f23d 938c c4bb d7ed 39be 1a47 77be
00000070: ed96 b53d 3e77 a83e 0e59 41be 8b35 143e
00000080: 4b25 0c3e 13a8 56bd 1f80 6c3c 219a c3bc
00000090: 011c 023e 054c 9ebe 0bcb 963e 9f60 46be
000000a0: 8402 29be 89d4 093c f794 a8be 12b4 b73e
000000b0: 4d1c 013e b8c2 6f3e d4e4 993e 0803 653e
000000c0: 1903 c7be eca5 d73c bbec 3c3e c246 1dbe
000000d0: 258e e9be 5ab5 2abc f28b 3c3e f6da 103d
000000e0: 4ca9 91be a6f0 d8bb 74f2 743e 2931 9bbe
000000f0: ff03 a23e 080e 1fbe 1083 94be 8b21 40be
00000100: aabf ddbe af01 a9bc b99f 1a3e c529 5d3e
00000110: 797c 7ebe a14b 583e c5ea b63e 39fb 04be
00000120: aec6 17be 421e 223e 00b2 8bbd cd33 843d
00000130: c1c2 56be c545 5c3e 61fe 603d 3e51 20bd
00000140: 1273 ee3e 2c8c 913e 1f09 983e 0cbd c2bd
00000150: b512 983e 9497 8d3d e19a afbd 6dc1 a5bd
00000160: 8a5b 98bc c5eb 8abd 93a8 223c 3d84 243e
00000170: 15e9 8dbd 8549 283e 29d1 2e3e 95c6 db3d
00000180: a56e 2b3d ea08 4f3d 7449 b4be 24f3 633e
00000190: d9a6 03be e41c e6be 1add 563c 0a0a c73e
000001a0: 0884 163e cf56 6bbe 6347 74be 97f6 b13e
000001b0: 6b23 f4bc e03a a8bc 22fc 7e3e a90d d03d
000001c0: 9a28 303e be35 273e 1e4d 363e 722f 283d
000001d0: 30bf aebd e97d 97bd 6c82 243e 162b 45be
000001e0: 9227 5b3e 10bb d7bd 2fba abbe 1cdd 1dbe
000001f0: 362e d03e 271c 333e 8b8a e03d 8554 203d
00000200: 0a08 173e dc1c ad3a 6ace fa3c 1e85 653c
00000210: e9b2 a43d b2d6 f73b 33b5 83bd 2f76 afbe
00000220: 9cbd 16be 3222 4c3e 4cbc 97be 9c22 163c
00000230: 55d1 733e c0e8 f53e c182 5ebd 9070 0abe
00000240: 73ae 213e 1201 613e 4591 1ebe 747e 0a3d
00000250: ed09 953e 11b8 cbbe 3414 64bd dea3 a8be
00000260: 6184 803e 40b7 903e f063 09bc 13a3 653e
00000270: 40d4 97be 8e41 1a3e b77c 00be 1766 6cbe
00000280: aa0c 48be fc34 873d 3d8a bcbd b434 a1be
00000290: d2c8 8cbe 80f3 9c3e f3c5 c43e 16a4 6a3e
000002a0: 585b e8bd 0ee8 3abc ef8b 65bb fd53 7ebd
000002b0: eab0 83be 7f3a bcbe 697b 7b3d cd71 b9bb
000002c0: 287b 6ebe 57ba ca3e d422 fdbd be74 8e3e
000002d0: 802d 993e 9c49 90be 7133 0cbe 74c5 7d3e
000002e0: 0186 5cbd a21f e2be 2e8c e53d 6c7f 9c3e
000002f0: 98db 8ebe 70e2 333e 8090 943d b19f b1bd
00000300: b263 313e a652 bb3e c117 073d b726 adbd
00000310: 0713 f43d 552b 86be 60b1 85be 8696 eb3d
00000320: acc6 833d b4a6 453e 0869 e7be 38dd 63bc
00000330: b1df 2f3e e236 253e 4b3a 803c 8d28 1dbe
00000340: bc5e 903e f5dc bd3e 672b d2be 3f92 c4be
00000350: 271d 7d3e 890d 97bd e6d2 273b 378a 8a3e
00000360: 5be2 153e 93d4 d53e ef2c 883d 0f47 c5bc
00000370: 3c0e 28be 8776 d4be bbea 843e 0c13 82be
00000380: fca2 af3d 060a 8c3e d5fb 48bc 87da b43e
00000390: 97ab ef3d a371 80be 3154 87be 8014 88be
000003a0: 9aa4 63be 2d88 753c cf42 93be 257d 323e
000003b0: 55a8 493e 5e67 36be 51ab 95be 6301 373e
000003c0: b753 253e 32bd 70bd 983b 803e d95b 143e
000003d0: 1442 e13d 1d55 b8bd f2e2 21bd 8523 b83e
000003e0: f08a 983e 79f0 fdbe d0b2 a1bd 4817 a3bd
000003f0: 1e15 8a3e 5d9f 643d fb60 7b3d f0b9 11be

input_net.block.0.bias f4 [32]
-0.00040266514 -0.0003184454 -2.1895527e-05 3.1262938e-05 2.9128489e-05 6.580891e-05 -6.3293024e-05 0.00056400493
-9.664358e-05 -0.00012517809 -5.874218e-05 -0.00050523295 1.5951817e-05 0.00040108428 3.968691e-06 0.0004029619
-7.649903e-05 0.00016389502 -9.968331e-05 0.0002287513 0.0001097923 0.000113029106 -6.9722686e-05 -0.0011046734
-8.162181e-05 5.1523148e-06 6.4399195e-05 -0.00025085613 -6.3535e-05 -6.31868e-05 -6.2108826e-05 0.00035086906
00000000: cd1c d3b9 05f5 a6b9 49ac b7b7 5320 0338
00000010: f458 f437 e402 8a38 2fbc 84b8 bbd9 133a
00000020: 20ad cab8 3d42 03b9 ef61 76b8 9c71 04ba
00000030: 44d0 8537 9f48 d239 cc2a 8536 a144 d339
00000040: 1b6e a0b8 3cdb 2b39 120d d1b8 f6dc 6f39
00000050: 4b40 e638 0a0a ed38 1538 92b8 b0ca 90ba
00000060: 602c abb8 0ce2 ac36 0e0e 8738 5785 83b9
00000070: 183e 85b8 2883 84b8 6c40 82b8 d9f4 b739

input_net.block.1.weight f4 [32]
1.2914011 0.95503736 0.44254884 0.3368873 0.6613888 1.0537922 0.6755948 0.65742
0.39889652 0.59624356 0.36697495 0.9486498 0.59281254 0.5655663 0.1073734 0.8705811
0.24319325 0.499602 1.0737022 0.9261926 1.0266184 0.6161875 0.37587824 0.97109246
0.7549509 0.9339242 0.2765507 0.538892 0.76460946 0.5813841 0.6607761 0.7807009
00000000: a24c a53f 547d 743f c395 e23e 7e7c ac3e
00000010: c750 293f aae2 863f c8f3 2c3f ad4c 283f
00000020: 2a3c cc3e 6ba3 183f 24e4 bb3e b7da 723f
00000030: 90c2 173f f4c8 103f 96e6 db3d 67de 5e3f
00000040: a707 793e d5cb ff3e 136f 893f f51a 6d3f
00000050: 3b68 833f 77be 1d3f 1d73 c03e 8499 783f
00000060: 7644 413f a815 6f3f 0e98 8d3e d3f4 093f
00000070: 72bd 433f 97d5 143f 9f28 293f 04dc 473f

input_net.block.1.bias f4 [32]
0.3110666 0.1653716 0.07292364 -0.051258516 -0.11836812 0.3822143 -0.19946046 0.28354314
-0.15692452 0.06294743 -0.12969206 0.13749665 -0.13908724 -0.116000906 -0.14423543 0.35840997
0.14644727 -0.005608917 0.11477103 0.2510784 0.13823976 0.07602622 0.19041216 0.7697345
0.3241471 0.024284659 -0.060514547 0.28360134 -0.011055409 -0.2909669 -0.21357597 0.6258683
00000000: 1f44 9f3e 2c57 293e fd58 953d 73f4 51bd
00000010: fc6a f2bd 98b1 c33e 5d3f 4cbe 912c 913e
00000020: d2b0 20be 95ea 803d ffcd 04be eccb 0c3e
00000030: e36c 0ebe e291 edbd 74b2 13be 8381 b73e
00000040: 46f6 153e 02cb b7bb 130d eb3d 598d 803e
00000050: b98e 0d3e a3b3 9b3d 68fb 423e 520d 453f
00000060: 9cf6 a53e 9ff0 c63c 1ade 77bd 3234 913e
00000070: bf21 35bc 9df9 94be a9b3 5abe e838 203f

input_net.block.1.running_mean f4 [32]
0.0031842976 0.015011835 0.0059552346 -0.005336594 0.0005268718 0.003438749 0.008326173 0.0005919286
-0.015664198 -0.014025914 -0.0051005664 9.398709e-05 -0.020175226 -0.0048066354 -0.009660515 0.00019290064
0.00023312568 0.0047085886 -0.00011985982 0.0054056174 0.0056190346 -0.010819136 -0.002141445 -0.007274322
-0.004533365 0.008374421 -0.0065776026 0.0010415501 0.010786455 -0.00988152 0.007829797 -0.0007692309
00000000: a6af 503b 33f4 753c 2124 c33b 98de aebb
00000010: c51d 0a3a a25c 613b 806a 083c a82b 1b3a
00000020: 3452 80bc f2cc 65bc a722 a7bb ef1a c538
00000030: 8446 a5bc fb80 9dbb 2347 1ebc 5f45 4a39
00000040: 3373 7439 814a 9a3b 405d fbb8 9b21 b13b
00000050: e11f b83b bf42 31bc 7c57 0cbb 705d eebb
00000060: 9f8c 94bb de34 093c ee88 d7bb 9f84 883a
00000070: acb9 303c 19e6 21bc 8d48 003c 36a6 49ba

input_net.block.1.running_var f4 [32]
0.12964316 0.31201914 0.041934952 0.052995253 0.023981545 0.14807458 0.08145653 0.09890403
0.22784925 0.35085204 0.101353906 0.033032205 0.5164131 0.034245152 0.1173476 0.036732465
0.016263254 0.07650905 0.082439646 0.20461527 0.08016924 0.26495755 0.019546112 0.063071124
0.058812585 0.15670325 0.034140203 0.08983922 0.15435718 0.06629153 0.10896585 0.055223633
00000000: 2dc1 043e f9c0 9f3e fcc3 2b3d 8d11 593d
00000010: f274 c43c dda0 173e aed2 a63d 328e ca3d
00000020: 5051 693e e1a2 b33e a392 cf3d c74c 073d
00000030: a633 043f a544 0c3d f053 f03d c874 163d
00000040: 843a 853c c7b0 9c3d 1ed6 a83d aa86 513e
00000050: c52f a43d 84a8 873e 2b1f a03c 6f2b 813d
00000060: 77e5 703d d176 203e 99d6 0b3d a0fd b73d
00000070: cf0f 1e3e dbc3 873d 7d29 df3d 2d32 623d

inception_blocks.0.conv_1x1.block.0.weight f4 [8, 32, 1, 1]
-0.49623874 -0.111271024 -0.098612875 0.02661122 -0.016303336 0.0991548 -0.15486725 -0.14370908
-0.28752905 0.047488764 -0.008622493 -0.07379143 -0.005833823 -0.124855526 -0.14853552 -0.2418069
-0.06708134 -0.072204046 -0.1426498 -0.29128373 -0.288005 0.21698532 -0.15920217 -0.17327552
-0.20782962 -0.264921 -0.06391624 0.16943131 -0.34740755 -0.15568087 0.05576201 0.05089992
-0.19706163 -0.12441938 -0.25526845 -0.13932002 -0.010173834 0.08880317 0.04300926 -0.27037996
-0.15562256 0.04475823 -0.02875888 -0.105561085 -0.08111976 0.009672942 0.0034168593 -0.39279824
0.20977171 -0.13284846 -0.3760161 -0.19040206 -0.0060590506 0.03473895 -0.12669079 0.06334704
0.36631534 0.18803228 0.013519351 -0.054277454 0.18869372 0.045319658 -0.3096984 0.14641368
-0.05259819 0.051562212 0.12086439 0.023573078 -0.005093657 -0.40536034 0.089388125 0.17128432
0.015061388 -0.1142816 -0.075977616 -0.26927 -0.109983355 0.022767581 0.0372073 0.21864173
0.029970255 0.012313291 -0.16899656 0.23363774 0.23954394 -0.12631972 0.21013188 -0.13052969
0.18600786 0.031689994 0.017936103 -0.21880841 0.09309446 0.1703303 0.018401975 -0.043838322
0.22973116 0.16303939 0.005648575 0.15579723 0.21959215 0.21417718 0.043585513 0.0662226
0.08556127 -0.15368629 -0.020306379 -0.12962252 -0.06593716 0.055384867 0.031537924 0.022214826
-0.032545097 0.09524919 -0.14815065 0.09725156 0.105442196 -0.10807733 -0.047102198 0.17296109
-0.043736678 0.054346524 -0.0015859661 0.11153404 0.11246065 -0.08239104 0.12530518 0.01080102
0.29746258 -0.18917452 0.03890454 0.049829632 0.117447324 -0.08999946 0.1095995 -0.029259656
0.11771096 -0.10387893 -0.09300364 0.5529259 -0.12579396 0.026314344 -0.062876165 -0.0632027
0.38670436 0.04094093 0.27633733 0.22608891 0.1675563 -0.06394977 -0.16049312 -0.033583768
0.018631296 -0.05056478 0.10148717 0.15792054 -0.07524474 -0.117799595 0.18370676 0.11895953
0.01860762 0.06135581 0.14881997 0.19387458 -0.026292805 -0.05771229 0.08042995 0.049283303
0.11118773 0.21691482 0.24473085 0.08791624 0.34599143 0.21879935 0.026585981 0.13015376
-0.045497365 0.09584767 -0.07093541 0.029333513 0.06986067 0.34392327 -0.0069245645 0.13319778
-0.07276748 -0.21354514 -0.020984499 0.141075 0.07342361 0.2698834 0.028923174 -0.05069476
-0.0030232696 -0.12980023 0.14772743 -0.010817583 0.0001306851 -0.3926991 0.056642957 0.28792927
-0.0043104524 -0.035959233 0.11290993 -0.03311683 0.1659364 0.15435167 -0.0051181517 0.36860475
-0.20457926 0.007778853 0.008908077 0.18210295 0.053977408 0.102506176 0.24545725 0.0024808901
-0.18500155 -0.12944886 0.059602708 -0.072483316 -0.073260196 0.23322345 0.090192646 -0.024997933
-0.18034995 0.049243696 0.011615788 0.06878217 -0.11258831 0.30068892 0.00719001 -0.17384042
0.1391832 0.043426905 -0.014820682 -0.06360229 -0.060910694 -0.09704163 -0.0028177958 -0.048848666
-0.15414014 0.016029313 -0.062259473 0.06502138 0.030709473 -0.24168532 -0.07562391 0.5320694
0.03888806 0.075335905 0.14084283 0.1216681 -0.07586756 0.014005005 -0.14750081 -0.2549084
00000000: 0113 febe 10e2 e3bd 8cf5 c9bd c6ff d93c
00000010: 938e 85bc ac11 cb3d 8595 1ebe 7928 13be
00000020: 0237 93be 9483 423d 5b45 0dbc f61f 97bd
00000030: a729 bfbb 41b4 ffbd b219 18be 3a9c 77be
00000040: f161 89bd b7df 93bd ca12 12be 2423 95be
00000050: 6475 93be 6631 5e3e e505 23be 236f 31be
00000060: 4ad1 54be baa3 87be 85e6 82bd 677f 2d3e
00000070: 67df b1be ce6a 1fbe b566 643d 6f7c 503d
00000080: 86ca 49be 97cf febd 8cb2 82be e8a9 0ebe
00000090: 27b0 26bc 70de b53d 7a2a 303d 3e6f 8abe
000000a0: 855b 1fbe 6854 373d be97 ebbc 6930 d8bd
000000b0: 1e22 a6bd 427b 1e3c 63ed 5f3b da1c c9be
000000c0: 65ce 563e 6d09 08be 2f85 c0be c2f8 42be
000000d0: 008b c6bb 6e4a 0e3d 3bbb 01be 18bc 813d
000000e0: af8d bb3e 898b 403e 4580 5d3c 0952 5ebd
000000f0: ed38 413e 1ba1 393d ca90 9ebe 78ed 153e
00000100: 3371 57bd e632 533d c087 f73d 541c c13c
00000110: b1e8 a6bb 648b cfbe 1f11 b73d 2865 2f3e
00000120: 0ac4 763c 790c eabd 279a 9bbd c2dd 89be
00000130: f43e e1bd 1483 ba3c af66 183d 9ee3 5f3e
00000140: 2e84 f53c b0bd 493c 6f0d 2dbe bb3e 6f3e
00000150: 024b 753e f559 01be d02c 573e 93a9 05be
00000160: d878 3e3e 5ecd 013d bcee 923c 500f 60be
00000170: 4fa8 be3d 116b 2e3e bdbf 963c d08f 33bd
00000180: a53e 6b3e ccf3 263e ae17 b93b 4f89 1f3e
00000190: c4dc 603e 4351 5b3e b986 323d b79f 873d
000001a0: bf3a af3d f05f 1dbe 9059 a6bc c4bb 04be
000001b0: 100a 87bd 3edb 623d e92d 013d defb b53c
000001c0: 024e 05bd 0212 c33d ceb4 17be d32b c73d
000001d0: 14f2 d73d a657 ddbd 3cee 40bd b61c 313e
000001e0: 3b25 33bd 769a 5e3d 31e0 cfba f56b e43d
000001f0: c551 e63d a2bc a8bd 0050 003e c3f6 303c
00000200: 044d 983e f7b6 41be 5e5a 1f3d 281a 4c3d
00000210: 3988 f03d a351 b8bd b475 e03d f2b1 efbc
00000220: 7212 f13d 7abe d4bd b178 bebd 8d8c 0d3f
00000230: 22d0 00be 2e91 d73c 38c5 80bd 6b70 81bd
00000240: 1dfe c53e adb1 273d 167c 8d3e da83 673e
00000250: e193 2b3e 19f8 82bd 4f58 24be 228f 09bd
00000260: a9a0 983c 041d 4fbd 81d8 cf3d ecb5 213e
00000270: ea19 9abd ea40 f1bd a01d 3c3e 0ea1 f33d
00000280: 026f 983c 3b50 7b3d 4364 183e 0f87 463e
00000290: 0264 d7bc b963 6cbd 75b8 a43d 4add 493d
000002a0: 65b6 e33d eb1e 5e3e b99a 7a3e 6e0d b43d
000002b0: ca25 b13e f00c 603e d8ca d93c 0747 053e
000002c0: 725b 3abd c94b c43d 9646 91bd d64c f03c
000002d0: 1c13 8f3d b616 b03e 75e7 e2bb 0065 083e
000002e0: 1e07 95bd 94ab 5abe afe7 abbc f775 103e
000002f0: 1e5f 963d 282e 8a3e 4bf0 ec3c 4fa5 4fbd
00000300: 0c22 46bb 5aea 04be dc45 173e 3b3c 31bc
00000310: 8408 0939 db0f c9be 7202 683d 776b 933e
00000320: b23e 8dbb fd49 13bd 523d e73d 83a5 07bd
00000330: 3beb 293e 5d0e 1e3e 2bb6 a7bb c3b9 bc3e
00000340: 3a7d 51be c0e5 fe3b 2ff3 113c 3279 3a3e
00000350: 6a17 5d3d c2ee d13d 2559 7b3e 6e96 223b
00000360: 0c71 3dbe 3e8e 04be f821 743d 2272 94bd
00000370: 7109 96bd 21d2 6e3e ecb6 b83d 77c8 ccbc
00000380: a8ad 38be c2b3 493d 2550 3e3c abdd 8c3d
00000390: b394 e6bd e6f3 993e 2d9a eb3b 3903 32be
000003a0: 0a86 0e3e 69e0 313d 72d2 72bc eb41 82bd
000003b0: 7e7d 79bd c3bd c6bd c5aa 38bb 8a15 48bd
000003c0: ead6 1dbe e84f 833c ca03 7fbd ee29 853d
000003d0: 6f92 fb3c 5b7c 77be b5e0 9abd b335 083f
000003e0: 1649 1f3d b649 9a3d 1a39 103e 202d f93d
000003f0: 7460 9bbd 4075 653c 740a 17be 5b83 82be

inception_blocks.0.conv_1x1.block.0.bias f4 [8]
0.0001702001 0.00013640006 4.388393e-05 -1.2781013e-05 3.206033e-05 -8.2273364e-05 -3.415028e-05 -0.00017891942
00000000: be77 3239 9d06 0f39 0310 3838 086e 56b7
00000010: 8478 0638 2d8a acb8 953c 0fb8 519c 3bb9

inception_blocks.0.conv_1x1.block.1.weight f4 [8]
0.89937806 0.9313247 0.6505599 0.38611093 0.9534458 0.59175116 0.67749643 0.73737836
00000000: a43d 663f 4c6b 6e3f 188b 263f 55b0 c53e
00000010: 0615 743f 017d 173f 6870 2d3f d4c4 3c3f

inception_blocks.0.conv_1x1.block.1.bias f4 [8]
0.089530155 0.16917633 0.08257201 -0.2829859 -0.1758009 -0.35153025 0.28528026 -0.19507383
00000000: 965b b73d 8f3c 2d3e 841b a93d 87e3 90be
00000010: 2705 34be c6fb b3be 4110 923e 6fc1 47be

inception_blocks.0.conv_1x1.block.1.running_mean f4 [8]
-1.1800535 -0.38343155 -0.034476504 0.56410986 0.54757935 0.52480036 0.1315108 0.21141307
00000000: fe0b 97bf 2451 c4be 3c37 0dbd 8169 103f
00000010: 292e 0c3f 5159 063f c4aa 063e ab7c 583e

inception_blocks.0.conv_1x1.block.1.running_var f4 [8]
0.8070601 1.0872636 0.6446364 0.21053863 0.6997868 0.56028545 0.650378 0.4362186
00000000: 7e9b 4e3f 742b 8b3f e406 253f 7097 573e
00000010: 3a25 333f de6e 0f3f 2c7f 263f 0b58 df3e

inception_blocks.0.conv_3x3.0.block.0.weight f4 [12, 32, 1, 1]
0.19601436 0.20554721 -0.17300922 -0.050418332 -0.009610632 0.4089409 -0.081471644 -0.1371743
-0.013739115 -0.18876089 -0.0014996832 -0.2787435 -0.17032284 -0.1789962 -0.06275186 0.013381942
0.034892254 0.10995066 0.043193795 0.083564244 -0.22222315 -0.26177612 -0.035839636 0.40548614
0.06075765 0.23407294 0.07702556 0.03346407 -0.051564127 -0.1155254 -0.19408973 -0.20709513
-0.3259379 -0.010395424 -0.07729988 0.112642445 -0.31236285 0.25195885 -0.07608147 -0.24422523
-0.030453632 -0.019011721 -0.0066217394 -0.19087858 0.06451947 -0.04494326 -0.008322383 0.084560916
-0.057478666 -0.035563644 -0.21915485 -0.28995445 -0.2693301 0.070264526 0.11155198 0.40588
0.08796613 -0.23131232 0.0219987 0.04877609 -0.14257394 0.15904039 -0.21439809 -0.25525373
0.5520139 -0.11698672 -0.10773259 0.0006240085 0.05579679 -0.049999658 0.078968294 0.07902011
0.078575134 -0.050696082 0.056811746 0.1290475 0.03188576 0.18251714 -0.0105565945 0.37063536
-0.018512798 -0.016427437 -0.024106616 0.013216736 0.17898677 -0.04578983 0.064977 0.18665609
0.05820071 -0.060337383 -0.014433123 -0.14562607 -0.13378489 0.106781885 -0.009770463 -0.33324122
-0.34789017 0.34440497 -0.012072164 -0.013623967 -0.06661235 0.29896656 0.31613675 -0.06505711
0.095753655 -0.15356559 -0.06252957 -0.05563835 -0.0459826 -0.24105375 -0.013421806 -0.16736698
0.06293126 0.100328706 0.15127939 0.11054223 0.41299066 -0.018041773 -0.27564025 0.08351037
-0.102130756 0.033513553 0.11254674 0.2378901 0.24043524 -0.273109 -0.22296688 0.21694933
0.029255409 -0.1276584 0.28845358 0.17129433 0.10569934 -0.26972196 0.08415545 0.28317708
-0.23689245 0.036874052 0.18782334 -0.1324412 -0.023363177 -0.21173878 -0.038581472 0.45538604
-0.06298418 0.0060874107 0.24959256 0.062146477 0.104800016 0.0806854 -0.11110137 -0.23406954
-0.19277495 0.061172694 0.16043688 0.04532133 -0.046220638 -0.06576194 0.19791393 0.2431018
0.2644062 -0.16117975 -0.016781487 0.1666781 0.081102796 -0.16625811 -0.12185496 0.027778095
0.15043446 -0.42329288 -0.20916612 -0.06462753 -0.15947485 -0.13073957 0.007256264 0.027355656
0.019374369 -0.05572916 0.06983749 -0.045488365 -0.22741374 -0.17431116 -0.032050196 0.21906812
-0.39517474 -0.14591287 0.033307575 -0.10387532 -0.3551658 -0.04135694 -0.057363704 -0.20123419
-0.49674726 -0.021818792 0.1491302 0.00028860956 -0.08606436 -0.031734362 0.38195416 0.14774366
-0.06090532 0.020732028 0.007813092 0.12516364 -0.16130346 -0.08524174 0.08074517 0.15235595
-0.020511186 0.021347223 -0.06413641 0.45734742 0.58031964 -0.14955246 0.022331415 -0.30238542
0.13068876 -0.068061806 -0.025290295 -0.03204296 0.2906793 -0.08693941 0.003044194 0.10682602
-0.072021 -0.43254343 -0.012143183 -0.151193 -0.12540467 -0.4569124 -0.057211276 0.029654216
0.20056668 0.030329663 -0.2167924 -0.14429419 -0.046477772 0.25596753 -0.09014064 -0.12209119
-0.0141701875 -0.28200832 -0.111151196 0.1744316 0.084414445 -0.18435572 0.27988735 -0.032177396
0.102385715 -0.27856746 0.077316426 -0.09107484 -0.09136592 0.1669479 -0.09524695 -0.19171835
00000000: fdb7 483e f87a 523e 5429 31be 7483 4ebd
00000010: ea75 1dbc b460 d13e 9bda a6bd 6b77 0cbe
00000020: 061a 61bc 894a 41be 0591 c4ba 78b7 8ebe
00000030: 1c69 2ebe c84a 37be 0c84 80bd ef3f 5b3c
00000040: 2eeb 0e3d d02d e13d faeb 303d bb23 ab3d
00000050: 778e 63be 8507 86be 95cc 12bd e19b cf3e
00000060: 03dd 783d d1b0 6f3e 94bf 9d3d 9f11 093d
00000070: e834 53bd 9598 ecbd 75bf 46be bf10 54be
00000080: 55e1 a6be 9251 2abc 664f 9ebd 15b1 e63d
00000090: 06ee 9fbe c000 813e 9ad0 9bbd 2e16 7abe
000000a0: e579 f9bc 78be 9bbc 2dfb d8bb ad75 43be
000000b0: c922 843d 6c16 38bd 9b5a 08bc 462e ad3d
000000c0: c06e 6bbd 2fab 11bd 216a 60be e974 94be
000000d0: a3e5 89be d9e6 8f3d 5d75 e43d 81cf cf3e
000000e0: 9627 b43d 23dd 6cbe 9e36 b43c 70c9 473d
000000f0: e7fe 11be 7cdb 223e 2c8b 5bbe 9eb0 82be
00000100: c850 0d3f bc96 efbd e7a2 dcbd 8094 233a
00000110: 2d8b 643d 71cc 4cbd 21ba a13d 4cd5 a13d
00000120: 00ec a03d b2a6 4fbd 6fb3 683d 0725 043e
00000130: a59a 023d c6e5 3a3e 91f5 2cbc ebc3 bd3e
00000140: 27a8 97bc d592 86bc 3d7b c5bc 028b 583c
00000150: 4f48 373e 1e8e 3bbd a912 853d c622 3f3e
00000160: de63 6e3d 5524 77bd e878 6cbc 001f 15be
00000170: e8fe 08be 76b0 da3d 4b14 20bc 989e aabe
00000180: a91e b2be d955 b03e 53ca 45bc 0f37 5fbc
00000190: 0e6c 88bd 2512 993e addc a13e a93c 85bd
000001a0: 7e1a c43d 4c40 1dbe 810f 80bd 0ae5 63bd
000001b0: 4058 3cbd cbd6 76be 22e7 5bbc 4062 2bbe
000001c0: 1be2 803d 2379 cd3d fce8 1a3e f763 e23d
000001d0: 8373 d33e 57cc 93bc b820 8dbe 7c07 ab3d
000001e0: ee29 d1bd 8245 093d e87e e63d 7699 733e
000001f0: a834 763e f1d4 8bbe 6e51 64be f727 5e3e
00000200: 0aa9 ef3c e2b8 02be 30b0 933e c867 2f3e
00000210: e578 d83d ff18 8abe b159 ac3d 96fc 903e
00000220: ef93 72be 3f09 173d c354 403e aa9e 07be
00000230: 2264 bfbc 0dd2 58be 9b07 1ebd 5c28 e93e
00000240: dafd 80bd e778 c73b 3195 7f3e 4e8d 7e3d
00000250: 64a1 d63d 633e a53d 1d89 e3bd edaf 6fbe
00000260: cc66 45be 3890 7a3d 9149 243e dca2 393d
00000270: da51 3dbd 32ae 86bd f3a9 4a3e aeef 783e
00000280: 4060 873e 4e0c 25be 5479 89bc aaad 2a3e
00000290: 3919 a63d 913f 2abe 188f f9bd e38e e33c
000002a0: 7e0b 1a3e d8b9 d8be a52f 56be 705b 84bd
000002b0: 604d 23be 98e0 05be f4c5 ed3b f818 e03c
000002c0: ffb6 9e3c 4244 64bd f506 8f3d 0252 3abd
000002d0: 26df 68be a07e 32be 1147 03bd 6553 603e
000002e0: 5854 cabe 2f6a 15be 866d 083d 95bc d4bd
000002f0: 4bd8 b5be e565 29bd 34f6 6abd 5610 4ebe
00000300: a855 febe 53bd b2bc 96b5 183e 8550 9739
00000310: 8342 b0bd e4fb 01bd 7f8f c33e 1d4a 173e
00000320: db77 79bd 37d6 a93c 7c02 003c e62a 003e
00000330: bc2c 25be 3993 aebd b95d a53d 3303 1c3e
00000340: 1307 a8bc 5fe0 ae3c f359 83bd 7129 ea3e
00000350: d48f 143f 4824 19be 5ff0 b63c 43d2 9abe
00000360: 46d3 053e fd63 8bbd 982d cfbc 7b3f 03bd
00000370: ebd3 943e 4a0d b2bd 1a81 473b 9ac7 da3d
00000380: bf7f 93bd 5576 ddbe 33f4 46bc 56d2 1abe
00000390: 156a 00be 6cf0 e9be 5f56 6abd 66ed f23c
000003a0: 5a61 4d3e ea75 f83c d4fe 5dbe dbc1 13be
000003b0: 7a5f 3ebd 2d0e 833e a89b b8bd f20a fabd
000003c0: 132a 68bc 6563 90be 3da3 e3bd 339e 323e
000003d0: 7be1 ac3d bfc7 3cbe 654d 8f3e 72cc 03bd
000003e0: 9aaf d13d 65a0 8ebe 1358 9e3d 7285 babd
000003f0: 0e1e bbbd 64f4 2a3e d510 c3bd d151 44be

inception_blocks.0.conv_3x3.0.block.0.bias f4 [12]
0.00049364346 -9.741497e-05 2.7984934e-05 6.46203e-06 0.00011354216 -5.9510985e-05 8.597343e-05 7.441055e-05
4.4041943e-05 -1.3044274e-08 8.390478e-05 -0.0002370951
00000000: da67 013a 444b ccb8 30c1 ea37 6ad4 d836
00000010: 7c1d ee38 6f9b 79b8 a24c b438 dc0c 9c38
00000020: adb9 3838 5319 60b2 09f6 af38 bb9c 78b9

inception_blocks.0.conv_3x3.0.block.1.weight f4 [12]
0.9937961 0.7646811 0.77921087 0.9729525 0.8125771 0.7768684 1.0155268 0.94859457
0.81846523 -0.004823671 0.7710681 0.8044106
00000000: 6c69 7e3f 24c2 433f 5d7a 473f 6a13 793f
00000010: 0e05 503f d9e0 463f c8fc 813f 18d7 723f
00000020: f086 513f e30f 9ebb b864 453f daed 4d3f

inception_blocks.0.conv_3x3.0.block.1.bias f4 [12]
0.1507068 0.39728695 -0.13008867 0.19081667 -0.096117005 0.100277774 -0.0651063 0.36689022
0.14074816 -0.030394781 0.5163236 0.4254532
00000000: e252 1a3e 3269 cb3e f735 05be 7265 433e
00000010: fed8 c4bd 6f5e cd3d 7456 85bd 09d9 bb3e
00000020: 4920 103e 7afe f8bc c92d 043f 00d5 d93e

inception_blocks.0.conv_3x3.0.block.1.running_mean f4 [12]
0.3114642 -0.39873052 0.4805051 0.42039934 0.244175 -0.5508995 0.17799856 -0.7259865
-0.8350993 -0.0031667892 -0.42373443 0.52161777
00000000: 3c78 9f3e 6826 ccbe c404 f63e 953e d73e
00000010: 0309 7a3e c007 0dbf 4145 363e 40da 39bf
00000020: 11c9 55bf e889 4fbb b8f3 d8be be88 053f

inception_blocks.0.conv_3x3.0.block.1.running_var f4 [12]
0.6016799 0.822142 0.74242306 0.49583387 0.43238527 0.7056183 0.5004307 0.66270775
0.34826726 1.7978056e-05 0.57181776 0.40139344
00000000: b207 1a3f e677 523f 700f 3e3f f0dd fd3e
00000010: 9a61 dd3e 67a3 343f 3a1c 003f 37a7 293f
00000020: 1650 b23e 95cf 9637 a662 123f 7183 cd3e

inception_blocks.0.conv_3x3.1.block.0.weight f4 [16, 12, 3, 3]
0.21533906 0.0029638396 -0.096376814 0.16161111 0.24673046 -0.09957711 -0.35653555 -0.0761859
0.0048146383 0.1325002 -0.00015907633 -0.06826233 0.120118216 0.24182875 -0.14105578 -0.04830713
0.119412564 -0.21935982 0.02514096 0.14125672 -0.0005640044 -0.083898656 0.15700324 0.03604441
-0.07737108 -0.100789085 -0.33995718 0.14831635 0.07106528 -0.0042284993 -0.1512555 0.10806503
0.110464506 -0.3078186 -0.26000372 -0.11619199 0.030872561 0.0066691684 0.15684345 0.0563389
0.069231465 0.17173535 0.17515011 0.05114168 -0.2327857 -0.11844232 0.007818717 -0.17700611
0.024302881 0.0055900216 -0.25745398 -0.075944364 -0.05295384 -0.089809306 -0.11131013 -0.12139899
-0.04776097 -0.18283257 -0.08624976 0.091575615 0.15175912 -0.10162438 0.0914921 0.08125264
0.03092714 -0.015631216 -0.101694755 -0.18788579 -0.08392543 0.10316529 -0.042219356 -0.15397525
0.061482325 -0.03989341 -0.30669847 -0.027235882 -0.12604654 -0.0930197 0.25378445 -0.023803044
0.12525359 -0.00042110623 0.00027685604 0.0006488228 0.00027059947 0.00028169216 0.00057683775 2.862111e-06
-0.00017066993 -0.00036617095 0.17135702 0.16231138 0.21678628 -0.21662061 -0.050555315 0.24193946
-0.2102711 -0.26512602 0.12703887 0.019832883 -0.04504915 0.39478752 -0.23151053 -0.048555467
0.55491495 -0.19302802 0.0045432886 0.2278741 -0.0141246915 -0.12886393 -0.19693725 -0.06410751
-0.11917278 -0.07740046 0.1009761 0.07250579 -0.056545332 -0.31351066 -0.18856578 -0.38759926
-0.19287519 -0.2755507 -0.18328163 0.109804474 -0.099160254 -0.051395074 0.120628506 0.06740468
-0.040793423 0.060837653 -0.005407673 -0.06504939 -0.10140822 -0.33984587 -0.1947179 -0.013677104
0.0153746605 -0.01949992 0.11119908 0.07531336 -0.01329194 0.003812017 -0.09022992 -0.17355397
0.21353209 0.0074889404 -0.16902797 -0.14652933 0.0033449156 0.028415143 -0.12147243 -0.12164648
-0.13462052 0.2677921 0.14929408 0.08065604 0.1363118 -0.012767454 -0.026209794 -0.18943395
-0.18289265 -0.031548582 -0.0804101 -0.04473428 0.09819746 -0.17931749 -0.061934818 0.04676057
-0.10660769 -0.09230096 -0.16033766 0.12260582 0.11552248 0.20757364 -0.0454984 -0.073876135
-0.31299093 -0.5115745 -0.3701525 -0.20239112 -0.20622914 -0.08902831 0.02043093 -0.1587438
-0.11302467 0.030464008 -0.14978737 0.09799704 -0.0038595987 -0.0004283424 -0.0013555515 -0.0012359563
-0.00055216 -1.3621046e-05 0.00017432921 -9.116563e-05 2.2484559e-05 8.75148e-05 -0.2124632 -0.2071716
-0.16621788 0.13789734 0.05481874 0.12880114 -0.052750826 -0.019332608 -0.14045921 -0.1716014
-0.041677818 0.11660859 0.12207168 0.08214291 -0.3095398 -0.09870819 0.04328588 0.113890775
0.20762928 0.015432974 0.26734495 0.19853635 -0.099918865 -0.05906232 -0.14092356 -0.03988394
0.06280144 -0.023507724 -0.11026025 0.08248081 -0.016414948 -0.13037361 -0.15352042 -0.2475328
0.06100492 -0.007441338 0.22845161 0.14130782 -0.008144359 0.23066121 -0.022549417 -0.02521659
0.17534849 -0.008585809 -0.20015983 0.12999438 0.3561586 0.19715987 -0.17260876 0.13925028
0.060716357 -0.01597147 0.10780198 -0.06730557 -0.009261255 0.15414722 0.07200145 0.26198432
00000000: d881 5c3e fa3c 423b 3561 c5bd 627d 253e
00000010: e9a6 7c3e 15ef cbbd d48b b6be 5a07 9cbd
00000020: 1dc4 9d3b 22ae 073e bacd 26b9 1fcd 8bbd
00000030: 8a00 f63d f5a1 773e ed70 10be b2dd 45bd
00000040: 938e f43d dc9f 60be 6af4 cd3c 9aa5 103e
00000050: b2d9 13ba 0fd3 abbd 75c5 203e 4ea3 133d
00000060: bb74 9ebd 826a cebd de0e aebe 3ee0 173e
00000070: ac8a 913d 398f 8abb b9e2 1abe 3351 dd3d
00000080: 373b e23d 669a 9dbe 351f 85be 11f6 edbd
00000090: 74e8 fc3c 0a89 da3b 929b 203e 9ec3 663d
000000a0: 3ac9 8d3d 64db 2f3e 8d5a 333e f079 513d
000000b0: 605f 6ebe e391 f2bd 131a 003c 1741 35be
000000c0: d616 c73c 802c b73b 02d1 83be b888 9bbd
000000d0: 20e6 58bd f1ed b7bd 91f6 e3bd 09a0 f8bd
000000e0: 02a1 43bd 7638 3bbe b7a3 b0bd ff8b bb3d
000000f0: be66 1b3e 7120 d0bd 3660 bb3d c967 a63d
00000100: ea5a fd3c 090d 80bc 5745 d0bd 2265 40be
00000110: 19e1 abbd 5348 d33d 34ee 2cbd b0ab 1dbe
00000120: e4d4 7b3d 4667 23bd 9507 9dbe c91d dfbc
00000130: 5812 01be 1d81 bebd 09f0 813e 9afe c2bc
00000140: 7a42 003e ecc7 dcb9 fd26 9139 c315 2a3a
00000150: 3fdf 8d39 15b0 9339 ed36 173a b112 4036
00000160: dcf5 32b9 a2fa bfb9 3778 2f3e f434 263e
00000170: 39fd 5d3e cbd1 5dbe 1713 4fbd fabe 773e
00000180: 4f51 57be 99be 87be 7a16 023e 9278 a23c
00000190: 7585 38bd 9721 ca3e 1911 6dbe 19e2 46bd
000001a0: e80e 0e3f 23a9 45be dedf 943b d457 693e
000001b0: 406b 67bc e8f4 03be eba9 49be cc4a 83bd
000001c0: dc10 f4bd 2284 9ebd 8fcc ce3d ea7d 943d
000001d0: 149c 67bd 7884 a0be 6317 41be 6973 c6be
000001e0: 1381 45be fb14 8dbe 2eae 3bbe 2be1 e03d
000001f0: 8814 cbbd a483 52bd 140c f73d 770b 8a3d
00000200: 0117 27bd e730 793d d932 b1bb 9d38 85bd
00000210: 1daf cfbd 4700 aebe 2164 47be ef15 60bc
00000220: 00e6 7b3c 4cbe 9fbc 58bc e33d e43d 9a3d
00000230: 70c6 59bc 08d3 793b 77ca b8bd 22b8 31be
00000240: 28a8 5a3e c965 f53b ab15 2dbe c90b 16be
00000250: 5f36 5b3b e0c6 e83c 8ac6 f8bd ca21 f9bd
00000260: f6d9 09be 0c1c 893e 8ce0 183e fe2e a53d
00000270: 5295 0b3e 952e 51bc ecb5 d6bc f9fa 41be
00000280: 3648 3bbe 1639 01bd 0dae a4bd 4b3b 37bd
00000290: c01b c93d 019f 37be 5daf 7dbd 0388 3f3d
000002a0: 2255 dabd 4908 bdbd 8e2f 24be c318 fb3d
000002b0: 0d97 ec3d 2f8e 543e 885c 3abd 5f4c 97bd
000002c0: 5940 a0be 8cf6 02bf a184 bdbe 9e3f 4fbe
000002d0: bb2d 53be 7954 b6bd c45e a73c bc8d 22be
000002e0: 7a79 e7bd a88f f93c dc61 19be acb2 c83d
000002f0: 52f1 7cbb 2593 e0b9 c3ac b1ba d0ff a1ba
00000300: d5be 10ba f285 64b7 24cc 3639 2d30 bfb8
00000310: 399d bc37 2788 b738 f48f 59be cb24 54be
00000320: 0535 2abe f634 0d3e 9d89 603d 72e4 033e
00000330: 4011 58bd 6b5f 9ebc 8ad4 0fbe 47b8 2fbe
00000340: 5cb6 2abd 7cd0 ee3d b800 fa3d 8b3a a83d
00000350: 007c 9ebe 8527 cabd 894c 313d 913f e93d
00000360: c59c 543e 96da 7c3c 70e1 883e 1d4d 4b3e
00000370: 43a2 ccbd 55eb 71bd 444e 10be 585d 23bd
00000380: 0b9e 803d 4593 c0bc 20d0 e1bd b3eb a83d
00000390: a478 86bc a980 05be 7534 1dbe 3d79 7dbe
000003a0: 4ce0 793d 78d6 f3bb 38ef 693e ffb2 103e
000003b0: eb6f 05bc 7432 6c3e 8eb9 b8bc 0693 cebc
000003c0: 8e8e 333e 7eab 0cbc b3f6 4cbe 3f1d 053e
000003d0: 6c5a b63e 47e4 493e 5ac0 30be a097 0e3e
000003e0: b7b1 783d 9ad6 82bc 49c7 dc3d 81d7 89bd
000003f0: 85bc 17bc c5d8 1d3e 7f75 933d cf22 863e

inception_blocks.0.conv_3x3.1.block.0.bias f4 [16]
-5.9268332e-05 1.2678713e-05 3.8407732e-05 1.5653363e-06 4.4589236e-05 -0.00013293809 -0.00020140887 -0.00021343386
-0.00019518584 7.469206e-05 -7.416844e-05 -1.4853168e-05 -4.257202e-05 -5.571671e-05 -5.6738292e-05 -7.2931245e-05
00000000: e396 78b8 a8b6 5437 fd17 2138 8c18 d235
00000010: 5405 3b38 4c65 0bb9 4831 53b9 37cd 5fb9
00000020: cdaa 4cb9 ffa3 9c38 e18a 9bb8 df31 79b7
00000030: 5c8f 32b8 5db1 69b8 47fa 6db8 aaf2 98b8

inception_blocks.0.conv_3x3.1.block.1.weight f4 [16]
0.9552953 0.9573023 0.63692415 0.91073614 0.8328752 0.99309605 0.9843695 0.92861617
0.90220314 0.76049834 0.89270526 0.6935263 0.6109061 0.8750882 1.0644042 0.7975477
00000000: 3c8e 743f c311 753f 760d 233f 0126 693f
00000010: 4f37 553f 8b3b 7e3f a4ff 7b3f cab9 6d3f
00000020: c9f6 663f 05b0 423f 5588 643f f18a 313f
00000030: 5864 1c3f c805 603f 663e 883f 162c 4c3f

inception_blocks.0.conv_3x3.1.block.1.bias f4 [16]
0.070133604 0.034992848 0.028420538 0.08369386 0.11607932 0.44825333 0.11722734 0.35504064
0.20758188 -0.044085983 0.055708997 0.2084584 -0.25332478 0.03386463 -0.031952314 0.33024064
00000000: 35a2 8f3d a954 0f3d 30d2 e83c b067 ab3d
00000010: ffba ed3d 7681 e53e e314 f03d e3c7 b53e
00000020: 5890 543e 8193 34bd 1e2f 643d 1e76 553e
00000030: c9b3 81be a3b5 0a3d 6ee0 02bd 4d15 a93e

inception_blocks.0.conv_3x3.1.block.1.running_mean f4 [16]
-0.14364447 -2.3320594 0.5199297 1.4678131 0.26542583 -0.4518706 0.47960377 -0.73546785
0.24739097 -0.15548508 0.15529805 -0.5393812 0.3344538 0.98470765 1.7201871 -0.91133153
00000000: 8917 13be 7640 15c0 1d1a 053f 4de1 bb3f
00000010: e5e5 873e 955b e7be a08e f53e 9f47 3cbf
00000020: 0f54 7d3e 7b37 1fbe 7406 1f3e e314 0abf
00000030: 873d ab3e cd15 7c3f 172f dc3f 064d 69bf

inception_blocks.0.conv_3x3.1.block.1.running_var f4 [16]
1.9774405 2.2107112 1.533493 3.0778012 1.8298639 2.9647977 2.436558 2.230103
2.1734276 1.7346592 2.9164383 2.0108929 1.7608532 1.811916 3.7187936 1.984968
00000000: c51c fd3f 4b7c 0d40 8049 c43f b2fa 4440
00000010: fb38 ea3f 3fbf 3d40 91f0 1b40 02ba 0e40
00000020: 7019 0b40 5009 de3f eda6 3a40 78b2 0040
00000030: a363 e13f ddec e73f b700 6e40 6e13 fe3f

inception_blocks.0.conv_5x5.0.block.0.weight f4 [4, 32, 1, 1]
0.0948253 -0.16588575 0.0685479 0.005191283 -0.03809053 0.021960143 -0.00031938395 -0.26123807
-0.08213618 0.19626883 0.23999192 -0.3659425 0.30294028 -0.13283092 0.0044368193 0.032561865
0.090214 -0.09368883 0.041303467 -0.029590147 -0.19651113 0.13472839 -0.14891748 -0.29911375
0.18847372 -0.027444538 0.005635307 0.014869022 -0.03785087 -0.017884195 0.05399716 0.43688804
-0.11802154 -0.08850815 -0.09202877 -0.12800564 -0.41047913 -0.28815448 -0.0617964 0.27988032
0.050863218 0.057879392 0.09940265 0.14387168 -0.073481485 0.23195158 0.011502351 -0.116503656
-0.03060711 -0.14334759 0.3117933 0.35442168 0.23295572 0.022154035 -0.008158014 -0.43545055
-0.15247592 -0.13680667 -0.15833052 -0.07503809 -0.1492988 0.03727054 -0.119146466 0.048746675
-0.05768229 -0.19468148 -0.1657092 -0.13533789 -0.088150166 -0.22386172 -0.022467302 0.04928193
-0.13763334 -0.13239568 -0.045551796 -0.18880609 -0.12375608 0.1399958 -0.036629666 -0.02970786
-0.008437096 -0.2464447 -0.46507877 0.23191713 0.11552118 -0.111566685 0.13155018 -0.18487872
0.084368624 -0.17302683 -0.025568435 -0.1369086 -0.19872402 -0.041012824 -0.12733255 -0.09967874
0.5155092 -0.007154285 -0.2166905 0.01839948 0.36893454 0.13832986 -0.31921446 -0.073008746
-0.18375641 -0.100289464 -0.091662176 -0.17767318 -0.24466023 -0.06019412 0.005739462 0.095077835
-0.013578706 0.041147962 -0.36276478 0.21499597 -0.18355176 -0.056189995 0.03531213 0.28805614
0.069063045 -0.014062679 0.019498244 0.0923497 -0.058629625 -0.16829194 0.11938674 -0.1331146
00000000: c433 c23d f4dd 29be d762 8c3d a31b aa3b
00000010: d104 1cbd c2e5 b33c fd72 a7b9 ffc0 85be
00000020: 0337 a8bd b2fa 483e 71c0 753e d15c bbbe
00000030: fd1a 9b3e d404 08be bd62 913b 975f 053d
00000040: 1ec2 b83d eedf bfbd d32d 293d 0967 f2bc
00000050: 373a 49be 3df6 093e d37d 18be 7025 99be
00000060: 41ff 403e 5ed3 e0bc 62a8 b83b 339d 733c
00000070: 8409 1bbd e081 92bc 202c 5d3d caaf df3e
00000080: 47b5 f1bd c343 b5bd 9479 bcbd e913 03be
00000090: 522a d2be fc88 93be 391e 7dbd 794c 8f3e
000000a0: f355 503d f112 6d3d 9e93 cb3d 1953 133e
000000b0: 767d 96bd b784 6d3e 5b74 3c3c 7899 eebd
000000c0: c3bb fabc b6c9 12be 5fa3 9f3e c276 b53e
000000d0: f28b 6e3e 617c b53c 31a9 05bc 60f3 debe
000000e0: a622 1cbe 0c17 0cbe 6521 22be 92ad 99bd
000000f0: c9e1 18be fea8 183d 1003 f4bd 98aa 473d
00000100: 4444 6cbd 955a 47be acaf 29be 0496 0abe
00000110: 1388 b4bd 023c 65be 590d b8bc d9db 493d
00000120: c1ef 0cbe bc92 07be 8594 3abd 6256 41be
00000130: d473 fdbd 0f5b 0f3e fd08 16bd e65d f3bc
00000140: bf3b 0abc 005c 7cbe ce1e eebe af7b 6d3e
00000150: 5e96 ec3d 137d e4bd 17b5 063e d950 3dbe
00000160: 75c9 ac3d f22d 31be e574 d1bc c531 0cbe
00000170: 4f7e 4bbe 10fd 27bd 7763 02be 5e24 ccbd
00000180: 69f8 033f 7e6e eabb 1de4 5dbe 82ba 963c
00000190: fde4 bc3e 58a6 0d3e 1470 a3be 9c85 95bd
000001a0: a42a 3cbe 9064 cdbd 61b9 bbbd f5ef 35be
000001b0: 3688 7abe 1c8e 76bd 1912 bc3b 2bb8 c23d
000001c0: 3979 5ebc c48a 283d 4ebc b9be e727 5c3e
000001d0: fef4 3bbe 7b27 66bd 74a3 103d 187c 933e
000001e0: ed70 8d3d 2767 66bc c8ba 9f3c d721 bd3d
000001f0: 9e25 70bd b954 2cbe 0981 f43d 324f 08be

inception_blocks.0.conv_5x5.0.block.0.bias f4 [4]
6.477089e-05 0.00018706145 -0.00012714614 7.369709e-05
00000000: 9bd5 8738 ed25 4439 8852 05b9 d38d 9a38

inception_blocks.0.conv_5x5.0.block.1.weight f4 [4]
0.7046166 1.015834 0.7860866 0.75426304
00000000: c161 343f d906 823f f93c 493f 6217 413f

inception_blocks.0.conv_5x5.0.block.1.bias f4 [4]
-0.12611823 0.13250348 -0.012474558 0.31405953
00000000: 2325 01be feae 073e 1762 4cbc 69cc a03e

inception_blocks.0.conv_5x5.0.block.1.running_mean f4 [4]
-0.0761969 -0.38136512 -0.7447513 0.31772426
00000000: 1f0d 9cbd 4a42 c3be 05a8 3ebf c1ac a23e

inception_blocks.0.conv_5x5.0.block.1.running_var f4 [4]
0.3714586 0.90283746 0.8621084 0.6366629
00000000: d22f be3e 5b20 673f 23b3 5c3f 57fc 223f

inception_blocks.0.conv_5x5.1.block.0.weight f4 [4, 4, 5, 5]
0.043754537 -0.024975384 -0.12297987 -0.16526936 -0.16847168 0.11261403 -0.0328516 -0.10897642
-0.3314683 -0.1966439 -0.21932991 -0.01501302 -0.016145699 -0.0045753047 -0.027666071 0.13825601
0.0635515 -0.06466955 -0.05328949 0.07592937 0.026012035 -0.0559897 0.10614124 0.41208434
0.37753162 0.39480928 0.26873633 -0.102937184 -0.26150945 -0.34939313 -0.043005735 0.15513992
0.15282954 0.10492485 -0.16615035 0.48658103 0.18564792 -0.07169477 -0.23652053 -0.221847
0.042600416 0.2598667 0.21749093 0.16245914 -0.020232674 0.089661255 0.075564176 0.15302202
-0.12018052 -0.2676629 -0.007985924 0.16487233 0.29959437 0.21822576 0.026484689 0.20713095
0.09639507 0.071649976 0.13216802 0.030093689 0.2423585 0.099951126 0.010312508 0.06495006
0.07557503 0.04798241 0.14000161 0.17447434 0.08297686 -0.05948593 -0.049703393 -0.01469628
0.009144764 0.07201102 0.0889704 -0.25236103 0.034948222 0.09025023 0.25249696 0.14506666
-0.11140317 -0.029187815 -0.23909612 0.08205619 0.14226535 -0.11928907 0.021014076 0.07506061
0.06640978 -0.08770022 0.003249386 0.1011721 -0.12665552 0.010492262 -0.0003977383 -0.08609183
0.06165561 -0.20070328 -0.1624288 -0.09388283 0.019792005 0.03705401 0.0725527 0.12729193
0.2162973 -0.04356248 -0.07558905 0.012395923 0.32825044 0.48603794 -0.1670381 -0.1831562
0.065563545 0.23566212 0.13185674 -0.061250363 0.06946896 0.08691686 0.086027846 -0.108136356
0.12259325 0.11879056 -0.18615441 -0.20254844 -0.20032942 -0.12761231 0.050995722 -0.15191954
-0.15417276 0.25449884 0.025046311 0.2378551 -0.055094093 -0.10249573 -0.052161552 -0.008043782
-0.0015686926 0.022765435 -0.1835821 -0.1701186 0.16120335 0.05851674 -0.21966693 -0.43332562
-0.28133646 -0.23589769 -0.018649133 -0.13766795 -0.23384348 0.025835603 -0.053678777 -0.058137964
-0.1172331 -0.024440112 -0.02331952 0.0088851815 -0.10097638 -0.15553626 0.06398531 0.11668075
0.054287113 -0.09901686 -0.13194132 -0.044301122 -0.093105204 0.12874182 0.060354404 -0.09676582
-0.0812881 0.036857523 0.061291654 0.091353305 0.094299585 0.0767119 0.13312271 0.04682026
0.03972993 0.12203863 0.17846659 -0.17393969 0.0706949 0.14500268 0.10756844 0.19970222
-0.1702575 0.3283657 0.3926525 -0.07028983 -0.13186853 -0.15913 0.070505485 0.029566282
-0.141259 0.17305964 0.05932212 0.2038394 0.29816842 -0.08525576 -0.03786519 -0.25940573
-0.14609736 -0.07469326 -0.18843147 -0.17117588 -0.1669275 -0.14972313 -0.03505092 -0.033501565
-0.05770022 0.04981701 -0.1749875 0.0007332367 0.072701745 0.19350332 -0.0632065 -0.13793993
-0.15047292 -0.07197062 0.100610964 0.17521028 -0.26030582 -0.2382661 -0.117183395 0.29709554
0.2068198 0.23920538 0.037422672 -0.27724814 -0.13243745 -0.14886807 0.3273299 0.3695666
0.21636711 0.20364428 -0.19086918 -0.12663005 -0.10816053 0.0058961334 0.004519619 -0.20375142
0.06977847 0.15480831 -0.059347473 0.004959523 -0.16671167 -0.024045352 0.05242258 0.1357508
0.1910226 -0.14976901 0.34024197 0.31079826 0.23082109 0.18354371 -0.12717627 -0.00033326866
00000000: f537 333d 2d99 ccbc dfdc fbbd 5f3c 29be
00000010: d783 2cbe 2fa2 e63d 668f 06bd 072f dfbd
00000020: 37b6 a9be 055d 49be 0598 60be 2bf9 75bc
00000030: fc43 84bc 70ec 95bb f5a3 e2bc fc92 0d3e
00000040: 4a27 823d 7871 84bd 1546 5abd dc80 9b3d
00000050: 3117 d53c 7555 65bd 9460 d93d b8fc d23e
00000060: d34b c13e 7124 ca3e cf97 893e bbd0 d2bd
00000070: 91e4 85be a8e3 b2be c826 30bd 00dd 1e3e
00000080: 597f 1c3e d7e2 d63d 5123 2abe 2621 f93e
00000090: 7d1a 3e3e b5d4 92bd 7032 72be dc2b 63be
000000a0: c67d 2e3d 400d 853e f1b5 5e3e b05b 263e
000000b0: febe a5bc 52a0 b73d 64c1 9a3d ceb1 1c3e
000000c0: 3421 f6bd 1d0b 89be 65d7 02bc 4bd4 283e
000000d0: 6f64 993e 9376 5f3e 6bf6 d83c 231a 543e
000000e0: c76a c53d 39bd 923d 0e57 073e 0a87 f63c
000000f0: d42c 783e 2db3 cc3d cbf5 283c 8904 853d
00000100: 15c7 9a3d 3489 443d 955c 0f3e 67a9 323e
00000110: c6ef a93d 85a7 73bd c995 4bbd aac8 70bc
00000120: ecd3 153c 837a 933d 1d36 b63d 7735 81be
00000130: de25 0f3d 1dd5 b83d 4847 813e 5b8c 143e
00000140: 5827 e4bd 491b efbc 9dd5 74be 130d a83d
00000150: 02ae 113e d44d f4bd b625 ac3c 61b9 993d
00000160: da01 883d 2c9c b3bd a7f3 543b 5133 cf3d
00000170: fcb1 01be bde7 2b3c 8887 d0b9 ea50 b0bd
00000180: 988a 7c3d 2985 4dbe bc53 26be a445 c0bd
00000190: d822 a23c f2c5 173d 8396 943d d158 023e
000001a0: 0a7d 5d3e 926e 32bd 6fce 9abd 4518 4b3c
000001b0: 7110 a83e f7d9 f83e 090c 2bbe 4d8d 3bbe
000001c0: 2e46 863d 6951 713e 7405 073e a9e1 7abd
000001d0: be45 8e3d 7701 b23d 5e2f b03d 9876 ddbd
000001e0: 2b12 fb3d 7748 f33d 439f 3ebe dc68 4fbe
000001f0: 2823 4dbe cdac 02be e4e0 503d cc90 1bbe
00000200: 77df 1dbe ac4d 823e ec2d cd3c 4a90 733e
00000210: 58aa 61bd 48e9 d1bd 5aa7 55bd 11ca 03bc
00000220: 979c cdba 947e ba3c f2fc 3bbe 9233 2ebe
00000230: 7e12 253e 40af 6f3d 5ef0 60be dbdc ddbe
00000240: 550b 90be 2a8f 71be 11c6 98bc d4f8 0cbe
00000250: aa74 6fbe 30a5 d33c 47de 5bbd 1322 6ebd
00000260: e817 f0bd a136 c8bc 9408 bfbc 2793 113c
00000270: b4cc cebd e644 1fbe bb0a 833d 51f6 ee3d
00000280: 2a5c 5e3d 5ac9 cabd a01b 07be 1875 35bd
00000290: f1ad bebd e5d4 033e 2e36 773d 292d c6bd
000002a0: 607a a6bd eaf7 163d f50c 7b3d 7117 bb3d
000002b0: 2420 c13d 211b 9d3d 5251 083e 9ac6 3f3d
000002c0: dabb 223d 64ef f93d f2bf 363e 3f1d 32be
000002d0: 7dc8 903d 957b 143e d84c dc3d bd7e 4c3e
000002e0: fb57 2ebe 8d1f a83e c009 c93e 1df4 8fbd
000002f0: 8b08 07be faf2 22be 2e65 903d fd34 f23c
00000300: 33a6 10be 8c36 313e c0fb 723d 47bb 503e
00000310: 88a9 983e 929a aebd 8818 1bbd d4d0 84be
00000320: 8c9a 15be c8f8 98bd 2ef4 40be bb48 2fbe
00000330: 0bef 2abe 0551 19be 8e91 0fbd f038 09bd
00000340: 1157 6cbd ec0c 4c3d ec2f 33be af36 403a
00000350: a7e4 943d bc25 463e 6972 81bd 2040 0dbe
00000360: 9315 1abe 5565 93bd 1f0d ce3d 536a 333e
00000370: ce46 85be 07fc 73be d9fd efbd e81c 983e
00000380: 92c8 533e 41f2 743e 8448 193d 78f3 8dbe
00000390: af9d 07be df70 18be c997 a73e d537 bd3e
000003a0: 578f 5d3e 2088 503e 3673 43be 4fab 01be
000003b0: 4583 ddbd 5a34 c13b 5019 943b 36a4 50be
000003c0: 04e8 8e3d 1286 1e3e 5616 73bd 7f83 a23b
000003d0: 77b6 2abe c2fa c4bc 0fb9 563d 4202 0b3e
000003e0: 6e9b 433e 0c5d 19be 3234 ae3e f320 9f3e
000003f0: 5d5c 6c3e e2f2 3b3e 7f3a 02be 90ba aeb9

inception_blocks.0.conv_5x5.1.block.0.bias f4 [4]
0.00019453852 6.482123e-05 0.0003410241 -0.00016066562
00000000: 09fd 4b39 a2f0 8738 7bcb b239 5978 28b9

inception_blocks.0.conv_5x5.1.block.1.weight f4 [4]
0.81357515 0.9748117 1.0038435 0.8907602
00000000: 7646 503f 428d 793f f27d 803f dc08 643f

inception_blocks.0.conv_5x5.1.block.1.bias f4 [4]
0.024536567 -0.032812417 0.29658836 0.14898738
00000000: e900 c93c 5066 06bd 6eda 973e 2690 183e

inception_blocks.0.conv_5x5.1.block.1.running_mean f4 [4]
0.53491765 0.10432086 -0.26021215 -1.5867585
00000000: 5df0 083f 2da6 d53d 873a 85be e71a cbbf

inception_blocks.0.conv_5x5.1.block.1.running_var f4 [4]
1.3585631 1.0860422 1.4254311 1.9598683
00000000: 65e5 ad3f 6e03 8b3f 8774 b63f f7dc fa3f

inception_blocks.0.max_pool.1.block.0.weight f4 [4, 32, 1, 1]
-0.0014780207 -0.0017344209 -0.00064243935 -0.00058536563 -0.00014031808 -1.0183072e-05 -0.0011395391 -0.00088954845
-0.00071709935 -0.0006305098 -0.0006388284 -0.0023983733 -0.00033560427 -0.0012531793 -0.00014037878 -0.0050304653
-0.00035567398 -0.0011455602 -0.003270092 -0.0015657976 -0.00040920766 -0.0007102445 -0.0010136743 -0.00057191565
-0.0005085462 -0.000808345 -0.00050626986 0.0006662512 -0.0014454597 -0.0012105063 -8.3332525e-05 -0.00083807384
0.4454003 -0.095404215 -0.039369844 0.044546228 0.011957796 0.044889525 0.14743245 0.08853595
-0.0029997737 -0.108642556 -0.110738866 0.021039242 -0.08159945 0.032820687 0.026960792 -0.34643775
-0.07854049 -0.055256806 0.23287252 0.36097914 0.091047265 0.1765121 -0.17458378 0.14341216
-0.26237315 -0.28410593 0.012980159 0.3051719 -0.093554296 -0.02630669 -0.14246877 0.08264941
0.02541202 -0.32184067 -0.26158637 -0.19853902 -0.22797859 -0.17867893 -0.22108564 -0.032539815
0.019626249 0.0881596 -0.07172807 0.2847517 0.025263742 -0.0861009 -0.07395862 -0.15463485
-0.05804439 -0.3828422 0.24919468 -0.16138852 -0.33937073 -0.14219736 -0.20994103 0.14721557
-0.22913119 -0.4511498 -0.12604879 0.11536291 -0.33614853 -0.075118996 -0.16169044 -0.18929105
0.22993734 0.5062727 0.22080204 -0.0014898129 0.2206464 0.24165533 0.052109007 0.14365177
-0.20089719 -0.20424783 -0.11625657 -0.060906366 -0.09399957 0.025472192 0.03186596 0.15850374
-0.041387346 0.1631195 -0.13701625 0.18828759 0.061428834 -0.09606924 0.17856987 -0.021443259
0.14092846 0.49170592 0.005391378 0.13488589 0.14962442 0.034146167 0.17143312 0.035624165
00000000: 25ba c1ba 8255 e3ba 6069 28ba 3973 19ba
00000010: 5922 13b9 f6d7 2ab7 965c 95ba 9630 69ba
00000020: b9fb 3bba cc48 25ba 0c77 27ba 072e 1dbb
00000030: 0bf4 afb9 b841 a4ba a432 13b9 9ad6 a4bb
00000040: c179 bab9 9f26 96ba 0a4f 56bb 733b cdba
00000050: ec8a d6b9 b42f 3aba 44dd 84ba 9cec 15ba
00000060: f54f 05ba 1de7 53ba 32b7 04ba 5ca7 2e3a
00000070: 9475 bdba daa9 9eba cfc2 aeb8 2fb2 5bba
00000080: 820b e43e 4963 c3bd 4642 21bd 1b76 363d
00000090: a2ea 433c 14de 373d 88f8 163e 5652 b53d
000000a0: da97 44bb fd7f debd 0fcb e2bd 7d5a ac3c
000000b0: 9d1d a7bd fc6e 063d e1dc dc3c 4a60 b1be
000000c0: d6d9 a0bd f654 62bd 2276 6e3e 42d2 b83e
000000d0: fd76 ba3d 97bf 343e 17c6 32be a3da 123e
000000e0: c655 86be 5576 91be bcaa 543c 7e3f 9c3e
000000f0: 6599 bfbd 2181 d7bc 55e3 11be 1844 a93d
00000100: de2c d03c 4dc8 a4be a6ee 85be d04d 4bbe
00000110: 3873 69be 9cf7 36be 4664 62be 7848 05bd
00000120: 3ac7 a03c 058d b43d 2be6 92bd faca 913e
00000130: e8f5 ce3c ab55 b0bd 9e77 97bd 9958 1ebe
00000140: f4bf 6dbd e503 c4be e42c 7f3e 0843 25be
00000150: 00c2 adbe 2f9c 11be c8fa 56be aebf 163e
00000160: 5ea1 6abe 1bfd e6be ef12 01be 6443 ec3d
00000170: a91b acbe fdd7 99bd 2e92 25be 83d5 41be
00000180: b274 6b3e 169b 013f ee19 623e d345 c3ba
00000190: 21f1 613e 7f74 773e 4170 553d 7319 133e
000001a0: feb7 4dbe 5826 51be ed17 eebd f478 79bd
000001b0: d982 c0bd 0fab d03c e285 023d ce4e 223e
000001c0: c785 29bd cc08 273e fd4d 0cbe 76ce 403e
000001d0: cd9c 7b3d f3bf c4bd 05db 363e c6a9 afbc
000001e0: 8d4f 103e e1c0 fb3e 28aa b03b 871f 0a3e
000001f0: 2537 193e dadc 0b3d 2a8c 2f3e a5ea 113d

inception_blocks.0.max_pool.1.block.0.bias f4 [4]
-2.1802931e-08 3.1411873e-05 -2.5243738e-05 0.00016066617
00000000: 2749 bbb2 3ec0 0338 84c2 d3b7 7f78 2839

inception_blocks.0.max_pool.1.block.1.weight f4 [4]
-0.004193795 0.78902966 0.6734373 0.81861514
00000000: 1a6c 89bb d9fd 493f 6366 2c3f c390 513f

inception_blocks.0.max_pool.1.block.1.bias f4 [4]
-0.033735365 -0.29304898 0.2850276 -0.040322583
00000000: 182e 0abd 840a 96be 23ef 913e 4b29 25bd

inception_blocks.0.max_pool.1.block.1.running_mean f4 [4]
-0.016669612 0.645413 -1.4943329 1.6989267
00000000: b68e 88bc c939 253f 4d46 bfbf 6e76 d93f

inception_blocks.0.max_pool.1.block.1.running_var f4 [4]
0.000215385 0.61342025 0.97332114 1.0361032
00000000: f8d8 6139 1c09 1d3f 932b 793f 089f 843f
