models/inception/Inception1_Adam_32_lr0.0001_wd0.001/Inception1_Adam_32_lr0.0001_wd0.001_best.pth (torch, 823647 bytes, 262 tensors)

input_net.block.0.weight f4 [32, 1, 3, 3]
00000000: bd66 8dbd cf65 0abe b0a0 1dbe 7e95 54bd
00000010: 9994 77bd 324a 583e ada8 25be f343 e3bd
00000020: 81c2 11be 6e53 8dbe dafb b9bb 86e6 653d
00000030: 7a86 1f3e 185e f93d d294 c13d 5650 823e
00000040: 39e6 383d a7d6 0ebd 38b8 993e 02c6 48bd
00000050: d360 983c d22e a8be 0b43 15be 4db4 413e
00000060: 3ae4 383d 000d 82be d25b a13e d39d 5cbd
00000070: e70d e63d d083 6dbe 382c 903d 13a9 19bd
00000080: a090 39be 1e18 d2bd f860 463e cb8e dcbd
00000090: 66cd 343e ce7e 2cbd 27d4 fcbd 254f 953e
000000a0: 69f8 26be e808 513e a3eb 7a3e 95a4 163e
000000b0: 73ca 5f3e 70c4 383d 7027 a33d 93d1 033e
000000c0: e816 483e f621 9c3d 6a76 85bd db6e 483e
000000d0: 75f2 673e 5aa8 a0bd c367 7bbd b3eb 103e
000000e0: af93 30bc f64f 3d3d 4d31 673e 12c3 8ebe
000000f0: 37ea 2dbe 28a6 41be ac95 d53d cf1e 5c3e
00000100: 2f4e dbbc ccb8 3e3e c184 32bc 45bb 083e
00000110: 769d 543e 9806 0bbe 7a38 673e b02d 5b3e
00000120: 4d78 83bd e472 713e b5f9 fbbb 221b 7c3e
00000130: 3878 273e 941d cf3d 13b7 fc3b 81d7 f13d
00000140: c4a5 96be dd70 87be 87ab 99bd 4fe8 a43d
00000150: e7a8 08bd 7bc6 a23d 1815 963c 0332 413e
00000160: 1c28 abbd df3d 83be 57e2 8d3d cdff 273e
00000170: 6eb8 cfbd 4f0b 79bd 4cd3 083e 0afa 503e
00000180: d93c 6abe 6d90 8d3e bb57 913c 7af5 883e
00000190: 35cc 8cbd 172a 843e 36fd 8ebd f1f3 823e
000001a0: e725 91be f4ba 89bd 4987 353e a4c5 dcbb
000001b0: 5885 93be 76ac 1d3e 8fe8 6abd 92e2 b93c
000001c0: 5df5 453e 967c 29be 4eb9 843e d89e 7c3e
000001d0: 9469 423e 305b 89be dc0d a03d bd5c e6bd
000001e0: 62b1 8dbe 53b3 3a3e 5662 f63d 3863 aebd
000001f0: 044d a23e 736a ecbd 444e 403e fda5 6f3e
00000200: 13a9 e53d 9aa7 333e 6559 313e ccfd 8fbe
00000210: 6e18 1dbe b499 1cbe 3223 5f3e 3e56 723e
00000220: b5c3 9b3e 65c5 2f3b ce1a 5ebe d960 f93d
00000230: 7255 a43e 1a79 99be 6e3d 01be e7c8 43be
00000240: 43f5 71be 3213 133e 7690 fabc b470 6a3e
00000250: 34a2 983e 142e 7fbd 918a 0d3d e9fe f33b
00000260: 0788 113e 5a2a 8bbd 9c7e ed3d 6db4 a3be
00000270: f9a4 b33d 5143 5fbd 61b9 463e f985 a43e
00000280: 923e 943e c9c6 39be 0672 a33e 824e 92be
00000290: b2a8 e23d b390 2b3e ffde dc3d a066 41be
000002a0: ad26 bc3d 08b9 87be 837f d4bd c550 883e
000002b0: ea5b 51bd ae0e 8b3e c216 4bbe de1e 993e
000002c0: aea0 0a3e a7cb 1abd cd41 93bd d056 163e
000002d0: b9f9 533e 4c70 acbe 89b8 e73d 4413 c13d
000002e0: d7a7 8a3c 8802 5fbe 90a0 763c e808 54bd
000002f0: 8a09 a73e bd44 8dbe 5c93 28be eb29 0c3d
00000300: e54d b1bd 3acb 65be 6443 32bc c1d8 973d
00000310: 141a d2bd cd8f 943e 66cb 97bd 2232 883d
00000320: 400c 7f3d 6d6f 09be c03d 76be f170 873c
00000330: fe6e 943e d9c2 a73e 2216 35be ffbd 793d
00000340: 735a f53d 2dc9 373e c66e 133e a9cf f4bc
00000350: aaed 9fbe cc09 873e 41b4 31be c6b0 363e
00000360: bc69 72be a38d 6c3e 6cd5 9c3e 0498 8f3e
00000370: 71f3 4bbe 5382 723e 6a76 833e 1160 46be
00000380: 95e9 abbd 175c 5abe ade1 06bd f8c9 073e
00000390: ca67 8bbd 2693 483e b7b0 2f3d b750 363b
000003a0: 3d8f a3be 7d80 773e 40c7 8fbc 8e51 4bbb
000003b0: b502 99be 0021 9ebe 82d3 f73b 1fcd 8b3e
000003c0: cc55 9b3e f5bd 8ebd d0e8 963e ddfe 31be
000003d0: 1704 66be 55bc d2bd 0750 893e 75e2 27be
000003e0: 1532 783e 7261 b8bc af0a 32be 9638 aebd
000003f0: 044b bd3d fb4b acbd 60fd 813e 062b 493e
-0.069043614 -0.135154 -0.15393329 -0.05190038 -0.06044445 0.21122053 -0.16177626 -0.11096945
-0.14234354 -0.27602714 -0.005675775 0.056128047 0.15578642 0.1217615 0.09452213 0.25451916
0.045141432 -0.034872677 0.3002336 -0.04901696 0.018600857 -0.3284822 -0.14576356 0.18916436
0.04513953 -0.25400543 0.31515366 -0.05386145 0.112331204 -0.23194814 0.07039684 -0.037514757
-0.18121576 -0.10258506 0.19372928 -0.10769423 0.17656478 -0.042113118 -0.12345152 0.29161945
-0.16305698 0.20413554 0.24503951 0.1471122 0.21854572 0.045109212 0.079665065 0.12872915
0.19539988 0.07623665 -0.06516726 0.19573538 0.22651084 -0.078446105 -0.06137825 0.14152412
-0.010777398 0.046218835 0.225774 -0.27883202 -0.16983877 -0.1891104 0.10428938 0.21496128
-0.02677068 0.18625182 -0.010895909 0.13352688 0.20763192 -0.13576734 0.22580138 0.21404147
-0.0641943 0.23578984 -0.0076896795 0.24619725 0.16354454 0.101130635 0.007712254 0.11808682
-0.29423344 -0.26453295 -0.07503419 0.08052122 -0.033364203 0.079480134 0.018320605 0.18866734
-0.0835726 -0.2563314 0.069279365 0.16406174 -0.10142599 -0.0608018 0.13361853 0.20407882
-0.22874774 0.2764925 0.017742028 0.26749784 -0.06874887 0.25813362 -0.0698189 0.25576738
-0.2834923 -0.067251116 0.17727388 -0.006737428 -0.2881267 0.1539782 -0.05735069 0.022691045
0.1933188 -0.16551432 0.25922626 0.24669969 0.18985587 -0.26827383 0.078151435 -0.11248157
-0.27674395 0.1823247 0.12030475 -0.08515018 0.31699383 -0.11543741 0.18779856 0.23403163
0.11213889 0.17544404 0.17319258 -0.2812332 -0.1534135 -0.15293008 0.2179077 0.23665711
0.3042275 0.0026820537 -0.21689913 0.12176675 0.3209644 -0.29975206 -0.1262109 -0.19119607
-0.23628716 0.14362791 -0.030586462 0.22894555 0.2981125 -0.062299803 0.034555975 0.007446159
0.14212047 -0.06795187 0.115964144 -0.3197359 0.087717004 -0.054507557 0.19406654 0.32133463
0.28953987 -0.18142237 0.3192293 -0.28575522 0.11067332 0.16754417 0.10784721 -0.18886805
0.09187064 -0.26508355 -0.103758834 0.26624122 -0.051113047 0.27159637 -0.198329 0.29906362
0.13537857 -0.037791874 -0.07190285 0.14681554 0.2070073 -0.33679426 0.11314494 0.09427503
0.016925735 -0.2177831 0.0150529295 -0.051766306 0.32624465 -0.27591506 -0.16462463 0.034219664
-0.08657435 -0.22440806 -0.010880325 0.074143894 -0.1025888 0.2901596 -0.07411842 0.06650187
0.062267542 -0.13421412 -0.24046993 0.016533347 0.2899093 0.32765844 -0.17684224 0.06097221
0.119801424 0.17947836 0.14397725 -0.029884176 -0.3123601 0.26374662 -0.17353918 0.17840871
-0.23673147 0.23100905 0.30631578 0.28045666 -0.19917084 0.23682527 0.2567628 -0.19372584
-0.083941616 -0.21324192 -0.032930065 0.13260639 -0.068069056 0.19587383 0.042893138 0.0027819106
-0.3194522 0.24170108 -0.017551064 -0.0031023952 -0.29884878 -0.30884552 0.0075630555 0.27304932
0.30338895 -0.06969825 0.29474497 -0.17382379 -0.22462498 -0.10289828 0.2681887 -0.1639498
0.24237855 -0.022507403 -0.17386888 -0.08506887 0.09242824 -0.084129296 0.25388622 0.19645318

input_net.block.0.bias f4 [32]
00000000: 9bde 8c35 d7ff 44b8 a218 10b8 a3a8 7d36
00000010: ade8 d637 a856 65b7 c56d 06b9 95fd e6b7
00000020: 61ec 8937 ba93 22b7 f0d9 1639 da71 9f34
00000030: 485f aeb6 92c5 2738 1551 ad38 ed4b 8ab7
00000040: f3e1 56b8 3782 1db7 e408 e3b7 15ad 7136
00000050: 411d c737 8151 68b7 6aed 4b39 f275 8eb8
00000060: 81dc 12b7 31f4 2d39 de22 0c39 2c8c f8b6
00000070: 53be a738 f78b c6b5 5122 5db7 1040 4938
1.04956e-06 -4.696831e-05 -3.4355216e-05 3.7798097e-06 2.5619136e-05 -1.366964e-05 -0.00012820128 -2.753622e-05
1.6441745e-05 -9.690348e-06 0.00014386303 2.9698896e-07 -5.1966963e-06 3.9999904e-05 8.2643855e-05 -1.6486238e-05
-5.1232008e-05 -9.388247e-06 -2.7064649e-05 3.6012545e-06 2.3736271e-05 -1.3847254e-05 0.00019448032 -6.793057e-05
-8.753618e-06 0.00016589534 0.0001336443 -7.407294e-06 7.998631e-05 -1.4792885e-06 -1.3180616e-05 4.7981797e-05

input_net.block.1.weight f4 [32]
00000000: 4261 673f 7523 6d3f 346e 703f efa0 613f
00000010: 0bed 703f 6e65 753f 701a 603f 40af 703f
00000020: 1827 723f 7192 6a3f 875a 6f3f 1908 6b3f
00000030: c34f 743f e337 703f c749 703f b012 7d3f
00000040: 5da5 743f 2fec 763f bf01 7a3f af3b 743f
00000050: 7fcf 733f c3a2 6a3f 588a 753f 04ce 713f
00000060: b39d 753f 9d99 723f 7ec9 753f 3f21 6f3f
00000070: 67b4 723f b04d 613f 2966 743f 3fde 743f
0.9038278 0.9263223 0.93918157 0.8813619 0.941117 0.95857894 0.8754034 0.9401741
0.945909 0.916297 0.9349751 0.9180923 0.95434207 0.93835276 0.93862575 0.9885664
0.95564824 0.9645414 0.97658914 0.9540357 0.9523849 0.91654605 0.9591422 0.9445498
0.95943755 0.94765645 0.9601058 0.93410105 0.9480652 0.88009167 0.95468384 0.9565162

input_net.block.1.bias f4 [32]
00000000: 9c6f a0bc 259d 093d e549 873d f6f1 1fbc
00000010: 9524 393b 3cd1 6a3c 81dc 98bc 844c 983c
00000020: e4e8 0f3d 1c31 7eba 21b5 feb8 a2a4 c63c
00000030: f4b8 c23b 6b40 d83c f495 993c 19fe e43c
00000040: 4adf be3c f1a2 983c 7889 593d ce76 58bc
00000050: 40a5 b03c 00b9 27bc 015f 5a3d 4b41 8bbb
00000060: 5a68 b83b 8435 c2bb 4f6f 043d 3108 c1bb
00000070: 01a1 0f3d a087 40bd bf68 be3c 1aa5 b5bc
-0.01958447 0.03359713 0.06605891 -0.009762278 0.0028250564 0.014332112 -0.018659832 0.018591173
0.03513421 -0.0009696649 -0.00012145402 0.024248425 0.0059424583 0.026397904 0.018748261 0.027953194
0.023299832 0.018632384 0.053109616 -0.013211919 0.021563172 -0.0102369785 0.05331326 -0.004249727
0.005627674 -0.0059267897 0.032332715 -0.005890869 0.035065655 -0.047004342 0.023243306 -0.022173453

input_net.block.1.running_mean f4 [32]
00000000: be8c 08ba 3395 e33a 40b5 cbba c988 b7ba
00000010: b961 093b 4296 253b 7f3e 093a 4055 673b
00000020: f09b 9c3b adf2 deb9 e260 2a3b f6f1 973a
00000030: f269 16ba 87b8 69ba 5895 343b 9798 863b
00000040: 3f88 413b 3595 303a f7c7 c13a ff63 5e3b
00000050: d8f3 9fba 1d66 91bb 2a00 23bb 20fa 38b9
00000060: adc2 583b 8f39 173a e691 f8ba e19b 133a
00000070: 72c5 063a a6c0 e9ba 6b7c 6b3b 95b6 e8ba
-0.00052089605 0.001736319 -0.0015541688 -0.0014002557 0.0020962788 0.0025266563 0.0005235448 0.0035298616
0.0047793314 -0.00042523947 0.0025997688 0.0011592496 -0.0005737833 -0.00089157413 0.0027554836 0.0041075456
0.0029530672 0.0006736101 0.0014784326 0.0033934114 -0.0012203408 -0.0044372217 -0.0024871924 -0.00017640786
0.003307502 0.000576877 -0.001896438 0.0005630833 0.0005141116 -0.0017833903 0.0035932313 -0.0017754609

input_net.block.1.running_var f4 [32]
00000000: e408 cd3e 23ce 3d3e ac60 a53c 9322 dd3d
00000010: 2c6a 5a3f dc93 163f e8a9 283d dec2 6d3f
00000020: 4934 8a3e 3d3c df3d 9214 5f3e 059e 4c3e
00000030: 146d ac3e fa38 303d bd05 893e 638b 073e
00000040: 1551 903e c3fd 393e 6d63 c63c f5f4 0a3f
00000050: b349 083d 407c 7c3e 5708 123d ce58 293e
00000060: c43c b03e 21a4 fc3b c559 ac3d bf17 333e
00000070: 556e ea3c 74cb ff3e 2817 8f3e 3e50 1a3d
0.40045846 0.18535666 0.020187698 0.1079761 0.85318255 0.58819366 0.04117766 0.9287547
0.26993015 0.109001614 0.2178519 0.19982155 0.3367697 0.043023087 0.2676219 0.13236766
0.2818686 0.18163209 0.024217332 0.54280025 0.03327341 0.24656773 0.035652485 0.16537783
0.3442136 0.0077099954 0.0841556 0.17489527 0.028617064 0.4995991 0.27947354 0.03767418

inception_blocks.0.conv_1x1.block.0.weight f4 [8, 32, 1, 1]
00000000: f798 1dbe 14da a5bd 1801 8cbd 81f7 ec3d
00000010: ef81 34bc 1ea6 073c 5d48 c73d 43c0 49bd
00000020: 14b8 ecbd fc62 5e3d 8c5b e93d 9c3d 47bd
00000030: ab01 ac3d afd5 d2bc 5931 8bbb 4322 da3d
00000040: ee3d 00bb dd77 edbd 29d7 0b3e a521 093c
00000050: 6c3b 213e 9a3d bbbc 6103 3dbd 58a7 06be
00000060: 2e69 2b3d 9312 1d3e 1adb 17be be59 6a3d
00000070: 3701 4c3d 19c2 25be 4c34 0d3e 66cf b33d
00000080: 092b a63d 4403 05bd a471 26bc 7706 d9bc
00000090: c255 dc3d 5638 0b3e e5f2 aebd 6395 e0bd
000000a0: cc30 e3bd fecd 12be 1162 c73d 4473 b63d
000000b0: f8d3 b43d f3a9 bbbc 9e25 a73d 1fa8 273e
000000c0: 632e 8b3d 21fb f53d e2b4 33be d048 083e
000000d0: b287 e63c 27f7 91bc 4421 21be c947 643c
000000e0: bdd3 5cbd e684 113e 9895 1abe 275e 013e
000000f0: 672b ce3d d745 3cbd cf09 a43d a62b 933d
00000100: ad28 35bc 9cfb e03c 32e5 0fbe 2b42 79bd
00000110: 52f6 a5bd 1848 423d 9df9 34bd e68f 3cbd
00000120: 7bd3 afbd 509c 93bd cc9e 3a3d f315 c8bd
00000130: 7928 013e eeca e73d 0b21 b43d 3d08 043d
00000140: 983c d5bd 8f78 173e 5be0 3dbe 494f 10bd
00000150: 3b1e 2bbd 7e2f 873d 6eb2 b8bd e368 333d
00000160: 845b e5bc 5d2b c73c 2364 dd3c bfdf 19be
00000170: 6536 4ebe 8808 aa3b 1e44 193e 98db 22bd
00000180: b4e8 9f3d b591 e23d fb08 cfbd 22de 0dbe
00000190: c10f 90bd 8a91 4e3c 1385 453d 7a55 7f3d
000001a0: 6eaa 973d 84ef 0e3e 4222 4c3d d6b2 fa3d
000001b0: 7dd0 ea3d cdc4 d93d 3588 7a3d fb4a b5bd
000001c0: 56fc e03d 0d3a 7abd ff65 eabc 0b36 1abd
000001d0: db27 44be c2d7 e43d b135 eb3d 0620 ebbd
000001e0: 93cc 143e b135 123e a794 99bd 82c1 f8bd
000001f0: f74b 7ebd 44ce c23c 67d8 803c a380 bc3d
00000200: 84df f83d 3b08 84bb 3b3a 0f3e 7ae8 b6bd
00000210: 706e 0dbe 10e2 61bc b6f5 30bd 43c4 04be
00000220: 3a96 fcbd d708 01bb 06bf 0a3e 48b0 9fbd
00000230: 86ac d4bc b30e fcbc 1ae2 a9bd 3d1b 053e
00000240: 9689 3fbd 4348 c2bd 478a 8f3c 8f1a 3abd
00000250: 5408 b73d 6651 0e3e a014 e6bd d2e2 babd
00000260: ca01 eabd 0d77 57bd 7e00 a93d 031f 8a3d
00000270: e472 4b3d d264 3cbd 8b3b 9b3d 3f2f d03c
00000280: ea18 ad3d f113 da3d 7bd6 d23c a012 06be
00000290: e63e b7bc d3ba f7bd 135d 20bd c7c7 5d3d
000002a0: 71ff 6abd a272 063e a7bd ec3d 3790 0b3e
000002b0: 27a6 2a3d 3672 97bc 7f6c 98bd 3995 2a3e
000002c0: ee69 e83d d630 553b 1b8c 873d 3eed a83d
000002d0: d908 17be 570f b5bd 5031 033e 5b2e a83d
000002e0: b427 343e 4c1a 813d 0d39 6f3b a92e dc3d
000002f0: 1156 65bc 3f6c 923d 63d5 0fbe 6703 c5bd
00000300: b1f8 adbd a728 ef3d 0e8d b1bd c885 35bd
00000310: 030b 51bc 03f9 303d ff8b 763d 00bc 95bd
00000320: 67d5 00be 3782 0a3e 9893 aabc 7b32 d5bd
00000330: 1c17 bf3c 41fe d53d 0900 f5bd 81a7 283d
00000340: 3b8a a63d b7d3 2d3e 5ce7 4d3c d46a 7cbd
00000350: 8091 19be 6156 d3bd 9515 65bc 2eb2 e0bd
00000360: fcd0 f03d e2a9 1abe d61d 5fbd 17be 10be
00000370: a17c bebd 8f44 a23c 4ac0 febd d497 903d
00000380: 1a3d d6ba 03f8 ef3d b77f 82bd f76a 293e
00000390: 207f 563d 2c6e 21be f9e5 2a3d 9f49 303e
000003a0: 7be3 073d b05e 9b3d 307b 8c3d f7f3 18be
000003b0: 2a9b ff3d 26d8 92bd c0cc 2ebe 580c be3d
000003c0: 325a f2bc 9959 26be abfb 143e b13d 823d
000003d0: 2ccd a23d d882 a53d 325b d9bd 8cb7 113d
000003e0: 0b02 d53d 1f82 bdbd 1cb9 a2bd 4197 e53d
000003f0: dd37 ecbd a651 b3bd 42d6 09be 7256 27be
-0.15390383 -0.08098236 -0.06836146 0.11570645 -0.011017307 0.0082793515 0.09730599 -0.04925562
-0.115585476 0.054293618 0.11394414 -0.04864274 0.08398756 -0.025736658 -0.004247826 0.10651066
-0.0019568163 -0.11595128 0.13656296 0.008369838 0.15745324 -0.022856522 -0.0461458 -0.13149774
0.041848354 0.15339117 -0.14829674 0.05721449 0.049805846 -0.16187324 0.13789481 0.087797925
0.08113677 -0.032473817 -0.01015893 -0.02649234 0.107585445 0.13595709 -0.08542422 -0.10965993
-0.11093292 -0.14336392 0.097355016 0.08908704 0.08829492 -0.022908187 0.08161472 0.16372727
0.06795957 0.1201079 -0.1754947 0.13309026 0.028140876 -0.017818047 -0.15735346 0.013933131
-0.053912867 0.14210853 -0.15096128 0.12633573 0.10066872 -0.045965042 0.08009683 0.0718606
-0.011057061 0.027463727 -0.14052275 -0.06085412 -0.081036225 0.047432035 -0.044183362 -0.04603567
-0.085852586 -0.072075486 0.045561597 -0.097698115 0.12613095 0.11318003 0.08795365 0.03223442
-0.10411948 0.14792083 -0.18542616 -0.035231862 -0.041776877 0.06600855 -0.09018408 0.0438012
-0.02799774 0.02431267 0.027025288 -0.15026759 -0.20137937 0.0051890053 0.14967391 -0.039760202
0.078080565 0.11062948 -0.10109135 -0.13854268 -0.07034255 0.012607941 0.048222613 0.062337376
0.07405554 0.13958555 0.04983736 0.122411415 0.11465547 0.1063324 0.061165053 -0.08852192
0.10985629 -0.061090518 -0.028613089 -0.037649196 -0.19155829 0.11173965 0.1148485 -0.11480717
0.14531164 0.14278294 -0.07499056 -0.12146284 -0.062084164 0.023779996 0.015728189 0.09204223
0.12152007 -0.0040293015 0.13987057 -0.0893106 -0.1381166 -0.013786808 -0.04320308 -0.12965493
-0.12333341 -0.0019689107 0.13549432 -0.07797295 -0.025961172 -0.030768728 -0.082950786 0.12998672
-0.04676207 -0.09486439 0.01752199 -0.045435484 0.08937135 0.13898239 -0.11234403 -0.09125294
-0.114261225 -0.05260377 0.08252047 0.06744196 0.049670115 -0.045994587 0.07579716 0.025413154
0.084520176 0.10648335 0.025737038 -0.13093042 -0.02236886 -0.12096181 -0.039151262 0.0541456
-0.057372514 0.13129666 0.11559611 0.13629232 0.04166236 -0.018487077 -0.07442569 0.16658486
0.113483295 0.003253033 0.0661852 0.08248375 -0.14749469 -0.088408165 0.1281178 0.082119666
0.1759327 0.06303844 0.003650251 0.10751087 -0.013997571 0.071495526 -0.14046244 -0.096197896
-0.084947 0.11677676 -0.08669482 -0.044317037 -0.012758973 0.043206226 0.060192104 -0.07311249
-0.12581407 0.13526236 -0.020822331 -0.10410019 0.02332645 0.10448886 -0.11962897 0.04117537
0.08131834 0.16975294 0.012567367 -0.061625317 -0.1499691 -0.1031921 -0.013982196 -0.10971485
0.117586106 -0.15103868 -0.054471813 -0.14135014 -0.09301115 0.019808082 -0.1243902 0.07060209
-0.0016345114 0.11717226 -0.06372016 0.1654471 0.05236733 -0.15764683 0.041723225 0.17215584
0.033175927 0.075864196 0.06859434 -0.14936815 0.12480767 -0.07170133 -0.17070293 0.09279698
-0.029584024 -0.16245116 0.14549129 0.06359423 0.0794929 0.08081597 -0.10613097 0.035575435
0.1040078 -0.09253334 -0.07945463 0.1121049 -0.115340926 -0.087558076 -0.13460639 -0.1634157

inception_blocks.0.conv_1x1.block.0.bias f4 [8]
00000000: fcdc b736 af62 99b5 ddcb 2439 cfe8 b4b7
00000010: ce0a 32b8 664b bfb6 a010 7d38 a4c0 4cb8
5.479551e-06 -1.1428109e-06 0.00015716204 -2.1566082e-05 -4.244857e-05 -5.701021e-06 6.0335384e-05 -4.88168e-05

inception_blocks.0.conv_1x1.block.1.weight f4 [8]
00000000: 08e6 6a3f f7f6 713f 4fac 653f 2f93 643f
00000010: b36d 4e3f 155c 6e3f 2ccd 4a3f a163 633f
0.9175725 0.94517463 0.8971605 0.89287084 0.8063614 0.93109256 0.7921932 0.88823897

inception_blocks.0.conv_1x1.block.1.bias f4 [8]
00000000: 0791 06bc 73c8 d53c febc 1b3c f9a6 d1bb
00000010: 45f3 083c 1e18 3fbc 6bc8 ffbb 105c e03b
-0.008213288 0.026096558 0.0095055085 -0.0063980785 0.008358781 -0.011663465 -0.007805874 0.006846912

inception_blocks.0.conv_1x1.block.1.running_mean f4 [8]
00000000: 7b4a 5f3d d1ab 393e 6367 2bbe 8c61 523e
00000010: cd7c ddbd 86ea 7e3e c8af 51be ac2e fb3a
0.05451439 0.18131949 -0.16738658 0.20545024 -0.108148195 0.24894151 -0.20477211 0.001916369

inception_blocks.0.conv_1x1.block.1.running_var f4 [8]
00000000: b17a 7b3d bc84 803e 18b1 4c3d 539f cd3d
00000010: 1782 633e 6fca 4a3e 8008 0f3e c428 1a3d
0.061396305 0.25101268 0.049973577 0.10040154 0.22217594 0.19803785 0.13968086 0.037636533

inception_blocks.0.conv_3x3.0.block.0.weight f4 [12, 32, 1, 1]
00000000: 64d4 0ebe fc18 fd3c 9ca6 0a3d cb38 a2bd
00000010: cd51 c03d 20c3 8c3d 7a3c 903c a226 c4bc
00000020: d277 f53d 1f8c 1bbe e2dc 0cbe f101 c83c
00000030: c03d e13d e87c f83d ec3b 87bd 9dfa 10be
00000040: 31d9 c53d fdf3 a7bb 639e 03bd be99 17be
00000050: e04c 843c a513 84bc e44f e63d 73e1 a13d
00000060: 4163 283d fe97 d23d 2760 d7bd 7ce6 0a3e
00000070: ff34 a73d 26d8 f9bd 409f 423d 30ec 083e
00000080: e5aa 98bd daf9 acbd 2e13 483d 75d2 f3bc
00000090: 9385 9c3d e8a9 55bd ba30 bbbd 79d9 773d
000000a0: 6706 23be e0ed ebbd f28c 963d 73bb fabc
000000b0: 26b9 8e3d c8f6 473e 683f 843a acc7 9d3d
000000c0: 920e e4bd dcd0 25be fb5d 52bd 844e 5f3d
000000d0: 033b 96bd 9462 ab3d dab6 6ebd ebdb d73a
000000e0: 35d1 c0bd 0d11 00be 6aef 893d 2f11 303e
000000f0: 09b1 e23c 40b0 f4bd a5b8 73bd 25a0 09be
00000100: ca9f 043e 1efa 1b3e 4eff 463e 828f a93d
00000110: 5633 f6bd 8a23 2cbe ee59 123e 397a a03d
00000120: 2956 583d d236 a3bd 9b7c 0abe fccb cc3d
00000130: f353 253d 1442 23bd 7ce0 ab3b ba1a fa3c
00000140: 88e2 d6bd 0922 08be 9c94 153e 1c41 933d
00000150: f4fb a4bc 22fb 87bd 24ea f0bc 8c75 033e
00000160: 6569 1dbe 9ae7 473d df52 07bd a3fd 083e
00000170: 21e5 23bd b816 a2bd 4aa3 d23d 25f1 19be
00000180: 57e6 7b3d 077e 283e fcd9 1b3b 2409 a9bd
00000190: db6c 77bc dc39 0a3e 6528 2bbe aa48 05be
000001a0: de14 bf3d 9579 1dbe b89a e9bd 72fe 8c3d
000001b0: f481 2abd fc39 dcbd 8cc6 f3bd feaa 27be
000001c0: 9e19 aa3d 1c78 10be 961b f03c 6181 a3bd
000001d0: b85a a9bd eb9f dc3d 36b5 ce3d 4948 26bd
000001e0: 4f5f 0cbb eb05 983d fb29 f43d 475f 87bd
000001f0: a5ff 203e ab49 04bd 9acc 233c eefb 263e
00000200: 7e0c 963d e633 a33c ea31 e23d 42f9 6ebc
00000210: 2ff2 febb decc b3bd f850 41bd fca3 eabd
00000220: fb4a 39bd dd80 ebbd 20a3 19be 04a2 843d
00000230: de98 09be 549a c2bd ab47 513d 0f57 26be
00000240: 8125 cabd 9f9e 0dbe 1794 de3d fb4c 1d3e
00000250: ef3e 50bd 834d e5bd f362 383e 1d2f 0f3e
00000260: b4a4 04be 61c3 7bbd 5af0 b73d b270 e03d
00000270: bab4 4cbd 1b4c cebd bb20 0bbc 33d6 ebbd
00000280: 8e87 9b3c 942a 4cbc 1a05 fdbd 9768 ca3d
00000290: 2a56 b73b fc56 173e c0af 853d 51e2 77bd
000002a0: 4755 e1bd fba3 1f3e c864 a4bd f3de 45bd
000002b0: f167 403d f32d 13bd 1339 52bd b9f6 64bd
000002c0: afe0 983d de8c 003d 64e1 043e 01a2 d93d
000002d0: aff6 833c 7d38 76bc 6dcb 95bd b747 f4bd
000002e0: b2a6 6bbd f9c0 27bd b992 24bd fa1f a23d
000002f0: 594b afbd 3a1a 1ebd fe06 0abe 8199 e33c
00000300: f001 263e 6445 67bd 6d62 ccbd 9692 e8bb
00000310: f292 683d fbeb f7bd ccc0 283e b1d2 63bd
00000320: 4968 ddbd a372 53bd e602 cebd 90e3 dcbd
00000330: 26b3 c7bc 54bb af3c aaea b13b a3df 0b3e
00000340: 29d5 83bd 58e2 c93a ed8c 203d eedc b83d
00000350: 0599 ad3d de5c 7f3b d790 9dbd ea16 b43d
00000360: b9cb dcbd 4a4a 073e 24ce c13d 5311 29bd
00000370: 266e 043e f8d7 d33d 66cc 8ebd 33df 64bc
00000380: 8d1b 363c 0a92 adbd a537 1b3d 8c89 77bd
00000390: 72fb 26ba 3f40 d0bd be11 80bd 03ef e1bd
000003a0: b951 173e 4942 c8bd 3fcb 05be 7b97 703c
000003b0: 1083 873d e3f9 3bbd 450c f43d 9058 573d
000003c0: f369 8abd cf34 0f3e bd22 ca3d cd65 1cbe
000003d0: 3dcb 2c3d 0113 c33d aaea d4bd 1ebe ce3b
000003e0: 6380 4e3c 1715 e83d a410 d93c 1a56 c43d
000003f0: 0860 f73d 2d19 2cbe 6c5a dc3d 76a2 e13d
-0.13948208 0.030895703 0.033850297 -0.07920989 0.09390602 0.06873155 0.017606962 -0.023944203
0.119857445 -0.1519017 -0.13756135 0.024414988 0.10998106 0.12133199 -0.06603226 -0.14158101
0.096605666 -0.005125521 -0.03213347 -0.14804742 0.016149938 -0.016122648 0.11245707 0.07904329
0.04111028 0.102828965 -0.105163865 0.13564485 0.08164405 -0.1219943 0.047515154 0.13371348
-0.074544705 -0.08446093 0.048846416 -0.02976344 0.07642665 -0.05216399 -0.09140153 0.060510132
-0.15920411 -0.115199804 0.07351102 -0.03060696 0.06968908 0.19527733 0.0010089697 0.077041
-0.111355916 -0.16192955 -0.051359158 0.054518238 -0.07335474 0.08368412 -0.05827985 0.0016468739
-0.09414903 -0.12506504 0.06735118 0.17194055 0.027672308 -0.119476795 -0.059502263 -0.13439997
0.1295158 0.15232131 0.19433329 0.08279325 -0.1202151 -0.16810432 0.14292118 0.07835812
0.052816544 -0.079694405 -0.13524096 0.099998444 0.040363263 -0.03985794 0.0052452665 0.030530322
-0.10492426 -0.13294233 0.14607471 0.07190153 -0.020139672 -0.06639697 -0.029408522 0.1283781
-0.15372236 0.048804857 -0.033038016 0.13378005 -0.040013436 -0.079144895 0.10285051 -0.15033396
0.061498966 0.16454326 0.0023781052 -0.082536966 -0.015101637 0.13498634 -0.16714628 -0.13016
0.09330152 -0.15378411 -0.114064634 0.06884469 -0.04162784 -0.10753247 -0.11903104 -0.16373822
0.08305667 -0.14108318 0.029310029 -0.079836614 -0.08269256 0.107726894 0.10093157 -0.04059628
-0.0021419113 0.07423004 0.1192207 -0.066099696 0.1572252 -0.032296818 0.009997511 0.16307041
0.073266014 0.019922208 0.110446766 -0.014585795 -0.0077803354 -0.0877931 -0.04719636 -0.11457059
-0.045237523 -0.11499188 -0.15003633 0.064762145 -0.1343722 -0.09502092 0.05109374 -0.16244148
-0.098704346 -0.1383004 0.1086809 0.15361397 -0.05084127 -0.11196425 0.18006496 0.13982816
-0.12953454 -0.061465625 0.0898139 0.10958995 -0.04997704 -0.1007311 -0.00849169 -0.11515465
0.018985536 -0.012461323 -0.12354489 0.0988323 0.0055949884 0.14779276 0.06527662 -0.060518567
-0.110025935 0.15589897 -0.08027035 -0.048308324 0.046974126 -0.035932492 -0.05132396 -0.055899356
0.0746473 0.03138434 0.12976605 0.10626603 0.016108839 -0.015028116 -0.07314191 -0.11927741
-0.05753202 -0.040955517 -0.040178988 0.07916255 -0.08559293 -0.03859923 -0.1347923 0.027783157
0.16211677 -0.05646266 -0.09979711 -0.0070975525 0.056780763 -0.121055566 0.16479796 -0.055620853
-0.108109064 -0.051622998 -0.100591466 -0.107855916 -0.024377417 0.02145163 0.0054295855 0.1365953
-0.064371414 0.0015402539 0.039196897 0.09026514 0.08476452 0.0038965265 -0.07693642 0.08793433
-0.107810445 0.13211933 0.09463146 -0.041276287 0.12932643 0.10343927 -0.0697258 -0.01396923
0.011114967 -0.0847512 0.037894864 -0.06043391 -0.0006369866 -0.10168504 -0.06253384 -0.11031916
0.14777268 -0.09778268 -0.13065813 0.014684553 0.06616795 -0.045892607 0.11916403 0.052574694
-0.067584895 0.13984989 0.09869907 -0.15273209 0.04218601 0.09525109 -0.10396321 0.006309285
0.012603852 0.113321476 0.026497193 0.09586735 0.120788634 -0.16806479 0.10759434 0.11017315

inception_blocks.0.conv_3x3.0.block.0.bias f4 [12]
00000000: 356a 2937 a970 b937 b35a 06b9 398f 14b8
00000010: e7b9 4638 16c9 8db7 1294 b637 a365 c136
00000020: a823 4bb8 d0a2 f7b6 d8b1 95b8 c176 8cb7
1.0097913e-05 2.210618e-05 -0.00012813024 -3.5419336e-05 4.7380014e-05 -1.6902148e-05 2.1765041e-05 5.7636803e-06
-4.843218e-05 -7.3801275e-06 -7.138e-05 -1.67446e-05

inception_blocks.0.conv_3x3.0.block.1.weight f4 [12]
00000000: f7ba 723f a2f6 643f 7fb6 6f3f c51e 6e3f
00000010: 25cc 5c3f 9271 603f aef1 653f e2a6 6d3f
00000020: 2085 623f 9087 753f 863e 743f 7379 723f
0.94816536 0.8943883 0.9363784 0.930157 0.86249 0.87673295 0.898219 0.9283277
0.8848438 0.95909977 0.95407903 0.94716567

inception_blocks.0.conv_3x3.0.block.1.bias f4 [12]
00000000: bea3 213c ed6a f9ba 70d3 553d 83f8 773b
00000010: 9079 0e3c 32a7 03bc 4ffe 8fbc 7859 b43c
00000020: b90b 2e3d a772 d53c a790 823c 3a9c 663b
0.009865699 -0.0019029059 0.052203596 0.0037837334 0.008695975 -0.008035468 -0.017577318 0.022015318
0.04249165 0.026055647 0.015938116 0.0035188333

inception_blocks.0.conv_3x3.0.block.1.running_mean f4 [12]
00000000: c953 d63d bc78 3ebe d52f a53d 057d 7bbd
00000010: e58e 63be 5b3a 5bbd e080 a13c 44ea 6b3d
00000020: 52e3 2c3b 4a8b 013d fe9a df3c 9fcc 01be
0.104651995 -0.18600744 0.08065764 -0.061398525 -0.22222479 -0.05352245 0.019714773 0.05759646
0.002638061 0.031626977 0.027295586 -0.12675713

inception_blocks.0.conv_3x3.0.block.1.running_var f4 [12]
00000000: c796 e83d a6a7 c93d ad12 983d 1172 333d
00000010: 8e7b d53d 1c83 2d3e b478 263e 9da7 303d
00000020: d1c4 263d d493 583d e2df a83d 2f34 933d
0.113568835 0.098464295 0.07425437 0.043809954 0.10423957 0.16944546 0.16256982 0.0431286
0.040715043 0.052875355 0.08245827 0.071876876

inception_blocks.0.conv_3x3.1.block.0.weight f4 [16, 12, 3, 3]
00000000: 4052 823c 5cc4 a3bd 11c9 c93b 6e1d 893d
00000010: 975c 7ebc d553 81bd 529e ab3c c9c1 a23d
00000020: 6d88 1dbd f14b 66bd 05c9 a4bd 39a7 4a3d
00000030: b1b1 5abd 6bd9 8e3d ecdf 053d 6673 483d
00000040: 073b a4bd 2b61 a8bd 0505 d03c 84a6 a53d
00000050: 27b4 c13d 3b1c c0bc 0b1e 54bd 1c7b b73c
00000060: 93b7 54bd 1a52 0f3d a7dc 3d3d 53d0 a7bc
00000070: 77cc bdbd 5cd0 893b 69c9 993c a406 ab3d
00000080: 3659 81bc 417b 8dbd 956d a7bd 874b 133d
00000090: 0c05 bebc 5698 2dbc f434 e4bb 7be8 abbd
000000a0: 722a 47bd 1503 bebc ab00 18bd 9322 96bd
000000b0: 44e4 443d 93f0 d93c 7c65 68bd 0dc9 3b3c
000000c0: 4986 3bbb a704 933d 2a94 5cbd 89d1 a53c
000000d0: 4b37 74bd 3bfd 183d 55d8 9d3d f48d 113b
000000e0: 14c2 13bd e1c0 af3c 19b8 7e3d 8c2e 4c3d
000000f0: 60a2 4c3d aa4d 9c3d 0af7 643d 934d d93b
00000100: f91e 2bbc 5934 95bc eee9 ca3d 04c8 623d
00000110: e4b9 b23d e409 aabd 13d8 2c3d c7ec 623c
00000120: 11e7 0f3d 3bb1 3d3d a508 75bd 1259 c73d
00000130: 27e7 55bc 72cb 973d 1838 3cbd 2f3d 72bd
00000140: 79e0 7cbd 67e1 98bd 8e88 f23c 58cd 4abd
00000150: 4249 193d 024f 54bd 4ec2 c53d 57c6 84bc
00000160: 26fa 3bbc 3539 f73d be0d 9ebd 3203 bdbd
00000170: 69f3 4dbd 0798 a13d 5b01 943d 08d1 5fbc
00000180: 5ef3 523d 38b3 09bd eda2 383c bbe1 2fbd
00000190: d3b8 643d 23cf 293c e3cb b9bc 5524 713c
000001a0: 3aad d93d 1c7d f23b acd7 4b3d fe82 6a3d
000001b0: efcc ba3d 8c43 0bbd 9ef5 a43d 6b44 713d
000001c0: 2b38 87bd 8267 a03d fa94 f83b daa4 89bd
000001d0: eb15 edbc 228b f5bb 6ba2 0d3d 00d5 583c
000001e0: 3948 80bd 0e26 6d3d 8726 88bc 9504 2b3d
000001f0: 489a 963d 41f9 e7bc 0b2f 303b 680e b0bd
00000200: d59b b7bc 81c1 bcbd 7df8 5a3d 1ae0 ecbc
00000210: a021 46bd 3cbc 78bd a823 4c3c 9f71 97bc
00000220: d329 333d 7e06 d73c f02a 9ebc a066 58bd
00000230: 3a3c 213d dc18 b5bb 61f9 8fbc 28f0 c73c
00000240: 80f0 463b 6adc 653d 1953 7cbd a915 a4bd
00000250: e399 8c3a 4341 a43d 95f4 48bd 4bc1 693d
00000260: 25bc 353d 7f0f 00bd 2ef4 2cbc 1ef9 9d3d
00000270: 7b91 9c3d 3369 70bb 36a0 64bd 6cda 093d
00000280: 602a febc 5127 2fbd e32d 5bbd fce1 6fbd
00000290: 5550 6c3d 2254 963d 06f6 92bd 1809 f9bc
000002a0: d805 4f3d 99a6 813d 775e 5dbb b757 18bd
000002b0: 32a7 4e3d 4f08 3dbb 91b2 e23c f8e9 12bd
000002c0: 005b 7fbd ce4e b0bd 2cb6 773d 8249 82bd
000002d0: c599 003c a17c dd3c cf8a a6bd 08cd 203d
000002e0: 85fd dcbd 8d40 99bd 978d cd3c 0f64 03bd
000002f0: 059a 8b3d 519d 83bd 4104 8abd 21b7 03bb
00000300: 9f0a 63bd c21a acbd 5f6a 7f3d d93f 193d
00000310: 8aea 96bd 58d6 34bd dc4b 4ebd bf05 6abc
00000320: 4908 51bd c927 e3bc 4a4a ccbd 8105 a8bd
00000330: c963 8f3d 0e6a b13c 34a5 ae3d 70f5 68bd
00000340: c8cc ad3c eda1 9f3d a7ba abbd 9f10 e8bd
00000350: 8dd3 433c 16b2 98bd c3c6 783d a087 ac3c
00000360: 28c3 9c3d e374 8c3d b955 8abd 3f3e 943d
00000370: 1028 0a3d 303c 363d 14b8 6b3d c306 6b3d
00000380: 7492 bebc 23ff 50bd 05c7 cebd 7e2e 17bc
00000390: d51b fbbd 77cd b6bd c1bd bc3c 830a f4bd
000003a0: 31cd 32bc 2ce3 8dbc cc08 343d 6759 9bb9
000003b0: a2cd 4d3d bf8e a23c 6e5a b7bd db8a af3d
000003c0: 9651 c7bd cd20 7d3d 5211 b8bc bcec dc3c
000003d0: bafe 843c 2ebe c0bd 5666 24bd e874 0a3c
000003e0: 6421 abbc 1324 e2bc e0a1 8d3a 8076 42bd
000003f0: ef4e 8bbc d29f 173d 6982 103d 0923 cfbc
0.01590836 -0.07996437 0.006158002 0.066950664 -0.015525005 -0.06314818 0.020949516 0.07947118
-0.038460184 -0.056224767 -0.08046154 0.049475882 -0.053392116 0.06975063 0.03268425 0.048938178
-0.08019071 -0.08221658 0.025393018 0.08088401 0.094581895 -0.023450961 -0.051786464 0.02239757
-0.051932883 0.034990408 0.04635301 -0.020485079 -0.09267514 0.0042057466 0.018772798 0.08350876
-0.01578961 -0.069082744 -0.08175198 0.0359607 -0.023195766 -0.010595402 -0.0069643203 -0.083939515
-0.048624463 -0.023194829 -0.037110012 -0.07330813 0.048069254 0.026603973 -0.056737408 0.011461508
-0.0028613976 0.07178622 -0.053852238 0.020241516 -0.059623044 0.037350874 0.07707278 0.0022209855
-0.03607376 0.021454277 0.062187288 0.049849078 0.04995954 0.07632001 0.055899657 0.006631562
-0.010444396 -0.018213438 0.099079 0.05536653 0.08726862 -0.08302668 0.042198252 0.013850397
0.03513247 0.0463116 -0.059822697 0.09733786 -0.013055599 0.07411851 -0.045951933 -0.05914038
-0.06173751 -0.07464867 0.02960613 -0.049512237 0.03742338 -0.05183316 0.09656201 -0.016207857
-0.011473214 0.12071458 -0.07717465 -0.09229125 -0.050280962 0.07890325 0.07226821 -0.013660677
0.051501624 -0.033618182 0.011269313 -0.042939883 0.055840325 0.010364327 -0.022680229 0.014718135
0.106287435 0.007400168 0.049766228 0.05725383 0.09121119 -0.033999965 0.0805466 0.05890314
-0.0660251 0.078322425 0.0075861188 -0.06720896 -0.028941115 -0.0074933926 0.034578722 0.013234377
-0.062637754 0.05789762 -0.016619934 0.041752417 0.073536456 -0.028317096 0.0026883509 -0.08596498
-0.022413174 -0.092165954 0.053459633 -0.028915454 -0.04837191 -0.06072639 0.012459673 -0.018486796
0.04374106 0.026248213 -0.019307584 -0.052832246 0.039364077 -0.005526645 -0.017574968 0.024406508
0.0030355752 0.056118406 -0.061602686 -0.08011944 0.0010727014 0.0802026 -0.049061377 0.057069104
0.04436888 -0.03126478 -0.010556264 0.07713531 0.07644936 -0.0036683797 -0.05581685 0.03365557
-0.031026065 -0.042762104 -0.053510558 -0.058565125 0.057693798 0.07340266 -0.071758315 -0.030399844
0.050542682 0.06330604 -0.003377823 -0.037193026 0.05045242 -0.0028844064 0.027673038 -0.03586766
-0.062342644 -0.08608781 0.060476467 -0.06361677 0.0078491615 0.027036967 -0.081319444 0.039258033
-0.107905425 -0.07483015 0.02509193 -0.032077845 0.06816486 -0.0642649 -0.067390926 -0.0020098167
-0.05543005 -0.08403541 0.062357303 0.037414405 -0.073689535 -0.044149727 -0.050365314 -0.014283597
-0.051033292 -0.027728932 -0.09975107 -0.08204175 0.070014544 0.021657016 0.08527604 -0.056874692
0.021215811 0.07794557 -0.083852105 -0.11331295 0.011952293 -0.07455842 0.06073643 0.021060765
0.076544106 0.06858232 -0.067546315 0.07238435 0.033729613 0.044490993 0.057548597 0.057379495
-0.023263194 -0.051024567 -0.10096554 -0.009227393 -0.12261168 -0.08925908 0.0230397 -0.119160675
-0.010913179 -0.017320238 0.0439537 -0.00029630514 0.050244935 0.019843457 -0.08952795 0.085714065
-0.09732358 0.06179886 -0.022469196 0.026968352 0.016234744 -0.09411274 -0.040136658 0.008450724
-0.020889945 -0.027605092 0.0010805689 -0.04747629 -0.017005412 0.03701765 0.03528062 -0.02528526

inception_blocks.0.conv_3x3.1.block.0.bias f4 [16]
00000000: 5821 3937 7ee9 2736 6d1c 07b8 9c8f 63b8
00000010: 4c15 d0b7 8fea 62b7 63b0 0135 bd6d 8c38
00000020: c90c 0138 2a0c 2836 373f e635 0d19 50b7
00000030: c4d3 d5b7 432b 1139 cb03 bcb7 b186 a5b6
1.1034623e-05 2.502085e-06 -3.221298e-05 -5.4254764e-05 -2.480545e-05 -1.3525262e-05 4.831292e-07 6.6961606e-05
3.0767904e-05 2.5041031e-06 1.7154733e-06 -1.2403599e-05 -2.549019e-05 0.00013844394 -2.2413113e-05 -4.9330633e-06

inception_blocks.0.conv_3x3.1.block.1.weight f4 [16]
00000000: 045b 603f 4aff 593f 343d 6f3f b263 643f
00000010: fb49 5b3f a6d3 6e3f 6d4c 673f 4a52 6a3f
00000020: fcaf 703f 0ad4 643f ccef 623f 8888 673f
00000030: 98b4 643f 53f8 693f 5b27 6f3f e92c 6f3f
0.8763888 0.85155165 0.93452764 0.8921462 0.8565976 0.932917 0.9035099 0.91531813
0.9401853 0.89386046 0.8864715 0.90442705 0.89338064 0.9139454 0.93419427 0.934279

inception_blocks.0.conv_3x3.1.block.1.bias f4 [16]
00000000: 66cf 97ba b925 013d 0a54 d03b af15 7a3c
00000010: ebe3 9c3a d81e cd3b a852 03bc 000a c73c
00000020: 9c4b 84bb 8d0e eb3c d28b 4d3d 476f 6e3c
00000030: dbaa e0bc 5b2c 873c 5f07 c83c aba1 1f3d
-0.0011582195 0.031530116 0.0063576745 0.015263959 0.001196978 0.0062597804 -0.008015312 0.02429676
-0.0040373337 0.028693462 0.05018217 0.014552898 -0.02742522 0.016500643 0.024417577 0.038972538

inception_blocks.0.conv_3x3.1.block.1.running_mean f4 [16]
00000000: 0704 fb3d d60c 4ebe ffcd 173e 6222 11be
00000010: 75a2 5cbe 7080 023d cfe6 b9be 5a3a b63d
00000020: b257 7c3d d9ee be3e 417d cabe c1e4 4a3e
00000030: 929a 51be 33d8 5fbe f3aa c8be 63a0 c4be
0.122566275 -0.20122084 0.14824675 -0.14173272 -0.21546347 0.03186077 -0.36308905 0.088978484
0.06160707 0.372916 -0.39548686 0.19813825 -0.2046912 -0.21859817 -0.39192924 -0.38403615

inception_blocks.0.conv_3x3.1.block.1.running_var f4 [16]
00000000: f266 0f3e 0a3e 173e f1d0 f93d ceee fb3d
00000010: 5fab b03e c750 c03d 3570 713e 2d8b a53d
00000020: ba07 dd3d 9141 cc3d b9f8 1d3e 6735 c73d
00000030: a3da 2d3e 78db e93d 65eb 293e a27b 443e
0.14004114 0.1476976 0.121980555 0.12301408 0.34505746 0.09390407 0.2357796 0.08083186
0.10792489 0.09973443 0.15426911 0.097269826 0.16977935 0.114188135 0.16593702 0.19187787

inception_blocks.0.conv_5x5.0.block.0.weight f4 [4, 32, 1, 1]
00000000: eb64 1a3e 7cc3 163e d673 fa3b e703 9cbd
00000010: 44ad 11bc cd8a 083d 9791 163c 6785 02be
00000020: 2f16 c8bd 9074 28bd dac7 2bbd 0255 abbd
00000030: f2b5 34be aaec e4bd 0e75 263e 036a 18bd
00000040: 0bfe a1bd d581 afbd f6a8 923d 2f12 46bd
00000050: 3c7c 9e3d 8274 98bd 0dc6 f33d a425 92bc
00000060: f905 84bb 7dfb 203d 311d 9cbd 8bd9 b23d
00000070: 89bf 8dbc 53ce d3bd 7605 983d ec3e 3bbb
00000080: 26bb d13d 5ca2 833d af2e 8fbd 6de5 5f3c
00000090: aaa0 053e 74d0 26be aebe fabd bedf f7bd
000000a0: f2e9 cb3c 7ce0 0d3e bbdb 7c3c b7c1 e13d
000000b0: cc23 0cbd c9b3 0dbe 3e1f 183e e3ad 1d3c
000000c0: 6e16 103e 02a7 21be 1e65 483d 39b1 203e
000000d0: 2b02 d3bd f27d 45bc df2b b3bc 6119 0abe
000000e0: c814 2bbe 93e7 6abd 19ca ef3d 13ac 903d
000000f0: 6bc7 213d c51a b93d 99e1 253e cce6 f5bd
00000100: 8cc2 333a 8ef5 85bc 0ef4 50bd cdf0 c83d
00000110: 8701 1ebe 8377 09bd 4d8f 88bd ef37 08be
00000120: 48ea ccbd 27df b6bd c28c 10be 04b3 863c
00000130: 14d7 cbbd 5809 19be 26fa 233d 9c40 d93c
00000140: d633 19be bed0 103e d69a 3d3d d7f3 29be
00000150: 4ef5 d43d 3721 d3bc 2b66 233e c004 363b
00000160: 5c3e 963d 48fd aabd 40c8 4abd dd03 2e3e
00000170: 981a 163e 730d 03bd eb27 0a3e 266b bfbd
00000180: aab3 c83d a433 77bd 82cd b43d 43fe 033e
00000190: 4169 ffbd f4e6 0abe f5e3 023e f9e3 d73d
000001a0: 0577 cbbc 7c23 1abc 35ad f93d b714 263b
000001b0: 8f6a cc3d a050 c73d 891f 2cbe 52a8 ccbd
000001c0: f401 33bd 2622 253e 4cfe d0bd 1bc4 d3bd
000001d0: 2fdc 43bd f961 083c 0e41 c33d 686d 193d
000001e0: f81b 37be 8d99 cbbd 8a3a b33d 4311 cd3d
000001f0: 4aee 95bd 7efe 0f3e dc83 3cbe 5375 07bd
0.1507756 0.14723009 0.0076432033 -0.07617932 -0.008891407 0.033335496 0.009189985 -0.12746201
-0.09769856 -0.041126788 -0.04193864 -0.08365823 -0.17647532 -0.111779526 0.1625559 -0.037210476
-0.07909783 -0.08569685 0.07161133 -0.048357185 0.077385396 -0.07444097 0.119030096 -0.017840214
-0.0040290323 0.039302338 -0.07622755 0.08732899 -0.017303245 -0.103420876 0.074229166 -0.002857144
0.10240774 0.06427452 -0.06991326 0.013665539 0.1304957 -0.16290456 -0.122434005 -0.12103222
0.024891827 0.13855165 0.015433247 0.11023276 -0.034213826 -0.13838114 0.14855668 0.009623977
0.14071056 -0.15786365 0.048924558 0.15692605 -0.10303148 -0.0120539535 -0.021871505 -0.13486244
-0.16707146 -0.057349753 0.11708469 0.070640706 0.03949682 0.09038309 0.1619934 -0.12006912
0.0006857298 -0.016352441 -0.051014 0.09811554 -0.1543027 -0.03356124 -0.066679575 -0.13302587
-0.10005623 -0.08929282 -0.14116195 0.016442783 -0.09953132 -0.1494497 0.040033482 0.026520066
-0.1496118 0.14142129 0.04629024 -0.16596924 0.10398351 -0.025772674 0.15956943 0.0027773827
0.07336113 -0.08349091 -0.04950738 0.16993661 0.14658582 -0.031995248 0.1349179 -0.09346609
0.09799893 -0.060351983 0.0882826 0.12889962 -0.124712475 -0.13564664 0.12782271 0.10541529
-0.024837026 -0.009407874 0.1219124 0.0025341937 0.09981262 0.09732175 -0.16808905 -0.09993042
-0.043703035 0.16126308 -0.10204753 -0.103401385 -0.047817405 0.00832414 0.095338926 0.037457854
-0.17881763 -0.09941397 0.087514 0.10013058 -0.07320841 0.14061925 -0.18409675 -0.033070873

inception_blocks.0.conv_5x5.0.block.0.bias f4 [4]
00000000: ff50 d038 eed3 4937 a1b6 4db8 4c4c c837
9.9332996e-05 1.2029877e-05 -4.9045895e-05 2.3877386e-05

inception_blocks.0.conv_5x5.0.block.1.weight f4 [4]
00000000: 0485 5e3f 2495 753f 9784 643f 24b1 6b3f
0.86921716 0.95930696 0.89264816 0.9206717

inception_blocks.0.conv_5x5.0.block.1.bias f4 [4]
00000000: f9c8 a7bc 21bb fa3c 3041 c0bc 3dd8 373c
-0.020481573 0.030606808 -0.023468584 0.011220989

inception_blocks.0.conv_5x5.0.block.1.running_mean f4 [4]
00000000: b4fa d5bd 9643 3d3d 12d0 20be 2c06 49bb
-0.104482085 0.046207033 -0.15704373 -0.0030673845

inception_blocks.0.conv_5x5.0.block.1.running_var f4 [4]
00000000: 5b6d 533d 5bbb 353d 5857 2a3e acdc a13e
0.05161796 0.04436813 0.16634881 0.31613672

inception_blocks.0.conv_5x5.1.block.0.weight f4 [4, 4, 5, 5]
00000000: dac5 81bd a6e4 4e3d 8ec4 1e3c 9c19 58bc
00000010: 22a0 313d b709 8d3d 9fc7 95bd b635 3dbd
00000020: 3002 8dbc 9cf4 b03d 0219 933d 8172 5dbd
00000030: 19b1 473d 87d4 33bd afe6 bc3d 1d77 773d
00000040: b4e4 373d 3a4b c0bd c099 063b 4640 8c3d
00000050: 1518 d7bb bf94 8b3d 0c30 e8bd 4c6d 87bd
00000060: ca56 44bd 0083 e33c 19f3 6bbd 6290 c7bc
00000070: 9b89 623c 5f06 3e3c 8ddc 25bd b4a2 71bc
00000080: c3fa 45bc 677b af3d fb08 c4bc 512a debd
00000090: 4f92 7f3d b47a 86bd 5664 593d 1a84 81bc
000000a0: 4dae 773d 5ab8 b6bd e79d 90bd 1f50 92bc
000000b0: 0aad 15bd a54e be3c 3e1b e23c 1abc 993d
000000c0: 1526 553d d88e 1d3d 5769 983d b858 da3d
000000d0: ec03 fe3b bdff 07bd eb7d 803d e121 263d
000000e0: f585 8fbc 736c aebd 5f51 953b 6fe9 1fbd
000000f0: e0be 6ebc 788e 3c3d 7bac d43d e011 9f3d
00000100: 58a4 9cbc e0c8 063d e3b0 b1bd 6841 983c
00000110: 1941 d83d 1c31 0c3c ba85 d63b b8a8 8e3d
00000120: 5706 90bd b14d bdbc 48ed 0d3d 12c1 893c
00000130: d927 913d fa7e b73d 2c93 443d 0b5f 2d3d
00000140: bb68 d03c 3311 afbd 2334 ea3b e57f aabb
00000150: 6bfe 9dbd 498a 423d 46e6 abbd 85a5 b2bd
00000160: a253 3b3d 3b0b 973c c6aa 4c3d cea9 84bd
00000170: a12f a73d 3d1b 8b3d b252 b0bd 9098 45bb
00000180: 7ac6 2fbd 42cf 0f3d a6db 8f3c 7181 bc3d
00000190: 8068 863d b48f 923d c568 743d df0f 75bc
000001a0: f454 a73d bd5e 33bc c4a2 953c d4f5 9bbc
000001b0: 46c0 44bb fc55 9ebd db9d d2bd 249a e63c
000001c0: eb6a 6c3d 2456 abbd 2e13 d2bd 2ca6 1c3d
000001d0: c10b a1ba f174 883c 5c09 abbd 846f 69bd
000001e0: ef1f 5e3d 2ff0 0dbc af6e 1fbd 8002 a13c
000001f0: 4a92 cb3c 646f 793d 9c0b 9abc fef1 ca3d
00000200: 9d43 8e3d 0308 75bd 5281 5b3c 9e7d eb3d
00000210: 5829 8dbd f4c1 083b 1e23 573c fc36 a7bc
00000220: a2e3 d33b cc06 993b 576a afbc a957 a03b
00000230: bb01 7bbd 0eb0 c2bd ba5b 5a3d a84f 09bd
00000240: 30a0 8dbd b582 253d 27f2 113d fd32 983d
00000250: 9d1f b6bc c14f 8e3d c741 8738 5be5 b03c
00000260: 36be b4bc dc5e cb3c 3b56 503d f9ae b13d
00000270: b95e 413d 15c1 17bd 07ec 183d 8e57 393d
00000280: ebc7 7b3d 26dd 273d 6664 76bd 1669 2aba
00000290: 3bd4 433c da9f 543a 2c49 493d bf39 47bd
000002a0: 41b4 44bd 667b d9bc d1e0 6a3d fd99 8b3d
000002b0: 4677 c8bb a0a8 933d 57d1 183d 2661 85bd
000002c0: cb19 64bd 7dce b93d a61d 193d 5b6f 913d
000002d0: 3626 233d 36c4 ec3d 1a41 103d e912 65bd
000002e0: 692a 8d3d 8f4d 533d 5944 343d 2471 a53d
000002f0: 0ba3 323d de47 ac3d 93eb b7bd 1a10 5cbd
00000300: 8ad4 2bbb 53cd 5bbd cf0a 35bd 5b17 103d
00000310: b65f bebd 228c 20bd bc4c ce39 a97e 76bc
00000320: f786 a13d 0ebd 153b c8d4 4bba 2dc1 65bd
00000330: 999f 41bd dfa9 da3d dd7a 593d 4046 343d
00000340: 7155 3ebc 7dbb 63bd 2cfd 653d 9378 91bb
00000350: c918 2f3d e9cd bb3d 0042 27bd e12a 983d
00000360: e8ca 8bbd 3cbd 563d dd9b 4a3d 0f9f 58bd
00000370: 9f80 42bc ed41 303d 9e47 fcbc e94b a53d
00000380: f238 353d fb15 a1bd f81c b03d 692c 693c
00000390: 7172 593c e62a f13d 69a0 ff3c f4fc e13c
000003a0: 8e7f 16bd 2d32 ba3d 71c4 3d3c fb6c 8f3d
000003b0: 0b93 60bd b7d7 98bd a3aa 20bc 1346 9abd
000003c0: 3384 283c 679e 4ebd ab4f a3bd 1135 42bd
000003d0: b91c 9f3d 338b 86bd 5f21 87bd d289 7cbd
000003e0: 9876 6abd 23f8 7e3b 3b3c 17bd 0b58 013d
000003f0: cc52 f5bc 388f a0bc ddbe 8fbd e728 0f3d
-0.06336565 0.050511025 0.009690417 -0.0131896995 0.043365605 0.068866186 -0.07313465 -0.0461938
-0.017212957 0.086404055 0.07182504 -0.054064278 0.048752878 -0.043903854 0.09223687 0.06041633
0.044895843 -0.09389348 0.002053842 0.06848197 -0.00656415 0.068154804 -0.11337289 -0.066126436
-0.04793433 0.027772427 -0.057604883 -0.02436084 0.013826753 0.011598199 -0.040493537 -0.014748264
-0.012083712 0.08568459 -0.023930063 -0.10847915 0.06239539 -0.065663725 0.053074203 -0.015810061
0.06046896 -0.08921881 -0.070613675 -0.01786047 -0.036541976 0.02323086 0.02760088 0.07506581
0.05203827 0.038466305 0.07441967 0.10661453 0.0077519324 -0.033202875 0.06274017 0.040559653
-0.01751993 -0.08516779 0.0045568193 -0.03904098 -0.014571875 0.046034306 0.103844605 0.07767081
-0.019121334 0.032906413 -0.086763166 0.018585876 0.105592914 0.00855663 0.006546703 0.06965774
-0.07032459 -0.023108335 0.034650117 0.016815696 0.070876785 0.08959766 0.047991917 0.04232697
0.025440564 -0.08548202 0.0071473285 -0.0052032345 -0.07714542 0.04749516 -0.083935305 -0.087229766
0.045734055 0.018437972 0.04996755 -0.064777 0.08163381 0.06792305 -0.08609523 -0.0030150749
-0.04291389 0.035109766 0.017560791 0.092043765 0.065629005 0.071563154 0.05967023 -0.014957397
0.081705004 -0.01094788 0.01826609 -0.019038118 -0.003002183 -0.07731244 -0.10284015 0.028149672
0.057719152 -0.083660394 -0.102575645 0.03824441 -0.0012286828 0.016657325 -0.083513945 -0.056991115
0.054229673 -0.008663221 -0.038923915 0.019654512 0.02485003 0.060897246 -0.018804364 0.099094376
0.0694649 -0.059822094 0.013397532 0.11498569 -0.06892651 0.0020867558 0.013130931 -0.02041196
0.006466345 0.0046699997 -0.021413011 0.0048932624 -0.061280947 -0.09506236 0.053310134 -0.03352323
-0.06915319 0.040407855 0.035631325 0.074316 -0.022231871 0.069488056 6.4495536e-05 0.02159374
-0.022063356 0.024825506 0.050863486 0.086759515 0.047209475 -0.03704937 0.03733447 0.045249514
0.061469954 0.040982388 -0.06015434 -0.00065006444 0.011952455 0.0008110978 0.049142048 -0.048639055
-0.048023466 -0.026548099 0.057343308 0.0681648 -0.006117734 0.07209897 0.037309017 -0.0651267
-0.05568866 0.09072588 0.03738179 0.071013175 0.039831363 0.11560862 0.035218336 -0.055926237
0.06892855 0.051587638 0.044010494 0.080782205 0.04361252 0.08412145 -0.08980479 -0.053726293
-0.0026219212 -0.05366261 -0.04419976 0.035178524 -0.09295599 -0.03919614 0.00039348553 -0.015044847
0.078870706 0.002284828 -0.00077755423 -0.05609243 -0.047271345 0.106769316 0.053095687 0.044012308
-0.0116170505 -0.055598725 0.056149647 -0.0044394224 0.042748246 0.091701336 -0.040834427 0.074300535
-0.06825811 0.05242656 0.04946505 -0.052886065 -0.011871486 0.04303162 -0.030795868 0.08071119
0.04424376 -0.078655206 0.08599275 0.01423178 0.013271914 0.1177576 0.03120442 0.027586438
-0.03674274 0.090916015 0.01158248 0.07003208 -0.05482773 -0.07463019 -0.009806308 -0.07532897
0.010285425 -0.050444033 -0.0797418 -0.04741389 0.0776915 -0.06569519 -0.06598162 -0.061654873
-0.057242006 0.0038905225 -0.036922675 0.031578105 -0.029946707 -0.019599542 -0.07018826 0.034951117

inception_blocks.0.conv_5x5.1.block.0.bias f4 [4]
00000000: 4370 8438 0a70 9038 d965 0538 da8e 52b8
6.315161e-05 6.887324e-05 3.1804524e-05 -5.0200942e-05

inception_blocks.0.conv_5x5.1.block.1.weight f4 [4]
00000000: 3cab 723f 2fe0 663f 2def 5d3f bb5b 703f
0.9479253 0.90185827 0.8669308 0.9388997

inception_blocks.0.conv_5x5.1.block.1.bias f4 [4]
00000000: 59eb 193d 0db3 f03c f703 f13b d6ee c13b
0.03757796 0.029382253 0.007355209 0.005918364

inception_blocks.0.conv_5x5.1.block.1.running_mean f4 [4]
00000000: c1d5 263e 6cd4 553e a6a3 813e 9522 333e
0.16292478 0.20881814 0.25320166 0.17493661

inception_blocks.0.conv_5x5.1.block.1.running_var f4 [4]
00000000: a18d 1f3d 7a0e 583d a644 df3d 8659 813d
0.038953427 0.05274818 0.109017655 0.06315903

inception_blocks.0.max_pool.1.block.0.weight f4 [4, 32, 1, 1]
00000000: 0afa 0dbe a0e0 d73c d328 9cbd 1b76 173e
00000010: 4d51 8bbd 8b6c 893d db65 053e 704b febd
00000020: 2d13 c0bd fab5 793d b54b 9abd 2044 20bc
00000030: c453 af3d 2833 fd3d 6355 163d 95a9 f43d
00000040: b09a f43c c848 85bd d825 753d 668f 0cbe
00000050: a81f d7bd 2d54 ad3d 380a 1e3e 0908 473d
00000060: 9a0d dbbd fcb7 c43d acc9 9c3d 6a6a 9dbd
00000070: 869f ea3d 05c6 8bbd 2968 44bd 2e7f 113d
00000080: b221 a4bc 37bf 22be 8b87 23bd 1960 1ebc
00000090: 1821 773d 58c3 a53a 0fc8 16bd 207d e6bd
000000a0: 2e42 dabd af6f 1fbb c474 c2bd 52e9 813d
000000b0: 2931 773d 2ee4 793c 3d3a 083d 855a febd
000000c0: d126 a3bb 0105 0e3d 8b62 1b3d 260d dbbd
000000d0: 6da3 f7bd fabb 2f3e d895 173e af1a 17be
000000e0: 3aa9 9dbd 32b2 1d3e 9eb7 303d a97f 1a3e
000000f0: 748d babd 3b00 dabd 7fbb a13d d6fd 31bd
00000100: f9fd cb3c 2105 b8bc 0815 223d 1622 fc3d
00000110: 2142 193e bc92 0fbe 9d5d 38bd d165 0abe
00000120: cb82 b9bb 66c0 793d ee26 50bc 08b6 debd
00000130: 1ebe dabb 6d5c 04be df0e 2f3c 9d8b 3b3e
00000140: 9b41 a3bd 37eb 00bd c819 c1bd 7c04 1ebe
00000150: 5b38 1b3e 3103 2fbe 2a72 de3d e096 a4bd
00000160: 2452 b93d 8f4c 2bbd 8fbf 253e 235e 9b3d
00000170: ed9b b13d 49c2 1bbd b84a aa3d 0ff4 04be
00000180: e62e 67bd a113 dd3d 7572 1dbe bed0 d4bd
00000190: e9d9 d2bd 0f72 cabb fdda d43c 5be1 1b3e
000001a0: 0bdb 28be 0805 2f3d 0f8d 78bd a88a 233d
000001b0: c5dc 8f3d e7ad d63c e1d8 a93d 3116 ea3c
000001c0: 9e9e c43d 9c4f a03d 28d6 14be e400 03be
000001d0: cab0 1f3c cdc7 1b3e 60e8 e03d d5cf a3bd
000001e0: 131c 8abd 201e 83bc 2712 f53d c0ad 96bd
000001f0: ae7f 9bbc 2b22 f6bd cc6f cbbd 639d 0f3e
-0.13864914 0.026352227 -0.07624974 0.14791147 -0.06802616 0.06710156 0.13027136 -0.12416732
-0.093786575 0.060964562 -0.07533971 -0.009781867 0.08560899 0.12363273 0.036702525 0.11946408
0.029858917 -0.065080225 0.059850544 -0.13726577 -0.10504085 0.08463321 0.15433586 0.048591647
-0.10695954 0.09605405 0.07655653 -0.076863125 0.11456208 -0.068248786 -0.047950897 0.03552168
-0.020035598 -0.15893255 -0.039924186 -0.009666466 0.060334295 0.0012646718 -0.036811884 -0.112543344
-0.10657154 -0.0024328043 -0.094949275 0.063433304 0.060349617 0.015252156 0.033258665 -0.12419609
-0.0049789925 0.03467274 0.037935775 -0.10695867 -0.12091718 0.17161551 0.14803255 -0.14756273
-0.07698293 0.15400007 0.04314386 0.15087761 -0.09109011 -0.10644575 0.0789709 -0.043454967
0.024901377 -0.022463383 0.03957084 0.12311189 0.14966632 -0.14020818 -0.04501115 -0.13515402
-0.0056613437 0.0609745 -0.012704594 -0.108745635 -0.0066754958 -0.12925883 0.010684698 0.18314977
-0.079714976 -0.03147432 -0.094287455 -0.15431398 0.15158217 -0.17091061 0.10861619 -0.080365896
0.0904887 -0.04182106 0.16186355 0.075863145 0.086723186 -0.03802708 0.08315033 -0.12983726
-0.05644121 0.107947595 -0.15375693 -0.10391377 -0.10295469 -0.0061781476 0.025983328 0.15222685
-0.16489808 0.042729408 -0.0606814 0.039927155 0.0702453 0.02620597 0.082933195 0.028575035
0.09600566 0.07827684 -0.14534819 -0.12793308 0.00974674 0.15212937 0.10981822 -0.07998625
-0.06743636 -0.016005576 0.11966353 -0.07357359 -0.01898178 -0.12018236 -0.09933433 0.14024882

inception_blocks.0.max_pool.1.block.0.bias f4 [4]
00000000: 4b4d 5f38 936c 8a38 e9ab 8bb8 af61 f7b8
5.3239328e-05 6.600576e-05 -6.660057e-05 -0.00011796073

inception_blocks.0.max_pool.1.block.1.weight f4 [4]
00000000: efbc 653f 9abc 6b3f 0f9f 713f e142 733f
0.89741415 0.9208466 0.9438333 0.95023924

inception_blocks.0.max_pool.1.block.1.bias f4 [4]
00000000: ae2a a4ba dbbe b63c 7bdf 933c 8d9b b83d
-0.0012524927 0.022307804 0.0180509 0.09014044

inception_blocks.0.max_pool.1.block.1.running_mean f4 [4]
00000000: e86e 7e3e a11e 02be 755a a0bb 4bb3 62bd
0.24846995 -0.12706997 -0.004893596 -0.05534677

inception_blocks.0.max_pool.1.block.1.running_var f4 [4]
00000000: 41e2 0b3e 4c1d 923e b6ea 623d c0a3 2d3e
0.13660528 0.28537977 0.05539962 0.16956997
