models/inception/Inception1_Adam_32_lr0.0001_wd0.001/Inception1_Adam_32_lr0.0001_wd0.001.pth (torch, 823647 bytes, 262 tensors)

input_net.block.0.weight f4 [32, 1, 3, 3]
-0.024703102 -0.08573281 -0.10731149 -0.005074599 -0.052551217 0.13568439 -0.09574505 -0.10064005
-0.12552114 -0.26312146 -0.004257935 0.054169163 0.13655068 0.107384376 0.09955514 0.22727373
0.020803954 -0.044195764 0.2969312 -0.05600599 0.011550524 -0.3263699 -0.1411191 0.19225052
0.037981056 -0.24582468 0.3124847 -0.035710707 0.08166088 -0.2011844 0.08433735 -0.033815745
-0.15563343 -0.08471214 0.1906704 -0.09565205 0.14971988 -0.04737073 -0.12777689 0.2290532
-0.13872038 0.17381433 0.18277529 0.12816475 0.16995259 0.051156737 0.07925213 0.11384938
0.17103545 0.048491973 -0.040261555 0.1811552 0.19289663 -0.0709743 -0.06569933 0.13367817
-0.009251087 0.043271683 0.2147045 -0.25839558 -0.16952735 -0.18141735 0.09663483 0.16167511
-0.024833959 0.15790014 -0.018413285 0.10804073 0.15345706 -0.10760783 0.20760436 0.18687558
-0.05902979 0.19782464 -0.020679524 0.21246372 0.15771891 0.08648476 0.005498677 0.113216765
-0.28420025 -0.22284548 -0.053182088 0.07045865 -0.0255336 0.07474024 0.009800061 0.18326566
-0.071925536 -0.23553397 0.049072854 0.1487947 -0.10245921 -0.07603876 0.12055149 0.16787834
-0.23748727 0.24938011 0.0026610259 0.23002014 -0.068411045 0.21348691 -0.052612033 0.23920465
-0.2573976 -0.058307018 0.16601045 -0.012475177 -0.28152013 0.13464782 -0.053509228 0.009164825
0.17040963 -0.16614084 0.23448958 0.20359252 0.15688577 -0.2641416 0.08404713 -0.09774939
-0.27327 0.18000284 0.113592654 -0.081647925 0.31644627 -0.111548886 0.16432059 0.21183869
0.08475368 0.17414354 0.1680893 -0.25818184 -0.14170703 -0.13691159 0.20684534 0.22183158
0.27770874 -0.0051388517 -0.21776405 0.11462333 0.31994498 -0.3021186 -0.12552859 -0.1802464
-0.23168717 0.13937241 -0.038064457 0.19420153 0.25474694 -0.0716988 0.009804135 0.0076595177
0.12270887 -0.0703756 0.10391401 -0.3043999 0.07999227 -0.05925026 0.19426523 0.30180153
0.27774048 -0.16508983 0.30912447 -0.289078 0.11579607 0.1659593 0.104162 -0.18873674
0.08915791 -0.26785934 -0.10544741 0.21549498 -0.031513333 0.23794027 -0.18684341 0.26798177
0.12282304 -0.039372243 -0.06710193 0.13859873 0.2035024 -0.33778676 0.103749834 0.09485304
0.008416734 -0.21315919 0.01094875 -0.05518878 0.3141734 -0.23121208 -0.14187439 0.028360793
-0.09493679 -0.20215344 -0.0030077547 0.0646773 -0.09451408 0.28266078 -0.065452084 0.06999674
0.060644284 -0.12902087 -0.23111704 0.0202442 0.29051822 0.31619915 -0.18540463 0.035351656
0.10404566 0.16613324 0.11716368 -0.037026815 -0.299021 0.26045236 -0.16773698 0.1679314
-0.22346106 0.2089261 0.26671663 0.2515856 -0.17406054 0.20505981 0.23921844 -0.1817017
-0.09023166 -0.21506858 -0.032855153 0.13002647 -0.06435075 0.19512753 0.05230664 -0.0017013154
-0.32067358 0.23778279 -0.016600467 -0.003824869 -0.29439303 -0.3060987 0.00422062 0.2600805
0.3065825 -0.06337136 0.2734416 -0.14569089 -0.17726071 -0.097589985 0.24072719 -0.14463921
0.22150952 -0.01662831 -0.15491082 -0.0728706 0.08697163 -0.088269725 0.25457478 0.18839715
00000000: 295e cabc af94 afbd 20c6 dbbd d248 a6bb
00000010: f23f 57bd d9f0 0a3e fb15 c4bd 5f1c cebd
00000020: 9d88 00be dbb7 86be 2686 8bbb 7ce0 5d3d
00000030: f1d3 0b3e 57ec db3d 91e3 cb3d 72ba 683e
00000040: 0e6d aa3c 9e06 35bd 5e07 983e 8966 65bd
00000050: 693e 3d3c f519 a7be 8681 10be 52dd 443e
00000060: 0692 1b3d 77b9 7bbe fffd 9f3e 6445 12bd
00000070: d23d a73d 4903 4ebe 10b9 ac3d 6182 0abd
00000080: 5f5e 1fbe 8f7d adbd 1a3f 433e 39e5 c3bd
00000090: 2b50 193e d007 42bd f2d7 02be ec8c 6a3e
000000a0: b70c 0ebe 62fc 313e 7229 3b3e 9f3d 033e
000000b0: 0d08 2e3e ba89 513d f14e a23d dd29 e93d
000000c0: eb23 2f3e 859f 463d 4de9 24bd c080 393e
000000d0: b286 453e f95a 91bd 5f8d 86bd eee2 083e
000000e0: df91 17bc a63d 313d 7fdb 5b3e 6d4c 84be
000000f0: 9498 2dbe 78c5 39be 7be8 c53d 298e 253e
00000100: 9670 cbbc 93b0 213e 75d7 96bc 7544 dd3d
00000110: d923 1d3e 7e61 dcbd 3d96 543e 505c 3f3e
00000120: 39c9 71bd 8b92 4a3e 1b68 a9bc 1790 593e
00000130: 1181 213e ec1e b13d 3f2e b43b 31de e73d
00000140: b282 91be 9b31 64be 76d5 59bd a04c 903d
00000150: d72b d1bc 6911 993d 6f90 203c fea9 3b3e
00000160: b24d 93bd d12f 71be 9e00 493d a35d 183e
00000170: 22d6 d1bd 36ba 9bbd b3e3 f63d 4de8 2b3e
00000180: dd2f 73be 805d 7f3e 9b64 2e3b 668a 6b3e
00000190: 171b 8cbd 509c 5a3e b77f 57bd 10f2 743e
000001a0: 9ec9 83be 57d3 6ebd a5fe 293e af64 4cbc
000001b0: 6823 90be 1ee1 093e 7e2c 5bbd 1028 163c
000001c0: dd7f 2e3e d320 2abe 091e 703e 8f7a 503e
000001d0: aaa6 203e 913d 87be e720 ac3d d530 c8bd
000001e0: 0cea 8bbe aa52 383e 44a3 e83d 0737 a7bd
000001f0: 3f05 a23e be73 e4bd a843 283e 3eec 583e
00000200: 5693 ad3d af52 323e 9a1f 2c3e 6930 84be
00000210: a61b 11be 8d32 0cbe 44cf 533e d127 633e
00000220: d72f 8e3e d063 a8bb 8afd 5ebe a3bf ea3d
00000230: d4cf a33e 4aaf 9abe 918a 00be 8392 38be
00000240: 673f 6dbe a4b7 0e3e 7ae9 1bbd c4dc 463e
00000250: 316e 823e d2d6 92bd 86a1 203c b1fc fa3b
00000260: ca4e fb3d 1521 90bd ded0 d43d 4eda 9bbe
00000270: fdd2 a33d 67b0 72bd 77ed 463e bb85 9a3e
00000280: 0034 8e3e 4f0d 29be 9045 9e3e 0802 94be
00000290: 7d26 ed3d 3cf1 293e e352 d53d 3444 41be
000002a0: 6c98 b63d dc24 89be d0f4 d7bd b7aa 5c3e
000002b0: 2014 01bd 9da6 733e e153 3fbe e834 893e
000002c0: a58a fb3d ca44 21bd bd6c 89bd d3ec 0d3e
000002d0: ef62 503e 63f2 acbe cb7a d43d 5042 c23d
000002e0: 57e6 093c 6746 5abe 6362 333c a10d 62bd
000002f0: 56db a03e dcc2 6cbe 8547 11be e554 e83c
00000300: 386e c2bd 5001 4fbe c01d 45bb 8875 843d
00000310: 9990 c1bd eab8 903e be0b 86bd 735a 8f3d
00000320: 2466 783d 0c1e 04be f2a9 6cbe 2ad7 a53c
00000330: cebe 943e dbe4 a13e b6da 3dbe e6cc 103d
00000340: e415 d53d d51e 2a3e 83f3 ef3d 6ea9 17bd
00000350: 4819 99be 035a 853e 3ec3 2bbe 35f6 2b3e
00000360: fad2 64be b9f0 553e 158f 883e d4cf 803e
00000370: ed3c 32be 33fb 513e aef5 743e 0310 3abe
00000380: 60cb b8bd f03a 5cbe 2093 06bd a925 053e
00000390: 53ca 83bd 83cf 473e 7d3f 563d acfe deba
000003a0: 542f a4be 557d 733e b4fd 87bc a7aa 7abb
000003b0: afba 96be f8b8 9cbe 204d 8a3b 4529 853e
000003c0: 62f8 9c3e d8c8 81bd 8a00 8c3e fe2f 15be
000003d0: d583 35be 42dd c7bd 3081 763e 4d1c 14be
000003e0: 64d3 623e 1838 88bc f1a0 1ebe 2e3d 95bd
000003f0: 2f1e b23d c2c6 b4bd a057 823e 2feb 403e

input_net.block.0.bias f4 [32]
-3.69763e-05 -9.238514e-05 -3.2308413e-05 5.763765e-05 -0.000100607824 3.5006426e-05 9.003596e-05 -2.0450161e-05
-2.7346505e-06 7.717028e-05 3.4052195e-05 3.791603e-05 0.00011483175 6.188546e-05 -2.1646669e-05 -8.4957835e-05
3.7715868e-06 2.451811e-05 4.6995887e-05 -3.2840668e-05 4.232523e-05 -2.4599578e-05 9.7187156e-05 5.7212157e-05
-7.46431e-05 -0.00012679756 -6.25352e-05 -1.087098e-05 8.191849e-06 5.5473324e-06 -1.7386961e-05 -0.00012213344
00000000: 0017 1bb8 e5be c1b8 e582 07b8 f5bf 7138
00000010: 6afd d2b8 ddd3 1238 b0d1 bc38 638c abb7
00000020: f084 37b6 7bd6 a138 44d3 0e38 0708 1f38
00000030: d4d1 f038 81c8 8138 de95 b5b7 642b b2b8
00000040: 5e1b 7d36 3eac cd37 731d 4538 66be 09b8
00000050: 5f86 3138 315b ceb7 f5d0 cb38 16f7 6f38
00000060: b689 9cb8 f6f4 04b9 5425 83b8 8162 36b7
00000070: b96f 0937 3923 ba36 37da 91b7 f210 00b9

input_net.block.1.weight f4 [32]
0.7844903 0.84429085 0.8858779 0.7556107 0.8611876 0.8921772 0.7504575 0.85810214
0.8657761 0.7962273 0.8617589 0.8218137 0.89134735 0.8486385 0.8637382 0.94324714
0.8941358 0.90662736 0.9096462 0.8901694 0.8809705 0.8050659 0.9039589 0.8627904
0.886661 0.88598585 0.90592706 0.8236218 0.9004499 0.7545746 0.89260983 0.8972485
00000000: 5bd4 483f 7223 583f e5c8 623f b46f 413f
00000010: ca76 5c3f ba65 643f fc1d 403f 95ac 5b3f
00000020: 81a3 5d3f 8dd5 4b3f 3b9c 5c3f 6262 523f
00000030: 572f 643f 5f40 593f f21d 5d3f a578 713f
00000040: 15e6 643f bb18 683f 93de 683f 24e2 633f
00000050: 4887 613f cc18 4e3f da69 673f d5df 5c3f
00000060: 37fc 623f f8cf 623f d6ea 673f e1d8 523f
00000070: e283 663f cd2b 413f 1482 643f 14b2 653f

input_net.block.1.bias f4 [32]
-0.023132684 0.049474664 0.11197202 -0.015485347 0.002046139 0.019297864 -0.025522899 0.028063346
0.025940802 -0.018791366 0.0073552616 0.015702449 0.011280578 0.0148181375 0.03208378 0.05586351
0.010118727 0.03221034 0.08497123 -0.0013135059 0.025126442 -0.019650664 0.07693807 0.009695239
0.021280248 0.016919445 0.043593675 -0.0018729414 0.06318244 -0.050367177 0.03964559 -0.005325037
00000000: c180 bdbc f2a5 4a3d 9651 e53d 41b6 7dbc
00000010: 8418 063b 8e16 9e3c 6615 d1bc 1ae5 e53c
00000020: ce81 d43c 5af0 99bc 6804 f13b 6ca2 803c
00000030: 2cd2 383c c6c7 723c 486a 033d 23d1 643d
00000040: 04c9 253c fdee 033d 6505 ae3d f229 acba
00000050: f8d5 cd3c 6efa a0bc b591 9d3d c8d8 1e3c
00000060: ea53 ae3c a69a 8a3c 488f 323d 7c7d f5ba
00000070: cc65 813d d04d 4ebd 6a63 223d a67d aebb

input_net.block.1.running_mean f4 [32]
0.007434696 -0.004114394 -0.0027061184 0.0030652492 -0.010420049 -0.009791601 0.0037136253 -0.0111323
-0.0027726605 0.004197474 -0.0034847036 -0.0055056717 -0.0076616067 0.0011512956 -0.005249906 0.0019776411
-0.0043108594 -0.0054483176 0.0025900914 -0.008053294 -0.0032558087 0.0025427977 -0.0046897205 -0.0061041447
-0.005479963 0.0008069403 -0.0046331664 0.0062586954 0.0011935543 0.0062628216 -0.0044966927 0.00041622494
00000000: c09e f33b 0ad2 86bb 2259 31bb 59e2 483b
00000010: dab8 2abc f46c 20bc 4b60 733b 4064 36bc
00000020: 86b5 35bb f78a 893b a05f 64bb ec68 b4bb
00000030: 370e fbbb 12e7 963a 6707 acbb 509b 013b
00000040: 1c42 8dbb cd87 b2bb 86be 293b f7f1 03bc
00000050: 685f 55bb 11a5 263b 3aac 99bb 4705 c8bb
00000060: 4391 b3bb d988 533a d1d1 97bb be15 cd3b
00000070: 0971 9c3a 5b38 cd3b fe58 93bb c438 da39

input_net.block.1.running_var f4 [32]
0.17807652 0.11910105 0.017690128 0.05839493 0.46433896 0.45318955 0.040321287 0.58520436
0.17202501 0.06413399 0.099252045 0.14139614 0.19030333 0.03432023 0.21450537 0.107622914
0.14938076 0.15292099 0.025164634 0.3876091 0.023070851 0.17300108 0.033876285 0.102425344
0.23113677 0.007911936 0.07345286 0.10724664 0.028654048 0.16282031 0.24909027 0.03483484
00000000: b159 363e 40eb f33d e3ea 903c 862f 6f3d
00000010: d6bd ed3e 7608 e83e ef27 253d f4cf 153f
00000020: 5327 303e ae58 833d a844 cb3d 26ca 103e
00000030: e0de 423e 5f93 0c3d 4ca7 5b3e 6769 dc3d
00000040: 45f7 183e 5297 1c3e 1026 ce3c b374 c63e
00000050: 15ff bc3c 3227 313e dcc1 0a3d 61c4 d13d
00000060: 1eaf 6c3e 11a1 013c 746e 963d 20a4 db3d
00000070: e5bb ea3c 5eba 263e 8511 7f3e faae 0e3d

inception_blocks.0.conv_1x1.block.0.weight f4 [8, 32, 1, 1]
-0.14182203 -0.07487033 -0.060440294 0.07950132 -0.00758147 0.010477176 0.07943576 -0.044752125
-0.107817434 0.05162182 0.11104536 -0.045156974 0.07366054 -0.024605012 0.0027125634 0.11023914
0.00280723 -0.11502066 0.13705389 0.009877804 0.15863296 -0.025358126 -0.06034818 -0.12070563
0.042574633 0.15468676 -0.1480587 0.054105416 0.06606854 -0.15236191 0.13615185 0.08993823
0.05704281 -0.026384765 -0.00033763982 -0.024212629 0.100676835 0.12486374 -0.095756754 -0.09159106
-0.0872783 -0.13343981 0.097917885 0.08322639 0.08095842 -0.020488117 0.066492535 0.16750954
0.06278795 0.122329384 -0.1623349 0.12111241 0.025997227 -0.0437865 -0.14458276 -0.0022318007
-0.04916366 0.1280534 -0.13595021 0.10036505 0.10249121 -0.046307527 0.07717386 0.06509416
-0.016527588 0.033537395 -0.14024697 -0.053880274 -0.08148115 0.045197394 -0.040315837 -0.047791816
-0.08286034 -0.06639582 0.036070246 -0.09934988 0.12599945 0.1074134 0.081229135 0.0101720905
-0.09840448 0.13961157 -0.1921112 -0.036512632 -0.044649176 0.07612491 -0.08166041 0.046833925
-0.015122623 0.027606457 0.028422654 -0.14834386 -0.21463749 0.00334903 0.13939391 -0.017935865
0.058283612 0.100835174 -0.10390085 -0.113618195 -0.07858361 0.005254708 0.026538886 0.04873671
0.07631371 0.11657977 0.04029197 0.112927146 0.1006046 0.089871794 0.05014335 -0.07217679
0.09756217 -0.062217526 -0.041517086 -0.038551252 -0.19186454 0.09679647 0.11585493 -0.11479378
0.13112965 0.13398413 -0.076402925 -0.09418858 -0.061318096 0.014300575 0.006134592 0.08914363
0.09736701 -0.0029282067 0.13187729 -0.072567515 -0.10667239 -0.012773988 -0.034333527 -0.104585595
-0.097812496 -0.003936383 0.10717827 -0.07153595 -0.021136157 -0.02014805 -0.07292618 0.10947284
-0.032522295 -0.08250357 0.008696344 -0.040951688 0.07782288 0.11370174 -0.1260091 -0.07184868
-0.101163656 -0.031291712 0.06916855 0.057387933 0.033276316 -0.03377046 0.0577216 0.026755104
0.05912854 0.104192026 0.035503305 -0.10538054 -0.022169722 -0.112233736 -0.035787273 0.041062888
-0.05221303 0.097487986 0.088374116 0.111675106 0.043738794 -0.020307498 -0.06853994 0.17208706
0.1039466 0.003971096 0.06999213 0.058751132 -0.14609776 -0.04057737 0.12385238 0.07144304
0.14731537 0.076256245 0.007993248 0.09102535 -0.02222539 0.045917492 -0.12664187 -0.06826761
-0.07496561 0.109700166 -0.0638332 -0.035082337 -0.014004815 0.041498315 0.03218975 -0.064304285
-0.119655356 0.11690343 -0.025680378 -0.08412345 0.024377711 0.08599802 -0.11161196 -0.004304533
0.069999985 0.15739003 0.0012337648 -0.05644917 -0.14259847 -0.088053964 0.006111827 -0.0889834
0.10694388 -0.14678755 -0.0543866 -0.11849365 -0.08678163 0.014189699 -0.123702064 0.08229958
0.007270668 0.11699887 -0.07461711 0.16612394 0.048517916 -0.14832637 0.04293272 0.16523704
0.03462905 0.080852635 0.06700057 -0.13978523 0.115438096 -0.0739149 -0.16423298 0.086355604
-0.025120463 -0.15267493 0.13734931 0.06326521 0.061997075 0.06841456 -0.103242725 0.03357228
0.099253565 -0.0770422 -0.08758783 0.11409417 -0.09683882 -0.06809245 -0.13185832 -0.17123683
00000000: cb39 11be 9e55 99bd 3e90 77bd 97d1 a23d
00000010: fb6d f8bb 76a8 2b3c 37af a23d 014e 37bd
00000020: 63cf dcbd 6771 533d c06b e33d 85f6 38bd
00000030: 56db 963d 7390 c9bc 43c5 313b 0fc5 e13d
00000040: 81f9 373b f48f ebbd db57 0c3e 83d6 213c
00000050: ae70 223e d8bb cfbc a72f 77bd 8334 f7bd
00000060: bd62 2e3d 3566 1e3e b39c 17be a49d 5d3d
00000070: f14e 873d c304 1cbe 646b 0b3e 8931 b83d
00000080: b9a5 693d dd24 d8bc 4005 b1b9 9059 c6bc
00000090: a82f ce3d 8fb8 ff3d 1e1c c4bd 1894 bbbd
000000a0: f7be b2bd 72a4 08be 2c89 c83d 9972 aa3d
000000b0: 87cd a53d b2d6 a7bc 3d2d 883d 9f87 2b3e
000000c0: f896 803d d487 fa3d 1f3b 26be c909 f83d
000000d0: 23f8 d43c 7959 33bd 810d 14be 6743 12bb
000000e0: d55f 49bd 6e20 033e 8836 0bbe 318c cd3d
000000f0: e9e6 d13d f6ac 3dbd 540d 9e3d 1650 853d
00000100: dd64 87bc 825e 093d e79c 0fbe 90b1 5cbd
00000110: 97df a6bd e720 393d 3822 25bd 5ac1 43bd
00000120: afb2 a9bd 88fa 87bd 65be 133d f377 cbbd
00000130: 0006 013e 8ffb db3d 765b a63d d7a8 263c
00000140: 4a88 c9bd 56f6 0e3e ccb8 44be 458e 15bd
00000150: 0ee2 36bd 60e7 9b3d 933d a7bd eed4 3f3d
00000160: e1c4 77bc f026 e23c a0d6 e83c 74e7 17be
00000170: eec9 5bbe 667b 5b3b 47bd 0e3e 3cee 92bc
00000180: ccba 6e3d ac82 ce3d f8c9 d4bd a8b0 e8bd
00000190: 72f0 a0bd b02f ac3b 1468 d93c 25a0 473d
000001a0: 5d4a 9c3d 60c1 ee3d 3109 253d 5946 e73d
000001b0: c909 ce3d b40e b83d 1d63 4d3d 6dd1 93bd
000001c0: adce c73d ced7 7ebd d20d 2abd ebe7 1dbd
000001d0: 2378 44be 3a3d c63d 5945 ed3d 0019 ebbd
000001e0: da46 063e 2333 093e 2379 9cbd f1e5 c0bd
000001f0: af28 7bbd f54c 6a3c b004 c93b ef90 b63d
00000200: 5b68 c73d 28e7 3fbb d70a 073e 479e 94bd
00000210: 0e77 dabd fd49 51bc 50a1 0cbd f930 d6bd
00000220: eb51 c8bd c6fc 80bb 4880 db3d 7181 92bd
00000230: bc25 adbc 860d a5bc 525a 95bd 4c33 e03d
00000240: 1936 05bd a2f7 a8bd 1c7b 0e3c f5bc 27bd
00000250: 9a61 9f3d 75dc e83d 8808 01be 6725 93bd
00000260: e42e cfbd bd2b 00bd 3ea8 8d3d 9c0f 6b3d
00000270: bf4c 083d e552 0abd 7c6d 6c3d 852d db3c
00000280: c530 723d a162 d53d ea6b 113d c1d1 d7bd
00000290: 479d b5bc cdda e5bd ad95 12bd 8f31 283d
000002a0: 55dd 55bd c8a7 c73d 7dfd b43d ebb5 e43d
000002b0: 7327 333d e95b a6bc ab5e 8cbd 9737 303e
000002c0: f4e1 d43d f81f 823b 0958 8f3d 07a5 703d
000002d0: a79a 15be 7534 26bd 51a6 fd3d bb50 923d
000002e0: d7d9 163e 3c2c 9c3d 1df6 023c 806b ba3d
000002f0: 0512 b6bc fb13 3c3d 68ae 01be e4cf 8bbd
00000300: 9287 99bd 7baa e03d fbba 82bd 7fb2 0fbd
00000310: 7474 65bc 23fa 293d 66d9 033d f7b1 83bd
00000320: de0d f5bd 116b ef3d a85f d2bc ea48 acbd
00000330: c4b3 c73c bb1f b03d d094 e4bd 0a0d 8dbb
00000340: 275c 8f3d da2a 213e 47b6 a13a 3f37 67bd
00000350: 5505 12be a355 b4bd b945 c83b ee3c b6bd
00000360: 6505 db3d 7a4f 16be 7cc4 5ebd ccac f2bd
00000370: 91ba b1bd e97b 683c 8257 fdbd af8c a83d
00000380: c93e ee3b 1b9d ef3d dbd0 98bd 651c 2a3e
00000390: b9ba 463d dee2 17be 38da 2f3d e633 293e
000003a0: 31d7 0d3d 1196 a53d 9837 893d dc23 0fbe
000003b0: cf6a ec3d b260 97bd b12c 28be 35db b03d
000003c0: 6ec9 cdbc d156 1cbe 4ca5 0c3e 3191 813d
000003d0: a5f0 7d3d ef1c 8c3d ec70 d3bd 1683 093d
000003e0: 7445 cb3d 4dc8 9dbd 4061 b3bd 34aa e93d
000003f0: 6e53 c6bd 0e74 8bbd de05 07be b558 2fbe

inception_blocks.0.conv_1x1.block.0.bias f4 [8]
6.945943e-05 3.2481727e-05 2.4580537e-05 7.5554344e-05 3.6585297e-05 8.618173e-05 3.7276957e-05 -3.7506175e-05
00000000: bfaa 9138 fd3c 0838 4d32 ce37 ee72 9e38
00000010: 2a73 1938 77bc b438 d459 1c38 f34f 1db8

inception_blocks.0.conv_1x1.block.1.weight f4 [8]
0.8377287 0.85663176 0.7995327 0.7847623 0.6006857 0.8399125 0.6292099 0.76023614
00000000: 6375 563f 384c 5b3f 2dae 4c3f 2fe6 483f
00000010: 8ac6 193f 8104 573f e613 213f d69e 423f

inception_blocks.0.conv_1x1.block.1.bias f4 [8]
0.006591023 0.0200172 0.036859564 -0.021566454 0.0073242835 -0.013072284 0.013846792 0.0058524343
00000000: 82f9 d73b 1cfb a33c 0efa 163d 22ac b0bc
00000010: 8b00 f03b 222d 56bc a8dd 623c c7c5 bf3b

inception_blocks.0.conv_1x1.block.1.running_mean f4 [8]
0.068803385 0.15649933 -0.1674579 0.12930076 -0.084934674 0.20960782 -0.18589897 -0.008455054
00000000: cae8 8c3d 5c41 203e 157a 2bbe 6b67 043e
00000010: 3bf2 adbd 6fa3 563e 4d5c 3ebe 1187 0abc

inception_blocks.0.conv_1x1.block.1.running_var f4 [8]
0.05858444 0.21278541 0.05120499 0.06459957 0.15501714 0.121829525 0.10566185 0.03741175
00000000: 3df6 6f3d 6be4 593e 53bc 513d c84c 843d
00000010: d0bc 1e3e c281 f93d 3d65 d83d 103d 193d

inception_blocks.0.conv_3x3.0.block.0.weight f4 [12, 32, 1, 1]
-0.13096242 0.025944995 0.027836757 -0.066283256 0.08528364 0.066884555 0.0076299156 -0.019883674
0.11902251 -0.1477624 -0.12649368 0.027550684 0.11241753 0.1309019 -0.062116154 -0.15202579
0.096137315 -0.007505685 -0.024338672 -0.14022902 0.0064489376 -0.011352601 0.10814038 0.07024724
0.033403266 0.104516804 -0.103992 0.096674636 0.0854966 -0.11228795 0.03920017 0.1439479
-0.070791125 -0.079378955 0.05800264 -0.011875993 0.07153961 -0.04925612 -0.07524449 0.058846924
-0.14073026 -0.10935488 0.07794445 -0.024019329 0.0654215 0.18327136 0.0032229049 0.074333355
-0.10372777 -0.1484006 -0.066433705 0.056255676 -0.06352988 0.08347643 -0.05923053 -0.0012015944
-0.08333751 -0.12010265 0.07182822 0.16320798 -0.0012261276 -0.11175774 -0.056781888 -0.14265019
0.12584035 0.14120664 0.2018874 0.08076811 -0.12021076 -0.16284123 0.146152 0.07768344
0.051954214 -0.07347673 -0.12591793 0.09956451 0.033943318 -0.043818425 0.0042859353 0.046870023
-0.10403903 -0.13052058 0.14127035 0.07368222 -0.02621229 -0.071532525 -0.026333135 0.12044118
-0.1481292 0.0486072 -0.036114343 0.12780815 -0.032776 -0.07335029 0.09883127 -0.14802095
0.054337908 0.1588478 -0.00016798316 -0.06919727 -0.01683875 0.12806812 -0.17266448 -0.1323353
0.08578019 -0.13778637 -0.122308925 0.05636948 -0.044142734 -0.09320168 -0.11739751 -0.18232845
0.076178454 -0.13958167 0.020819997 -0.08134182 -0.07923741 0.11616661 0.098875605 -0.035282467
-0.0005092948 0.07785182 0.12000882 -0.06275484 0.16712251 -0.03296517 0.0051503545 0.14468947
0.059865933 0.029343534 0.1099625 -0.010993329 -0.0040602973 -0.07864247 -0.047981963 -0.10135412
-0.04558018 -0.092700996 -0.13590434 0.06388581 -0.124714546 -0.1131659 0.046960257 -0.16585939
-0.08929014 -0.13046466 0.08771272 0.15423022 -0.048868436 -0.095139824 0.17837016 0.1365538
-0.111433834 -0.05991126 0.09229001 0.09730712 -0.044208787 -0.0900718 -0.004120247 -0.11048405
0.010163968 -0.0050359643 -0.10301739 0.104516126 0.0041949586 0.119613715 0.049991183 -0.04775781
-0.09841545 0.15002231 -0.060032107 -0.05102435 0.05163156 -0.024436962 -0.054307606 -0.058554955
0.073855415 0.030151814 0.09314413 0.08212397 0.028751845 -0.008270403 -0.05133071 -0.11159159
-0.05286456 -0.04024013 -0.029516233 0.07386473 -0.060060136 -0.029429793 -0.12768985 0.016244495
0.14914343 -0.059402358 -0.07371521 0.009521343 0.053392395 -0.110147156 0.16959456 -0.045861486
-0.09540518 -0.041674558 -0.07721841 -0.09286621 -0.020531006 0.009865034 0.01743601 0.13805054
-0.05673239 0.006869586 0.045134403 0.08456912 0.08626563 0.008773595 -0.06836164 0.08115822
-0.10193568 0.12416807 0.10280173 -0.030048007 0.11455732 0.09416199 -0.057288747 -0.016855441
0.019193616 -0.08039637 0.039727986 -0.059208307 0.004169573 -0.095328145 -0.06429102 -0.10351024
0.14453577 -0.085488744 -0.124615714 0.018464275 0.06650789 -0.040945582 0.12182775 0.055084936
-0.060214393 0.13555132 0.11112455 -0.14942518 0.04604006 0.11630458 -0.1025219 0.0048444457
0.00010239349 0.11155448 0.021069871 0.08585384 0.11696707 -0.14520128 0.1056754 0.11575895
00000000: 031b 06be 998a d43c e909 e43c 84bf 87bd
00000010: 30a9 ae3d c5fa 883d 5f04 fa3b 16e3 a2bc
00000020: 13c2 f33d 074f 17be 8f87 01be f9b1 e13c
00000030: 293b e63d 260b 063e 826d 7ebd a6ac 1bbe
00000040: a4e3 c43d 40f2 f5bb e561 c7bc 3298 0fbe
00000050: 9c51 d33b 4300 3abc b478 dd3d c9dd 8f3d
00000060: ddd1 083d e80c d63d c2f9 d4bd 5afd c53d
00000070: d718 af3d 3af7 e5bd 5c90 203d 1467 133e
00000080: f0fa 90bd 6f91 a2bd 2d94 6d3d 8693 42bc
00000090: 5c83 923d c9c0 49bd c819 9abd 7909 713d
000000a0: 981b 10be 74f5 dfbd 57a1 9f3d 2fc4 c4bc
000000b0: b5fb 853d 7dab 3b3e 5f37 533b 163c 983d
000000c0: 3a6f d4bd 54f6 17be 650e 88bd 5a6c 663d
000000d0: f41b 82bd b1f5 aa3d b69b 72bd d17e 9dba
000000e0: dbac aabd 61f8 f5bd ac1a 933d fe1f 273e
000000f0: 04b6 a0ba 3ee1 e4bd 2094 68bd e412 12be
00000100: 4bdc 003e 7998 103e 92bb 4e3e c069 a53d
00000110: 0f31 f6bd dabf 26be dfa8 153e 7f18 9f3d
00000120: f1cd 543d f87a 96bd a1f0 00be 7ae8 cb3d
00000130: 2608 0b3d f37a 33bd 0871 8c3b c8fa 3f3d
00000140: 6a12 d5bd 30a7 05be 2da9 103e b4e6 963d
00000150: 28bb d6bc a57f 92bd 96b8 d7bc dea9 f63d
00000160: 2eaf 17be 5818 473d a2ec 13bd 24e0 023e
00000170: 2140 06bd ad38 96bd 0d68 ca3d ce92 17be
00000180: 6d91 5e3d ffa8 223e a324 30b9 4cb7 8dbd
00000190: 6bf1 89bc 4a24 033e f5ce 30be e882 07be
000001a0: 86ad af3d df17 0dbe 1a7d fabd afe3 663d
000001b0: 03cf 34bd 86e0 bebd 1b6e f0bd 4fb4 3abe
000001c0: 7303 9c3d 7fee 0ebe b38e aa3c 8a96 a6bd
000001d0: 3947 a2bd c2e8 ed3d 4b7f ca3d 5984 10bd
000001e0: 3282 05ba c670 9f3d 2fc7 f53d 9c85 80bd
000001f0: 2a22 2b3e 7c06 07bd 4ec4 a83b 7a29 143e
00000200: fb35 753d da61 f03c 0534 e13d 5d1d 34bc
00000210: 3e0c 85bb 4e0f a1bd bc88 44bd c092 cfbd
00000220: 48b2 3abd 05da bdbd 822a 0bbe 90d6 823d
00000230: 576a ffbd 86c3 e7bd 6659 403d 0bd7 29be
00000240: c0dd b6bd 8798 05be baa2 b33d 87ee 1d3e
00000250: 452a 48bd abd8 c2bd aba6 363e c2d4 0b3e
00000260: 6c37 e4bd 8265 75bd 8b02 bd3d f548 c73d
00000270: 4614 35bd 9077 b8bd 2303 87bb 7645 e2bd
00000280: c686 263c bb04 a5bb c8fa d2bd 8d0c d63d
00000290: dd75 893b 09f8 f43d 8ec3 4c3d b29d 43bd
000002a0: 0a8e c9bd 739f 193e 3ae4 75bd e9fe 50bd
000002b0: 9d7b 533d 0630 c8bc a771 5ebd 52d7 6fbd
000002c0: 8241 973d f000 f73c 5ac2 be3d 9d30 a83d
000002d0: fd88 eb3c 9680 07bc 2740 52bd 228a e4bd
000002e0: 8288 58bd d6d2 24bd 07cc f1bc 6446 973d
000002f0: 9e01 76bd c016 f1bc 21c1 02be 2d13 853c
00000300: 0eb9 183e e34f 73bd 00f8 96bd 68ff 1b3c
00000310: fcb1 5a3d d594 e1bd 32aa 2d3e 41d9 3bbd
00000320: ca63 c3bd f1b2 2abd b024 9ebd a430 bebd
00000330: a430 a8bc f4a0 213c f7d5 8e3c 1f5d 0d3e
00000340: 3960 68bd 441a e13b dade 383d 9332 ad3d
00000350: 09ac b03d 20bf 0f3c 3001 8cbd 4836 a63d
00000360: a7c3 d0bd d44b fe3d b789 d23d 3d27 f6bc
00000370: 079d ea3d 00d8 c03d 9ba7 6abd 6c14 8abc
00000380: ee3b 9d3c daa6 a4bd d0b9 223d 6984 72bd
00000390: eaa0 883b 673b c3bd 03ab 83bd 2dfd d3bd
000003a0: 2f01 143e b914 afbd 8636 ffbd 6442 973c
000003b0: 4a35 883d 8eb6 27bd d480 f93d bea0 613d
000003c0: 5ea3 76bd f7cd 0a3e 4595 e33d ea02 19be
000003d0: 8194 3c3d 1831 ee3d 00f7 d1bd 28be 9e3b
000003e0: 16bc d638 ad76 e43d b99a ac3c 23d4 af3d
000003f0: 6e8c ef3d a5af 14be 586c d83d 0713 ed3d

inception_blocks.0.conv_3x3.0.block.0.bias f4 [12]
1.3181357e-05 4.186333e-05 0.00011514715 -0.00011471663 5.9301023e-05 -2.6440768e-05 -1.0962716e-05 6.953079e-05
0.00020840263 5.500015e-05 -5.109662e-05 -7.742871e-07
00000000: 7f25 5d37 6996 2f38 287b f138 0694 f0b8
00000010: fdb9 7838 1ecd ddb7 82ec 37b7 0fd1 9138
00000020: a886 5a39 f6af 6638 9450 56b8 9bd8 4fb5

inception_blocks.0.conv_3x3.0.block.1.weight f4 [12]
0.87151384 0.7659371 0.856181 0.8526188 0.73753226 0.7353933 0.7670602 0.834885
0.8164328 0.881311 0.8801694 0.8701214
00000000: 881b 5f3f 7414 443f ae2e 5b3f 3a45 5a3f
00000010: eace 3c3f bc42 3c3f 0f5e 443f 06bb 553f
00000020: bd01 513f 999d 613f c852 613f 47c0 5e3f

inception_blocks.0.conv_3x3.0.block.1.bias f4 [12]
0.010631381 -0.002001005 0.06395759 0.028857585 0.03196626 -0.018425502 -0.038615223 0.018128444
0.04501752 0.030006232 0.04231273 0.011398435
00000000: 3e2f 2e3c 4b23 03bb 32fc 823d be66 ec3c
00000010: 0eef 023d 14f1 96bc ff2a 1ebd 1a82 943c
00000020: 4b64 383d a1cf f53c 1d50 2d3d 80c0 3a3c

inception_blocks.0.conv_3x3.0.block.1.running_mean f4 [12]
0.103278324 -0.15399796 0.08181004 -0.050614186 -0.16740638 -0.045096487 0.05953358 0.09791678
-0.00923632 0.038103584 0.04503352 -0.10034126
00000000: 9683 d33d a4b1 1dbe 068c a73d d250 4fbd
00000010: 946c 2bbe 18b7 38bd 7cd9 733d 9888 c83d
00000020: ef53 17bc 8112 1c3d 1175 383d b87f cdbd

inception_blocks.0.conv_3x3.0.block.1.running_var f4 [12]
0.09293608 0.061784584 0.06788398 0.042311605 0.06688383 0.11719623 0.09282255 0.034903195
0.041022733 0.061203912 0.081690006 0.055130858
00000000: 4655 be3d d511 7d3d c206 8b3d ef4e 2d3d
00000010: 64fa 883d 9404 f03d c019 be3d a7f6 0e3d
00000020: 7407 283d f4b0 7a3d 174d a73d e5d0 613d

inception_blocks.0.conv_3x3.1.block.0.weight f4 [16, 12, 3, 3]
0.0012346323 -0.07823054 0.021641955 0.06387119 -0.009610562 -0.057320148 0.015582764 0.078913376
-0.04993313 -0.04078865 -0.06989013 0.049950324 -0.038008623 0.050184514 0.010854741 0.031586204
-0.06359642 -0.067700714 0.020265538 0.059796352 0.08017036 -0.0053492035 -0.059863072 0.023551103
-0.057419598 0.029781912 0.045496285 -0.031018889 -0.09891282 0.0039442694 0.020364301 0.083902635
-0.02266854 -0.07176303 -0.06144702 0.028322408 -0.0125679085 0.0096798735 0.012691895 -0.07335588
-0.029485825 -0.014565348 -0.06226178 -0.062969655 0.040188283 0.016816227 -0.03966559 0.013532101
0.0016733431 0.05964252 -0.043019008 0.024527635 -0.04524759 0.033009224 0.062877595 0.0076400605
-0.044154435 0.020642344 0.057164177 0.033779744 0.03817989 0.05446818 0.038998038 0.014783976
-0.0013075854 -0.016131463 0.09281695 0.054215025 0.08653146 -0.0944692 0.04320351 0.014711092
0.041503847 0.043001406 -0.06909182 0.092013605 -0.016391091 0.06766073 -0.035553295 -0.058048863
-0.044652253 -0.101413436 -0.008110968 -0.060489435 0.04838226 -0.047532205 0.09525681 -0.026539234
-0.01030871 0.12635076 -0.07518168 -0.090293124 -0.037416443 0.067239136 0.066507116 -0.0035379212
0.032203663 -0.031914134 0.041705675 -0.025894951 0.054749064 0.00886636 -0.028368492 0.030467873
0.11242267 -0.0019309283 0.04899963 0.06458303 0.09819925 -0.028059589 0.08950527 0.054881796
-0.06629582 0.080818914 0.0044345446 -0.06726993 -0.033961795 -0.036374867 0.037311453 -0.004937027
-0.07216753 0.032450702 -0.016557267 0.039092176 0.06894575 0.0044185086 0.029518133 -0.0675687
-0.005219437 -0.08525532 0.05179643 -0.029534655 -0.048613187 -0.06650924 0.0018720558 -0.022175293
0.043735873 0.026843453 -0.024301853 -0.06644497 0.051806536 -0.005305708 -0.012905472 0.012951423
-0.021975297 0.042117126 -0.025639364 -0.07484938 -0.000537069 0.06301533 -0.055672478 0.05264198
0.040371656 -0.0209448 -0.0042682607 0.06901424 0.07007728 0.008029192 -0.037218556 0.032054108
-0.01813071 -0.029033398 -0.034291703 -0.046800517 0.04333939 0.06245016 -0.053568028 -0.019200396
0.039247725 0.04629087 -0.007493555 -0.019864993 0.039126977 -0.011567498 0.026705643 -0.02791005
-0.06108686 -0.09056649 0.06284311 -0.054718453 -0.0005720366 0.035262022 -0.086295545 0.026781224
-0.10649887 -0.07388611 0.024949145 -0.027641458 0.06581144 -0.04881179 -0.060414627 0.0035364646
-0.070077926 -0.074997626 0.057046287 0.033408057 -0.06850585 -0.0395594 -0.06673106 -0.019661572
-0.027523821 -0.023842692 -0.08490638 -0.08489991 0.0672143 0.021810865 0.083437674 -0.05688691
0.0076985387 0.06081364 -0.05630353 -0.119861804 0.009252096 -0.070609346 0.04976314 0.023677962
0.06589083 0.074345306 -0.06401979 0.07275692 0.046685535 0.04616948 0.05278757 0.045373015
-0.023132386 -0.05530143 -0.09747095 0.009208588 -0.11971287 -0.07862126 0.014010673 -0.12670831
-0.024014616 -0.023353452 0.0300586 -0.0032334765 0.045694426 0.01727124 -0.08953014 0.09675434
-0.099660255 0.046747644 -0.016322035 0.015554121 0.029665068 -0.09304903 -0.045795143 0.021903256
-0.02229954 -0.051087186 -0.011918652 -0.044066835 -0.024113096 0.035052534 0.05028944 -0.007819342
00000000: 63d3 a13a 5537 a0bd 784a b13c e6ce 823d
00000010: 9e75 1dbc 88c8 6abd d94e 7f3c 569d a13d
00000020: af86 4cbd 0012 27bd 8e22 8fbd b698 4c3d
00000030: eeae 1bbd 478e 4d3d 15d8 313c 8960 013d
00000040: d73e 82bd aca6 8abd ea03 a63c 05ed 743d
00000050: 5c30 a43d 5f48 afbb fb32 75bd 3eee c03c
00000060: d030 6bbd 32f9 f33c 505a 3a3d 531b febc
00000070: ce92 cabd ee3e 813b 09d3 a63c 25d5 ab3d
00000080: 60b3 b9bc 7ff8 92bd dfaf 7bbd 6504 e83c
00000090: a1e9 4dbc 5598 1e3c aaf1 4f3c 9c3b 96bd
000000a0: 428c f1bc 7fa3 6ebc 3506 7fbd 3cf6 80bd
000000b0: 789c 243d 2fc2 893c 6378 22bd bfb5 5d3c
000000c0: 1454 db3a b74b 743d b334 30bd 2eee c83c
000000d0: 8955 39bd ae34 073d f8c5 803d 7959 fa3b
000000e0: 48db 34bd 221a a93c fc24 6a3d a15c 0a3d
000000f0: 8462 1c3d 071a 5f3d 68bc 1f3d 7d38 723c
00000100: 4963 abba 2126 84bc d016 be3d 9310 5e3d
00000110: 6837 b13d 1179 c1bd 2af6 303d cb06 713c
00000120: f0ff 293d 3e22 303d 0380 8dbd a171 bc3d
00000130: 9c46 86bc b591 8a3d 55a0 11bd a5c4 6dbd
00000140: 48e5 36bd d9b1 cfbd dee3 04bc c5c3 77bd
00000150: 7a2c 463d 21b1 42bd 0116 c33d cf68 d9bc
00000160: dde5 28bc 1862 013e daf8 99bd 9aeb b8bd
00000170: fc41 19bd acb4 893d e234 883d 78dc 67bb
00000180: fde7 033d 65b8 02bd 92d3 2a3d a621 d4bc
00000190: 8e40 603d 3644 113c 0a65 e8bc c397 f93c
000001a0: db3d e63d 3417 fdba d6b3 483d 1c44 843d
000001b0: b01c c93d 39dd e5bc 8a4e b73d bccb 603d
000001c0: 1ac6 87bd 6384 a53d a84f 913b d1c4 89bd
000001d0: 861b 0bbd d0fd 14bd e5d3 183d c9c6 a1bb
000001e0: 92cc 93bd 07eb 043d 1ba3 87bc 1e1f 203d
000001f0: 6e33 8d3d 23c9 903b 03d0 f13c 7561 8abd
00000200: d007 abbb 579a aebd 7e28 543d a9f2 f1bc
00000210: 9f1e 47bd ff35 88bd c55f f53a f6a8 b5bc
00000220: 6324 333d cde6 db3c ae14 c7bc 4d14 88bd
00000230: 1733 543d 81db adbb 7971 53bc 3532 543c
00000240: 8a05 b4bc 0283 2c3d a509 d2bc a24a 99bd
00000250: 17ca 0cba 2e0e 813d d308 64bd 1e9f 573d
00000260: c05c 253d 6e94 abbc c4dc 8bbb 5657 8d3d
00000270: ad84 8f3d df8c 033c 7c72 18bd 2b4b 033d
00000280: db86 94bc 73d7 edbc 7575 0cbd e6b1 3fbd
00000290: a584 313d bdcb 7f3d 266a 5bbd 264a 9dbc
000002a0: 39c2 203d 7f9b 3d3d 7f8c f5bb e9bb a2bc
000002b0: 9c43 203d 9a85 3dbc cbc5 da3c 9ea3 e4bc
000002c0: 3736 7abd ed7a b9bd e3b3 803d 7520 60bd
000002d0: baf4 15ba e96e 103d b8bb b0bd 4c64 db3c
000002e0: 141c dabd 9a51 97bd 2662 cc3c 5770 e2bc
000002f0: 26c8 863d dfee 47bd 5475 77bd 08c4 673b
00000300: 0485 8fbd 5b98 99bd 5ea9 693d e3d6 083d
00000310: cc4c 8cbd 0a09 22bd 4baa 88bd 4e11 a1bc
00000320: a379 e1bc c051 c3bc 65e3 adbd 01e0 adbd
00000330: a7a7 893d b3ac b23c 5fe1 aa3d 4002 69bd
00000340: 0644 fc3b b917 793d 889e 66bd 1b7a f5bd
00000350: 1a96 173c a29b 90bd 6fd4 4b3d 49f8 c13c
00000360: c5f1 863d 5a42 983d cf1c 83bd 9401 953d
00000370: 5539 3f3d 351c 3d3d c737 583d 0ed9 393d
00000380: 2180 bdbc c183 62bd d99e c7bd 9edf 163c
00000390: 052c f5bd 2f04 a1bd 068d 653c d3bf 01be
000003a0: 4dba c4bc bd4f bfbc 743d f63c bce8 53bb
000003b0: 142a 3b3d 6a7c 8d3c 945b b7bd 2427 c63d
000003c0: ad1a ccbd 757a 3f3d cab5 85bc b6d6 7e3c
000003d0: 2804 f33c 7d90 bebd b093 3bbd 756e b33c
000003e0: 86ad b6bc cc40 51bd 7346 43bc 6d7f 34bd
000003f0: d488 c5bc 3f93 0f3d 4dfc 4d3d b31c 00bc

inception_blocks.0.conv_3x3.1.block.0.bias f4 [16]
1.7343342e-05 -0.00012090018 -4.174232e-05 0.00011817712 9.16768e-05 5.938991e-05 3.682429e-05 -4.9304974e-05
-8.367713e-05 2.9151799e-05 -5.3918557e-05 -1.2594593e-05 -6.7659574e-05 0.00015871832 1.0004472e-05 1.8657607e-05
00000000: 8b7c 9137 ca8b fdb8 7a14 2fb8 dcd5 f738
00000010: 9b42 c038 6e19 7938 c873 1a38 d0cc 4eb8
00000020: d17b afb8 038b f437 9c26 62b8 5d4d 53b7
00000030: 75e4 8db8 a06d 2639 e1d8 2737 e882 9c37

inception_blocks.0.conv_3x3.1.block.1.weight f4 [16]
0.75922 0.7140631 0.8322412 0.8004654 0.700196 0.85425895 0.7883701 0.8277206
0.86223036 0.776928 0.7704934 0.8033282 0.8072627 0.8258958 0.84208053 0.85636777
00000000: 3e5c 423f d7cc 363f c20d 553f 4deb 4c3f
00000010: 0c40 333f b7b0 5a3f 9fd2 493f 7fe5 533f
00000020: 21bb 5c3f c1e4 463f 0e3f 453f eba6 4d3f
00000030: c5a8 4e3f e86d 533f 9792 573f eb3a 5b3f

inception_blocks.0.conv_3x3.1.block.1.bias f4 [16]
-0.014799119 0.035485923 0.009033298 0.032919824 0.0070786146 0.0036492702 0.011096104 0.041416265
-0.0013498797 0.051976893 0.07017805 0.013625359 -0.019618992 0.037190225 0.026273074 0.06994668
00000000: 0178 72bc b059 113d 6600 143c f0d6 063d
00000010: b9f3 e73b 9828 6f3b 6fcc 353c 1aa4 293d
00000020: 72ee b0ba b9e5 543d 82b9 8f3d e63c 5f3c
00000030: 02b8 a0bc c754 183d a13a d73c 3440 8f3d

inception_blocks.0.conv_3x3.1.block.1.running_mean f4 [16]
0.095787406 -0.1869898 0.13748387 -0.15844864 -0.13506806 -0.008385159 -0.3431569 0.05955326
0.08557414 0.2656413 -0.37923756 0.18670215 -0.15164895 -0.16879794 -0.33316228 -0.36149836
00000000: 302c c43d 417a 3fbe 92c8 0c3e 5c40 22be
00000010: 484f 0abe e861 09bc 43b2 afbe 1fee 733d
00000020: 7f41 af3d 2302 883e 6d2b c2be d92e 3f3e
00000030: dd49 1bbe 5ed9 2cbe 3f94 aabe 5016 b9be

inception_blocks.0.conv_3x3.1.block.1.running_var f4 [16]
0.12172553 0.10368878 0.09586576 0.1068255 0.19036567 0.079639114 0.15770862 0.066087164
0.10895028 0.077358566 0.14953682 0.08611354 0.13549332 0.08384866 0.13025321 0.1539845
00000000: 3c4b f93d c85a d43d 4555 c43d 54c7 da3d
00000010: 38ef 423e d519 a33d 5e7e 213e b558 873d
00000020: 5321 df3d 2b6e 9e3d 2e20 193e 4c5c b03d
00000030: c3be 0a3e d9b8 ab3d 1961 053e 1dae 1d3e

inception_blocks.0.conv_5x5.0.block.0.weight f4 [4, 32, 1, 1]
0.12855375 0.14146316 0.0063036485 -0.08564721 -0.0049050585 0.026580706 0.0015864717 -0.12195032
-0.08408303 -0.05018673 -0.033059254 -0.09165603 -0.17819399 -0.12646176 0.14798558 -0.032427352
-0.07700599 -0.070979185 0.07410008 -0.05283377 0.075591095 -0.07122998 0.10991806 -0.027628023
-0.0019313376 0.040089037 -0.089834765 0.08307757 -0.022169022 -0.1063101 0.07036595 0.0026976177
0.10182126 0.06148227 -0.07277772 0.019578703 0.12915127 -0.15170203 -0.109034024 -0.111365944
0.032372776 0.13759777 0.024069235 0.11763906 -0.03129758 -0.12739377 0.15352716 0.01858639
0.14301173 -0.15210074 0.047389343 0.15857297 -0.097329564 -0.012730017 -0.02930116 -0.12808149
-0.16308706 -0.06455789 0.10820256 0.07070669 0.049068797 0.09021782 0.1597625 -0.12602705
-0.0007233986 -0.017653517 -0.053574834 0.0962427 -0.15014751 -0.031498905 -0.06071744 -0.12243886
-0.09306181 -0.07152121 -0.12804452 0.02218984 -0.10104066 -0.1340685 0.03780755 0.033033114
-0.14934082 0.1315372 0.045230433 -0.14606066 0.086582005 -0.011487914 0.15304089 0.006559399
0.07729192 -0.085904226 -0.047983866 0.1640473 0.15923665 -0.027741596 0.13074942 -0.08792075
0.097809665 -0.057307057 0.07972167 0.12904488 -0.117455356 -0.12657401 0.1151399 0.09962215
-0.031340025 0.004842941 0.11056578 0.00052940455 0.09674733 0.10800714 -0.1666015 -0.1039235
-0.043593407 0.15575957 -0.089097746 -0.1019208 -0.04243235 0.02217257 0.08717258 0.035280626
-0.17056549 -0.108206935 0.080036335 0.092532024 -0.06475748 0.13679068 -0.17768219 -0.023067188
00000000: 98a3 033e b8db 103e d68e ce3b ce67 afbd
00000010: 9dba a0bb c8bf d93c 28f1 cf3a 17c1 f9bd
00000020: b933 acbd 9a90 4dbd 2469 07bd 28b6 bbbd
00000030: 7c78 36be 317f 01be 8889 173e 8bd2 04bd
00000040: 51b5 9dbd 895d 91bd c8c1 973d 3968 58bd
00000050: 81cf 9a3d 06e1 91bd b81c e13d 2a54 e2bc
00000060: f024 fdba 6734 243d 4afb b7bd 9324 aa3d
00000070: cf9b b5bc 1cb9 d9bd 061c 903d 84ca 303b
00000080: aa87 d03d d5d4 7b3d 7c0c 95bd 8463 a03c
00000090: 3b40 043e c757 1bbe 3b4d dfbd d413 e4bd
000000a0: 5199 043d 6ee6 0c3e d82c c53c bfec f03d
000000b0: e431 00bd 8373 02be 3936 1d3e 7c42 983c
000000c0: ab71 123e 4cc0 1bbe 541b 423d f460 223e
000000d0: b954 c7bd 9091 50bc fc08 f0bc cb27 03be
000000e0: 4b00 27be ed36 84bd 4e99 dd3d abce 903d
000000f0: 5dfc 483d 1fc4 b83d c898 233e 3c0d 01be
00000100: 75a2 3dba 1c9e 90bc 4971 5bbd e51a c53d
00000110: 45c0 19be ff04 01bd dab2 78bd 3ac1 fabd
00000120: 3197 bebd b679 92bd 1a1e 03be 78c7 b53c
00000130: 68ee cebd 4149 09be 17dc 1a3d bb4d 073d
00000140: cdec 18be b0b1 063e 8c43 393d ed90 15be
00000150: e851 b13d ce37 3cbc c0b6 1c3e 3af0 d63b
00000160: 3a4b 9e3d 8eee afbd bb8a 44bd 04fc 273e
00000170: ef0e 233e 5842 e3bc 2de3 053e cb0f b4bd
00000180: 6f50 c83d ceba 6abd 1d45 a33d 5724 043e
00000190: 6f8c f0bd 9e9c 01be 78ce eb3d b306 cc3d
000001a0: 665e 00bd 89b1 9e3b 5070 e23d bdc7 0a3a
000001b0: 7723 c63d d932 dd3d 9599 2abe d8d5 d4bd
000001c0: 008f 32bd 707f 1f3e e178 b6bd dabb d0bd
000001d0: 8bcd 2dbd 40a3 b53c 8a87 b23d 6b82 103d
000001e0: b8a8 2ebe 999b ddbd 17ea a33d 6e81 bd3d
000001f0: 929f 84bd db12 0c3e 52f2 35be 66f7 bcbc

inception_blocks.0.conv_5x5.0.block.0.bias f4 [4]
3.665532e-05 -3.017388e-05 1.1597021e-05 7.455587e-05
00000000: 5abe 1938 ea1d fdb7 d390 4237 e15a 9c38

inception_blocks.0.conv_5x5.0.block.1.weight f4 [4]
0.7248917 0.87521946 0.79757935 0.8249261
00000000: 8192 393f 620e 603f 292e 4c3f 5b2e 533f

inception_blocks.0.conv_5x5.0.block.1.bias f4 [4]
-0.0071327677 0.04675842 0.0042092553 0.0057455064
00000000: feb9 e9bb c285 3f3d cbed 893b cd44 bc3b

inception_blocks.0.conv_5x5.0.block.1.running_mean f4 [4]
-0.107906975 0.062955454 -0.10614021 -0.019845845
00000000: 55fe dcbd caee 803d 0a60 d9bd c193 a2bc

inception_blocks.0.conv_5x5.0.block.1.running_var f4 [4]
0.048733845 0.05125563 0.13404623 0.26606882
00000000: 249d 473d 6cf1 513d 6a43 093e 2c3a 883e

inception_blocks.0.conv_5x5.1.block.0.weight f4 [4, 4, 5, 5]
-0.05039415 0.050747015 0.014450271 -0.032196764 0.050758064 0.086267576 -0.06462467 -0.036244716
-0.01482628 0.09129748 0.065535545 -0.04301824 0.041271523 -0.0338921 0.095538214 0.061656542
0.035022516 -0.089611605 -0.008769909 0.07079401 0.015863964 0.070465624 -0.117076986 -0.06102341
-0.03888439 0.032921303 -0.056990366 -0.023638157 0.005620518 0.029382488 -0.05879762 -0.025748363
-0.017149003 0.07513682 -0.03289838 -0.10626828 0.04404313 -0.06401518 0.06949886 -0.027233234
0.053726073 -0.09522694 -0.08789886 -0.021711105 -0.02716814 0.02186277 0.02423995 0.07103829
0.061165363 0.047451906 0.07681862 0.09326348 -0.005599895 -0.041406948 0.0652768 0.041818846
-0.02608509 -0.09255447 0.00072195684 -0.026262442 -0.009894395 0.02828761 0.08685377 0.079747975
-0.019964406 0.04259171 -0.09636359 0.03456819 0.11198884 0.0027820822 0.018464128 0.072277755
-0.08606056 -0.026217215 0.021572128 0.02415496 0.06839561 0.0869886 0.053133883 0.05195388
0.025393471 -0.069817476 0.0064384127 0.01787993 -0.05560966 0.059723534 -0.06678256 -0.074706204
0.021604476 0.0061638183 0.037930634 -0.055869132 0.077938646 0.06866299 -0.075326085 0.008134943
-0.03437387 0.019006597 0.0133487675 0.10759212 0.047813974 0.07515787 0.047390252 -0.012318673
0.080295816 -0.010390893 0.026152223 0.0033986464 0.011679607 -0.10245086 -0.10257934 0.025089612
0.043566152 -0.06849584 -0.10293122 0.0049371836 0.010724076 0.0041844486 -0.07506976 -0.08149253
0.04780078 -0.006468059 -0.04261559 0.0047245147 0.054732434 0.055478245 -0.012039097 0.09073991
0.064729825 -0.058511287 0.012169981 0.11061331 -0.07389423 -0.01384508 0.022387315 -0.04453585
0.01374526 0.015600788 -0.0032938216 0.025148064 -0.06996983 -0.10089355 0.04717107 -0.031583153
-0.048427176 0.029557826 0.036709443 0.06586169 -0.019499984 0.071258165 0.00018053091 0.033754732
-0.020078896 0.022383962 0.05813125 0.09842218 0.043948475 -0.039843753 0.04468205 0.033363562
0.057992835 0.048537 -0.043985836 0.0057789143 -0.0059989956 0.0064669126 0.04489741 -0.044459555
-0.022675898 -0.045626815 0.06817031 0.05874053 0.0058966586 0.07797695 0.038832635 -0.09643055
-0.052938476 0.09565829 0.03545651 0.08659638 0.022230305 0.10214266 0.022891503 -0.051019132
0.07037903 0.04159246 0.039850533 0.07184543 0.03329529 0.092652634 -0.0863664 -0.050057095
0.0027693894 -0.043649036 -0.031979594 0.00982444 -0.07589753 -0.028672563 -0.012338511 -0.029245041
0.096456796 0.008418462 -0.005005135 -0.0453707 -0.05760492 0.10300745 0.031820722 0.039047405
-0.007756689 -0.07343773 0.031827945 -0.0034798437 0.03856208 0.07644057 -0.045683466 0.07139456
-0.057609696 0.034067586 0.02410996 -0.022829095 -0.006049711 0.016681531 -0.03549121 0.055110443
0.030827018 -0.07448033 0.075891204 0.0021800008 0.018816197 0.12656249 0.013022674 0.014300272
-0.023838859 0.097785085 0.014341078 0.04341516 -0.0538395 -0.07164689 0.00012583424 -0.048841245
-0.0019132252 -0.040553737 -0.06638761 -0.03825198 0.066068776 -0.050950944 -0.057364304 -0.047431063
-0.063161395 0.0023949093 -0.026071703 0.013971502 -0.04551345 -0.044478714 -0.06566808 0.037867244
00000000: 196a 4ebd 1adc 4f3d d4c0 6c3c c1e0 03bd
00000010: b0e7 4f3d 0ead b03d f059 84bd 5775 14bd
00000020: ede9 72bc 2cfa ba3d 8037 863d e533 30bd
00000030: 540c 293d 71d2 0abd 8aa9 c33d 928b 7c3d
00000040: c573 0f3d 4a86 b7bd aaaf 0fbc 73fc 903d
00000050: 25f5 813c 4850 903d 0fc6 efbd aff3 79bd
00000060: 3d45 1fbd 7dd8 063d bb6e 69bd cfa4 c1bc
00000070: 522c b83b 8bb3 f03c c6d5 70bd 3bee d2bc
00000080: 117c 8cbc 55e1 993d 74c0 06bd 2fa3 d9bd
00000090: 9266 343d 641a 83bd 6b55 8e3d 3b18 dfbc
000000a0: df0f 5c3d 5806 c3bd 5104 b4bd 7ddb b1bc
000000b0: b88f debc 8d19 b33c dc92 c63c 867c 913d
000000c0: 8888 7a3d ee5c 423d 1553 9d3d ec00 bf3d
000000d0: 537f b7bb 559a 29bd d8af 853d 3d4a 2b3d
000000e0: 66b0 d5bc 338d bdbd b441 3d3a 5524 d7bc
000000f0: 1a1c 22bc 6bbb e73c 64e0 b13d e852 a33d
00000100: 658c a3bc a574 2e3d 465a c5bd 6097 0d3d
00000110: 685a e53d 9853 363b 1542 973c 5c06 943d
00000120: 8540 b0bd 7cc5 d6bc 08b8 b03c 9fe0 c53c
00000130: ff12 8c3d 1427 b23d eaa2 593d 97cd 543d
00000140: f805 d03c 77fc 8ebd 52f9 d23b ee78 923c
00000150: f4c6 63bd aaa0 743d 4bc5 88bd 91ff 98bd
00000160: dffb b03c dbf9 c93b 275d 1b3d 08d7 64bd
00000170: 4c9e 9f3d 2f9f 8c3d 9044 9abd 6d48 053c
00000180: 9dcb 0cbd b9b3 9b3c cab4 5a3c 4259 dc3d
00000190: 96d8 433d 5fec 993d 481c 423d 42d4 49bc
000001a0: 2272 a43d 903e 2abc 303d d63c d3bb 5e3b
000001b0: d35b 3f3c c2d1 d1bd 1e15 d2bd bb88 cd3c
000001c0: 6c72 323d 8c47 8cbd 9acd d2bd 19c8 a13b
000001d0: 09b4 2f3c b31d 893b 2dbe 99bd 8ee5 a6bd
000001e0: c0ca 433d 03f2 d3bb af8d 2ebd 1ad0 9a3b
000001f0: 1e2f 603d 283d 633d a23f 45bc d9d5 b93d
00000200: 1291 843d 88a9 6fbd 9a64 473c 3b89 e23d
00000210: dc55 97bd 79d6 62bc 9a65 b73c 396b 36bd
00000220: cd33 613c 739a 7f3c 28dd 57bb 5003 ce3c
00000230: 584c 8fbd 47a1 cebd 7436 413d 565d 01bd
00000240: 935b 46bd 4123 f23c a45c 163d 7ee2 863d
00000250: 6ebe 9fbc cdef 913d e64c 3d39 6742 0a3d
00000260: 7f7c a4bc 925e b73c 091b 6e3d 9191 c93d
00000270: 5103 343d 3433 23bd 8604 373d 3ba8 083d
00000280: e589 6d3d bcce 463d 7e2a 34bd 0c5d bd3b
00000290: 3993 c4bb 65e8 d33b 59e6 373d 391b 36bd
000002a0: cec2 b9bc 2fe3 3abd e09c 8b3d e999 703d
000002b0: c238 c13b 61b2 9f3d f80e 1f3d 617d c5bd
000002c0: 04d6 58bd 7ee8 c33d d83a 113d 7159 b13d
000002d0: 541c b63c 2c30 d13d f686 bb3c 70f9 50bd
000002e0: e222 903d db5c 2a3d 503a 233d b223 933d
000002f0: a460 083d aac0 bd3d dee0 b0bd ab08 4dbd
00000300: a57e 353b 55c9 32bd 09fd 02bd b0f6 203c
00000310: 2a70 9bbd b9e2 eabc 7727 4abc 4c93 efbc
00000320: 248b c53d 97ed 093c 1e02 a4bb a1d6 39bd
00000330: 23f3 6bbd 92f5 d23d 7256 023d 2cf0 1f3d
00000340: d32b febb 8566 96bd 055e 023d 170e 64bb
00000350: 46f3 1d3d e08c 9c3d 961e 3bbd 5037 923d
00000360: 25f8 6bbd 748a 0b3d 4082 c53c 1504 bbbc
00000370: a73c c6bb b5a7 883c 3b5f 11bd 7dbb 613d
00000380: f188 fc3c 2589 98bd d96c 9b3d 58de 0e3b
00000390: 6d24 9a3c 9999 013e 0e5d 553c b04b 6a3c
000003a0: b649 c3bc 8c43 c83d d7f6 6a3c 18d4 313d
000003b0: cf86 5cbd 9bbb 92bd 5ff2 0339 c20d 48bd
000003c0: 2fc5 faba ad1b 26bd 3af6 87bd 1cae 1cbd
000003d0: 114f 873d f0b1 50bd d5f6 6abd 1347 42bd
000003e0: c35a 81bd e9f3 1c3b 5394 d5bc bae8 643c
000003f0: 506c 3abd 502f 36bd fc7c 86bd af1a 1b3d

inception_blocks.0.conv_5x5.1.block.0.bias f4 [4]
-3.200517e-05 7.755264e-05 7.6765326e-05 -4.570355e-05
00000000: 4a3d 06b8 c2a3 a238 12fd a038 d0b1 3fb8

inception_blocks.0.conv_5x5.1.block.1.weight f4 [4]
0.8664258 0.81225926 0.7683033 0.85734874
00000000: 15ce 5d3f 39f0 4f3f 86af 443f 357b 5b3f

inception_blocks.0.conv_5x5.1.block.1.bias f4 [4]
0.054319464 0.043117464 0.031234303 0.011796093
00000000: 167e 5e3d f09b 303d 15df ff3c 6644 413c

inception_blocks.0.conv_5x5.1.block.1.running_mean f4 [4]
0.16063286 0.18416506 0.17986165 0.15327285
00000000: f17c 243e c495 3c3e a72d 383e 8ff3 1c3e

inception_blocks.0.conv_5x5.1.block.1.running_var f4 [4]
0.04358768 0.040042732 0.07803805 0.053537816
00000000: ff88 323d d903 243d 6ad2 9f3d 784a 5b3d

inception_blocks.0.max_pool.1.block.0.weight f4 [4, 32, 1, 1]
-0.108934045 0.022868726 -0.07152684 0.11990988 -0.0582045 0.070553966 0.13629948 -0.10795568
-0.08452424 0.043659814 -0.06999489 -0.0075371917 0.085432775 0.12027926 0.039292578 0.121415384
0.03563066 -0.06568861 0.091839634 -0.121646315 -0.10423443 0.07848143 0.1462913 0.05089953
-0.10181483 0.093487985 0.068146326 -0.062655196 0.12000939 -0.051112123 -0.037366834 0.03398796
-0.025682379 -0.1503929 -0.029316418 -0.010641985 0.04874873 -0.002672009 -0.033859313 -0.09992234
-0.09593058 -0.005881994 -0.08439383 0.067743555 0.059541494 0.025777249 0.03777255 -0.10692605
-0.005985683 0.034042753 0.037299972 -0.09744589 -0.10925307 0.15388797 0.15088539 -0.14883386
-0.08506545 0.13555956 0.041465 0.1377817 -0.08728028 -0.100350015 0.0654991 -0.029943066
0.023840241 -0.028634373 0.038488794 0.11511363 0.14928171 -0.14121825 -0.03677891 -0.13392515
-0.00260585 0.05539951 -0.020477675 -0.10187853 -0.008437054 -0.12228133 0.018575849 0.19049339
-0.07985826 -0.03174428 -0.09439006 -0.14549278 0.122350626 -0.1643999 0.12014829 -0.08119184
0.088966615 -0.04434266 0.16577531 0.058382772 0.08603615 -0.03143223 0.08812608 -0.13304316
-0.053357437 0.10121876 -0.15368624 -0.094369195 -0.09903147 -0.00809214 0.03148414 0.14109585
-0.154837 0.047761943 -0.06490856 0.04302459 0.06884661 0.040515434 0.0802333 0.021449866
0.092747524 0.08109319 -0.15430911 -0.12795998 0.021977635 0.14404787 0.110273585 -0.07972478
-0.067311436 -0.028262105 0.110185795 -0.060972076 -0.03161605 -0.11004152 -0.102180324 0.13302276
00000000: d018 dfbd 3257 bb3c aa7c 92bd 5093 f53d
00000010: d767 6ebd 997e 903d 1792 0b3e de17 ddbd
00000020: 0b1b adbd a2d4 323d 7b59 8fbd 8cfa f6bb
00000030: 61f7 ae3d f954 f63d 41f1 203d a1a8 f83d
00000040: 74f1 113d c087 86bd 6b16 bc3d b421 f9bd
00000050: dc78 d5bd dfba a03d 63cd 153e 077c 503d
00000060: 4b84 d0bd a176 bf3d 4d90 8b3d 5e51 80bd
00000070: 7cc7 f53d f25a 51bd f70d 19bd f636 0b3d
00000080: da63 d2bc 9900 1abe fc28 f0bc b85b 2ebc
00000090: c0ac 473d df1c 2fbb 10b0 0abd 15a4 ccbd
000000a0: 4077 c4bd bebd c0bb acd6 acbd 22bd 8a3d
000000b0: c8e1 733d cf2a d33c 64b7 1a3d 0bfc dabd
000000c0: 8c23 c4bb 6a70 0b3d dbc7 183d b691 c7bd
000000d0: 13c0 dfbd cf94 1d3e b381 1a3e e767 18be
000000e0: cb36 aebd 20d0 0a3e 34d7 293d a516 0d3e
000000f0: 01c0 b2bd 4f84 cdbd 6424 863d 294b f5bc
00000100: 9c4c c33c a292 eabc 6da6 1d3d b2c0 eb3d
00000110: 4edd 183e 849b 10be 7ba5 16bd ad23 09be
00000120: e9c6 2abb 99ea 623d ccc0 a7bc b1a5 d0bd
00000130: 923b 0abc a26e fabd 612c 983c b310 433e
00000140: ba8c a3bd 4a06 02bd 934f c1bd 0ffc 14be
00000150: f792 fa3d 7358 28be 4f10 f63d e847 a6bd
00000160: 2134 b63d a6a0 35bd 01c1 293e c622 6f3d
00000170: b933 b03d 15bf 00bd 727b b43d 773c 08be
00000180: 548d 5abd c84b cf3d ed5f 1dbe a344 c1bd
00000190: 03d1 cabd e594 04bc 83f5 003d 6e7b 103e
000001a0: 978d 1ebe 07a2 433d c7ee 84bd 8d3a 303d
000001b0: 74ff 8c3d 83f3 253d 5b51 a43d a1b7 af3c
000001c0: 6af2 bd3d 3014 a63d 3503 1ebe f107 03be
000001d0: 710a b43c 4981 133e 1ed7 e13d bf46 a3bd
000001e0: 94da 89bd ee85 e7bc 17a9 e13d dbbd 79bd
000001f0: d57f 01bd 735d e1bd eb43 d1bd 1e37 083e

inception_blocks.0.max_pool.1.block.0.bias f4 [4]
-8.844314e-05 -1.6494307e-05 -6.470248e-05 -1.8267207e-05
00000000: 8d7a b9b8 415d 8ab7 e1b0 87b8 873c 99b7

inception_blocks.0.max_pool.1.block.1.weight f4 [4]
0.7757431 0.8016637 0.86952794 0.86795443
00000000: 1a97 463f d539 4d3f 6299 5e3f 4332 5e3f

inception_blocks.0.max_pool.1.block.1.bias f4 [4]
-0.011344115 0.03391177 0.017808465 0.11798459
00000000: abdc 39bc 11e7 0a3d 0fe3 913c e8a1 f13d

inception_blocks.0.max_pool.1.block.1.running_mean f4 [4]
0.28807455 -0.11102948 0.010159945 -0.06777288
00000000: 827e 933e 6d63 e3bd e675 263c 82cc 8abd

inception_blocks.0.max_pool.1.block.1.running_var f4 [4]
0.100488 0.1947988 0.055442583 0.1577841
00000000: a7cc cd3d 5679 473e c317 633d 2892 213e
