models/vgg/VGG2_Adam_32_lr0.0001_wd0/VGG2_Adam_32_lr0.0001_wd0.pth (torch, 716955 bytes, 12 tensors)

network.0.weight f4 [16, 1, 3, 3]
-0.47015288 -0.17509192 -0.22568308 0.09924173 0.38184914 0.4885311 -0.49005648 0.23756014
0.1868122 0.093466684 0.22192547 0.504117 -0.4321388 -0.117587194 0.42308182 -0.13970946
-0.3611158 0.0035019745 0.07849006 0.34201416 -0.05621183 -0.40263066 -0.15418114 0.11905147
-0.20342316 0.24486704 0.16990624 -0.2520969 0.29738292 0.044048868 0.27743807 -0.069003746
-0.37588453 0.34563503 0.22603194 0.093036555 -0.04257105 0.21847127 0.06524861 -0.4690852
0.12514924 -0.105925865 -0.38573435 0.30500203 0.4100611 -0.5559663 -0.47683775 -0.2828941
-0.32166016 -0.013029412 0.032048162 0.4611502 0.2865847 0.22698075 0.04130312 0.1173881
-0.26272565 -0.26511243 -0.20633255 -0.101298064 0.43408188 0.23086827 -0.15378472 0.4888228
0.30038664 -0.38625968 0.26348063 -0.2537723 0.29150409 -0.24035162 -0.10808912 0.29481006
-0.6792813 -0.5728337 0.36107305 -0.26081932 -0.22404766 0.39495394 -0.08500421 0.46072954
-0.23527747 0.01572176 -0.27206528 0.45604572 -0.28705063 -0.1304669 -0.110694826 -0.33123764
0.3044076 0.40167758 0.14204991 -0.12731013 -0.054137614 -0.28032252 -0.096257515 0.14255007
0.14135511 0.40857947 0.008664008 -0.05613314 0.13700344 -0.06092704 0.23456739 0.20539181
0.18680216 -0.49034518 -0.3809345 0.2625842 -0.21366073 0.20711572 0.4414367 -0.023257867
-0.06344139 0.22274779 0.22287975 -0.14936467 -0.38142547 0.48983088 -0.04667132 -0.05000233
-0.30442405 -0.008569382 -0.14367284 0.23443724 -0.0016431562 -0.105711974 0.5082055 -0.05284578
-0.10623156 0.5308071 -0.28871354 -0.7262288 0.11507401 -0.5503712 -0.83541095 0.2991973
-0.042868417 -0.055900525 0.19869858 0.017110879 0.44091168 -0.1829714 -0.14201725 -0.16880685
00000000: e1b7 f0be 4c4b 33be 7719 67be 403f cb3d
00000010: bb81 c33e c020 fa3e afe8 fabe f742 733e
00000020: b34b 3f3e 766b bf3d 6e40 633e d00d 013f
00000030: 4c41 ddbe 8ed1 f0bd 2e9e d83e ff0f 0fbe
00000040: 2ce4 b8be 6281 653b 66bf a03d 7b1c af3e
00000050: 603e 66bd 9b25 cebe a9e1 1dbe 42d1 f33d
00000060: 294e 50be 6dbe 7a3e e7fb 2d3e d812 81be
00000070: 9342 983e 966c 343d 5d0c 8e3e d651 8dbd
00000080: f073 c0be 13f7 b03e eb74 673e f389 be3d
00000090: fb5e 2ebd efb6 5f3e 10a1 853d ef2b f0be
000000a0: 1f27 003e a9ef d8bd f97e c5be 3a29 9c3e
000000b0: 87f3 d13e cf53 0ebf 1424 f4be 7fd7 90be
000000c0: a4b0 a4be 5179 55bc ef44 033d e11b ec3e
000000d0: 3bbb 923e a46d 683e 762d 293d 2c69 f03d
000000e0: fa83 86be d1bc 87be d748 53be 5c75 cfbd
000000f0: fb3f de3e bb68 6c3e be79 1dbe fb46 fa3e
00000100: 47cc 993e d4c3 c5be efe6 863e 71ee 81be
00000110: 0640 953e bc1e 76be d45d ddbd 58f1 963e
00000120: 61e5 2dbf 3ba5 12bf 91de b83e 1c8a 85be
00000130: c06c 65be 6737 ca3e b016 aebd bee4 eb3e
00000140: 94ec 70be ecca 803c 244c 8bbe d37e e93e
00000150: 4df8 92be 1d99 05be f8b3 e2bd fb97 a9be
00000160: 50db 9b3e afa8 cd3e 8875 113e 965d 02be
00000170: 67bf 5dbd 6f86 8fbe a922 c5bd a5f8 113e
00000180: 65bf 103e 5431 d13e 7cf3 0d3c ddeb 65bd
00000190: a14a 0c3e a28e 79bd 6f32 703e 3b52 523e
000001a0: 1149 3f3e 860e fbbe d909 c3be 7071 863e
000001b0: e1c9 5abe 2516 543e fe03 e23e 4887 bebc
000001c0: 8fed 81bd ff17 643e 973a 643e 0df3 18be
000001d0: 334a c3be 1dcb fa3e 6d2a 3fbd 3ecf 4cbd
000001e0: 78dd 9bbe 9866 0cbc f91e 13be 5110 703e
000001f0: 2c5f d7ba 857f d8bd c119 023f d174 58bd
00000200: ef8f d9bd f9e2 073f 43d2 93be 21ea 39bf
00000210: ecab eb3d 21e5 0cbf 7edd 55bf 6330 993e
00000220: cb96 2fbd f3f7 64bd a477 4b3e 1d2c 8c3c
00000230: 2dbf e13e db5c 3bbe f86c 11be b4db 2cbe

network.0.bias f4 [16]
0.29801917 -0.097710796 0.16687542 -0.06702163 0.22800136 0.28695917 0.27330998 -0.226211
0.11740592 0.14123033 -0.11566215 0.29628947 0.19978169 0.19760267 0.33772364 -0.2885537
00000000: f895 983e 991c c8bd 64e1 2a3e a342 89bd
00000010: 3079 693e 50ec 923e 49ef 8b3e dba3 67be
00000020: 8472 f03d af9e 103e 47e0 ecbd 41b3 973e
00000030: 9293 4c3e 5b58 4a3e 1dea ac3e 50bd 93be

network.2.weight f4 [32, 16, 3, 3]
0.119764775 0.09207743 0.058473658 -0.13904957 -0.12595412 0.021765934 0.15806475 0.031047964
0.06421295 0.08151723 0.013826763 0.115805574 0.15455465 0.047737546 0.002713079 -0.16920191
-0.117680244 -0.0017785792 -0.041266493 -0.34925252 -0.43966696 0.015134284 0.08320362 0.14139672
0.055655308 -0.048530642 -0.11112633 0.016063422 0.0155832 0.020352105 -0.044899106 0.06306713
-0.023611393 0.117394455 0.028486025 -0.065302454 -0.034270372 -0.2223406 -0.17313543 0.047979034
0.049795553 0.011837995 0.013936494 -0.015937015 -0.15901369 0.06145744 0.008486265 -0.03433894
-0.38841867 -0.25115606 -0.021727247 0.027195929 0.098728724 -0.061501916 0.032635983 -0.25367534
-0.36339518 -0.0590022 -0.12084606 0.0741224 -0.049659997 0.08159156 0.030365033 -0.06017719
-0.11649477 0.049241386 0.019420879 0.039831102 0.16563614 0.064993314 0.027615761 0.014932348
0.1331462 -0.38608566 -0.45188302 -0.03951613 -0.43376625 -0.7638316 -0.49787802 -0.058757946
0.08096285 -0.16743416 -0.29293746 0.04445798 0.027825348 0.010769647 0.09090174 0.13385177
-0.011562149 -0.2019342 0.051949978 -0.14584224 -0.084713735 0.10886094 0.076328866 0.05986429
0.10837449 0.06776467 0.14340384 0.028625501 0.13163301 0.09840573 -0.12715106 -0.0852256
-0.01882745 -0.11480677 -0.0731855 -0.21115276 -0.037141282 -0.029825015 0.12130393 0.12032344
0.046075247 0.03484955 -0.045768734 -0.030375535 -0.030132351 -0.1731864 -0.3039894 -0.29255503
0.036845237 -0.0033086878 0.14133014 -0.068535216 -0.020227246 -0.01158353 0.06068577 -0.10841168
-0.33429188 -0.052829243 -0.04956501 -0.033320915 -0.20406902 -0.18227443 -0.14255495 0.16505165
0.24879465 0.25280026 0.03467991 0.026459549 0.035473302 -0.23332125 -0.07935174 0.016499136
-0.046917673 0.09029792 0.13181928 0.06838993 0.05125116 0.14364642 -0.25745565 -0.118873306
-0.011701426 -0.16624537 -0.26590934 -0.05942197 0.023169745 0.08610866 0.0032742885 0.06995203
0.13888776 0.044231106 0.10063779 0.00471209 -0.03599158 -0.072543785 -0.060674913 0.0014827887
-0.055189304 0.041580006 -0.028618878 -0.10393006 -0.035262045 -0.0155304875 -0.03061337 -0.19734533
-0.0033985502 -0.16224955 -0.07239282 -0.10940287 0.053867742 -0.015162433 -0.006766813 0.0037561979
-0.0034454546 -0.042249005 0.0068896767 0.09981114 -0.027272014 -0.0981642 -0.011190193 0.16463481
-0.07596973 -0.13361403 -0.094507165 -0.13408926 -0.18949752 -0.24254064 0.04681736 0.008333427
0.09489849 -0.049919877 -0.0032598323 -0.06914465 0.06920767 -0.07303851 -0.018358052 0.14270754
-0.067394674 -0.092605546 -5.6192646e-05 0.035127323 0.031783573 -0.12327553 -0.13844532 -0.062188685
-0.0043499693 0.10658955 0.10208239 -0.019438477 -0.09771319 -0.074675165 -0.054243423 -0.030818444
-0.14708225 -0.10442438 0.0781866 0.08661634 -0.12622556 0.023786936 -0.18500704 0.015149987
0.09016196 -0.036257043 -0.14366679 -0.02205765 -0.099322535 -0.34937102 -0.21609558 -0.21875861
-0.123390086 -0.14883682 -0.17967916 0.12934485 0.03166222 -0.049471084 0.031004388 0.11113147
-0.00269098 -0.06974254 -0.0070219133 0.08832863 -0.13568199 -0.10011284 0.009387585 0.09340303
00000000: 3c47 f53d 1793 bc3d 1382 6f3d 0363 0ebe
00000010: 1efa 00be 794e b23c badb 213e 4d58 fe3c
00000020: 1482 833d 81f2 a63d a689 623c 792b ed3d
00000030: 9343 1e3e 7288 433d eacd 313b 4443 2dbe
00000040: 5702 f1bd 371f e9ba 0e07 29bd 3ad1 b2be
00000050: 071c e1be caf5 773c a966 aa3d 4dca 103e
00000060: d2f6 633d 11c8 46bd 3496 e3bd 7097 833c
00000070: ae50 7f3c 75b9 a63c 20e8 37bd 5729 813d
00000080: ae6c c1bc 816c f03d 865b e93c 4bbd 85bd
00000090: 175f 0cbd 41ad 63be 6a4a 31be aa85 443d
000000a0: 6cf6 4b3d 26f4 413c e455 643c 588e 82bc
000000b0: 7cd4 22be ccba 7b3d fa09 0b3c fda6 0cbd
000000c0: d0de c6be 8797 80be 57fd b1bc ffc9 de3c
000000d0: 4932 ca3d 6fe9 7bbd 4fad 053d bce1 81be
000000e0: ef0e babe 4aac 71bd 247e f7bd 7ccd 973d
000000f0: 4868 4bbd 7a19 a73d 17c0 f83c 5b7c 76bd
00000100: cf94 eebd 56b1 493d 8918 9f3c f025 233d
00000110: 859c 293e 371b 853d 733a e23c cfa6 743c
00000120: 7a57 083e 05ad c5be 365d e7be aadb 21bd
00000130: 9c16 debe 788a 43bf dee9 febe 2cac 70bd
00000140: dacf a53d dc73 2bbe e6fb 95be 9219 363d
00000150: fcf1 e33c 2c73 303c b12a ba3d 7010 093e
00000160: 2b6f 3dbc d7c7 4ebe 80c9 543d ab57 15be
00000170: 657e adbd 7cf2 de3d 4f52 9c3d 4234 753d
00000180: 72f3 dd3d 34c8 8a3d 75d8 123e 0780 ea3c
00000190: ceca 063e f288 c93d e333 02be c28a aebd
000001a0: 063c 9abc d01f ebbd 48e2 95bd 6e38 58be
000001b0: 7521 18bd 9753 f4bc 326e f83d 236c f63d
000001c0: 66b9 3c3d 67be 0e3d ff77 3bbd 1dd6 f8bc
000001d0: 1fd8 f6bc c757 31be 80a4 9bbe c6c9 95be
000001e0: 08eb 163d 92d6 58bb d9b8 103e 315c 8cbd
000001f0: 9cb3 a5bc d9c8 3dbc a491 783d f106 debd
00000200: 4e28 abbe 7a63 58bd ae04 4bbd 837b 08bd
00000210: 78f7 50be 26a6 3abe edf9 11be 4d03 293e
00000220: 06c4 7e3e 096f 813e 850c 0e3d b2c1 d83c
00000230: 744c 113d c4eb 6ebe 2a83 a2bd 3229 873c
00000240: bf2c 40bd 1eee b83d a2fb 063e 0510 8c3d
00000250: bdec 513d 0c18 133e 3ad1 83be d973 f3bd
00000260: 56b7 3fbc 3a3c 2abe 4525 88be 7464 73bd
00000270: 7ace bd3c bd59 b03d 7295 563b 0343 8f3d
00000280: 9838 0e3e ad2b 353d 301b ce3d e067 9a3b
00000290: e86b 13bd d691 94bd 4286 78bd 225a c23a
000002a0: 2e0e 62bd cc4f 2a3d 2372 eabc 49d9 d4bd
000002b0: ef6e 10bd 9673 7ebc e4c8 fabc e514 4abe
000002c0: 36ba 5ebb bf24 26be b042 94bd 9d0e e0bd
000002d0: 6ca4 5c3d da6b 78bc 24bc ddbb 8b2a 763b
000002e0: 23cd 61bb 4b0d 2dbd ccc2 e13b c869 cc3d
000002f0: 8f69 dfbc 500a c9bd 1257 37bc 0796 283e
00000300: 0596 9bbd 1ed2 08be f98c c1bd b24e 09be
00000310: a30b 42be 935c 78be 8fc3 3f3d ed88 083c
00000320: 245a c23d c978 4cbd e9a2 55bb b69b 8dbd
00000330: c0bc 8d3d 3795 95bd a063 96bc ed21 123e
00000340: 3806 8abd faa7 bdbd 65b0 6bb8 abe1 0f3d
00000350: 7e2f 023d e277 fcbd 9cc4 0dbe 90b9 7ebd
00000360: 308a 8ebb 9f4b da3d 9210 d13d 713d 9fbc
00000370: da1d c8bd 4bef 98bd 5a2e 5ebd f676 fcbc
00000380: bb9c 16be 73dc d5bd 4c20 a03d e863 b13d
00000390: 4641 01be d2dc c23c 7c72 3dbe a737 783c
000003a0: d5a6 b83d 4482 14bd 631d 13be 3fb2 b4bc
000003b0: 9d69 cbbd c2e0 b2be 2948 5dbe 4202 60be
000003c0: f1b3 fcbd ae68 18be d0fd 37be fa72 043e
000003d0: 3eb0 013d 31a2 4abd eafc fd3c e598 e33d
000003e0: 275b 30bb 2dd5 8ebd 1418 e6bb a4e5 b43d
000003f0: 38f0 0abe f607 cdbd 63ce 193c 164a bf3d

network.2.bias f4 [32]
-0.120547324 0.10543452 0.03864912 -0.09224149 0.045981355 -0.047009986 0.062021304 -0.08379608
0.0062554246 0.03034404 0.037221048 -0.07889133 -0.08881908 0.044137772 -0.15913087 -0.061436713
-0.034109026 0.11030861 0.05682634 0.028991962 0.13091516 -0.10751207 -0.07933078 0.024171598
0.010067226 -0.19203246 -0.011496586 -0.11183759 0.070147306 -0.09976446 0.07605081 0.071335666
00000000: 84e1 f6bd 0eee d73d 8a4e 1e3d 1be9 bcbd
00000010: f256 3c3d 8b8d 40bd 0d0a 7e3d 479d abbd
00000020: 4efa cc3b 1094 f83c 1975 183d c791 a1bd
00000030: c7e6 b5bd cfc9 343d 34f3 22be 10a5 7bbd
00000040: e8b5 0bbd 7be9 e13d bcc2 683d 8d80 ed3c
00000050: a00e 063e 4a2f dcbd 2d78 a2bd 8403 c63c
00000060: 02f1 243c 28a4 44be 2d5c 3cbc 1b0b e5bd
00000070: 64a9 8f3d 4f51 ccbd 87c0 9b3d 6f18 923d

network.5.weight f4 [48, 32, 3, 3]
-0.08842655 -0.031413633 0.15006512 -0.015443592 0.07095588 0.15604867 0.096974134 0.06904055
0.122575946 -0.069289595 -0.035917323 -0.06594042 0.08198181 0.0011105166 -0.093380466 0.07944684
0.11254333 0.03436915 0.066619776 0.086315826 0.005604505 -0.0428872 -0.016436806 -0.060760126
0.1332688 0.061769515 0.12216689 0.026336273 0.010549585 0.016823238 0.0017744882 -0.033364102
0.054308206 0.1477503 0.13094866 0.17205776 -0.042251837 0.030169835 -0.039528403 0.06610754
0.056173317 0.07645139 0.19848669 0.13849476 0.148505 -0.03440022 -0.11583353 -0.011420087
-0.050636258 -0.10030378 0.09876746 0.121082455 0.00094348605 -0.013121168 -0.08305676 -0.11392559
-0.18555592 0.046737242 0.117101416 -0.054995403 0.15658873 0.18530822 0.058761675 -0.09425114
-0.037847962 -0.13275065 -0.06056751 -0.06883733 -0.010862626 -0.16681316 -0.12177567 -0.23512311
0.04193757 -0.0020276222 -0.052613623 0.065443166 0.057545345 0.10493264 0.05594732 -0.002841287
0.013061733 0.0040766094 0.020184584 0.14420842 -0.046975598 0.0032748505 0.069746114 -0.011032184
0.012446019 0.007983276 -0.04504158 -0.07957266 -0.14139651 -0.07112615 -0.0150883775 -0.063342966
-0.07986311 -0.073053464 0.019152034 0.0030430558 0.05382686 -0.073333114 0.009238575 0.079227075
-0.027361713 0.09779254 0.19091888 0.10739753 -0.05520016 0.08040257 0.11098758 0.08217592
0.024239128 -0.08906207 0.12683617 0.09842587 0.08624427 0.065484636 0.0651243 0.021922205
0.11816917 0.08816526 0.09794675 0.2843565 0.20523643 0.21449935 -0.24555008 -0.18454951
-0.26760423 -0.2807054 -0.24930717 -0.25075307 -0.51100045 -0.29593107 -0.31820536 -0.10659424
-0.0719162 -0.01746838 -0.07675469 -0.013512169 -0.09516767 -0.050066646 -0.03789997 -0.054767024
-0.16275644 -0.078431845 -0.13559875 0.016539853 0.04772615 -0.0099131 0.009007973 0.032742873
0.052708384 0.06375043 0.034171544 -0.025424331 0.07096923 0.003540015 -0.0420713 0.09963118
0.07959894 0.124651335 0.21061975 0.10492275 0.25123432 0.016971983 0.07072294 0.11191752
0.08309234 0.1589638 0.070306845 0.12420023 0.10364225 0.018708114 0.018847318 0.0009500489
0.05940111 0.095314026 0.035140082 -0.014833702 -0.08354978 -0.033274803 -0.010736613 -0.056090645
-0.019073516 -0.055984028 -0.06299745 0.003589324 -0.0264218 -0.10819589 -0.1710054 -0.18037549
-0.07494818 -0.054058854 0.033469193 0.15406595 0.16807933 0.1578235 0.05614859 0.011700664
-0.0032796601 -0.05295747 -0.047240105 -0.057286352 0.0536608 0.0041832896 -0.060818832 -0.005588704
-0.0027526626 0.099405974 -0.10626984 -0.035985366 0.0019899155 0.0656673 -0.005665162 0.030975377
0.14955598 0.18487781 0.15926786 0.014037564 0.010799829 -0.09677214 -0.030681636 -0.12617461
-0.10162525 -0.25193232 -0.22920679 -0.19397344 -0.04394693 0.010823883 -0.06209894 -0.013133637
0.033224434 0.028183196 0.037419427 0.016638976 0.049796145 0.0058445577 0.0149318855 0.027782364
0.0799976 0.046100523 0.0876742 -0.25827345 -0.09565649 -0.093647264 -0.08639389 -0.13773732
-0.17522754 -0.27282122 -0.1143533 -0.12499171 0.030729301 -0.093230836 -0.23618896 -0.028474972
00000000: fb18 b5bd 95ab 00bd acaa 193e 1f07 7dbc
00000010: 5151 913d 39cb 1f3e 609a c63d 2265 8d3d
00000020: 1909 fb3d b4e7 8dbd 0b1e 13bd c50b 87bd
00000030: 14e6 a73d c18e 913a 423e bfbd 06b5 a23d
00000040: 1e7d e63d aac6 0c3d f36f 883d 5ac6 b03d
00000050: ffa5 b73b 7daa 2fbd 7ba6 86bc 9cdf 78bd
00000060: 9e77 083e 0802 7d3d a232 fa3d 2bbf d73c
00000070: 2bd8 2c3c e3d0 893c f295 e83a cca8 08bd
00000080: 4872 5e3d db4b 173e 6817 063e e92f 303e
00000090: 4310 2dbd bb26 f73c 89e8 21bd 6463 873d
000000a0: fe15 663d 8c92 9c3d 1840 4b3e 92d1 0d3e
000000b0: b211 183e 3fe7 0cbd 213a edbd 511b 3bbc
000000c0: f767 4fbd 116c cdbd 9846 ca3d 14fa f73d
000000d0: 4754 773a 2bfa 56bc aa19 aabd d251 e9bd
000000e0: 5f02 3ebe 8d6f 3f3d ded2 ef3d dc42 61bd
000000f0: cc58 203e 70c1 3d3e 15b0 703d be06 c1bd
00000100: 7706 1bbd c9ef 07be a315 78bd 96fa 8cbd
00000110: 28f9 31bc 12d1 2abe 8665 f9bd 1dc4 70be
00000120: bbc6 2b3d dbe1 04bb 6281 57bd 1107 863d
00000130: abb4 6b3d ede6 d63d 0429 653d e334 3abb
00000140: e100 563c 1495 853b 245a a53c 5fab 133e
00000150: 7c69 40bd e09e 563b 0dd7 8e3d 55c0 34bc
00000160: 63ea 4b3c 49cc 023c 857d 38bd fef6 a2bd
00000170: 3fca 10be 96aa 91bd 3e35 77bc f5b9 81bd
00000180: 458f a3bd 0e9d 95bd bae4 9c3c 016e 473b
00000190: 8e79 5c3d ac2f 96bd 645d 173c ce41 a23d
000001a0: ac25 e0bc 7547 c83d 3d80 433e 3cf3 db3d
000001b0: 9019 62bd 1aaa a43d 754d e33d d94b a83d
000001c0: 2391 c63c 2d66 b6bd 57e1 013e 8193 c93d
000001d0: d6a0 b03d cf1c 863d e45f 853d 3296 b33c
000001e0: ae02 f23d fd8f b43d 4e98 c83d 2d97 913e
000001f0: 8029 523e b8a5 5b3e 7b71 7bbe 8cfa 3cbe
00000200: 6c03 89be 9eb8 8fbe 614a 7fbe b562 80be
00000210: edd0 02bf 4784 97be d0eb a2be 154e dabd
00000220: cd48 93bd d919 8fbc 9031 9dbd 2562 5dbc
00000230: 44e7 c2bd af12 4dbd 003d 1bbd 6353 60bd
00000240: a0a9 26be e0a0 a0bd 66da 0abe 967e 873c
00000250: 7f7c 433d 8e6a 22bc 2d96 133c 641d 063d
00000260: bfe4 573d 968f 823d 76f7 0b3d b046 d0bc
00000270: 5158 913d 99ff 673b f552 2cbd 6f0b cc3d
00000280: c504 a33d 3349 ff3d b4ac 573e bde1 d63d
00000290: c9a1 803e d408 8b3c 30d7 903d 0335 e53d
000002a0: 512c aa3d 68c7 223e 09fd 8f3d b15c fe3d
000002b0: 6342 d43d c241 993c b165 9a3c b40c 793a
000002c0: 944e 733d 0034 c33d 0cef 0f3d 0e09 73bc
000002d0: 261c abbd 294b 08bd 9ee8 2fbc 4ebf 65bd
000002e0: 1040 9cbc 824f 65bd cf04 81bd dd3a 6b3b
000002f0: 8872 d8bc cf95 ddbd 0a1c 2fbe 5ab4 38be
00000300: 6e7e 99bd d16c 5dbd fe16 093d 77c3 1d3e
00000310: fd1c 2c3e 7c9c 213e 10fc 653d 24b4 3f3c
00000320: 91ef 56bb efe9 58bd d77e 41bd 18a5 6abd
00000330: 6dcb 5b3d fa13 893b 2b1d 79bd 7221 b7bb
00000340: 0466 34bb 5c95 cb3d 00a4 d9bd 6465 13bd
00000350: 3e69 023b 947c 863d d3a2 b9bb 13c0 fd3c
00000360: 3425 193e 9c50 3d3e 1d17 233e d0fd 653c
00000370: c4f1 303c 7930 c6bd 0e58 fbbc eb33 01be
00000380: e620 d0bd 46fd 80be 2fb5 6abe f9a0 46be
00000390: b201 34bd a856 313c 755b 7ebd 772e 57bc
000003a0: 5816 083d 72e0 e63c 1d45 193d 764e 883c
000003b0: 0bf7 4b3d b483 bf3b dea4 743c d797 e33c
000003c0: c8d5 a33d e7d3 3c3d 888e b33d 6b3c 84be
000003d0: 8de7 c3bd 23ca bfbd 48ef b0bd 030b 0dbe
000003e0: d96e 33be 39af 8bbe 1032 eabd a7fb ffbd
000003f0: 04bc fb3c cfef bebd 85db 71be 5844 e9bc

network.5.bias f4 [48]
-0.10880609 0.044373028 -0.015703376 0.08404699 -0.05953236 0.100807756 -0.014896798 -0.053607244
-0.0056314385 -0.027349487 0.061628256 0.008177419 -0.0448141 0.01810194 0.046456408 0.018479642
-0.05801727 -0.015553032 0.012701754 -0.04786902 -0.046021797 0.010000891 0.18776442 0.04900815
-0.028367762 -0.03718484 0.096491605 -0.101072 -0.11899381 0.044720914 -0.05104822 -0.041060347
0.06674868 0.003965296 0.0011007113 -0.0007282369 0.06347194 -0.13905989 -0.014462334 -0.10413759
-0.10471661 -0.07747212 -0.08707401 0.049024504 -0.023844643 0.11152222 -0.030357108 0.004212718
00000000: bad5 debd 7ec0 353d 5ea4 80bc d420 ac3d
00000010: 34d8 73bd 4c74 ce3d b311 74bc 4593 5bbd
00000020: ee87 b8bb 080c e0bc e96d 7c3d 95fa 053c
00000030: fd8e 37bd 854a 943c 1349 3e3d 9e62 973c
00000040: 84a3 6dbd 25d2 7ebc 051b 503c 4e12 44bd
00000050: 5a81 3cbd c7da 233c 5145 403e c5bc 483d
00000060: 8263 e8bc 214f 18bd 649d c53d d6fe cebd
00000070: 07b3 f3bd 472d 373d f017 51bd e52e 28bd
00000080: 88b3 883d 50ef 813b be45 903a 27e7 3eba
00000090: 94fd 813d b765 0ebe 6df3 6cbc 1746 d5bd
000000a0: a975 d6bd b4a9 9ebd dc53 b2bd ebcd 483d
000000b0: d755 c3bc c365 e43d 78af f8bc d70a 8a3b

network.7.weight f4 [64, 48, 3, 3]
0.002097335 0.013659941 -0.023688251 -0.064665064 -0.10650935 -0.12481621 -0.39564183 -0.3665604
-0.31136873 -0.033624362 -0.067909054 0.0069069937 -0.13886757 -0.18174353 0.0032848811 -0.5423413
-0.35480344 -0.111398816 -0.13812238 -0.15863985 -0.04612764 -0.07685224 -0.17761186 -0.049515672
-0.27143177 -0.33457336 -0.25002208 0.005023334 0.035444498 -0.023886338 0.013104031 -0.027552035
-0.055506915 0.022653773 0.06263414 -0.036644623 0.09285149 -0.047386892 0.030453838 0.045132343
0.0048361355 -0.0075500687 -0.28634727 -0.26360503 -0.22009033 0.010850966 0.00092771853 0.07941098
0.03273011 0.088164516 0.13581446 0.00768158 0.094482884 0.09353079 -0.24786507 -0.14864185
-0.13557369 -0.28611276 -0.2339742 -0.1756645 -0.11573522 -0.2641671 -0.24629298 0.08763745
0.06206546 -0.03809121 0.042885527 0.11956465 0.05179314 0.03289058 0.038855936 -0.013702761
-0.007399662 -0.011421643 0.028854113 -0.03147021 -0.05607079 -0.042832237 -0.039917484 -0.11595877
-0.07472536 -0.16407453 -0.16144046 -0.118250675 -0.008739387 0.020456763 -0.0682329 -0.011532764
-0.0076560723 0.08123247 0.09782588 0.057636924 0.03121115 0.06347988 0.034484956 0.021507332
0.025194794 0.068216234 0.009195071 0.10464152 0.068516545 0.038467836 0.008779043 0.07312424
0.038798235 0.058177795 0.08831812 0.017084287 -0.08306804 -0.117455974 -0.054801427 -0.11494548
-0.13523787 0.029649667 -0.24555844 -0.32925785 -0.16922022 -0.05678514 -0.01661439 0.024569439
0.033590443 0.11209098 0.048551437 0.13159941 0.10485351 0.112611875 -0.0996822 -0.030231943
0.09479091 -0.25525936 -0.22733377 -0.0306556 -0.41552603 -0.3783351 -0.24979755 0.21562476
0.13566922 -0.014984531 0.12092547 0.106655866 -0.06493106 0.025925823 0.03456082 -0.029104946
0.12497254 0.068915404 0.011404927 0.06613038 0.08711427 -0.006584739 0.051702503 -0.0047738217
0.010451876 0.023378242 -0.13473411 -0.1937333 -0.1924395 -0.44426036 -0.28709233 -0.48972565
-0.4975607 -0.30426407 -0.07641517 -0.122785166 -0.022110017 -0.07491816 -0.022262521 -0.016315902
-0.033497524 -0.06975781 0.009693263 0.093106724 0.14577283 0.06023186 0.03149039 0.12992916
0.10320368 -0.029214807 0.067467935 -0.0061475304 -0.0053766896 -0.007972809 0.0003785017 -0.019363837
-0.02723411 0.061054952 0.05386847 0.04243844 0.050879 0.071445495 -0.01569087 0.0039656027
0.06037245 -0.022436947 -0.041343417 -0.0109442165 0.069988914 0.0634305 -0.05704211 0.033585995
0.026879052 -0.01732188 -0.045766506 -0.00064286566 0.04193245 0.02778389 0.03103893 -0.08359881
-0.03451444 0.01942752 -0.086004116 0.048889942 0.107657515 -0.21102697 -0.093731426 0.07690911
0.06279715 0.031639956 -0.02164266 -0.0171298 -0.0118354205 -0.050377104 -0.07422539 -0.14164141
-0.07224155 0.06781752 0.008503166 -0.011707919 0.065692276 0.06394095 -0.03949525 0.07817944
0.020594368 -0.012185826 0.028441032 0.045901544 0.0018583499 0.046654794 0.0073396475 -0.020020204
0.09589833 0.07112109 0.048575256 -0.1688777 -0.2691608 -0.2632743 -0.18871392 -0.24030326
-0.21599433 -0.45681643 -0.35194638 -0.22821909 0.009936874 0.03749306 0.016166974 0.026649935
00000000: 7173 093b f2cd 5f3c dd0d c2bc 1e6f 84bd
00000010: 9321 dabd a49f ffbd 9191 cabe cead bbbe
00000020: b96b 9fbe b3b9 09bd e713 8bbd 1054 e23b
00000030: 4d33 0ebe fa1a 3abe 2947 573b e1d6 0abf
00000040: cca8 b5be 1025 e4bd f46f 0dbe 7c72 22be
00000050: 56f0 3cbd b564 9dbd e2df 35be f2d0 4abd
00000060: 1bf9 8abe 334d abbe e502 80be c89a a43b
00000070: 402e 113d 48ad c3bc 4ab2 563c ceb4 e1bc
00000080: 385b 63bd 6894 b93c 5446 803d ac18 16bd
00000090: ec28 be3d c218 42bd 547a f93c b1dc 383d
000000a0: 7278 9e3b 9166 f7bb 1c9c 92be 3df7 86be
000000b0: 5c5f 61be 40c8 313c 2332 733a 39a2 a23d
000000c0: 0210 063d 998f b43d f212 0b3e c3b5 fb3b
000000d0: 3e80 c13d 128d bf3d 57d0 7dbe 9235 18be
000000e0: d4d3 0abe 5f7d 92be ef96 6fbe 65e1 33be
000000f0: 9606 edbd e940 87be 3a34 7cbe 437b b33d
00000100: 5a38 7e3d 8705 1cbd bca8 2f3d 50de f43d
00000110: 0b25 543d 46b8 063d 6727 1f3d 8c81 60bc
00000120: dd78 f2bb d821 3bbc 765f ec3c e8e6 00bd
00000130: 7caa 65bd db70 2fbd 8480 23bd cb7b edbd
00000140: 9c09 99bd 2703 28be a650 25be 692d f2bd
00000150: a52f 0fbc f194 a73c b1bd 8bbd ebf3 3cbc
00000160: cadf fabb 365d a63d ef58 c83d b214 6c3d
00000170: 87ae ff3c bd01 823d 1940 0d3d 2530 b03c
00000180: 5065 ce3c f4b4 8b3d eca6 163c 4b4e d63d
00000190: 6752 8c3d 7390 1d3d fad5 0f3c 29c2 953d
000001a0: e6ea 1e3d d74b 6e3d 21e0 b43d 59f4 8b3c
000001b0: 941f aabd c28c f0bd 7677 60bd 8968 ebbd
000001c0: cc7b 0abe dce3 f23c ac73 7bbe 7c94 a8be
000001d0: 1148 2dbe 8997 68bd e71a 88bc d945 c93c
000001e0: 2296 093d f58f e53d dfdd 463d ffc1 063e
000001f0: 70bd d63d 0ea1 e63d 2e26 ccbd fba8 f7bc
00000200: bd21 c23d 5bb1 82be 2fca 68be 7421 fbbc
00000210: d4bf d4be 23b5 c1be eeca 7fbe bdcc 5c3e
00000220: dfec 0a3e ae81 75bc c6a7 f73d 646e da3d
00000230: 93fa 84bd 6462 d43c a58f 0d3d 7f6d eebc
00000240: 9af1 ff3d 8523 8d3d bbdb 3a3c 5d6f 873d
00000250: f768 b23d cbc4 d7bb 01c6 533d b86d 9cbb
00000260: 583e 2b3c ba83 bf3c bdf7 09be 0662 46be
00000270: dc0e 45be 1876 e3be c4fd 92be 52bd fabe
00000280: 47c0 febe 80c8 9bbe 8f7f 9cbd ca76 fbbd
00000290: 1120 b5bc b16e 99bd e45f b6bc eda8 85bc
000002a0: b334 09bd 2fdd 8ebd 7ed0 1e3c bdae be3d
000002b0: 7945 153e afb5 763d 11fc 003d 260c 053e
000002c0: 735c d33d e453 efbc a12c 8a3d 3971 c9bb
000002d0: f12e b0bb 62a0 02bc a371 c639 e9a0 9ebc
000002e0: 111a dfbc c214 7a3d 2fa5 5c3d eed3 2d3d
000002f0: 8066 503d 0452 923d 248a 80bc e3f1 813b
00000300: 1a49 773d b0cd b7bc b757 29bd 5f4f 33bc
00000310: 5956 8f3d dae7 813d fda4 69bd 7891 093d
00000320: 7531 dc3c 9ee6 8dbc a975 3bbd fc85 28ba
00000330: 5cc1 2b3d 0a9b e33c 5b45 fe3c da35 abbd
00000340: 035f 0dbd 7626 9f3c ed22 b0bd d240 483d
00000350: 8b7b dc3d 7417 58be 43f6 bfbd 8682 9d3d
00000360: cb9b 803d e698 013d f34b b1bc cb53 8cbc
00000370: 5ae9 41bc 3958 4ebd 7b03 98bd 720a 11be
00000380: 61f3 93bd e9e3 8a3d dd50 0b3c 92d2 3fbc
00000390: ac89 863d 79f3 823d c5c5 21bd 8b1c a03d
000003a0: 85b5 a83c 0fa7 47bc 2bfd e83c 4203 3c3d
000003b0: e093 f33a 1919 3f3d 6d81 f03b 6901 a4bc
000003c0: 5866 c43d efa7 913d d9f6 463d 47ee 2cbe
000003d0: 72cf 89be e4cb 86be 393e 41be 0f12 76be
000003e0: 9e2d 5dbe d8e3 e9be 5132 b4be 44b2 69be
000003f0: 45ce 223c 5392 193d 9a70 843c f750 da3c

network.7.bias f4 [64]
-0.038894814 -0.0108672455 0.05962846 -0.0010939415 -0.055960216 0.04009031 0.0007698128 0.029919155
-0.09567219 -0.014077202 0.010528833 0.05621859 0.07466306 -0.045252133 0.104220316 -0.032413322
0.014074912 0.0021395024 0.058483645 -0.11215927 0.08978312 -0.043427486 0.10521826 0.04158549
-0.04465317 -0.04227409 -0.06028593 0.014489516 -0.07896903 2.6227274e-06 0.076883554 -0.035918165
0.03436174 0.07603229 -0.10127249 -0.03962584 -0.12969874 -0.075746484 -0.13091354 -0.051070616
4.4298054e-06 0.012099897 -0.046912856 0.06929067 -0.05569094 0.009701659 0.06304814 0.05613051
0.05233392 0.051300347 0.054794516 -0.06158483 0.047385085 0.11118024 0.0931169 -0.014276654
0.011584451 0.00988489 -0.005644059 -0.015955584 0.024616396 0.03944122 -0.13493304 0.01787166
00000000: 2b50 1fbd 880c 32bc f93c 743d 9662 8fba
00000010: 8a36 65bd bd35 243d 43cd 493a 0419 f53c
00000020: c8ef c3bd 11a4 66bc 2081 2c3c 7745 663d
00000030: f2e8 983d 4d5a 39bd 7671 d53d d5c3 04bd
00000040: 769a 663c e536 0c3b 8c8c 6f3d c2b3 e5bd
00000050: 36e0 b73d 05e1 31bd ac7c d73d 8c55 2a3d
00000060: 3ee6 36bd 9927 2dbd 61ee 76bd 6f65 6d3c
00000070: 84ba a1bd 1d02 3036 2075 9d3d ed1e 13bd
00000080: e5be 0c3d d1b6 9b3d f467 cfbd b44e 22bd
00000090: bfcf 04be f920 9bbd 330e 06be 6c2f 51bd
000000a0: bda3 9436 a53e 463c b227 40bd 44e8 8d3d
000000b0: 2f1c 64bd b5f3 1e3c 621f 813d 1be9 653d
000000c0: 185c 563d 5020 523d 3770 603d 6040 7cbd
000000d0: dd16 423d 77b2 e33d 13b4 be3d a1e8 69bc
000000e0: b6cc 3d3c 3cf4 213c ccf1 b8bb 49b5 82bc
000000f0: 53a8 c93c 1e8d 213d e32b 0abe 9667 923c

network.11.weight f4 [128, 1024]
0.0044606216 -0.024859304 -0.007550277 0.022852886 0.02076174 -0.035607453 -0.01601093 -0.01403937
-0.037701122 -0.004158459 -0.017481918 -0.003468998 -0.0031895002 0.020683805 0.015755972 -0.015016794
-0.02805133 0.016934337 0.006181393 -0.017297193 -0.032642554 0.017797343 0.025970139 -0.0014286693
-0.033383425 -0.0222753 -0.01420201 -0.034341525 0.008036343 -0.023422945 -0.017427305 0.0023685799
-0.010949057 0.0050687427 0.026394317 -0.0024994104 -0.03146045 -0.0028248443 0.006892917 0.0044271816
-0.02585627 -0.018865135 -0.00069011387 0.024924926 -0.031655166 -0.015032154 -0.011091449 0.026894774
-0.005682241 -0.017560808 0.019253913 0.002353509 -0.007876531 0.019747468 0.018230349 -0.0010312172
-0.013204724 -0.00588503 0.024587577 -0.011883551 -0.010795054 0.017988248 0.01340047 -0.008629002
-0.01053872 0.009949023 0.006522849 0.012303944 -0.01924308 -0.007297223 -0.024315685 -0.017041901
-0.033003304 -0.013051841 -0.03525478 -0.02043904 -7.66963e-05 -0.010896849 -0.018914694 0.010048305
-0.008068752 -0.008747954 0.022009477 -9.46566e-05 0.024756111 0.028497232 -0.0052062515 0.009547948
0.007336704 0.0067768684 -0.034449127 -0.019233977 -0.0049593817 -0.026975472 -0.028401488 0.01450124
0.016556235 -0.008133255 -0.02959492 -0.0052540824 -0.009917768 0.022829404 0.009379041 0.022407366
-0.008232066 -0.03249364 0.005893194 -0.0074630715 -0.0063966303 0.020699147 0.018811848 -0.01951348
0.0049663186 0.0021987145 -0.025692385 -0.009880952 -0.009154968 -0.013356928 0.02538411 -0.009835679
0.021189213 -0.004099252 -0.0018294206 -0.02030629 -0.027715102 -0.016986303 -0.032300852 0.0056103016
-0.026914526 -0.000342976 0.007968811 0.025341514 -0.024524434 0.012116865 -0.026881658 0.028630115
-0.010710399 -0.018534753 0.0100332135 -0.023631666 -0.020545801 -0.028010517 -0.019220082 -0.026871584
0.0052021667 0.01287912 0.0127828475 0.007335893 0.010108239 -0.007938586 0.024626514 -0.006266931
-0.031703133 -0.02608987 -0.0068595414 0.017580874 -0.0060297763 -0.011099908 0.021471107 -0.020801395
-0.015176017 -0.023630986 -0.022248553 -0.019065214 0.022469562 -0.023067446 -0.029383631 0.012818563
-0.030641172 -0.033003036 -0.038815483 0.014660032 0.015780626 -0.016938996 -0.0030063314 0.023809621
0.014693809 -0.01807777 0.00800354 0.0076339683 0.015566555 -0.021786092 -0.04126891 -0.01801279
0.020264124 -0.036628686 0.016370159 -0.023150854 0.01668073 0.0022768446 -0.024174687 0.0096794795
-0.017533246 0.026994092 0.023001203 -0.0018879646 0.0072987033 -0.036580328 -0.016482353 -0.004534895
-0.035027668 -0.012353745 0.022814507 0.015290124 0.020444501 -0.011031252 -0.008273268 -0.015354628
0.017176278 0.03008943 0.024611503 0.026893605 -0.026204336 -0.024875328 -0.025017437 0.029177174
0.0018906854 0.008503463 0.0048397966 -0.016412936 -0.024890985 0.025484208 0.02198964 -0.004326243
-0.016304702 0.002985404 0.006805693 -0.0050042416 -0.0012169018 -0.027248269 0.019922072 -0.029956188
0.007852308 -0.030687893 -0.005242566 0.0026562684 -0.01585844 0.025827713 -0.016579121 -0.011870151
-0.011006313 -0.027565153 0.02041666 -0.019506259 -0.036997568 -0.030728605 -0.034485847 -0.023154354
0.0156107275 -0.035249565 0.010230043 0.006342037 -0.03349706 0.015457759 -0.013340512 -0.032175705
00000000: 682a 923b bda5 cbbc 5068 f7bb fa35 bb3c
00000010: 8614 aa3c 1fd9 11bd 5b29 83bc 6305 66bc
00000020: 7e6c 1abd af43 88bb 3d36 8fbc 2158 63bb
00000030: ef06 51bb 1571 a93c ab12 813c 0009 76bc
00000040: e7cb e5bc e1b9 8a3c 488d ca3b d8b2 8dbc
00000050: 33b4 05bd bccb 913c 54bf d43c 3042 bbba
00000060: 0fbd 08bd b17a b6bc 8caf 68bc b3a9 0cbd
00000070: deaa 033c 7ae1 bfbc b5c3 8ebc 2d3a 1b3b
00000080: ac63 33bc b217 a63b e538 d83c 26cd 23bb
00000090: acdc 00bd 0621 39bb fbdd e13b e411 913b
000000a0: 87d0 d3bc 0e8b 9abc c2e8 34ba 5c2f cc3c
000000b0: d9a8 01bd 6c49 76bc e9b8 35bc 6e52 dc3c
000000c0: 1832 babb afdb 8fbc 62ba 9d3c 543d 1a3b
000000d0: 910c 01bc 71c5 a13c d057 953c e829 87ba
000000e0: a058 58bc 36d7 c0bb e36b c93c 3ab3 42bc
000000f0: bddd 30bc 175c 933c a58d 5b3c a860 0dbc
00000100: 98aa 2cbc 3a01 233c a0bd d53b 7b96 493c
00000110: aaa3 9dbc 8b1d efbb b031 c7bc 759b 8bbc
00000120: 792e 07bd 64d7 55bc 5167 10bd c66f a7bc
00000130: 03d8 a0b8 b388 32bc fdf2 9abc a5a1 243c
00000140: cc32 04bc 9453 0fbc 384d b43c 6082 c6b8
00000150: 54cd ca3c 0773 e93c 3499 aabb ff6e 1c3c
00000160: bc68 f03b 7e10 de3b 871a 0dbd 9390 9dbc
00000170: 4f82 a2bb aafb dcbc 3daa e8bc 9c96 6d3c
00000180: f1a0 873c 5841 05bc 0c71 f2bc 702a acbb
00000190: 227e 22bc bb04 bb3c 8daa 193c a78f b73c
000001a0: cadf 06bc 0d18 05bd b21b c13b c88c f4bb
000001b0: d39a d1bb 4291 a93c 4e1b 9a3c bcda 9fbc
000001c0: 80bc a23b 4f18 103b d678 d2bc b7e3 21bc
000001d0: b8fe 15bc 04d7 5abc 56f2 cf3c d425 21bc
000001e0: 0095 ad3c 0553 86bb 2bc9 efba 6059 a6bc
000001f0: c80a e3bc dc26 8bbc e64d 04bd 9fd6 b73b
00000200: da7b dcbc 76d1 b3b9 9e8f 023c 0299 cf3c
00000210: 77e7 c8bc d185 463c ec36 dcbc b489 ea3c
00000220: ab7a 2fbc 32d6 97bc 5962 243c 3297 c1bc
00000230: ab4f a8bc 5076 e5bc 6f73 9dbc cc21 dcbc
00000240: f076 aa3b f202 533c 266f 513c ee61 f03b
00000250: 079d 253c d810 02bc 8bbd c93c d45a cdbb
00000260: 25db 01bd 6cba d5bc 01c6 e0bb c405 903c
00000270: 6e95 c5bb 63dc 35bc 2de4 af3c b067 aabc
00000280: d4a4 78bc c595 c1bc 9942 b6bc a72e 9cbc
00000290: 1612 b83c f1f7 bcbc f1b5 f0bc f304 523c
000002a0: 3203 fbbc 312e 07bd fcfc 1ebd a130 703c
000002b0: 5f46 813c a6c3 8abc df05 45bb 650c c33c
000002c0: 4dbe 703c d517 94bc 4821 033c 5e26 fa3b
000002d0: dd0a 7f3c bf78 b2bc 9709 29bd 8f8f 93bc
000002e0: f300 a63c f607 16bd b61a 863c dca6 bdbc
000002f0: 07a6 883c 1d37 153b fe09 c6bc ae96 1e3c
00000300: e2a1 8fbc b722 dd3c 056d bc3c 9475 f7ba
00000310: f629 ef3b 41d5 15bd 0006 87bc 7599 94bb
00000320: 2c79 0fbd 5d67 4abc 7de5 ba3c 6e83 7a3c
00000330: 3a7b a73c 6dbc 34bc 9a8c 07bc fa91 7bbc
00000340: 44b5 8c3c 1c7e f63c 109e c93c fa4f dc3c
00000350: 7aaa d6bc 58c7 cbbc 5ef1 ccbc f804 ef3c
00000360: e0d0 f73a 1c52 0b3c 2897 9e3b 6c74 86bc
00000370: 2ee8 cbbc 42c4 d03c 9e23 b43c 28c3 8dbb
00000380: 7091 85bc c5a6 433b 4a02 df3b 9ffa a3bb
00000390: 7380 9fba c337 dfbc 9d33 a33c ae66 f5bc
000003a0: f8a6 003c 2d65 fbbc d5c9 abbb ca14 2e3b
000003b0: 8fe9 81bc a494 d33c f0d0 87bc 067b 42bc
000003c0: d353 34bc 51d0 e1bc d740 a73c 97cb 9fbc
000003d0: c38a 17bd 8eba fbbc 0841 0dbd 33ae bdbc
000003e0: 23c4 7f3c d961 10bd e99b 273c ddd0 cf3b
000003f0: 3734 09bd 8a42 7d3c 2a92 5abc acca 03bd

network.11.bias f4 [128]
0.010576895 0.0030023674 -0.044867143 -0.06160628 -0.047891296 -0.04133819 -0.07610031 0.0037141687
-0.01487098 0.03167069 -0.030339671 -0.03686879 -0.08324129 -0.08443035 -0.06797611 -0.05345682
-0.037524007 0.005078358 -0.05488917 -0.06388148 -0.039072856 -0.05813089 -0.041272264 0.02504818
-0.0022096394 -0.0074133547 -0.047467947 -0.046021115 -0.06333952 -0.1126422 -0.0815426 -0.075429015
-0.048965886 -0.055601485 0.00026499262 -0.04695475 -0.046805024 -0.016314408 -0.05117431 -0.025692834
-0.08802875 -0.04230465 -0.019512426 -0.09681988 -0.03344895 -0.025077447 -0.04157289 -0.0486887
-0.073462196 -0.026999421 0.017326904 -0.028214864 -0.04793555 -0.050244533 0.0069043366 -0.040389594
-0.03002 0.0035498 -0.059350327 -0.02066714 -0.038636204 -0.054461822 -0.046576954 -0.059910897
-0.0782417 -0.05361425 -0.029889101 -0.07727573 -0.05207172 0.030080745 -0.0032582446 -0.04853574
-0.057366315 0.013629835 -0.025673414 -0.033849526 0.0015335149 -0.059949793 -0.04796182 -0.07998421
0.0035798035 0.009780249 -0.03583972 -0.09486873 -0.04685232 0.012533201 0.0005381018 -0.041205704
-0.04490517 0.011827831 -0.026951479 0.02013657 0.0019179601 -0.10209236 0.01715419 -0.1058065
0.034892455 -0.034508817 -0.033642825 -0.033628136 -0.069438614 0.015750028 -0.021837996 -0.09305622
-0.023592923 -0.06318227 -0.03573092 -0.046502195 -0.06239796 -0.03174164 -0.04922762 -0.00092060637
-0.029095845 -0.04554876 -0.04514935 -0.04939125 -0.057807013 -0.04090335 -0.014886651 -0.11318358
-0.074034885 -0.06775627 -0.017540619 -0.03769218 -0.07412352 -0.0367621 -0.052491464 -0.049940307
00000000: b74a 2d3c 5ec3 443b 9cc6 37bd de56 7cbd
00000010: aa29 44bd 3c52 29bd 7bda 9bbd 6969 733b
00000020: 69a5 73bc 20b9 013d e78a f8bc ba03 17bd
00000030: 697a aabd d2e9 acbd 0f37 8bbd 8af5 5abd
00000040: c6b2 19bd 5b68 a63b 77d3 60bd 4bd4 82bd
00000050: dc0a 20bd a81a 6ebd 1b0d 29bd d731 cd3c
00000060: 99cf 10bb baeb f2bb c06d 42bd a380 3cbd
00000070: 26b8 81bd f4b0 e6bd cfff a6bd 877a 9abd
00000080: 7490 48bd 62be 63bd b5ee 8a39 a053 40bd
00000090: a0b6 3fbd cba5 85bc 279c 51bd c779 d2bc
000000a0: 6b48 b4bd a447 2dbd 86d8 9fbc 8049 c6bd
000000b0: c401 09bd 386f cdbc 5648 2abd cd6d 47bd
000000c0: 5973 96bd e42d ddbc 27f1 8d3c dc22 e7bc
000000d0: 1158 44bd 36cd 4dbd c63d e23b 8f6f 25bd
000000e0: 81ec f5bc c3a3 683b 5419 73bd 224e a9bc
000000f0: ff40 1ebd 5c13 5fbd 7ac7 3ebd 2165 75bd
00000100: 2f3d a0bd 9e9a 5bbd fdd9 f4bc bd42 9ebd
00000110: 2849 55bd e56b f63c 4688 55bb 69cd 46bd
00000120: f1f8 6abd ac4f 5f3c 0d51 d2bc cda5 0abd
00000130: 3900 c93a ea8d 75bd 9d73 44bd c3ce a3bd
00000140: 239b 6a3b 563d 203c accc 12bd 894a c2bd
00000150: 38e8 3fbd 0e58 4d3c 670f 0d3a 50c7 28bd
00000160: 7cee 37bd 85c9 413c 59c9 dcbc 73f5 a43c
00000170: 1064 fb3a cd15 d1bd f286 8c3c 14b1 d8bd
00000180: 64eb 0e3d 1e59 0dbd 0fcd 09bd a8bd 09bd
00000190: d535 8ebd 3406 813c 99e5 b2bc 4294 bebd
000001a0: f245 c1bc b565 81bd 965a 12bd 1679 3ebd
000001b0: 0195 7fbd 8603 02bd e7a2 49bd d954 71ba
000001c0: 695a eebc 5691 3abd 86ee 38bd 7b4e 4abd
000001d0: 0cc7 6cbd 458a 27bd 24e7 73bc cbcc e7bd
000001e0: 9a9f 97bd cdc3 8abd 58b1 8fbc 1e63 1abd
000001f0: 12ce 97bd db93 16bd 4a01 57bd 358e 4cbd

network.14.weight f4 [4, 128]
-0.033486642 -0.58831966 0.54211515 0.012839752 -0.4992506 0.079176605 0.11391458 -0.061747774
-0.035153043 0.1216015 -0.3222572 0.07553215 -0.34418565 -0.16140632 -0.33024395 0.5137004
-0.8216278 -0.043833625 -0.40609947 0.11695075 -0.08502018 0.13796036 0.14805686 0.04846397
0.12745854 -0.034733817 -0.35399258 -0.8588849 0.5228831 0.11029717 -0.17489083 0.12855272
-0.18342745 -0.4030442 0.105357856 0.08272971 -0.79503083 -0.07076108 0.51245743 -0.43025473
-0.26177326 -0.84548694 0.09642879 -0.23306315 0.4803142 -0.05811194 -0.468221 -0.2992334
-0.45263767 -0.011865266 0.12458821 0.16511664 0.5628325 0.46024907 0.1320208 -0.481781
-0.5570503 0.010535567 0.48070806 0.06790302 0.5201525 -0.75381744 -0.3967744 -0.29804122
-0.34084085 -0.6003998 0.087754026 0.12607536 0.08145618 0.1205233 -0.0044388967 0.09163564
-0.5880851 0.10154115 -0.20172176 -0.035842847 0.131933 0.5174262 -0.46950173 0.12057481
-0.001128659 0.106802635 -0.88684523 -0.2941521 0.0818368 0.08531487 0.10454157 -0.9245852
0.11135045 -0.021572838 0.021906273 0.14043143 -0.020457383 -0.12333489 0.09040309 0.08621472
0.13835965 -0.81615585 -0.7565729 -0.7768484 0.15607005 0.11471537 -0.47571442 -0.0061300346
0.118354775 -0.8709756 -0.49943876 0.030319573 -0.5876162 -0.8265746 -0.825898 0.04331425
0.35444996 -0.60683894 -0.54150313 0.058700684 -0.62413937 -0.36210248 0.061943293 0.089362435
-0.4462199 0.14598835 -0.6374337 -0.0031514284 -0.29743782 -0.5278507 -0.820165 -0.60664797
0.033491533 -0.9121266 -0.37126374 0.0020442752 0.2879091 0.08397067 -0.87462324 0.07979287
0.025363343 -0.628818 0.23713748 0.08055666 -0.99459666 0.28716978 -1.070135 -0.44696632
0.13817216 -0.034335937 -0.8366996 -0.87524796 -0.84091324 0.13822314 0.15818386 -0.64362293
-0.61149937 0.007894943 -1.0083735 0.15374006 -0.3451013 0.12938485 -1.0586809 0.14424433
-0.9917206 -0.85387826 -0.58492243 0.0942645 0.13215084 0.055706203 -0.31481564 -0.86832464
-1.0367078 0.13130988 0.09617295 0.22685394 -0.46885228 -0.08489832 -0.70856047 -0.8680605
0.26954308 0.025857616 -0.60153997 0.14854102 -0.47486913 -0.37448415 -0.578727 0.24670495
-0.90672123 0.0036938377 -0.370817 0.04968941 -0.34681293 0.14370611 -1.0126355 -0.8626292
-1.0944464 0.2618762 0.08525458 -0.97904694 0.07328182 -0.49517822 0.028520923 0.082915686
0.19062608 -0.6297779 -0.88044333 -0.038411163 -0.59706676 -0.45531636 -0.82303774 0.12246511
-0.052759644 -0.5857105 0.12923144 0.29365504 0.065059595 -0.6085499 -0.6222299 0.07347199
0.108176015 0.005658845 -8.249078e-05 -0.45266503 0.01307079 0.2850441 -0.59920704 -1.3212123
-0.64274395 0.12285834 0.11257342 0.1600157 0.16005571 -0.61578095 0.20784917 -1.1369944
0.11535003 0.11141227 -0.80208045 0.038287856 0.20050801 0.16287854 0.116379514 -0.74270046
-0.6449225 -0.7944341 -0.7562562 0.047814116 -0.9202224 -0.89825785 0.009872615 0.10844202
0.26254752 0.15113412 -0.5919573 0.03357993 0.33634773 -0.88457 0.11396042 0.21627247
00000000: 4a29 09bd 1e9c 16bf 0fc8 0a3f d35d 523c
00000010: c69d ffbe 5827 a23d 0c4c e93d 3ceb 7cbd
00000020: a3fc 0fbd 350a f93d e5fe a4be 9ab0 9a3d
00000030: 1a39 b0be b347 25be bc15 a9be df81 033f
00000040: 3356 52bf e38a 33bd 45ec cfbe e083 ef3d
00000050: 0f1f aebd 7b45 0d3e 389c 173e 2882 463d
00000060: 7e84 023e 0c45 0ebd 843e b5be e1df 5bbf
00000070: abdb 053f 7ce3 e13d 9516 33be 53a3 033e
00000080: 68d4 3bbe cf5b cebe dcc5 d73d 326e a93d
00000090: 2487 4bbf 2feb 90bd 6930 033f 594a dcbe
000000a0: 2507 86be d571 58bf 757c c53d 1ba8 6ebe
000000b0: beeb f53e c906 6ebd aaba efbe 1f35 99be
000000c0: 20c0 e7be 8866 42bc 1a28 ff3d 5614 293e
000000d0: ca15 103f c4a5 eb3e 7630 073e 00ac f6be
000000e0: d99a 0ebf 5f9d 2c3c 5e1f f63e bd10 8b3d
000000f0: b728 053f 2efa 40bf 0426 cbbe dc98 98be
00000100: b182 aebe cdb3 19bf 62b8 b33d e619 013e
00000110: 7fd2 a63d ebd4 f63d 2a74 91bb 77ab bb3d
00000120: bf8c 16bf cef4 cf3d 2690 4ebe f3cf 12bd
00000130: 7219 073e 0b76 043f 8862 f0be edef f63d
00000140: 83ef 93ba 57bb da3d 4a08 63bf 1b9b 96be
00000150: 0d9a a73d 90b9 ae3d e419 d63d 9eb1 6cbf
00000160: b40b e43d 85b9 b0bc c974 b33c 42cd 0f3e
00000170: 3e96 a7bc 0197 fcbd 4125 b93d 5891 b03d
00000180: 27ae 0d3e 97ef 50bf c3ae 41bf 89df 46bf
00000190: d4d0 1f3e e4ef ea3d d790 f3be 75de c8bb
000001a0: fd63 f23d 42f8 5ebf 70b6 ffbe c160 f83c
000001b0: 046e 16bf 659a 53bf 0d6e 53bf 486a 313d
000001c0: 777a b53e cc59 1bbf f39f 0abf 2170 703d
000001d0: 99c7 1fbf 7f65 b9be 40b8 7d3d a703 b73d
000001e0: ef76 e4be f87d 153e db2e 23bf 3288 4ebb
000001f0: c549 98be 3921 07bf 55f6 51bf 484d 1bbf
00000200: 6b2e 093d 2181 69bf 4816 bebe 3ff9 053b
00000210: d268 933e d1f8 ab3d 4fe7 5fbf 726a a33d
00000220: c9c6 cf3c 37fa 20bf 2bd4 723e e4fa a43d
00000230: e39d 7ebf eb07 933e 2ffa 88bf c5d8 e4be
00000240: 017d 0d3e d7a3 0cbd f231 56bf 4010 60bf
00000250: 1746 57bf 5e8a 0d3e f3fa 213e 79c4 24bf
00000260: 398b 1cbf ca59 013c 6212 81bf 096e 1d3e
00000270: 1eb1 b0be 767d 043e db82 87bf c9b4 133e
00000280: 67e1 7dbf c497 5abf 7abd 15bf bf0d c13d
00000290: 8d52 073e 302c 643d 842f a1be 864a 5ebf
000002a0: d7b2 84bf 1976 063e 53f6 c43d 664c 683e
000002b0: 680d f0be 2cdf adbd 3864 35bf 3739 5ebf
000002c0: 8d01 8a3e 5ad3 d33c 86fe 19bf 231b 183e
000002d0: 0c22 f3be 63bc bfbe 7427 14bf 39a0 7c3e
000002e0: e21e 68bf 5014 723b badb bdbe 1f87 4b3d
000002f0: 7791 b1be b227 133e 0a9e 81bf 44d5 5cbf
00000300: d216 8cbf a314 863e f499 ae3d d2a2 7abf
00000310: c714 963d 0088 fdbe b6a4 e93c b3cf a93d
00000320: 7c33 433e 2039 21bf bc64 61bf 0655 1dbd
00000330: 5ed9 18bf 3a1f e9be 9ab2 52bf fdce fa3d
00000340: 7f1a 58bd 20f1 15bf 3f55 043e f459 963e
00000350: f73d 853d edc9 1bbf 754a 1fbf 7c78 963d
00000360: 638b dd3d d56d b93b e6fe acb8 b6c3 e7be
00000370: de26 563c 4df1 913e a265 19bf 7c1d a9bf
00000380: de8a 24bf 279d fb3d e58c e63d 28db 233e
00000390: a5e5 233e d2a3 1dbf 6ad6 543e 0889 91bf
000003a0: a33c ec3d 1e2c e43d 2555 4dbf bad3 1c3d
000003b0: f951 4d3e a2c9 263e 6258 ee3d 9e21 3ebf
000003c0: a419 25bf 0860 4bbf 029a 41bf bcd8 433d
000003d0: b293 6bbf 3af4 65bf c0c0 213c da16 de3d
000003e0: a16c 863e e7c2 1a3e 838a 17bf 1c8b 093d
000003f0: c535 ac3e 2e73 62bf 1564 e93d 8876 5d3e

network.14.bias f4 [4]
-0.263453 -0.023034407 0.15907313 0.033385865
00000000: 50e3 86be a7b2 bcbc 11e4 223e 9ebf 083d
