models/vgg/VGG2_Adam_32_lr0.0001_wd0/VGG2_Adam_32_lr0.0001_wd0_best.pth (torch, 716955 bytes, 12 tensors)

network.0.weight f4 [16, 1, 3, 3]
000000 60 37 ed be 16 cc 2e be 47 b6 64 be bc a3 ce 3d
       -0.4633131 -0.1707004 -0.22335158 0.100898236
000010 75 91 c1 3e b6 66 f7 3e d9 37 f9 be 9e 1d 72 3e
       0.37806287 0.4832055 -0.4867542 0.2364411
000020 b1 81 3d 3e ac 8e aa 3d 52 fd 5e 3e 2d 6c fd 3e
       0.18506505 0.08327994 0.21776322 0.49496594
000030 4c 78 da be cb 49 e0 bd 3d e6 d5 3e 3a 8c 08 be
       -0.42669904 -0.10951575 0.4177722 -0.13334742
000040 58 50 b4 be 48 3a 01 3b 97 01 93 3d 03 f2 ab 3e
       -0.35217547 0.0019718576 0.071780376 0.33583078
000050 b4 a7 5e bd 4f 5d c8 be 46 02 1b be 6e 79 ec 3d
       -0.054359153 -0.3913369 -0.15137586 0.115465984
000060 b6 33 4d be 4a b7 77 3e bc b8 26 3e 34 45 7c be
       -0.20039257 0.24191013 0.16281408 -0.24635774
000070 13 ba 98 3e da a8 2c 3d a0 dd 8e 3e d8 d6 83 bd
       0.29829463 0.042153217 0.2790346 -0.064374626
000080 70 0a bc be 6f 36 b1 3e 76 a3 67 3e 05 3e ca 3d
       -0.36726713 0.34611842 0.22620949 0.098751105
000090 3b 01 35 bd dd a6 5c 3e e7 0e 89 3d 43 31 eb be
       -0.044190627 0.21548028 0.066922955 -0.4593602
0000a0 eb a9 00 3e cb 30 d7 bd b2 e4 c0 be 86 fb 9a 3e
       0.12564819 -0.105073534 -0.3767448 0.30270022
0000b0 26 b0 ce 3e 18 38 0b bf ba a5 ef be f2 a8 8f be
       0.40368766 -0.5438247 -0.46806127 -0.28058583
0000c0 bb 1c a5 be 9a ca 1c bc 05 3c fc 3c 20 e9 e5 3e
       -0.32248482 -0.009569788 0.030790338 0.44904423
0000d0 b3 b6 8d 3e 89 49 61 3e d6 cc 12 3d 3f 0c ed 3d
       0.2767845 0.22000708 0.035839878 0.115746014
0000e0 ed 32 82 be c5 07 87 be 40 ab 4e be 7d 81 c2 bd
       -0.25429478 -0.26373115 -0.20182514 -0.09497354
0000f0 e5 54 d9 3e 28 f5 65 3e be d2 1a be a7 da f3 3e
       0.42447582 0.22456801 -0.15119454 0.47627756
000100 0c be 97 3e 31 1a c6 be 19 1f 87 3e fe cc 82 be
       0.29637182 -0.38691857 0.26390913 -0.25547022
000110 cf 42 93 3e 5a c0 6d be 5d 5a df bd 78 20 93 3e
       0.28761908 -0.23217908 -0.10905907 0.2873571
000120 f6 2b 27 bf b9 79 0d bf 6f 7b b1 3e 42 8b 81 be
       -0.65301454 -0.5526386 0.34664485 -0.25301558
000130 16 0e 63 be a8 54 c1 3e 3b ec ba bd 47 4c ec 3e
       -0.22173342 0.377599 -0.09127089 0.46151945
000140 7f a8 6d be 91 45 7b 3c 9b 36 8a be d9 71 e4 3e
       -0.23208807 0.01533641 -0.26994786 0.4461811
000150 22 dc 90 be 71 9d fb bd c0 ac dd bd 31 66 a7 be
       -0.28292948 -0.12285889 -0.10823965 -0.32695153
000160 42 aa 9a 3e 7f ee c9 3e 4d 3c 0e 3e 76 20 04 be
       0.3020802 0.3943977 0.1389019 -0.12903008
000170 51 03 64 bd c9 de 8c be 7a df c4 bd ea 51 0f 3e
       -0.055667225 -0.27513722 -0.09612937 0.13996091
000180 c2 5e 0d 3e c3 a1 ce 3e 04 1b d2 3b a4 03 4f bd
       0.13805678 0.4035779 0.006411912 -0.05054058
000190 2a 1d 10 3e 19 f5 81 bd 03 13 70 3e 02 71 52 3e
       0.14073625 -0.06345577 0.23444752 0.20550922
0001a0 01 26 3d 3e 0e b8 f5 be 70 34 bf be 80 b2 85 3e
       0.18471529 -0.47991985 -0.37344694 0.26112747
0001b0 94 61 50 be 10 f8 59 3e 81 c6 e0 3e e9 94 e7 bc
       -0.20349723 0.21286035 0.43901446 -0.028269248
0001c0 07 7c 88 bd d8 5c 5e 3e 17 cb 60 3e 45 6d 14 be
       -0.06664281 0.21715105 0.21952473 -0.14494808
0001d0 25 d2 bf be 17 57 f8 3e 28 db 3d bd 86 31 2f bd
       -0.37465015 0.48503944 -0.04635158 -0.04277184
0001e0 f8 ce 99 be c2 f9 c4 bb 3e 45 0c be c2 f7 69 3e
       -0.30040717 -0.0060112188 -0.13698289 0.22848418
0001f0 b8 3a 55 bb c0 4c d4 bd 0c 43 fc 3e f8 05 83 bd
       -0.003253622 -0.103662014 0.49269903 -0.06397623
000200 0c 88 d4 bd 0f 82 06 3f 7d 14 93 be a4 5c 34 bf
       -0.103775114 0.52542204 -0.2872657 -0.7045386
000210 9b 44 d8 3d 19 b7 0a bf 3f 3c 4e bf 4a cf 92 3e
       0.105599605 -0.54185635 -0.8056068 0.28673774
000220 76 69 2c bd 6d 49 61 bd c4 bb 41 3e 90 c4 32 3c
       -0.042092763 -0.055001665 0.18919283 0.010911122
000230 6d ba dc 3e 5a 3b 34 be 9a 6c 0b be 51 60 2d be
       0.43110982 -0.17600766 -0.13615647 -0.16931273

network.0.bias f4 [16]
000000 a4 ac 98 3e 95 74 c1 bd d9 b5 28 3e 9a c5 92 bd
       0.29819214 -0.094460644 0.1647562 -0.07166596
000010 e7 f3 6b 3e 22 f4 90 3e 2a 8d 8a 3e 3c f8 69 be
       0.2304226 0.2831126 0.27060825 -0.228486
000020 69 4d f7 3d d1 26 16 3e c1 75 e8 bd 1e 13 96 3e
       0.12075312 0.14663245 -0.11350585 0.2931146
000030 ce b1 47 3e b4 2a 45 3e 89 df a8 3e 77 50 96 be
       0.19501421 0.19254571 0.32983044 -0.29358265

network.2.weight f4 [32, 16, 3, 3]
000000 32 13 e6 3d 5e c3 b7 3d 43 fd 7a 3d 99 50 0a be
       0.1123413 0.0897281 0.061276685 -0.13507308
000010 66 f9 ed bd 98 07 e1 3c 9b ad 1e 3e 41 31 00 3d
       -0.116198346 0.027469441 0.15495913 0.031296972
000020 3d fc 7c 3d fe 08 95 3d 4f 50 2e 3c 96 04 d3 3d
       0.06176399 0.07277106 0.010639264 0.10303609
000030 a1 16 1c 3e 22 7a 3f 3d c5 43 97 3b 3a f6 1e be
       0.15243007 0.046747334 0.004616233 -0.15523615
000040 81 d3 d7 bd 99 6e 05 3c 7f 87 0d bd 94 df a9 be
       -0.10538388 0.008144044 -0.034553047 -0.3317839
000050 e9 4a da be f6 37 5b 3c 1e e8 a1 3d a3 18 09 3e
       -0.42635277 0.013380041 0.07905601 0.13388304
000060 ae 2b 4d 3d 98 eb 49 bd a1 a9 d5 bd b3 b6 48 3c
       0.050090484 -0.049296945 -0.10432745 0.01225059
000070 d0 cb 26 3c 29 d4 9c 3c b2 de 54 bd 80 d1 6b 3d
       0.010180429 0.019144135 -0.05197019 0.05757284
000080 c6 89 e7 bc 6d 30 e2 3d a6 fc cb 3c ec f8 89 bd
       -0.028263938 0.11044393 0.024900746 -0.06736931
000090 df 8c 0a bd c7 59 55 be a8 f1 23 be 06 fe 41 3d
       -0.03382575 -0.20835029 -0.16010153 0.047361396
0000a0 35 0b 45 3d 93 ca 99 3b 82 57 11 3c c4 20 41 bc
       0.04810639 0.004693338 0.008870961 -0.011787597
0000b0 72 e6 17 be 73 10 74 3d 13 b4 5b 3c 61 92 89 bc
       -0.14834002 0.059586 0.013409632 -0.016793432
0000c0 a6 f9 b5 be 01 c0 72 be 39 17 00 3b a4 f8 92 3c
       -0.3554203 -0.23706056 0.0019545092 0.017940827
0000d0 b8 72 c0 3d 70 d8 75 bd 8c 64 cd 3c be 12 82 be
       0.09396881 -0.060020864 0.025072359 -0.25404924
0000e0 ae e0 b2 be d4 61 34 bd 12 bc e8 bd 53 38 99 3d
       -0.34937042 -0.04403861 -0.113639966 0.07481446
0000f0 5b 3d 6c bd 57 f5 8d 3d e6 ac ad 3c ed 23 61 bd
       -0.0576757 0.069315605 0.021200608 -0.054965902
000100 c6 69 ed bd b2 c9 47 3d 07 f4 92 3c 63 47 02 3d
       -0.1159244 0.048776336 0.017938627 0.03180636
000110 d4 38 25 3e bc d0 67 3d c2 67 c9 3c 79 92 8b 3c
       0.1613496 0.05659555 0.024585608 0.017037617
000120 fc 0e f5 3d 7d 45 c5 be 32 dd df be 02 5a 04 bd
       0.11965749 -0.38529578 -0.43723446 -0.0323124
000130 53 59 e9 be e2 8a 2f bf 01 39 fd be 9e 92 51 bd
       -0.4557596 -0.68571293 -0.49457553 -0.051165216
000140 0e 65 9e 3d c9 bc 2f be 7b c0 87 be 8b 56 34 3d
       0.077341184 -0.1716186 -0.26514038 0.044027846
000150 6a 60 06 3d 75 43 0d 3c 52 fb 96 3d 76 43 07 3e
       0.03280679 0.00862204 0.07372154 0.13209328
000160 4d 1d 01 bc 54 3e 40 be 2e 59 49 3d 4d 89 0f be
       -0.007880521 -0.18773776 0.049157314 -0.1401722
000170 bb fa 9b bd 74 a4 dd 3d e9 bc 9a 3d b2 31 7b 3d
       -0.076161824 0.108223826 0.07555563 0.06132669
000180 27 5f d6 3d 15 01 7b 3d 51 7a 10 3e 8e 7e df 3c
       0.104673676 0.06128033 0.1410916 0.027282026
000190 2a 1a 02 3e c4 2b be 3d 4a 4c f9 bd c9 1b a9 bd
       0.12705293 0.092856914 -0.12172754 -0.08257253
0001a0 ed 3d 1a bc 68 a2 ee bd 8c ce 81 bd e9 19 4c be
       -0.009414178 -0.1165207 -0.06338224 -0.19931759
0001b0 bf 6a 3a bd 36 58 24 bd e9 3f de 3d bd 26 ea 3d
       -0.045511957 -0.040123187 0.10852034 0.1143317
0001c0 6b 71 39 3d 22 bd 17 3d 55 54 26 bd 0b b1 d6 bc
       0.04527418 0.037045605 -0.04060777 -0.026207468
0001d0 8f 93 fb bc a9 14 27 be 90 94 93 be c7 73 93 be
       -0.03071001 -0.16316475 -0.28824282 -0.2879927
0001e0 ce 35 12 3d 58 4b 25 bc d7 3d 05 3e f8 16 9a bd
       0.035695843 -0.010088764 0.13011871 -0.07523912
0001f0 7c ba e9 bc 96 6f 59 bc e7 9f a2 3d 6a 37 e4 bd
       -0.028531305 -0.013271233 0.07940655 -0.11143382
000200 04 d0 b7 be f5 cd 82 bd 01 56 1f bd 93 1c fc bc
       -0.3590089 -0.063869394 -0.03890038 -0.030775344
000210 6d 74 5a be 12 49 1a be 65 eb 0c be b4 b9 25 3e
       -0.21333475 -0.15066937 -0.13761671 0.16184121
000220 a9 1f 77 3e 30 f5 76 3e c7 68 21 3d d2 95 e2 3c
       0.24133171 0.24116969 0.039406564 0.02765933
000230 0d 33 2f 3d 58 da 6d be e3 64 a5 bd 75 2b 98 3c
       0.042773295 -0.23227823 -0.08075883 0.01857541
000240 ce 21 4b bd 91 3f b5 3d 10 10 07 3e 1a 54 89 3d
       -0.049592786 0.08850015 0.13189721 0.06705494
000250 d1 2c 30 3d 62 88 09 3e ca 0e 77 be 12 ca f4 bd
       0.04301149 0.13430932 -0.24126735 -0.11952604
000260 65 3e 5e bc c8 94 26 be 6d cc 7e be bf f9 7e bd
       -0.013564681 -0.16267693 -0.2488267 -0.062249895
000270 b8 4f 96 3c 11 f5 ac 3d f2 be 2f ba cc 69 7d 3d
       0.01834856 0.0844518 -0.0006704173 0.061868474
000280 ed 61 08 3e 5a 23 20 3d 38 ad cc 3d 48 b1 eb 3b
       0.13318606 0.039096214 0.09993976 0.0071927644
000290 78 e8 23 bd e8 e8 95 bd 8d c4 84 bd 20 f3 72 3b
       -0.04001662 -0.07319814 -0.064828016 0.0037071183
0002a0 4a 68 68 bd 84 6e 0f 3d 62 e4 ee bc 0d e9 ce bd
       -0.056740083 0.035017505 -0.029161636 -0.10103045
0002b0 76 3d f6 bc e7 95 a4 bc 6e d8 7c bc 06 a0 31 be
       -0.030058604 -0.02009101 -0.01543246 -0.173462
0002c0 b5 b9 db 3b de 20 1b be 53 8c 63 bd 0b 55 d2 bd
       0.0067054876 -0.15149257 -0.055553745 -0.10270127
0002d0 a7 6d 52 3d 31 be 84 bc 60 b5 7c bc 04 e5 b7 3b
       0.051374104 -0.016203972 -0.015424103 0.0056120176
0002e0 c2 d4 de bb 6a 5c 21 bd 58 09 36 3c a6 50 be 3d
       -0.006800265 -0.039394774 0.011110626 0.09292726
0002f0 da 9d cf bc 6b 30 ca bd c9 d8 74 bc 9f 1e 20 3e
       -0.025343824 -0.09872516 -0.014944264 0.15636681
000300 72 77 94 bd 23 83 07 be 9f a4 dc bd 0a e5 06 be
       -0.07249345 -0.13233618 -0.107735865 -0.13173309
000310 60 88 34 be bb f8 59 be d3 f5 20 3d 6c 87 cf 3b
       -0.17630148 -0.2128629 0.039296936 0.006333282
000320 0c 9f b2 3d 21 97 49 bd 2e 6b a0 bb 5e cf ab bd
       0.08721742 -0.049216393 -0.0048955893 -0.083891615
000330 f1 88 6e 3d bf c6 86 bd 42 3b 60 bc b9 57 18 3e
       0.058236066 -0.065808766 -0.013686003 0.14877214
000340 c4 13 80 bd ab ab 9c bd 2b 2c 0a bb 42 d1 09 3d
       -0.0625377 -0.076499306 -0.0021083455 0.03364683
000350 38 8c 09 3d 99 bf f6 bd 21 0b 02 be 76 d0 6f bd
       0.03358099 -0.12048263 -0.12699558 -0.058548413
000360 52 52 e4 b9 b6 d0 d7 3d dc 75 c7 3d 8a ef b9 bc
       -0.00043548882 0.10537855 0.09739277 -0.022697229
000370 48 74 cd bd a8 22 ab bd 3e 85 32 bd a0 dd de bc
       -0.100319445 -0.083562195 -0.0435841 -0.027205288
000380 48 69 18 be 9f 92 d5 bd 9f 99 85 3d 10 94 8c 3d
       -0.14883912 -0.104283564 0.065234415 0.06864178
000390 f6 f8 ef bd 5c 1e cb 3c 5c 47 30 be 1d 83 62 3c
       -0.117174074 0.02479475 -0.17214721 0.013825205
0003a0 f9 69 a7 3d a5 8f f0 bc 01 40 12 be 6a 4f b8 bc
       0.081745096 -0.02936537 -0.14282228 -0.022498805
0003b0 70 02 cd bd 99 25 a1 be 47 17 4e be 30 1a 5b be
       -0.100102305 -0.31473997 -0.20126067 -0.21396708
0003c0 fc 34 f9 bd c7 00 1d be 44 13 3e be 03 f9 00 3e
       -0.12168309 -0.15332328 -0.18562037 0.1259499
0003d0 b4 30 f6 3c fa 83 49 bd 2a 69 b0 3c e7 9a d6 3d
       0.03005252 -0.04919813 0.021534521 0.10478764
0003e0 23 01 d0 bb 01 83 95 bd 5f fd 48 bc d0 91 ac 3d
       -0.0063477918 -0.07300378 -0.01226744 0.08426249
0003f0 ab 97 09 be eb b1 cc bd a9 da 3c 3b 4e 33 bd 3d
       -0.13436763 -0.09994873 0.0028816855 0.09238301

network.2.bias f4 [32]
000000 fa 45 f4 bd fd 81 d3 3d 13 37 0b 3d ca ee b6 bd
       -0.119274095 0.10327528 0.03398807 -0.08932264
000010 eb 8c 33 3d dd ab 3b bd 9c a0 76 3d 45 25 94 bd
       0.04383556 -0.0458182 0.060211763 -0.07233671
000020 34 7a b7 3b 8b fc fc 3c 3b fc 0e 3d a4 42 a3 bd
       0.0055992845 0.03088214 0.034908514 -0.07971695
000030 35 a2 b2 bd 94 3e 3c 3d 43 1c 1e be 61 80 72 bd
       -0.08722345 0.045958117 -0.15440468 -0.059204463
000040 77 25 13 bd b5 2b dc 3d ad b2 63 3d 88 c5 e8 3c
       -0.0359244 0.10750524 0.05559032 0.028414503
000050 31 aa 04 3e d7 1a d5 bd af 3b 99 bd 1c 2d d0 3c
       0.12955548 -0.1040551 -0.07482087 0.025412135
000060 bb 96 08 3c 0f 1f 43 be 3d 60 81 bc a0 f6 cb bd
       0.008336718 -0.19054817 -0.01579296 -0.09959149
000070 1c 50 84 3d 45 e0 bc bd cd 3e 97 3d bc 18 8f 3d
       0.06460592 -0.092224635 0.07385025 0.069871396

network.5.weight f4 [48, 32, 3, 3]
000000 74 e6 98 bd fb 0b ed bc 36 a2 10 3e 01 db 68 ba
       -0.074658304 -0.028936377 0.14124379 -0.0008882732
000010 88 2c ac 3d bf 4d 1f 3e 83 ca ca 3d a1 d0 8c 3d
       0.08406931 0.15557002 0.09901907 0.0687573
000020 4f 45 f2 3d 34 ba 9c bd a5 de 16 bd 3f 0e 6e bd
       0.11829626 -0.07652703 -0.036833424 -0.058119055
000030 3b ac 9f 3d 20 4d a9 b9 26 aa b6 bd 85 e6 81 3d
       0.07796522 -0.00032291654 -0.08919172 0.06342796
000040 d6 32 d0 3d 3e 16 a1 3c 2a 3c 85 3d 4d 86 b0 3d
       0.10165946 0.019663926 0.06505616 0.08619366
000050 3a c4 01 3c 01 73 16 bd a0 34 d1 bb 91 09 6c bd
       0.007920319 -0.03673077 -0.006384447 -0.05762631
000060 44 30 06 3e 03 c9 7b 3d 04 8c f0 3d a3 07 ed 3c
       0.1310435 0.061470997 0.11745456 0.028934306
000070 fb 4c 59 3c c4 d8 a0 3c 86 c0 85 3b 23 41 ec bc
       0.0132629825 0.019634612 0.0040817885 -0.028839653
000080 a1 67 68 3d 58 d6 17 3e fc c8 05 3e d5 6e 2f 3e
       0.056739453 0.1482786 0.1306495 0.17132123
000090 d5 58 2d bd d7 27 0a 3d 59 7e 19 bd d4 e4 87 3d
       -0.042321045 0.0337294 -0.03747401 0.066354424
0000a0 d1 f3 60 3d 4e e7 7b 3d cc 2f 4a 3e 74 5e 0c 3e
       0.05492002 0.061499886 0.19744796 0.13707906
0000b0 34 27 11 3e 9d 74 f8 bc dd 68 db bd 81 f4 a2 bc
       0.14175111 -0.030329043 -0.107133605 -0.01989198
0000c0 65 96 31 bd a9 ef ca bd 0a 95 b9 3d 5a da de 3d
       -0.043356318 -0.09908993 0.0906163 0.10881491
0000d0 73 c7 b6 39 74 10 54 bc 0e 6f aa bd 21 20 e2 bd
       0.00034862346 -0.012943376 -0.08321963 -0.11041284
0000e0 16 da 3a be d0 74 2a 3d 73 fc e5 3d ac 4a 6d bd
       -0.18247256 0.041615307 0.112297915 -0.05793254
0000f0 72 b2 0e 3e 62 c5 37 3e ce c5 5c 3d b8 a8 b9 bd
       0.13935259 0.1794639 0.05389958 -0.09065384
000100 d4 ca e1 bc d9 3f f2 bd 3b 4a 5d bd df b1 90 bd
       -0.027562536 -0.11828584 -0.05402587 -0.07065176
000110 4b c8 14 bc 52 1c 2b be 27 34 06 be b1 d5 6b be
       -0.009080957 -0.16710022 -0.13105832 -0.23030736
000120 1c f9 3c 3d 87 e3 be ba 0e 22 5c bd 78 1e 9e 3d
       0.046136007 -0.0014563658 -0.053743415 0.07720655
000130 bd 1f 7d 3d a5 10 be 3d 22 5c 81 3d d4 4a 74 3c
       0.061797846 0.092805184 0.06316401 0.014910419
000140 0a ac 29 3c 4e 93 2d 3c 41 06 9a 3c 9e a1 0f 3e
       0.010355959 0.010594202 0.01880181 0.14026496
000150 07 9b 3d bd 2b b4 a9 3b ef 5a 9a 3d d7 67 09 bc
       -0.046290424 0.0051789484 0.075368755 -0.008386574
000160 74 3a 82 3c 3d fd 45 3c a5 82 4b bd c2 43 a1 bd
       0.015897013 0.0120843025 -0.04968514 -0.07874252
000170 c3 e5 0a be 23 5a 95 bd 68 de 85 bc 76 a3 76 bd
       -0.1356421 -0.07292583 -0.016341403 -0.060214482
000180 d5 d3 9e bd c9 d8 95 bd 50 df ad 3c 5f d2 88 bb
       -0.077552475 -0.07316739 0.021224648 -0.004175469
000190 6b 25 1e 3d 07 4c bf bd 4c c6 a8 3b 02 77 95 3d
       0.038609903 -0.09340673 0.005150592 0.072980896
0001a0 42 69 08 bd 39 8e bc 3d 33 c2 3e 3e fe 9c d9 3d
       -0.033303507 0.09206814 0.18628769 0.10625647
0001b0 b5 e5 5f bd 74 2e 95 3d ec 17 eb 3d 88 98 98 3d
       -0.054662425 0.07284251 0.11479172 0.07450968
0001c0 3d e2 a0 3c ac 91 98 bd d3 60 ef 3d 8a 11 bc 3d
       0.019639129 -0.0744966 0.1168839 0.09183033
0001d0 32 39 b0 3d 0f 56 97 3d 1d c9 98 3d 04 42 ea 3c
       0.08604659 0.07389461 0.07460234 0.028595932
0001e0 0c 34 00 3e 45 ea c4 3d d0 58 d2 3d 13 de 87 3e
       0.12519854 0.09614996 0.10270846 0.26536617
0001f0 38 af 46 3e 59 cc 4d 3e b4 77 71 be e6 dd 3c be
       0.19402778 0.20097484 -0.2358082 -0.18444023
000200 ee f6 86 be c5 6d 8f be 76 1f 7e be 25 a3 83 be
       -0.26360267 -0.28013435 -0.24816689 -0.25710407
000210 47 11 f8 be 3d 4e 94 be 38 d1 a5 be e3 a2 e4 bd
       -0.48450682 -0.2896594 -0.32386184 -0.11163881
000220 9c 52 9c bd cb 9c 99 bc 90 79 99 bd dc ea 55 bc
       -0.07632944 -0.018751523 -0.07493889 -0.013056483
000230 70 8a c1 bd 09 06 2f bd 0e 1c 01 bd 59 d3 37 bd
       -0.09450233 -0.042730365 -0.031520896 -0.04487929
000240 de c3 2c be 42 0f ad bd f2 e2 0e be fb e0 00 3c
       -0.16871592 -0.08450176 -0.1395376 0.0078661395
000250 fc cb 24 3d d7 57 4a bc 4a a5 21 bc 90 74 a6 3c
       0.040233597 -0.012350044 -0.009866068 0.020319253
000260 9a 6d 17 3d 14 57 7e 3d f7 c8 24 3d 75 9a 3b bc
       0.03696976 0.062094763 0.040230718 -0.0114504
000270 e5 b3 9e 3d 5f f5 f0 3b be 69 2d bd ad f5 be 3d
       0.07749156 0.0073534693 -0.04233717 0.09324203
000280 8e c0 a2 3d ef 28 f5 3d 82 5a 51 3e 23 7f d5 3d
       0.07946883 0.11970698 0.20444682 0.1042464
000290 cc f0 7d 3e fb a6 8d 3c ef 0e 91 3d b0 c3 dd 3d
       0.24798888 0.017291537 0.070829265 0.1082834
0002a0 bb ea 90 3d ef 8b 1e 3e 40 15 96 3d da 2c ef 3d
       0.07076021 0.15483068 0.07328272 0.11678477
0002b0 8f 2b d0 3d 3f 91 54 3c 13 fd 1c 3c 9f 4a 64 bb
       0.10164558 0.0129740825 0.009581822 -0.0034834517
0002c0 7f 1d 54 3d 75 6f aa 3d 19 2e f6 3c fe 5d cb bc
       0.051785942 0.0832204 0.030051278 -0.024825092
0002d0 a7 e4 9b bd 84 cd c0 bc ac 00 30 bb 8e 91 56 bd
       -0.07611971 -0.023535497 -0.002685587 -0.052384906
0002e0 1a 37 4e bc eb 8b 4b bd 19 1f 63 bd 1c 5f 2e 3c
       -0.012586379 -0.049693983 -0.05544958 0.010642793
0002f0 e6 5c a0 bc ee 3f e7 bd 89 a9 31 be 4e 22 43 be
       -0.019575547 -0.112914905 -0.17349829 -0.19056055
000300 4f 4f 95 bd 17 bd 56 bd 7d b5 b3 3c 2a c7 1a 3e
       -0.072905175 -0.052426424 0.021937126 0.15115038
000310 25 fb 27 3e fb 28 1b 3e ec 1b 33 3d 4d e5 6e 3b
       0.16404398 0.15152352 0.0437278 0.0036452592
000320 73 75 e0 bb e4 24 64 bd 89 2c 3e bd d3 55 75 bd
       -0.0068499385 -0.055699244 -0.04642919 -0.0598963
000330 ab c0 4f 3d f6 f0 ee bb 72 b0 81 bd 87 8d 5c bb
       0.050720852 -0.0072919084 -0.063324824 -0.0033653693
000340 d3 fc 83 3a d3 1f c5 3d c0 ce d0 bd 98 40 13 bd
       0.0010069854 0.096252106 -0.101956844 -0.035950273
000350 94 bd 19 3a 2b 20 7a 3d eb a5 de bb 84 3b 04 3d
       0.0005864736 0.061065834 -0.0067946813 0.03228332
000360 db 59 0d 3e 29 e3 2a 3e e4 14 1e 3e c6 a5 6d 3c
       0.13803808 0.16688217 0.15437657 0.0145048555
000370 b8 bb 87 3c 53 cf a5 bd d7 30 4a bc 73 fb cc bd
       0.016569003 -0.080961846 -0.012340746 -0.10008898
000380 18 11 aa bd 94 fd 80 be 8f bf 6b be 7e 9f 36 be
       -0.083040416 -0.25193465 -0.23022293 -0.17834279
000390 21 86 3f bd 61 e7 09 3c 2f 73 5e bd 4a 75 a2 bc
       -0.046758775 0.008416981 -0.054309066 -0.019831318
0003a0 3c d8 dd 3c 5d 23 e9 3c 7a 5b 28 3d 20 d2 9c 3c
       0.027080648 0.028459245 0.041102864 0.019143164
0003b0 bf eb 4e 3d b4 c3 cb 3a 34 32 69 3c 69 7a b3 3c
       0.050517794 0.0015545995 0.014233161 0.021908956
0003c0 3f 20 a8 3d 48 f7 2a 3d cc 68 8f 3d 07 3e 84 be
       0.082092755 0.041739732 0.0700241 -0.25828573
0003d0 bc fa d4 bd c5 3e c3 bd 79 b3 e0 bd 00 2f 16 be
       -0.10399386 -0.09533457 -0.10971732 -0.14666367
0003e0 38 bd 33 be bf e2 83 be 47 bd e1 bd d1 ce 09 be
       -0.1755265 -0.2575893 -0.1102243 -0.134578
0003f0 d7 26 25 3d 22 ea b0 bd 5f aa 6f be 62 27 89 bc
       0.040320244 -0.08638407 -0.23404835 -0.016742412

network.5.bias f4 [48]
000000 6b e1 d7 bd 61 1d 35 3d 70 2d 8a bc 30 6d 9b 3d
       -0.10541042 0.04421747 -0.01686737 0.07589185
000010 bb ed 6a bd 7d c4 cd 3d c8 de 10 bc 7c fc 4a bd
       -0.057355624 0.10047243 -0.008842178 -0.049557194
000020 dc fe a6 bb 38 ff e1 bc e8 46 75 3d 8e e0 2f 3c
       -0.0050962996 -0.027587518 0.059882075 0.01073469
000030 0f ab 2d bd 77 a1 a5 3c 1b eb 33 3d 03 15 c0 3c
       -0.042399462 0.020218594 0.043925386 0.02344752
000040 9f a4 60 bd cd 74 56 bc 4f 3f 99 3c 3b 1b 2d bd
       -0.054844495 -0.013089371 0.018706946 -0.042262297
000050 52 36 35 bd 5a 8a 2d 3c cd 82 38 3e 08 ed 43 3d
       -0.044241257 0.010592068 0.18018647 0.047833472
000060 93 ca ea bc 10 9e 2d bd dd ff c0 3d 84 50 cb bd
       -0.028661048 -0.04238707 0.09423802 -0.099274665
000070 12 7a ed bd b5 92 3a 3d b2 35 57 bd 6a 8b 37 bd
       -0.11595549 0.045550067 -0.052541442 -0.04481069
000080 0f 6c 87 3d b3 8e b7 3b 49 c5 a9 3a 02 1d a5 3b
       0.066124074 0.005601728 0.0012952472 0.0050388584
000090 13 41 6f 3d c2 26 0b be 63 20 70 bc 1d 3e c3 bd
       0.05841167 -0.13589004 -0.014656159 -0.095333315
0000a0 87 cf ca bd d8 b5 99 bd ac 66 a5 bd 8a 5b 4b 3d
       -0.09902864 -0.07505387 -0.08076224 0.049647845
0000b0 5f be 98 bc ed 2e dc 3d f2 3a ff bc 4a a7 d3 3b
       -0.018645464 0.10751138 -0.031156037 0.0064591514

network.7.weight f4 [64, 48, 3, 3]
000000 27 2a bf bb bf 14 0d 3c 3f 78 f2 bc a9 6b 77 bd
       -0.0058338824 0.008610903 -0.029598353 -0.060405407
000010 d5 dd cc bd 3d 70 f9 bd de 8a c8 be 7b 6a b4 be
       -0.100032486 -0.12179611 -0.39168447 -0.35237488
000020 ea 7f 92 be 1b ad 9b bd f3 d6 c8 bd b2 54 f7 38
       -0.28613216 -0.076013766 -0.09806623 0.000117936535
000030 31 d6 2b be d8 ee 47 be 92 dd 1c bc 6f 0b 0e bf
       -0.16780926 -0.19524705 -0.009574311 -0.55486196
000040 27 32 b7 be d9 7e f2 bd 7f 5d 26 be 3a c7 39 be
       -0.3578045 -0.118406005 -0.16246603 -0.18142405
000050 7b dd 90 bd ea 3b d5 bd 4a a1 35 be 5a 93 1c bd
       -0.07073494 -0.10411818 -0.17737308 -0.038226463
000060 c6 e5 85 be c6 8e a1 be 81 3a 66 be 9c ab a9 3b
       -0.26151866 -0.3155424 -0.22483255 0.005177928
000070 f5 5c 2e 3d 9b b6 d0 bc 74 1f 86 3c 31 8f 83 bc
       0.04256912 -0.025477698 0.01637242 -0.01605949
000080 dd 79 43 bd 0c 81 05 3d e4 40 9a 3d ba aa a5 bc
       -0.04772364 0.03259377 0.07531908 -0.02022301
000090 dd 44 90 3d d3 4b 6f bd 87 ca 8c 3c a8 54 25 3b
       0.07044385 -0.05842192 0.017186416 0.002522746
0000a0 10 71 c4 bc 9e f7 11 bd a3 5f 9f be 92 c0 92 be
       -0.023979694 -0.035636537 -0.31127653 -0.28662544
0000b0 0a 1f 69 be 02 0b 98 3c 81 d9 7d 3a 3d a8 93 3d
       -0.22765747 0.018559936 0.00096835947 0.07209823
0000c0 c3 b6 44 3d 84 8a bd 3d 24 a8 06 3e 86 7e 99 3c
       0.048025858 0.092549354 0.13150078 0.018737089
0000d0 73 bf db 3d 7b c4 c6 3d 6e 42 6e be 33 27 12 be
       0.107298754 0.097054444 -0.23267528 -0.14272766
0000e0 20 a4 fe bd f0 58 8d be 05 c5 6f be f0 f4 3d be
       -0.12433648 -0.27606916 -0.23415 -0.18550467
0000f0 49 89 dd bd 6a d7 76 be 2b 9e 7c be 79 81 ae 3d
       -0.10817201 -0.24105611 -0.24669711 0.08520789
000100 9d f5 81 3d a3 88 1e bd 6a 2a 27 3d dc 92 f1 3d
       0.06345675 -0.038704526 0.040811934 0.11795589
000110 05 26 4e 3d 6d 6e 32 3d 26 f4 34 3d 69 76 ca bb
       0.050329227 0.04356234 0.04417815 -0.0061786664
000120 18 db 30 bc 59 df ab bb 8e 8d 1d 3d f5 44 f4 bc
       -0.0107944235 -0.005245131 0.038465075 -0.029818038
000130 77 7f 5f bd e3 b8 3e bd 26 ac 06 bd b0 5d d6 bd
       -0.05456492 -0.04656304 -0.032879017 -0.10467088
000140 cd 69 8f bd d0 49 35 be af 99 29 be 10 ad f6 bd
       -0.07002602 -0.17703938 -0.16562532 -0.12044728
000150 8f 99 b7 bc 74 e6 64 3b 28 05 9e bd bb 71 ca bc
       -0.02241209 0.00349274 -0.07715827 -0.024712434
000160 fe 6c d3 bc 29 fc 6a 3d 1f 60 b6 3d dc e3 66 3d
       -0.025808807 0.057369385 0.089050524 0.056369647
000170 f4 ed c9 3c 8a 1a 61 3d b5 67 0b 3d 80 45 90 3c
       0.024649598 0.05495695 0.03403445 0.017611265
000180 fa 4c 28 3c 01 fb 8c 3d fb 22 37 3c 07 c6 cf 3d
       0.010272259 0.06883813 0.011177774 0.101451926
000190 fd 8e 88 3d 8a 36 01 3d 40 66 50 3c 1c 5b 9e 3d
       0.06667898 0.031546153 0.012719691 0.077322215
0001a0 19 ec 33 3d 21 e3 7e 3d 40 a6 b5 3d 1a 48 c7 3c
       0.043926332 0.062228326 0.088696 0.024326373
0001b0 5e 96 9c bd 35 b5 dc bd 38 e6 7f bd a4 1e dc bd
       -0.07645868 -0.1077675 -0.062475413 -0.10748032
0001c0 e7 c3 fa bd 79 bc b7 3c e1 bf 5d be f7 f4 86 be
       -0.12244397 0.022428738 -0.21655227 -0.26358768
0001d0 27 b3 06 be 05 97 59 bd 4f 5c 94 bc cc f4 e0 3c
       -0.13154279 -0.05312254 -0.018110422 0.027460478
0001e0 2c 9a 02 3d 3c 31 df 3d 43 a1 55 3d 75 f2 f4 3d
       0.03188531 0.108980626 0.052155744 0.119603075
0001f0 ef 5c b5 3d 89 9a cb 3d a0 90 c7 bd fa e1 52 bd
       0.08855616 0.099415846 -0.09744382 -0.05148504
000200 02 45 a1 3d f6 e0 69 be 01 fe 49 be 19 61 e8 bb
       0.0787449 -0.22839722 -0.19725801 -0.007091653
000210 b6 35 d4 be a9 d1 d3 be d4 02 8d be 88 8f 52 3e
       -0.41447228 -0.41370896 -0.2754122 0.20562565
000220 74 81 fe 3d c7 5f 33 bc ca 19 de 3d c3 9b c5 3d
       0.12427035 -0.010948128 0.108447626 0.0964885
000230 36 05 4d bd e3 a5 a6 3c 68 93 01 3d 2f e2 1e bc
       -0.050053798 0.020342773 0.03163472 -0.009697481
000240 af 53 f2 3d d4 8b 6f 3d 88 d4 92 3a 28 2b 90 3d
       0.11832368 0.05848296 0.0011202255 0.070394814
000250 93 e9 bf 3d 45 e6 5f 3b 0f d9 49 3d cf 46 33 bb
       0.093707226 0.003416435 0.04927927 -0.0027355438
000260 46 2d 80 3c e8 5a 96 bc 5f 1c 1c be 4b e9 2e be
       0.015646588 -0.018353894 -0.15245198 -0.17081182
000270 38 1e 42 be 54 3d c6 be 20 56 7a be 93 42 fc be
       -0.1895684 -0.38718665 -0.24446917 -0.49269542
000280 da 27 f3 be 00 9f 87 be d9 87 b0 bd 0a c6 01 be
       -0.47491342 -0.26488495 -0.08619661 -0.12673202
000290 98 59 7f bc 92 61 a5 bd b2 19 05 bd 18 29 90 bc
       -0.015585326 -0.08075251 -0.032495208 -0.01759772
0002a0 cb f5 43 bd b4 48 9f bd 72 3d 90 3c 0f f6 b2 3d
       -0.04784183 -0.07777539 0.017607424 0.08738338
0002b0 60 6e 11 3e 5b 93 6c 3d b2 7e 15 3d 02 37 05 3e
       0.14202261 0.057757717 0.03649778 0.13009265
0002c0 36 33 d0 3d 99 a0 3e bc ca d6 87 3d d9 a6 69 bc
       0.10166018 -0.011634969 0.06632765 -0.014260971
0002d0 66 df b3 bb 69 52 1a bc ca 07 ca bb 08 8d 6d bc
       -0.0054892777 -0.009419062 -0.0061654793 -0.0144989565
0002e0 43 6d a6 bc 7a 6d 57 3d ce 98 50 3d ac ae 51 3d
       -0.020315772 0.05259464 0.050926976 0.05119197
0002f0 56 2b 38 3d 44 25 92 3d 89 78 7c bc 59 dd d5 3a
       0.044963203 0.07136014 -0.015409597 0.0016316577
000300 16 82 7e 3d 66 1a 7a bc 6b 41 0b bd 41 ce 94 ba
       0.06213578 -0.015265083 -0.033997934 -0.0011352972
000310 bd 4e a6 3d c5 c6 85 3d 05 fc 6a bd 1d 68 d1 3c
       0.08120487 0.06532053 -0.05736925 0.02556234
000320 65 5f 6a 3c 72 16 a1 bc 1a 75 62 bd 00 ac f4 bb
       0.01430497 -0.019664023 -0.055287458 -0.007466793
000330 e3 3c 1c 3d 2e 68 a5 3c 6b a8 c3 3c 48 b9 d8 bd
       0.038144004 0.020191278 0.023884019 -0.105822146
000340 0e 5f 2d bd be 3c 91 3c 9e 76 d7 bd 41 76 f9 3c
       -0.04232698 0.01772916 -0.10520671 0.030451896
000350 50 b7 b2 3d 32 25 6d be a7 2f f2 bd fe 79 5d 3d
       0.0872637 -0.2315872 -0.11825495 0.05407142
000360 ce 9e 83 3d 84 cc 15 3d e3 bf 8d bc d7 07 99 bb
       0.06426774 0.036571994 -0.017303413 -0.004670124
000370 c0 2b 85 bb 8c 85 57 bd d9 c6 68 bd d5 d1 f0 bd
       -0.0040640533 -0.052617595 -0.05683026 -0.11758772
000380 ca d4 54 bd 0d bc 60 3d ad bb 4d b8 95 8a 39 bc
       -0.051960744 0.05486684 -4.9050595e-05 -0.011324544
000390 1d 98 92 3d 1b 40 90 3d 9e e3 07 bd a0 51 bf 3d
       0.071579196 0.07043477 -0.033176057 0.093417406
0003a0 6f e6 04 3d 01 03 97 bb b0 a2 a3 3c 0e f4 05 3d
       0.03244632 -0.0046085124 0.019975036 0.03270345
0003b0 1d 1d 5b bc ad ef 51 3d 83 bc 93 3c 17 4f 78 bc
       -0.01337364 0.051253963 0.018034225 -0.015155575
0003c0 1b 13 c8 3d 3c cd 9b 3d d3 5a 67 3d 27 fc 25 be
       0.09769269 0.07607505 0.0564831 -0.1620947
0003d0 b7 a5 8c be 3e 15 8a be a5 c9 27 be 8c c9 56 be
       -0.2747018 -0.26969332 -0.16385515 -0.20975322
0003e0 a2 c0 3a be e1 7d d4 be a3 7f b2 be cf 5a 6c be
       -0.18237546 -0.41502288 -0.34863004 -0.23081516
0003f0 94 21 b5 3c 67 ad 39 3d 5c b2 66 3c 18 ce f1 3c
       0.022110738 0.045331385 0.01408061 0.029517218

network.7.bias f4 [64]
000000 d8 7a 04 bd c2 6d 53 bc bf 8b 6f 3d f2 6c 81 bb
       -0.032343715 -0.012904586 0.05848288 -0.003949755
000010 96 3c 45 bd d5 81 3b 3d 86 1f 76 b8 30 70 d2 3c
       -0.048153482 0.045778114 -5.868033e-05 0.02568826
000020 21 7a ac bd b5 05 7e bc c0 67 33 3c 17 1e 3b 3d
       -0.08421732 -0.01550429 0.010950029 0.045682993
000030 40 db 97 3d d7 81 48 bd 24 99 ce 3d db 83 dd bc
       0.074148655 -0.04895195 0.10087803 -0.027040413
000040 88 be 55 3c 6e 95 64 3b d3 e0 75 3d ea 3e e3 bd
       0.0130459145 0.0034879106 0.060028862 -0.11095984
000050 d0 38 bc 3d 95 6d 27 bd 47 fa d1 3d 64 01 39 3d
       0.091905236 -0.04087599 0.10252815 0.04516734
000060 29 75 2e bd 15 b6 3b bd c8 81 76 bd 90 ac d5 3c
       -0.0425922 -0.045827944 -0.060182363 0.02608326
000070 cf dc aa bd 28 cc 63 bb e0 81 94 3d c7 87 02 bd
       -0.08342897 -0.0034759138 0.07251334 -0.03186777
000080 1b 78 0c 3d ca 91 8e 3d fd 9d b5 bd 67 78 1e bd
       0.03429423 0.06961401 -0.088680245 -0.038689043
000090 a4 e2 01 be a6 ee 97 bd 3b 06 06 be 51 db 32 bd
       -0.12684113 -0.074185655 -0.13088314 -0.043666188
0000a0 66 c5 72 39 5b 01 7c 3c 62 6b 16 bd 27 c6 89 3d
       0.00023152455 0.015381183 -0.036723502 0.06727248
0000b0 2b 4a 47 bd 37 85 44 3c f5 4e 57 3d 46 40 75 3d
       -0.048654716 0.0119946515 0.052565534 0.05987575
0000c0 97 68 53 3d 74 5a 3e 3d 5f c8 3d 3d 36 d6 54 bd
       0.051613417 0.04647298 0.046333667 -0.0519621
0000d0 1f d9 41 3d 3a 7a d7 3d ea d8 be 3d 58 99 f3 bb
       0.047326203 0.1052136 0.09318717 -0.0074340515
0000e0 37 b2 8a 3b e6 a6 f2 3b 21 ac f0 3a 49 df 38 bc
       0.0042326706 0.0074051498 0.0018361845 -0.011283704
0000f0 98 3a ce 3c 53 cb 40 3d a0 12 06 be 9f 49 9a 3c
       0.025174424 0.047068905 -0.13093042 0.018833933

network.11.weight f4 [128, 1024]
000000 68 2a 92 3b bd a5 cb bc 50 68 f7 bb fa 35 bb 3c
       0.0044606216 -0.024859304 -0.007550277 0.022852886
000010 86 14 aa 3c 1f d9 11 bd 5b 29 83 bc 63 05 66 bc
       0.02076174 -0.035607453 -0.01601093 -0.01403937
000020 7e 6c 1a bd af 43 88 bb 3d 36 8f bc 21 58 63 bb
       -0.037701122 -0.004158459 -0.017481918 -0.003468998
000030 ef 06 51 bb 15 71 a9 3c ab 12 81 3c 00 09 76 bc
       -0.0031895002 0.020683805 0.015755972 -0.015016794
000040 e7 cb e5 bc e1 b9 8a 3c 48 8d ca 3b d8 b2 8d bc
       -0.02805133 0.016934337 0.006181393 -0.017297193
000050 33 b4 05 bd bc cb 91 3c 54 bf d4 3c 30 42 bb ba
       -0.032642554 0.017797343 0.025970139 -0.0014286693
000060 0f bd 08 bd b1 7a b6 bc 8c af 68 bc b3 a9 0c bd
       -0.033383425 -0.0222753 -0.01420201 -0.034341525
000070 de aa 03 3c 7a e1 bf bc b5 c3 8e bc 2d 3a 1b 3b
       0.008036343 -0.023422945 -0.017427305 0.0023685799
000080 ac 63 33 bc b2 17 a6 3b e5 38 d8 3c 26 cd 23 bb
       -0.010949057 0.0050687427 0.026394317 -0.0024994104
000090 ac dc 00 bd 06 21 39 bb fb dd e1 3b e4 11 91 3b
       -0.03146045 -0.0028248443 0.006892917 0.0044271816
0000a0 87 d0 d3 bc 0e 8b 9a bc c2 e8 34 ba 5c 2f cc 3c
       -0.02585627 -0.018865135 -0.00069011387 0.024924926
0000b0 d9 a8 01 bd 6c 49 76 bc e9 b8 35 bc 6e 52 dc 3c
       -0.031655166 -0.015032154 -0.011091449 0.026894774
0000c0 18 32 ba bb af db 8f bc 62 ba 9d 3c 54 3d 1a 3b
       -0.005682241 -0.017560808 0.019253913 0.002353509
0000d0 91 0c 01 bc 71 c5 a1 3c d0 57 95 3c e8 29 87 ba
       -0.007876531 0.019747468 0.018230349 -0.0010312172
0000e0 a0 58 58 bc 36 d7 c0 bb e3 6b c9 3c 3a b3 42 bc
       -0.013204724 -0.00588503 0.024587577 -0.011883551
0000f0 bd dd 30 bc 17 5c 93 3c a5 8d 5b 3c a8 60 0d bc
       -0.010795054 0.017988248 0.01340047 -0.008629002
000100 98 aa 2c bc 3a 01 23 3c a0 bd d5 3b 7b 96 49 3c
       -0.01053872 0.009949023 0.006522849 0.012303944
000110 aa a3 9d bc 8b 1d ef bb b0 31 c7 bc 75 9b 8b bc
       -0.01924308 -0.007297223 -0.024315685 -0.017041901
000120 79 2e 07 bd 64 d7 55 bc 51 67 10 bd c6 6f a7 bc
       -0.033003304 -0.013051841 -0.03525478 -0.02043904
000130 03 d8 a0 b8 b3 88 32 bc fd f2 9a bc a5 a1 24 3c
       -7.66963e-05 -0.010896849 -0.018914694 0.010048305
000140 cc 32 04 bc 94 53 0f bc 38 4d b4 3c 60 82 c6 b8
       -0.008068752 -0.008747954 0.022009477 -9.46566e-05
000150 54 cd ca 3c 07 73 e9 3c 34 99 aa bb ff 6e 1c 3c
       0.024756111 0.028497232 -0.0052062515 0.009547948
000160 bc 68 f0 3b 7e 10 de 3b 87 1a 0d bd 93 90 9d bc
       0.007336704 0.0067768684 -0.034449127 -0.019233977
000170 4f 82 a2 bb aa fb dc bc 3d aa e8 bc 9c 96 6d 3c
       -0.0049593817 -0.026975472 -0.028401488 0.01450124
000180 f1 a0 87 3c 58 41 05 bc 0c 71 f2 bc 70 2a ac bb
       0.016556235 -0.008133255 -0.02959492 -0.0052540824
000190 22 7e 22 bc bb 04 bb 3c 8d aa 19 3c a7 8f b7 3c
       -0.009917768 0.022829404 0.009379041 0.022407366
0001a0 ca df 06 bc 0d 18 05 bd b2 1b c1 3b c8 8c f4 bb
       -0.008232066 -0.03249364 0.005893194 -0.0074630715
0001b0 d3 9a d1 bb 42 91 a9 3c 4e 1b 9a 3c bc da 9f bc
       -0.0063966303 0.020699147 0.018811848 -0.01951348
0001c0 80 bc a2 3b 4f 18 10 3b d6 78 d2 bc b7 e3 21 bc
       0.0049663186 0.0021987145 -0.025692385 -0.009880952
0001d0 b8 fe 15 bc 04 d7 5a bc 56 f2 cf 3c d4 25 21 bc
       -0.009154968 -0.013356928 0.02538411 -0.009835679
0001e0 00 95 ad 3c 05 53 86 bb 2b c9 ef ba 60 59 a6 bc
       0.021189213 -0.004099252 -0.0018294206 -0.02030629
0001f0 c8 0a e3 bc dc 26 8b bc e6 4d 04 bd 9f d6 b7 3b
       -0.027715102 -0.016986303 -0.032300852 0.0056103016
000200 da 7b dc bc 76 d1 b3 b9 9e 8f 02 3c 02 99 cf 3c
       -0.026914526 -0.000342976 0.007968811 0.025341514
000210 77 e7 c8 bc d1 85 46 3c ec 36 dc bc b4 89 ea 3c
       -0.024524434 0.012116865 -0.026881658 0.028630115
000220 ab 7a 2f bc 32 d6 97 bc 59 62 24 3c 32 97 c1 bc
       -0.010710399 -0.018534753 0.0100332135 -0.023631666
000230 ab 4f a8 bc 50 76 e5 bc 6f 73 9d bc cc 21 dc bc
       -0.020545801 -0.028010517 -0.019220082 -0.026871584
000240 f0 76 aa 3b f2 02 53 3c 26 6f 51 3c ee 61 f0 3b
       0.0052021667 0.01287912 0.0127828475 0.007335893
000250 07 9d 25 3c d8 10 02 bc 8b bd c9 3c d4 5a cd bb
       0.010108239 -0.007938586 0.024626514 -0.006266931
000260 25 db 01 bd 6c ba d5 bc 01 c6 e0 bb c4 05 90 3c
       -0.031703133 -0.02608987 -0.0068595414 0.017580874
000270 6e 95 c5 bb 63 dc 35 bc 2d e4 af 3c b0 67 aa bc
       -0.0060297763 -0.011099908 0.021471107 -0.020801395
000280 d4 a4 78 bc c5 95 c1 bc 99 42 b6 bc a7 2e 9c bc
       -0.015176017 -0.023630986 -0.022248553 -0.019065214
000290 16 12 b8 3c f1 f7 bc bc f1 b5 f0 bc f3 04 52 3c
       0.022469562 -0.023067446 -0.029383631 0.012818563
0002a0 32 03 fb bc 31 2e 07 bd fc fc 1e bd a1 30 70 3c
       -0.030641172 -0.033003036 -0.038815483 0.014660032
0002b0 5f 46 81 3c a6 c3 8a bc df 05 45 bb 65 0c c3 3c
       0.015780626 -0.016938996 -0.0030063314 0.023809621
0002c0 4d be 70 3c d5 17 94 bc 48 21 03 3c 5e 26 fa 3b
       0.014693809 -0.01807777 0.00800354 0.0076339683
0002d0 dd 0a 7f 3c bf 78 b2 bc 97 09 29 bd 8f 8f 93 bc
       0.015566555 -0.021786092 -0.04126891 -0.01801279
0002e0 f3 00 a6 3c f6 07 16 bd b6 1a 86 3c dc a6 bd bc
       0.020264124 -0.036628686 0.016370159 -0.023150854
0002f0 07 a6 88 3c 1d 37 15 3b fe 09 c6 bc ae 96 1e 3c
       0.01668073 0.0022768446 -0.024174687 0.0096794795
000300 e2 a1 8f bc b7 22 dd 3c 05 6d bc 3c 94 75 f7 ba
       -0.017533246 0.026994092 0.023001203 -0.0018879646
000310 f6 29 ef 3b 41 d5 15 bd 00 06 87 bc 75 99 94 bb
       0.0072987033 -0.036580328 -0.016482353 -0.004534895
000320 2c 79 0f bd 5d 67 4a bc 7d e5 ba 3c 6e 83 7a 3c
       -0.035027668 -0.012353745 0.022814507 0.015290124
000330 3a 7b a7 3c 6d bc 34 bc 9a 8c 07 bc fa 91 7b bc
       0.020444501 -0.011031252 -0.008273268 -0.015354628
000340 44 b5 8c 3c 1c 7e f6 3c 10 9e c9 3c fa 4f dc 3c
       0.017176278 0.03008943 0.024611503 0.026893605
000350 7a aa d6 bc 58 c7 cb bc 5e f1 cc bc f8 04 ef 3c
       -0.026204336 -0.024875328 -0.025017437 0.029177174
000360 e0 d0 f7 3a 1c 52 0b 3c 28 97 9e 3b 6c 74 86 bc
       0.0018906854 0.008503463 0.0048397966 -0.016412936
000370 2e e8 cb bc 42 c4 d0 3c 9e 23 b4 3c 28 c3 8d bb
       -0.024890985 0.025484208 0.02198964 -0.004326243
000380 70 91 85 bc c5 a6 43 3b 4a 02 df 3b 9f fa a3 bb
       -0.016304702 0.002985404 0.006805693 -0.0050042416
000390 73 80 9f ba c3 37 df bc 9d 33 a3 3c ae 66 f5 bc
       -0.0012169018 -0.027248269 0.019922072 -0.029956188
0003a0 f8 a6 00 3c 2d 65 fb bc d5 c9 ab bb ca 14 2e 3b
       0.007852308 -0.030687893 -0.005242566 0.0026562684
0003b0 8f e9 81 bc a4 94 d3 3c f0 d0 87 bc 06 7b 42 bc
       -0.01585844 0.025827713 -0.016579121 -0.011870151
0003c0 d3 53 34 bc 51 d0 e1 bc d7 40 a7 3c 97 cb 9f bc
       -0.011006313 -0.027565153 0.02041666 -0.019506259
0003d0 c3 8a 17 bd 8e ba fb bc 08 41 0d bd 33 ae bd bc
       -0.036997568 -0.030728605 -0.034485847 -0.023154354
0003e0 23 c4 7f 3c d9 61 10 bd e9 9b 27 3c dd d0 cf 3b
       0.0156107275 -0.035249565 0.010230043 0.006342037
0003f0 37 34 09 bd 8a 42 7d 3c 2a 92 5a bc ac ca 03 bd
       -0.03349706 0.015457759 -0.013340512 -0.032175705

network.11.bias f4 [128]
000000 b7 4a 2d 3c 29 67 2b 3c 44 97 01 bd 7f 19 69 bd
       0.010576895 0.010461607 -0.0316384 -0.05690908
000010 c9 17 18 bd f9 fa 0e bd 38 dd 79 bd 69 69 73 3b
       -0.03713206 -0.034907315 -0.061001986 0.0037141687
000020 69 a5 73 bc 41 01 08 3d 73 f2 99 bc 93 ee fa bc
       -0.01487098 0.03320432 -0.018792367 -0.03063134
000030 ec 67 93 bd 1d 8c 8d bd 3c df 7d bd 35 11 17 bd
       -0.07197556 -0.0691149 -0.06198047 -0.036881644
000040 59 6e 08 bd 5b 68 a6 3b 9a c3 1f bd 24 ac 51 bd
       -0.03330836 0.005078358 -0.0390049 -0.051189557
000050 ea 95 fd bc 3a c0 3b bd ea 70 04 bd 21 4c ed 3c
       -0.030955274 -0.04583762 -0.032334246 0.028966965
000060 3b 91 15 3b ba eb f2 bb b3 5a 2d bd 72 66 17 bd
       0.002282216 -0.0074133547 -0.042322826 -0.036962934
000070 0d e4 47 bd ee bd c7 bd 92 2c 8e bd 7f 33 70 bd
       -0.04880147 -0.09753023 -0.06942095 -0.05864286
000080 3f 6f 20 bd 80 25 3f bd 14 d8 db 3b 6c fc 12 bd
       -0.039168593 -0.046666622 0.006709108 -0.03588526
000090 08 b2 06 bd cb a5 85 bc 61 8f 1a bd 23 1b 49 bc
       -0.032884628 -0.016314408 -0.037734393 -0.012274536
0000a0 30 74 98 bd d6 a5 1b bd ac bf 9d bb cb 30 a5 bd
       -0.07444036 -0.03799995 -0.004814109 -0.08065947
0000b0 43 50 99 bc 38 6f cd bc 33 e0 d5 bc 5a d1 09 bd
       -0.01871503 -0.025077447 -0.026107883 -0.03364692
0000c0 5f a5 73 bd e4 2d dd bc 6c 00 e7 3c 35 ed c7 bc
       -0.059483882 -0.026999421 0.028198443 -0.024405101
0000d0 71 b0 10 bd 4f 26 22 bd 53 c6 4e 3c 57 65 be bc
       -0.035324518 -0.039587315 0.012620526 -0.023241682
0000e0 49 01 6f bc c3 a3 68 3b 1f b6 48 bd 22 4e a9 bc
       -0.014587709 0.0035498 -0.04900181 -0.02066714
0000f0 55 ad 9f bc 12 80 3b bd 5c 3d 22 bd 1f 0a 6c bd
       -0.01949183 -0.045776434 -0.039609298 -0.05762684
000100 a8 73 8d bd a7 bc 30 bd cf 03 ab bc bb 70 73 bd
       -0.06906825 -0.043148663 -0.02087584 -0.05943368
000110 62 46 48 bd 5e 8f 17 3d 46 88 55 bb eb bd 30 bd
       -0.048895247 0.03700196 -0.0032582446 -0.04314987
000120 0b 74 1f bd 51 1d a8 3c e0 1d 8f bc cd a5 0a bd
       -0.038929027 0.020521792 -0.0174703 -0.033849526
000130 b5 8d 73 3b f9 a8 28 bd f7 48 34 bd 61 d8 86 bd
       0.0037163321 -0.04117677 -0.044014897 -0.0658424
000140 23 9b 6a 3b a2 53 44 3c e0 8c e4 bc 20 05 aa bd
       0.0035798035 0.01198283 -0.027899206 -0.08301759
000150 cb 83 21 bd 47 e9 cc 3c ea ed d7 ba 8a 1d 0f bd
       -0.03943233 0.025013579 -0.0016474102 -0.03494028
000160 59 9c 07 bd 85 c9 41 3c 59 c9 dc bc 2b 6a cd 3c
       -0.03310809 0.011827831 -0.026951479 0.025075039
000170 10 64 fb 3a d5 24 b4 bd eb f3 a2 3c 59 3d b4 bd
       0.0019179601 -0.08796088 0.0198917 -0.08800764
000180 67 8c 22 3d c8 78 03 bd 00 1d da bc 2d 18 f8 bc
       0.03968468 -0.032097608 -0.026625156 -0.030284965
000190 6d 95 7d bd 29 a6 b2 3c 3c 9a f5 bb 57 89 92 bd
       -0.06191008 0.021807747 -0.007495193 -0.07155102
0001a0 a5 8a 8a bc 4c d2 65 bd c2 eb cf bc 57 60 1b bd
       -0.016911814 -0.056108758 -0.025380973 -0.037933674
0001b0 14 f0 34 bd 56 23 ca bc 07 d0 24 bd af 80 fd 3b
       -0.04417427 -0.024675053 -0.040237453 0.0077362875
0001c0 e8 c6 ba bc 0a 2b 20 bd 9b 36 09 bd 0b 82 3b bd
       -0.022799924 -0.039103545 -0.03349934 -0.045778316
0001d0 14 1a 4b bd 07 9f 10 bd 24 e7 73 bc b9 c3 be bd
       -0.049585417 -0.03530791 -0.014886651 -0.09314675
0001e0 a0 02 71 bd a8 c3 64 bd d2 c4 f6 bb 1e 63 1a bd
       -0.058840394 -0.055850655 -0.007530787 -0.03769218
0001f0 37 ae 8a bd f9 85 eb bc 69 c5 41 bd 03 b7 0f bd
       -0.0677151 -0.028750407 -0.047307406 -0.035086643

network.14.weight f4 [4, 128]
000000 4a 29 09 bd 94 5c 0f bf f2 0b ff 3e 22 58 87 3c
       -0.033486642 -0.5600064 0.498138 0.016521517
000010 e7 0e fb be 82 d2 99 3d d9 34 e1 3d 3c eb 7c bd
       -0.49034807 0.07510854 0.10996408 -0.061747774
000020 a3 fc 0f bd 4c 8c f6 3d 6f 5d 70 be 45 f3 93 3d
       -0.035153043 0.12038478 -0.23473142 0.07224134
000030 ce 58 a0 be c6 9d 00 be f2 58 9d be 3e be ec 3e
       -0.31317753 -0.12560186 -0.30731922 0.46238893
000040 16 5c 42 bf e3 8a 33 bd 8d 2b cd be 17 c2 ea 3d
       -0.7592176 -0.043833625 -0.4007229 0.11462801
000050 07 0f b3 bd ff 4a 0b 3e 46 1d 15 3e 62 2b 35 3d
       -0.087431006 0.13602827 0.14561948 0.044230826
000060 ca 46 f8 3d 0c 45 0e bd 1b d4 b9 be d2 bf 49 bf
       0.12122877 -0.034733817 -0.36294636 -0.7880832
000070 22 ba fa 3e b5 6e d2 3d a4 e0 2c be 9f f9 0a 3e
       0.48970133 0.10275022 -0.16882569 0.13571785
000080 79 ea 2d be 9b 70 cd be 88 c0 dc 3d 1b 6b b2 3d
       -0.16983975 -0.40124974 0.1077891 0.08711835
000090 74 30 3f bf 2f eb 90 bd f4 52 f6 3e d1 65 dc be
       -0.7468331 -0.07076108 0.48110163 -0.4304643
0000a0 92 20 78 be d2 72 45 bf 94 4b ca 3d bd 87 63 be
       -0.24231175 -0.77128327 0.09877697 -0.22219749
0000b0 70 fe dc 3e c9 06 6e bd 0e 50 dd be cd 1a 9f be
       0.4316287 -0.05811194 -0.4322514 -0.31075135
0000c0 b9 04 d2 be 88 66 42 bc 4d 40 fe 3d 0f 78 1e 3e
       -0.41019228 -0.011865266 0.12414608 0.15475486
0000d0 65 a5 03 3f 23 40 d2 3e cc 18 fb 3d 30 11 e0 be
       0.5142425 0.41064557 0.12260589 -0.43763113
0000e0 43 08 0f bf 5f 9d 2c 3c 50 91 df 3e bd 10 8b 3d
       -0.5587198 0.010535567 0.43665552 0.06790302
0000f0 dc b2 eb 3e 24 9d 37 bf 67 87 c3 be df a1 8e be
       0.46034896 -0.7172415 -0.3818924 -0.27857873
000100 cf 2f a2 be bf f2 0f bf 1b e8 9f 3d 1a 55 fd 3d
       -0.316771 -0.56229776 0.078079425 0.123697475
000110 a0 42 aa 3d b0 39 e4 3d 2a 74 91 bb fc 2c ac 3d
       0.08313489 0.111438155 -0.0044388967 0.084070176
000120 2f 48 15 bf 99 98 d7 3d 80 b8 76 be f3 cf 12 bd
       -0.5831327 0.105271526 -0.24093819 -0.035842847
000130 5e 64 0b 3e a8 aa f5 3e aa 04 e7 be 9b 0f e0 3d
       0.13612506 0.47981763 -0.45120746 0.109404765
000140 83 ef 93 ba 32 c0 db 3d 86 5c 4e bf 09 9f 84 be
       -0.001128659 0.10730018 -0.8060993 -0.25902584
000150 a0 bd 9e 3d a4 65 ad 3d fb d4 cf 3d ac 46 5b bf
       0.07751012 0.08466652 0.10148045 -0.8565471
000160 48 d8 d2 3d 85 b9 b0 bc c9 74 b3 3c 3a aa 0e 3e
       0.102951586 -0.021572838 0.021906273 0.13932124
000170 3e 96 a7 bc f3 60 b1 bd 31 0e a7 3d e5 96 92 3d
       -0.020457383 -0.0866107 0.08157004 0.07157687
000180 ff 69 0a 3e 8e 4e 3e bf 0a 34 32 bf db ee 35 bf
       0.13516997 -0.74338615 -0.69610655 -0.7106759
000190 f9 92 1c 3e 0f c3 de 3d d3 cc e3 be d6 52 03 bc
       0.1529044 0.10877048 -0.44492206 -0.008015355
0001a0 f2 b3 eb 3d 58 f2 4c bf c1 5f f6 be e3 b1 0a 3d
       0.11508931 -0.8005729 -0.4811993 0.033861052
0001b0 ed ad 0f bf b2 a5 40 bf 1f 91 45 bf 59 20 3e 3d
       -0.56124765 -0.7525283 -0.7717456 0.046417568
0001c0 52 17 a4 3e e9 6a 14 bf 82 8a 0b bf 0b f6 7b 3d
       0.32049042 -0.5797563 -0.5450822 0.06151394
0001d0 ce e0 16 bf 06 ed a4 be 40 b8 7d 3d 9d 8f ae 3d
       -0.58936775 -0.32212085 0.061943293 0.08523486
0001e0 2e fc d4 be 19 86 0f 3e 58 de 29 bf 32 88 4e bb
       -0.41598648 0.14015998 -0.66354895 -0.0031514284
0001f0 f8 2d a4 be 33 ed 06 bf c8 64 44 bf 6b e0 17 bf
       -0.3206632 -0.5270569 -0.7671628 -0.5932681
000200 6b 2e 09 3d 2e 1e 48 bf 1b f7 b7 be 5a ea 01 bc
       0.033491533 -0.7817105 -0.35930714 -0.007929409
000210 6f 57 8d 3e 80 c0 a1 3d 59 92 52 bf 72 6a a3 3d
       0.2760577 0.078980446 -0.8225456 0.07979287
000220 c9 c6 cf 3c d4 3a 16 bf a9 4e 4e 3e f2 90 92 3d
       0.025363343 -0.58683515 0.20147194 0.071565524
000230 b5 1d 61 bf 78 2d 90 3e fe 4c 6d bf 0c a6 da be
       -0.87935954 0.2815969 -0.92695606 -0.4270481
000240 97 06 02 3e d7 a3 0c bd a7 d7 3c bf c9 93 53 bf
       0.12697826 -0.034335937 -0.7376656 -0.8264738
000250 3b 66 3a bf 23 12 03 3e d9 d2 1a 3e 28 9b 17 bf
       -0.7281224 0.12799887 0.15119494 -0.59221125
000260 b9 09 0c bf ca 59 01 3c 54 cd 65 bf f4 5b 21 3e
       -0.54702336 0.007894943 -0.8976643 0.15757734
000270 74 36 a7 be 64 4b 0d 3e ba 41 72 bf 44 40 08 3e
       -0.32658732 0.1379829 -0.9463154 0.13305765
000280 9a 42 5b bf 66 dc 3f bf d8 ca 07 bf ee de a3 3d
       -0.856485 -0.74945676 -0.5304389 0.08001505
000290 ac 4a 06 3e 30 2c 64 3d 79 d3 9f be 4a 71 4a bf
       0.13114423 0.055706203 -0.31216028 -0.79079115
0002a0 8a f6 70 bf 81 20 05 3e 36 61 af 3d e0 06 66 3e
       -0.9412619 0.1300068 0.085634634 0.2246356
0002b0 bd e9 dc be 2c df ad bd c0 4c 16 bf a9 a0 46 bf
       -0.43147078 -0.08489832 -0.5871086 -0.775889
0002c0 8c c8 83 3e 5a d3 d3 3c 50 52 0e bf 07 4d 18 3e
       0.25738943 0.025857616 -0.5559435 0.14873134
0002d0 58 5b ea be 32 ef a9 be c2 4e 06 bf bb ea 77 3e
       -0.45772815 -0.33190304 -0.52463925 0.24210636
0002e0 54 3c 47 bf 50 14 72 3b 6c 6c aa be 1f 87 4b 3d
       -0.7782643 0.0036938377 -0.33285844 0.04968941
0002f0 4e e9 9d be da 2b 1b 3e 19 94 63 bf f5 a1 3c bf
       -0.3084206 0.15153447 -0.88897854 -0.73684627
000300 4b 16 76 bf 11 1f 78 3e db d3 ac 3d 24 bb 70 bf
       -0.96127766 0.24230601 0.08438846 -0.94035554
000310 1f 6c 93 3d 40 60 e3 be b6 a4 e9 3c 02 e4 a0 3d
       0.07198357 -0.4440937 0.028520923 0.07855989
000320 29 34 48 3e 79 55 18 bf a8 2b 48 bf 06 55 1d bd
       0.19551148 -0.5950542 -0.78191614 -0.038411163
000330 02 d0 08 bf 37 e9 db be 7c 7c 3c bf c1 12 fa 3d
       -0.53442395 -0.42951366 -0.7362745 0.12210608
000340 7f 1a 58 bd 9b 18 07 bf 85 50 ee 3d c9 6c 91 3e
       -0.052759644 -0.5277192 0.11636452 0.2840331
000350 c4 64 99 3d 69 fa 06 bf d1 e1 0e bf 93 bb b4 3d
       0.07489923 -0.52725846 -0.5581332 0.088248394
000360 ed e2 d2 3d d5 6d b9 3b e6 fe ac b8 d8 96 cb be
       0.10297189 0.005658845 -8.249078e-05 -0.39763522
000370 de 26 56 3c f5 75 89 3e 4f bb 0b bf 02 54 9e bf
       0.01307079 0.26847807 -0.54582685 -1.2369387
000380 1a 9b 16 bf 29 5e 01 3e 93 e1 d9 3d b4 9b 21 3e
       -0.58830416 0.12633575 0.10638728 0.15782052
000390 0e a3 1d 3e 11 f3 0f bf ee ec 3e 3e a3 75 83 bf
       0.15394232 -0.56230265 0.18645069 -1.0270275
0003a0 30 0b dd 3d c7 db de 3d eb 90 34 bf 4b eb d7 3c
       0.107931495 0.10881763 -0.7053363 0.026357314
0003b0 fa d4 3b 3e 32 d0 1d 3e 85 ee dc 3d 33 41 2a bf
       0.18342963 0.15411451 0.107876815 -0.66505736
0003c0 3e 3f 19 bf 0b 17 2c bf 0f ff 2d bf 04 73 3d 3d
       -0.59862125 -0.6722266 -0.67967314 0.046252266
0003d0 3f 78 4d bf 70 68 42 bf c0 c0 21 3c ab b1 cb 3d
       -0.80261606 -0.7594061 0.009872615 0.09945997
0003e0 a6 8f 82 3e 77 d9 19 3e a6 e2 f5 be 1c 8b 09 3d
       0.2550022 0.15024363 -0.48024482 0.03357993
0003f0 47 5d a8 3e 49 96 43 bf 85 38 04 3e 05 59 56 3e
       0.32883665 -0.7640119 0.12912185 0.20932396

network.14.bias f4 [4]
000000 7f 43 76 be f3 18 9d bc c8 cf da 3d a4 5e 92 3d
       -0.24049185 -0.019176936 0.106841624 0.071469575
