models/vgg/VGG2_Adam_16_lr0.0001_wd0/VGG2_Adam_16_lr0.0001_wd0_best.pth (torch, 716955 bytes, 12 tensors)

network.0.weight f4 [16, 1, 3, 3]
0	0x3ec95de7	0.39329454
1	0xbec8e6be	-0.39238542
2	0xbee8214f	-0.45337912
3	0x3eb6ddff	0.35716245
4	0x3e4b2b18	0.19840658
5	0xbece0ffe	-0.40246576
6	0xbe09a4ed	-0.1344182
7	0x3e7bcd32	0.24589995
8	0x3e7cb6ab	0.24679057
9	0xbec940a4	-0.3930713
10	0x3e0cf948	0.13766968
11	0x3ef8f05c	0.4862088
12	0xbf295d3c	-0.6615789
13	0xbed86b58	-0.42269397
14	0x3ed76f5f	0.42077157
15	0x3e753729	0.23946823
16	0x3d98fef2	0.07470502
17	0x3eb984d0	0.3623414
18	0x3e2d268d	0.16909237
19	0x3d872b4d	0.06600056
20	0x3efbe3e3	0.491973
21	0xbdea11e9	-0.11429197
22	0x3e9697af	0.294126
23	0x3d9bf42f	0.07614934
24	0xbe9d0d3c	-0.3067416
25	0xbecd721f	-0.4012613
26	0x3d2ce2ad	0.042208362
27	0x3d36f52b	0.044667404
28	0xbd2e624d	-0.042574216
29	0x3ebb1ed3	0.36546955
30	0x3eb2885b	0.34869656
31	0x3dc67bcc	0.09691581
32	0xbd471329	-0.048602257
33	0xbea4b568	-0.32169652
34	0xbed60e3b	-0.41807732
35	0xbda17128	-0.07882911
36	0x3ccc39c3	0.024929887
37	0x3dbc54b5	0.09195844
38	0x3e7c92ef	0.24665426
39	0xbed3c505	-0.4136125
40	0x3ddf671f	0.10908341
41	0x3e95987f	0.29217908
42	0xbecfc29f	-0.40578172
43	0xbee8726f	-0.45399806
44	0x3e53399e	0.20627448
45	0x3e6ca11c	0.23108333
46	0x3eb30549	0.3496497
47	0x3ea1b90a	0.31586486
48	0xbddcb1f7	-0.107761316
49	0x3e804a5d	0.25056735
50	0xbdd722ef	-0.1050471
51	0x3b2c6d5a	0.0026310296
52	0xbe9cd27d	-0.3062934
53	0x3e198d3a	0.1499528
54	0x3ed25d45	0.41086784
55	0xbbed4022	-0.0072403112
56	0x3e605a69	0.21909489
57	0xbe884d2c	-0.26621377
58	0xbe84ed82	-0.25962454
59	0x3e4378a0	0.19088984
60	0x3e54cfd8	0.20782411
61	0x3e9d2b30	0.30697012
62	0xbe8cb658	-0.27482867
63	0x3df6a344	0.12042859
64	0x3ec6b868	0.38812566
65	0xbdce9bd7	-0.10088318
66	0xbd876d60	-0.066126585
67	0xbdaa1200	-0.083042145
68	0xbcfeee78	-0.03111957
69	0x3e7f5fe8	0.24938929
70	0xbee1d2a8	-0.4410603
71	0xbb8046c3	-0.0039146855
72	0xbe7d5245	-0.24738415
73	0x3d203854	0.03911622
74	0xbec3b948	-0.38227296
75	0xbe0b98df	-0.13632534
76	0x3ce1ac20	0.027547896
77	0x3ead1837	0.33807537
78	0xbd14f420	-0.03636563
79	0x3ebc430c	0.36769903
80	0x3e662dde	0.22478434
81	0xbe977e46	-0.29588526
82	0x3e87be22	0.26512247
83	0x3e108fc8	0.14117348
84	0xbe75ed75	-0.24016364
85	0xbe80f4cd	-0.25186768
86	0x3ec6bc5f	0.3881559
87	0x3d87fde0	0.0664022
88	0x3ced80f4	0.028992154
89	0x3e0dd231	0.13849713
90	0xbea4eea0	-0.32213306
91	0xbe923222	-0.28553873
92	0x3e54cceb	0.20781295
93	0xbdc54662	-0.09632565
94	0x3b688180	0.0035477579
95	0x3cbf0fc1	0.023322942
96	0x3d971ba7	0.07378321
97	0x3e47e46c	0.1952073
98	0x3e9d9cae	0.307836
99	0x3e926276	0.28590745
100	0xbde6bc5a	-0.11266394
101	0xbece17bc	-0.40252483
102	0x3ee83160	0.4535017
103	0xbd919036	-0.07107584
104	0x3e895913	0.2682577
105	0x3e3a816f	0.18213437
106	0xbf01be11	-0.50680643
107	0xbc5cf38a	-0.013485799
108	0xbed8010f	-0.42188308
109	0xbe99f527	-0.3006985
110	0xbe9798c0	-0.29608727
111	0xbe5f9945	-0.21835811
112	0xbe93b6d6	-0.2885043
113	0x3e1ae610	0.15126824
114	0x3e847558	0.25870776
115	0x3e015b3e	0.12632462
116	0x3db483bb	0.08814188
117	0xbde97042	-0.113983646
118	0x3e1cff43	0.1533175
119	0xbdc14c71	-0.09438408
120	0xbeb8e4b4	-0.36111987
121	0xbef26cbf	-0.47348592
122	0x3eac8b80	0.3370018
123	0x3e72518f	0.23663925
124	0x3b111916	0.0022140197
125	0x3efc16d6	0.49236172
126	0x3e8ce675	0.27519575
127	0x3ea0a839	0.31378344
128	0x3e4a84c2	0.19777206
129	0xbe719abf	-0.23594187
130	0x3d46961d	0.048483003
131	0x3c80b539	0.015711414
132	0xbe38f304	-0.18061453
133	0xbd66e476	-0.05637022
134	0x3ddfbf1d	0.10925124
135	0x3dc6f465	0.09714583
136	0xbe92fb36	-0.28707284
137	0xbe5a0a1a	-0.21292916
138	0x3ee56c36	0.4480912
139	0x3e2fc170	0.17163634
140	0x3d9268bd	0.071488835
141	0xbb94db3a	-0.0045427354
142	0xbdb22099	-0.08697624
143	0xbdd27dfd	-0.102779366

network.0.bias f4 [16]
0	0x3e29efb8	0.16595352
1	0x3d6736d0	0.056448758
2	0xbe0cc4c1	-0.1374693
3	0x3e90394d	0.28168717
4	0xbdbb484e	-0.091446504
5	0xbc883dbd	-0.016631002
6	0xbe7b075d	-0.24514528
7	0x3d5bcf96	0.053664766
8	0xbe6cb387	-0.23115359
9	0xbe2bfa19	-0.16794623
10	0x3e87b23e	0.26503175
11	0x3c3a79eb	0.011381607
12	0xbe344cbf	-0.17607401
13	0x3e3fcf79	0.18731488
14	0x3dfdb010	0.12387097
15	0x3e3216bd	0.17391486

network.2.weight f4 [32, 16, 3, 3]
0	0xbdd13aa5	-0.10216264
1	0x3d99baab	0.07506307
2	0x3d51f475	0.051258523
3	0xbbd23905	-0.0064154887
4	0xbd8dba73	-0.06920328
5	0xbd0ca718	-0.03433904
6	0xbe153981	-0.14572717
7	0x3d362170	0.044465482
8	0x3dc3a390	0.095526814
9	0x3d305e17	0.04305848
10	0x3c5dcbc3	0.01353735
11	0xbbd4505a	-0.006479305
12	0x3cc1b01e	0.02364355
13	0xbd7db941	-0.06194425
14	0xbda4a1e9	-0.080386944
15	0x3e0da784	0.13833433
16	0xbd80d92c	-0.06291422
17	0xbdc4dc6d	-0.096123554
18	0xbc2249f8	-0.009905331
19	0xbdfc99ae	-0.123339996
20	0xbde6b90b	-0.11265763
21	0xbdb4361f	-0.08799385
22	0xbda03649	-0.07822854
23	0xbe3aa0d0	-0.18225408
24	0xbe4088c4	-0.18802172
25	0xbde2821d	-0.110599734
26	0xbe605020	-0.21905565
27	0x3d46c8c1	0.048531298
28	0x3b13f18d	0.0022574395
29	0x3d3c139a	0.04591713
30	0x3cf186dc	0.029483251
31	0xbda07678	-0.07835096
32	0xbcdf400c	-0.02725222
33	0x3d89c9b2	0.067279235
34	0x3d71ed25	0.05906405
35	0x3d38b564	0.045094863
36	0xbc2706bf	-0.0101944795
37	0xbea0ae65	-0.31383052
38	0xbf2973e2	-0.6619245
39	0xbe141e95	-0.14464791
40	0xbe844b4c	-0.25838697
41	0xbeed38f7	-0.46332523
42	0xbea89691	-0.32927373
43	0xbecf5f85	-0.40502563
44	0xbe9601fc	-0.2929839
45	0x3c41c39e	0.011826424
46	0x3d8b9136	0.06814806
47	0x3dbc0666	0.09180908
48	0x3da71e44	0.081600696
49	0x3de5d935	0.112230696
50	0x3d43053a	0.047612406
51	0xbd58ad99	-0.05289993
52	0x3d25793e	0.04039883
53	0xbca2816f	-0.01983711
54	0xbe7f3837	-0.24923788
55	0xbde57eee	-0.112058505
56	0xbd6a6851	-0.05722839
57	0xbeccd369	-0.40005043
58	0xbe6fb57b	-0.23409073
59	0xbca1fac2	-0.019772891
60	0xbe75dffc	-0.24011225
61	0xbef6c7dd	-0.4819936
62	0xbe94693d	-0.2898654
63	0x3d38a5aa	0.045079865
64	0x3d0da0be	0.034577124
65	0xbd8c5403	-0.068519615
66	0xbd4cd0bc	-0.050003752
67	0xbcca935f	-0.024728475
68	0xbc3d5b5a	-0.011557424
69	0xbd5dbc1a	-0.054134466
70	0x3c66eea7	0.014094985
71	0xbd40d4fa	-0.04707811
72	0xbe5628f1	-0.20914055
73	0xbc11d4eb	-0.008900861
74	0xbe18a0d4	-0.14905101
75	0xbc302a1d	-0.010752228
76	0xb9c426aa	-0.0003741284
77	0xbe2ef9fb	-0.17087547
78	0x3cf6d4f2	0.030130837
79	0xbd3c8d36	-0.046033107
80	0xbc82b046	-0.015953194
81	0xbd025404	-0.031818405
82	0xbe620d1f	-0.22075318
83	0xbe839cd1	-0.2570558
84	0xbd9c0478	-0.0761804
85	0xbeb9d15f	-0.3629255
86	0xbe787752	-0.24264267
87	0xbc953bb4	-0.018216945
88	0xbe8b5f60	-0.27221203
89	0xbe8d5f93	-0.2761198
90	0x3d298760	0.04138887
91	0xbd16ebc7	-0.03684595
92	0x3d5aedf0	0.05344957
93	0x3d8b46d3	0.06800618
94	0x3c3f8730	0.011689946
95	0xbbafde8c	-0.005367106
96	0x3d08f120	0.03343308
97	0x3dc5ae09	0.09652335
98	0x3db1359a	0.08652802
99	0xbe2f736a	-0.1713387
100	0xbdb69f29	-0.08917076
101	0x3d3e3e6d	0.046446253
102	0xbecd28c4	-0.40070164
103	0xbe435b6a	-0.1907784
104	0xbd029f09	-0.03188995
105	0xbe8f063b	-0.2793444
106	0xbe70b561	-0.2350669
107	0xbdbd8e40	-0.09255648
108	0xbc49488e	-0.012285365
109	0xbd574d76	-0.052564107
110	0xbe0d651a	-0.13808098
111	0xbdbd96ce	-0.09257279
112	0xbe3e7a2f	-0.18601297
113	0xbdf5c64e	-0.12000714
114	0xbe4b7826	-0.19870052
115	0xbeb5ce75	-0.35509077
116	0xbed49317	-0.4151847
117	0xbcc500fe	-0.024048325
118	0x3d6d7f78	0.05798289
119	0x3d1a8f54	0.037734345
120	0xbc348d08	-0.011019953
121	0x3b267cc0	0.0025403947
122	0xbdc5add8	-0.09652299
123	0x3ca948db	0.020664623
124	0x3ce2cc17	0.027685208
125	0xbcc3b962	-0.023892108
126	0x3d26af4d	0.040694524
127	0xbd33fa07	-0.043939617
128	0xbd475921	-0.048668984
129	0x3d4a823c	0.049440607
130	0x3d1f0953	0.03882725
131	0x3deb7df3	0.11498632
132	0x3d909f9a	0.070616916
133	0x3dd89a35	0.10576288
134	0x3d922d1b	0.071375094
135	0xbda457fb	-0.080245934
136	0x3d7f57af	0.06233948
137	0x3df584cc	0.119882196
138	0x398252ab	0.00024857125
139	0x3d53e8fc	0.051735863
140	0x3d958f5b	0.073027335
141	0xbd59fc07	-0.053218868
142	0xbc0c6179	-0.008568161
143	0xbc811c7b	-0.01576065
144	0xbd93a2d2	-0.0720879
145	0x3dde48ce	0.1085373
146	0x3dd20d85	0.10256485
147	0xbe0594d0	-0.13045049
148	0xbe593b0e	-0.21213934
149	0xbe8d6bdc	-0.27621353
150	0x3d13a70e	0.036047988
151	0xbe0685ab	-0.13136928
152	0xbd9fd769	-0.07804758
153	0x3d7e9600	0.06215477
154	0x3bb7a94d	0.005604899
155	0x3e16b134	0.14716035
156	0x3e1558a5	0.14584596
157	0x3dba7b13	0.09105506
158	0x3d5150a3	0.05110229
159	0xbdc0fc4d	-0.094231226
160	0xbdc147c7	-0.094375186
161	0x3db33652	0.08750595
162	0xbd90a7b4	-0.07063237
163	0xbcb2cff1	-0.02182767
164	0x3ddeadfa	0.10873027
165	0xbdacf7ba	-0.084456876
166	0xbd7f47a0	-0.062324166
167	0x3e83a94d	0.25715104
168	0x3d308187	0.043092277
169	0x3ddbc58c	0.107310385
170	0x3dcc9b8f	0.09990608
171	0xbdecf650	-0.11570418
172	0xbe7f02a5	-0.24903353
173	0xbe9b8df0	-0.30381727
174	0xbe4358f9	-0.19076909
175	0xbc9905e8	-0.018679574
176	0x3c8cb46e	0.01717588
177	0x3d8bcc07	0.068260245
178	0x3de34535	0.110971846
179	0x3c6ac30d	0.01432873
180	0xbc4cb7fb	-0.012495036
181	0xbd5bc981	-0.053658966
182	0x3d2d2269	0.042269144
183	0x3e1d64b1	0.15370442
184	0x3b9bd63f	0.0047557647
185	0x3b8b038e	0.004242367
186	0xbd4f9e10	-0.05068785
187	0xbd39c576	-0.04535433
188	0xbe3b1881	-0.18271066
189	0x3c98378c	0.018581174
190	0xbd85c07d	-0.06530855
191	0xbde28cfc	-0.11062047
192	0xbdfce83d	-0.123489834
193	0xbdd9ef07	-0.10641294
194	0xbc5c81b7	-0.013458661
195	0x3d519bfb	0.051174145
196	0x3c41a068	0.011818029
197	0x3d7a47c8	0.061103612
198	0x3e967830	0.2938857
199	0x3e5d272f	0.21596979
200	0xbc859bdc	-0.016309671
201	0x3c9adbe4	0.01890368
202	0xbce0c4e6	-0.027437638
203	0x3c29fe8f	0.010375633
204	0xbe8da7df	-0.27667138
205	0xbdb15a75	-0.086598314
206	0x3c4d385e	0.012525646
207	0x3cae9d34	0.021315195
208	0x3cc14cf1	0.023596259
209	0xbd299521	-0.041401986
210	0xbdcac682	-0.099011436
211	0xbe7dac6a	-0.24772802
212	0x3c17c086	0.00926221
213	0xbd7bd8ba	-0.061485983
214	0x3bc2e431	0.0059476127
215	0x3cea0807	0.02856828
216	0x3d78e2e0	0.06076324
217	0x3e80aaa7	0.25130197
218	0x3ee510b5	0.4473931
219	0x3e6f6938	0.23379982
220	0x3da9c441	0.082893856
221	0xbc943f22	-0.01809651
222	0x3d049afe	0.032374375
223	0xbe784732	-0.24245909
224	0xbdcb75d6	-0.09934585
225	0xbe0adea9	-0.135615
226	0xbd71b19a	-0.059007265
227	0x3e12fd41	0.14354421
228	0xbd5ee3fa	-0.054416634
229	0xbd16b7a9	-0.036796246
230	0x3e1d9692	0.1538947
231	0xbe608030	-0.219239
232	0xbe81ff82	-0.2539025
233	0x3c88c1e5	0.016694019
234	0x3d6000cf	0.05468827
235	0xbbf80c12	-0.0075697983
236	0x3d73b336	0.05949708
237	0x3d963aac	0.073354095
238	0x3c8eeae5	0.01744599
239	0x3d5c7e4f	0.053831395
240	0xbcdb3895	-0.026760379
241	0x3dd44f92	0.10366739
242	0xbb1b6550	-0.002371151
243	0xbe653670	-0.22384048
244	0xbe63acd3	-0.22233896
245	0xbe88495c	-0.2661847
246	0x3a50d64d	0.00079665036
247	0xbda50eab	-0.08059438
248	0x3df6c6f7	0.12049668
249	0x3e57bcd6	0.21068129
250	0xbd8368e0	-0.06416488
251	0xbe12c13a	-0.14331523
252	0x3da2f7dc	0.07957432
253	0x3e39686f	0.18106245
254	0x3e43f82a	0.19137636
255	0x3e54ad7d	0.20769306

network.2.bias f4 [32]
0	0x3d319e70	0.04336399
1	0xbd75da8f	-0.060022887
2	0x3d1b934b	0.037982266
3	0x3d3359f0	0.043786943
4	0x3c5f2400	0.013619423
5	0xbdd0fc5d	-0.102043845
6	0xbcf64ec7	-0.03006686
7	0xbcf28e83	-0.02960897
8	0x3d17f896	0.037102304
9	0x3dac1fa9	0.08404476
10	0xbd428e08	-0.047498733
11	0xbac740d8	-0.001520182
12	0x3b0e6dac	0.002173285
13	0x3ddec48e	0.108773336
14	0x3ab74f7d	0.0013985481
15	0xbd76c0ff	-0.06024265
16	0x3d058109	0.03259376
17	0xbddcde3e	-0.10784577
18	0xbe0b049f	-0.13575982
19	0xbd811b06	-0.063039824
20	0x3cd4f302	0.025994781
21	0x3d627efa	0.055296876
22	0xbcb2b2f1	-0.021813842
23	0xbd333ab3	-0.04375715
24	0xbe2a28e5	-0.16617163
25	0xbe7a90ba	-0.24469271
26	0xbdb8abaf	-0.09017121
27	0x3d092f3d	0.033492316
28	0x3d1c804d	0.038208295
29	0x3bab0df2	0.0052201683
30	0xbcb49953	-0.022045767
31	0xbde4177f	-0.11137294

network.5.weight f4 [48, 32, 3, 3]
0	0xbbafd8de	-0.0053664288
1	0xbb5fc359	-0.0034143536
2	0xbd981d67	-0.07427483
3	0x3df8a7c7	0.12141376
4	0x3db734bf	0.089456074
5	0xbcf122e7	-0.029435588
6	0x3ddf13e2	0.10892464
7	0x3d8b3910	0.06797993
8	0xbd9729a8	-0.07380992
9	0x3de03b3d	0.10948799
10	0x3cbb6d08	0.022879139
11	0xbdcd5bdf	-0.10027289
12	0x3d55f63d	0.052236784
13	0xbd38bc1b	-0.045101266
14	0xbd6c298b	-0.057656806
15	0x3d11ff95	0.035644133
16	0x3c20e67c	0.009820577
17	0x3d895866	0.06706314
18	0x3d8ec32a	0.06970818
19	0x3d94d61e	0.07267402
20	0x3d0d4c2a	0.034496464
21	0x3e41c937	0.18924414
22	0x3d9b73dd	0.075904585
23	0x3d187c5e	0.03722798
24	0x3e28d93a	0.16489115
25	0x3dadbfad	0.08483825
26	0x3c5fa7a5	0.013650809
27	0xbd764c7b	-0.06013153
28	0xbdf12c55	-0.11776034
29	0xbdc36dd2	-0.09542431
30	0xbe131bb6	-0.1436604
31	0xbe509d3b	-0.20372479
32	0xbe801624	-0.25016892
33	0x3da9cf7d	0.082915284
34	0x3bbd0ce9	0.0057693613
35	0x3e07cfe9	0.13262905
36	0xbdb52f2d	-0.08846889
37	0xbd0e4edd	-0.03474318
38	0xbdb3f07d	-0.08786104
39	0xbd4e3037	-0.05033895
40	0xbda7d785	-0.08195404
41	0xbe85569d	-0.26042643
42	0x3dcce769	0.100050755
43	0xbc2e46fc	-0.010637041
44	0xbe04e8b3	-0.12979393
45	0x3d12274c	0.035682008
46	0x3ddc1e61	0.10747982
47	0x3d8958a4	0.0670636
48	0x3d136da7	0.035993244
49	0x3d5ae55e	0.053441398
50	0x3d324e19	0.04353151
51	0xbd02c5b7	-0.031926837
52	0x3d28b260	0.041185737
53	0x3d27d76c	0.040976927
54	0xbda5ec31	-0.081016906
55	0xbdda2f44	-0.106535465
56	0xbdd89354	-0.105749756
57	0x3c99faa9	0.018796282
58	0x3d55efde	0.05223071
59	0xbbdc6514	-0.0067259166
60	0xbda859d1	-0.08220256
61	0xbd0e23cf	-0.03470212
62	0xbcde9c80	-0.027174234
63	0x3d7516fb	0.05983637
64	0x3d86ef39	0.06588597
65	0x3e5109f1	0.20413949
66	0x3d60add2	0.054853268
67	0x3cdba990	0.026814252
68	0x3e06e7c0	0.13174343
69	0x3d9ed542	0.077555194
70	0x3d4dd78a	0.050254382
71	0x3def3c52	0.11681427
72	0xbd9ee74e	-0.077589616
73	0xbd837376	-0.06418507
74	0xbdc5b050	-0.096527696
75	0x3cecd2a2	0.028909031
76	0x3dd4ffe7	0.10400372
77	0x3c8037a5	0.015651533
78	0x3d09ed3d	0.033673514
79	0x3d58cec1	0.05293155
80	0x3ba0a550	0.0049025193
81	0xbe60bd2b	-0.21947162
82	0xbe5908f1	-0.21194817
83	0xbd1170e5	-0.035508055
84	0xbeb936ad	-0.36174527
85	0xbe44e810	-0.1922915
86	0xbe2c60cf	-0.16833805
87	0xbca3b0f0	-0.019981831
88	0x3dd8381a	0.105575755
89	0x3e6ed430	0.2332313
90	0x3d002117	0.031281557
91	0x3dddba9c	0.108266085
92	0x3e11789a	0.14206162
93	0x3d4b3186	0.049607776
94	0x3d87181e	0.06596397
95	0x3e5cb445	0.21553142
96	0x3d1317b5	0.03591128
97	0x3d4749ef	0.048654493
98	0x3e83f781	0.25774768
99	0xbe53d38a	-0.20686164
100	0xbe4a0277	-0.19727503
101	0xbe5145e0	-0.20436811
102	0xbd7ae27e	-0.061251156
103	0xbd041a02	-0.032251365
104	0xbd8a944c	-0.06766567
105	0x3da7c444	0.081917316
106	0x3d2aaa17	0.041666117
107	0x3b9f1c3a	0.00485566
108	0xbbb96705	-0.005658033
109	0x3d68b5d6	0.056814037
110	0x3c394899	0.011308813
111	0xbe698c27	-0.2280737
112	0x3d2c8f97	0.042129125
113	0xbcc2532a	-0.023721296
114	0xbee4f9d0	-0.44721842
115	0xbeb09835	-0.34491125
116	0xbe04a48e	-0.12953398
117	0x3e3c5c77	0.18394648
118	0x3dffac0f	0.124839894
119	0xbdf75644	-0.12077001
120	0x3d1d72b3	0.038439464
121	0xbafe00e6	-0.001937893
122	0xbd6c8584	-0.057744518
123	0xbbd4907f	-0.006486952
124	0x3dc9cc0f	0.09853374
125	0x3dd28dc2	0.102809444
126	0x3bac1251	0.005251207
127	0xbd341e7e	-0.043974392
128	0x3d98b433	0.07456245
129	0x3da800e8	0.08203298
130	0x3d8d371b	0.06895276
131	0x3e1640f9	0.14673223
132	0x3c8d7210	0.017266303
133	0x3e12ca82	0.14335063
134	0x3e2b4da5	0.16728838
135	0x3d864224	0.06555584
136	0x3de13e0e	0.10998164
137	0x3d4053f4	0.046955064
138	0x3dfefa4e	0.124500856
139	0x3de1c26e	0.11023413
140	0x3d3d3aff	0.04619884
141	0x3e87a359	0.26491812
142	0x3d4092bf	0.047014948
143	0xbd93b15a	-0.072115615
144	0xbe566ac9	-0.20939173
145	0xbc723267	-0.014782525
146	0xbd3c4020	-0.045959592
147	0xbdb3111f	-0.087435
148	0xbbc10bdb	-0.005891306
149	0x3b4eb9f2	0.0031543938
150	0xbdbc2878	-0.09187406
151	0x3d0eeff6	0.034896813
152	0x3d93d153	0.0721766
153	0xbd030381	-0.031985763
154	0xbba414fa	-0.0050073834
155	0x3d1b43ba	0.037906386
156	0xbea21b1a	-0.31661302
157	0xbe32d2e5	-0.17463262
158	0xbdfc0856	-0.123062775
159	0xbf1a327c	-0.60233283
160	0xbf1e925a	-0.61942065
161	0xbe9d0fec	-0.3067621
162	0x3d25311c	0.040330037
163	0x3e6a5659	0.22884502
164	0x3e017f82	0.12646297
165	0xbe2c97ff	-0.16854857
166	0xbe9bfca5	-0.3046619
167	0xbe8b02ef	-0.27150676
168	0xbd873b8c	-0.066031545
169	0xbd82d586	-0.063883826
170	0xbcf2524e	-0.029580262
171	0x3ceb3103	0.028709894
172	0xbd5b9370	-0.053607404
173	0x3acf73d0	0.0015827361
174	0x3d336808	0.043800384
175	0xbcdbcd89	-0.026831405
176	0x3c35d3f0	0.011097893
177	0xbd81d88f	-0.063401334
178	0x3b4be16c	0.0031109704
179	0x3c88f216	0.016716998
180	0x3dd0bc8e	0.10192214
181	0x3d927b2d	0.071524
182	0x3df0195e	0.117235884
183	0x3d9f20bd	0.07769916
184	0xbbda4cd1	-0.0066619893
185	0x3cf074c0	0.029352546
186	0x3d98d9ed	0.07463441
187	0x3ce4ec9c	0.027944855
188	0xbba8d4ca	-0.0051523196
189	0xbe0cf615	-0.13765748
190	0xbde7d9f7	-0.1132087
191	0xbd396e4c	-0.045271203
192	0xbebe83d3	-0.3720995
193	0xbea479de	-0.32124227
194	0xbec05cc6	-0.3757078
195	0xbe58fcd3	-0.21190195
196	0xbe477b36	-0.19480595
197	0xbdd5e955	-0.10444895
198	0x3ccd478e	0.025058534
199	0xbc6d6253	-0.014488774
200	0x3d89020a	0.06689842
201	0x3bf8219f	0.0075723673
202	0xbc9e93d8	-0.019357607
203	0x3d64a83d	0.055824507
204	0x3cb46dae	0.022024956
205	0x3bf39a77	0.007434185
206	0x3e1b94e7	0.1519352
207	0xbd8a057d	-0.06739328
208	0xbdeecda5	-0.11660317
209	0xbe0a1908	-0.13486111
210	0xbdbe6c92	-0.09298052
211	0xbd8c1db2	-0.068416014
212	0xbdbef87f	-0.093247406
213	0x3c009e41	0.007850231
214	0x3d14658b	0.03622965
215	0x3e1c974b	0.15292089
216	0xbe290112	-0.16504315
217	0xbe1dc8e1	-0.1540866
218	0xbdeef26f	-0.11667334
219	0xbe92398b	-0.28559527
220	0xbe4c09cf	-0.19925617
221	0xbe5e65e6	-0.21718559
222	0xbe5eb733	-0.21749572
223	0xbeb18127	-0.34668848
224	0xbef66d2d	-0.4813017
225	0x3e01b210	0.12665582
226	0x3e07e4fe	0.13270947
227	0x3cacf7eb	0.02111431
228	0xbe89c52c	-0.26908243
229	0xbe300491	-0.17189242
230	0xbe77fff6	-0.24218735
231	0xbdee9d34	-0.11651078
232	0xbe256f48	-0.16155732
233	0x3d11b9c0	0.035577536
234	0xbdbe2f58	-0.09286374
235	0xbd41aae4	-0.047282115
236	0xbdac2d99	-0.084071346
237	0xbc5ba5fc	-0.013406273
238	0x3dac4edf	0.08413481
239	0x3e11a9a9	0.14224876
240	0x3dacbc54	0.08434358
241	0x3dac722a	0.084202126
242	0x3da17f57	0.07885616
243	0x3d951bc4	0.072806865
244	0x3db656c8	0.08903271
245	0xbda165cb	-0.078807436
246	0xbc963c43	-0.018339282
247	0x3d1dab5d	0.038493503
248	0xbe261573	-0.1621912
249	0x3da961db	0.082706176
250	0x3d008e1b	0.031385522
251	0xbe8a1221	-0.26966956
252	0xbc757edd	-0.01498386
253	0xbdfb09a0	-0.12257695
254	0xbd29889c	-0.041390046
255	0xbd809e3f	-0.06280183

network.5.bias f4 [48]
0	0x3a1c3733	0.0005959153
1	0xbb5e5479	-0.0033924861
2	0xbdbe11ec	-0.09280762
3	0xbce2f8ae	-0.02770647
4	0xbd8de7e5	-0.06928996
5	0xbcae2ade	-0.021260675
6	0xbc932bb1	-0.01796517
7	0xbdaa5d1c	-0.083185405
8	0x3cf4fd8a	0.029906053
9	0xbd57909b	-0.05262814
10	0x3d865403	0.06558993
11	0xbc172b29	-0.009226599
12	0x3d5917a3	0.053001057
13	0xbd22bfb8	-0.03973362
14	0xbd373dac	-0.04473655
15	0x3d2a83e3	0.041629683
16	0x3db8f996	0.0903198
17	0x3bdea734	0.0067948345
18	0x3cee7f51	0.029113444
19	0xbc0e7ba3	-0.0086964695
20	0x3d187b49	0.03722695
21	0x3df8e6f2	0.12153424
22	0x3daf9d44	0.08574918
23	0xbd9f4417	-0.07776659
24	0x3d58edc3	0.052961122
25	0xbca51299	-0.02015047
26	0xbe390af3	-0.18070583
27	0xbb4539a5	-0.0030094173
28	0x3cd7ad84	0.026327856
29	0x3d87cc6e	0.06630789
30	0x3dcdd69c	0.10050699
31	0xbcbd3a59	-0.023099111
32	0xbe27374c	-0.16329688
33	0x3d03fb80	0.03222227
34	0x3dc4e2db	0.09613582
35	0x3cee7780	0.029109716
36	0xbd78f400	-0.06077957
37	0xbc88c39f	-0.016694842
38	0xbd314de1	-0.04328716
39	0x3cf9e8d4	0.030506529
40	0x3d1538bc	0.03643106
41	0x3d38f6bf	0.04515719
42	0xbc1de6b8	-0.009637527
43	0xbc55d602	-0.013051512
44	0xbd43c780	-0.04779768
45	0x3d9538d6	0.07286231
46	0xbdd6581b	-0.104660235
47	0x3e104fce	0.14092943

network.7.weight f4 [64, 48, 3, 3]
0	0xbd53a08f	-0.051666792
1	0xbda88068	-0.082276165
2	0xbdbf958f	-0.09354698
3	0xbd2da771	-0.042396013
4	0xbdd7b7ab	-0.10533079
5	0xbdb37618	-0.08762759
6	0x3cf2569f	0.02958232
7	0xbc47f684	-0.01220477
8	0xbd4a5023	-0.04939283
9	0xbe5633be	-0.20918176
10	0xbe2e7afe	-0.17039105
11	0xbe197013	-0.14984159
12	0xbe8b7f34	-0.27245486
13	0xbdac4192	-0.08410944
14	0xbe02aa4a	-0.12760273
15	0xbd861eb3	-0.06548824
16	0xbd4e7d20	-0.050412297
17	0xbde0294f	-0.10945379
18	0xbd430e47	-0.047621038
19	0xbe04db4f	-0.12974285
20	0xbe0f4a06	-0.13993081
21	0xbdf4af02	-0.119474426
22	0xbdc71076	-0.097199365
23	0xbc0bb7f5	-0.0085277455
24	0xbd54f233	-0.05198879
25	0xbd18b226	-0.03727927
26	0xbd689e37	-0.05679151
27	0x3df1a2e4	0.11798647
28	0x3e24c2e4	0.1608997
29	0x3e352b9a	0.17692414
30	0x3e02f06a	0.12787023
31	0x3e268897	0.16263042
32	0x3e04178d	0.12899609
33	0x3dab685f	0.083695166
34	0x3df52ad1	0.11971057
35	0x3e0d566f	0.13802503
36	0x3d23ffe9	0.040038977
37	0x3d8060bc	0.062684506
38	0x3d2429d7	0.040078964
39	0x3cd0f1c6	0.025505912
40	0x3d8a3b65	0.0674961
41	0x3d4ba949	0.04972199
42	0x3d7d1908	0.06179145
43	0x3d65f3ce	0.056140713
44	0x3b982e80	0.004644215
45	0x3b1969e9	0.0023409075
46	0xbdbcc71e	-0.09217666
47	0xbbfbb87e	-0.0076819053
48	0x3c9a0df8	0.018805489
49	0xbd1bdf19	-0.03805456
50	0x3c66b2ea	0.014080742
51	0xbdb47710	-0.08811772
52	0xbd38495c	-0.044991836
53	0xbd4c0a5f	-0.04981458
54	0xbe6bc8d1	-0.23025824
55	0xbde3e13a	-0.11126943
56	0xbdd34423	-0.103157304
57	0xbdae571e	-0.0851271
58	0x3bc8746d	0.0061173947
59	0xbc9801b2	-0.018555496
60	0xbc1f31fb	-0.009716506
61	0x3d687dac	0.056760475
62	0x3cceeecb	0.02526035
63	0x3db04b4b	0.08608111
64	0x3dace19e	0.084414706
65	0x3dae9e38	0.085262716
66	0x3dc8ac1c	0.09798452
67	0x3caa7be8	0.020811036
68	0x3c05b1ce	0.008160068
69	0x3c0f1c98	0.008734845
70	0x3c85d720	0.016337931
71	0xbd722213	-0.059114527
72	0xbd43b492	-0.047779627
73	0x3d2285f8	0.039678544
74	0x3caf5134	0.021401025
75	0x3abbd158	0.0014329357
76	0xbd177039	-0.03697226
77	0xbd00b163	-0.03141917
78	0xbc9fe45d	-0.019518072
79	0x3ca7af7f	0.020469425
80	0x3b0590f0	0.002038058
81	0xbe8af772	-0.2714191
82	0xbe95b95b	-0.29242977
83	0xbeb2fa00	-0.3495636
84	0xbe7fa4ec	-0.24965256
85	0xbdf0588d	-0.1173564
86	0xbe5950e4	-0.21222264
87	0xbe85cd26	-0.26133078
88	0xbe206a51	-0.15665556
89	0xbe853534	-0.26017153
90	0x3ba96f21	0.0051707183
91	0x3ca679c0	0.020321727
92	0x3c89f843	0.016842013
93	0xbe16e5bd	-0.14736076
94	0xbd417741	-0.04723287
95	0xbd23d7ae	-0.04000061
96	0xbd4a9564	-0.049458876
97	0xbd0722c4	-0.03299214
98	0xbd053822	-0.032524236
99	0x3d585ab5	0.05282088
100	0x3de015a0	0.10941625
101	0x3da5829e	0.08081554
102	0x3d9f1f4c	0.07769641
103	0x3d7d7794	0.061881617
104	0x3dc30700	0.095228195
105	0x3d87abf2	0.06624593
106	0xba22e647	-0.00062141236
107	0x3dc3130f	0.095251195
108	0xbc46d52d	-0.012135786
109	0xbb8fd9af	-0.0043899636
110	0x3d355248	0.044267923
111	0xbca90dc9	-0.020636456
112	0x3c9040c7	0.017609013
113	0x3d0dde4e	0.034635834
114	0xbcfc8dcd	-0.030829335
115	0xbcc8da8a	-0.02451827
116	0x3b2b08a3	0.0026097677
117	0x3d580416	0.05273827
118	0x3c3b4514	0.011430044
119	0xbd32097d	-0.04346608
120	0x3d3e6ff6	0.046493493
121	0x3dc221d6	0.0947911
122	0x3d124272	0.0357079
123	0x3d7238b0	0.059136093
124	0x3d385784	0.045005336
125	0x3e024f4b	0.1272556
126	0x3ddc7322	0.10764147
127	0x3d97ad84	0.07406142
128	0x3d0f8e2e	0.035047702
129	0x3d6af8e2	0.05736626
130	0x3d56712f	0.052354034
131	0x3d7c951d	0.061665643
132	0x3abe86d3	0.001453603
133	0x3b62ee7b	0.0034627009
134	0xbc716367	-0.014733172
135	0xbe7d6c98	-0.24748456
136	0xbe0be664	-0.13662106
137	0xbe94055c	-0.2891034
138	0xbe306f77	-0.1723002
139	0x3bac5d23	0.005260126
140	0xbe4813ca	-0.19538799
141	0xbe782a7c	-0.24234957
142	0xbe1a03ef	-0.15040563
143	0xbea6b2da	-0.32558328
144	0xbe2a2723	-0.16616492
145	0xbe11b051	-0.14227416
146	0xbdefc986	-0.117083594
147	0xbbf11704	-0.00735748
148	0xbcb88830	-0.022525877
149	0xbd4f04b3	-0.05054159
150	0xbd6f14fe	-0.05836963
151	0xbd06c6bf	-0.032904383
152	0x3d8b57ee	0.06803881
153	0xbd7407d9	-0.059577797
154	0xbdd9b0f9	-0.10629458
155	0xbe55c1b4	-0.20874673
156	0x3c5bc2d9	0.0134131545
157	0x3da194fd	0.078897454
158	0xbc282f8d	-0.010265243
159	0x3dfb7d4e	0.12279759
160	0x3e20ceb9	0.15703858
161	0x3de46610	0.111522794
162	0x3cc6312a	0.024193365
163	0x3d04b9c6	0.03240373
164	0xb9e74026	-0.00044107548
165	0xbc85806b	-0.016296586
166	0xbbb85af8	-0.0056260787
167	0xbccba4bc	-0.024858825
168	0xbdc8b2ef	-0.09799754
169	0x3d385ee2	0.045012362
170	0xbd2fc45c	-0.042911872
171	0xbe3ca20c	-0.18421191
172	0xbe86fce0	-0.26364803
173	0xbed1fe3c	-0.41014278
174	0xbe5350d7	-0.20636307
175	0xbe5d136a	-0.21589437
176	0xbe9aa8b2	-0.3020683
177	0xbe3aa33c	-0.18226331
178	0xbda66e93	-0.08126559
179	0xbdd3608e	-0.10321151
180	0x3d1beefa	0.038069703
181	0x3d89b88a	0.06724651
182	0x3bf90f3d	0.0076006935
183	0xbd09ce69	-0.033644114
184	0xbc9f6141	-0.019455554
185	0xbbf29243	-0.0074026897
186	0xbdabcfd0	-0.083892465
187	0xbd707137	-0.05870172
188	0xbddd0c13	-0.107933186
189	0xbdf2677d	-0.11836145
190	0xbdf01c37	-0.117241316
191	0xbdfe17e3	-0.124069
192	0xbd9d5f29	-0.07684166
193	0xbdd0198a	-0.10161121
194	0xbdb5456a	-0.0885113
195	0xbd708002	-0.058715828
196	0xbb535ffc	-0.0032253256
197	0x3c1ceacf	0.009577467
198	0xbe3b875d	-0.18313356
199	0xbcf7b43f	-0.030237315
200	0x3dc3730d	0.095434286
201	0x3c44c9c4	0.012010995
202	0xbd786925	-0.06064715
203	0x3ab46687	0.0013763466
204	0xbbb348ad	-0.00547131
205	0xbc556e63	-0.0130268065
206	0x3d082746	0.03324058
207	0x3d57803c	0.05261253
208	0x3d569ee9	0.052397642
209	0x3dc260ea	0.09491141
210	0x3d01e823	0.031715523
211	0x3d17d8fe	0.037072174
212	0xbd252638	-0.04031965
213	0x3c34b5e8	0.011029698
214	0xbb58a90f	-0.003305975
215	0x3c556920	0.013025552
216	0xbe2a611a	-0.16638604
217	0xbe618f6e	-0.2202737
218	0xbe884a87	-0.2661936
219	0xbe3e4487	-0.18580829
220	0xbe0fca79	-0.14042081
221	0xbe612a12	-0.21988705
222	0xbe080f73	-0.13287143
223	0xbe1f412e	-0.15552208
224	0xbe9c6a60	-0.30549908
225	0xbd61770c	-0.055045173
226	0x3db5c784	0.08875945
227	0x3996483f	0.00028664057
228	0xbd50259a	-0.05081711
229	0x3cfb500b	0.030677816
230	0x3c89475c	0.01675766
231	0x3d4e349a	0.050343134
232	0x3d447806	0.047966026
233	0x3d306c7f	0.04307222
234	0x3db6ffc6	0.08935504
235	0x3d69c76c	0.05707495
236	0x3cf75402	0.030191425
237	0x3b602454	0.003420134
238	0x3cfddffe	0.030990597
239	0xbd3569bb	-0.044290286
240	0xbd997323	-0.07492664
241	0xbb9fb477	-0.004873808
242	0xbd41de3f	-0.04733109
243	0x3ccdb0e5	0.025108764
244	0xbc0ddec4	-0.0086590685
245	0xbc6a17f3	-0.0142879365
246	0xbcfdddb0	-0.030989498
247	0xbcabac8c	-0.0209563
248	0xbd245b4c	-0.04012613
249	0xbd82f93d	-0.06395195
250	0xbce84a0f	-0.028355626
251	0x3d5135c7	0.051076677
252	0xbe1b502c	-0.15167302
253	0xbda984e7	-0.08277302
254	0xbe03f9cd	-0.1288826
255	0xbda6d148	-0.08145386

network.7.bias f4 [64]
0	0x3d4772a8	0.04869333
1	0x37234972	9.732657e-06
2	0x3d5df936	0.054192744
3	0x3d0159be	0.031579725
4	0xbd817f4e	-0.063231096
5	0x3d4143a2	0.04718364
6	0x3c2b70dc	0.0104639195
7	0x3d8d38bf	0.06895589
8	0x3ce42f36	0.027854543
9	0x3e175401	0.14778139
10	0x3d17bf2e	0.037047558
11	0xbd95bfd4	-0.07311979
12	0x3bf7b1d6	0.0075590415
13	0x3d014633	0.031561088
14	0x3de23d5e	0.11046861
15	0x3e256160	0.16150427
16	0xbc8f4092	-0.017486844
17	0x3ddd79db	0.10814258
18	0xbd8041c9	-0.062625475
19	0xbdb0044a	-0.08594568
20	0xbd8ba1d3	-0.06817975
21	0x3c5307c7	0.012880272
22	0x3a4e485e	0.000786906
23	0x3d8229af	0.06355607
24	0x3c6f3db5	0.014602114
25	0x3d13fb4c	0.036128327
26	0x3d973cef	0.07384669
27	0x3d48c01c	0.049011335
28	0xbd379eaf	-0.044829067
29	0xbd6e35df	-0.058156844
30	0x3ba6d138	0.005090859
31	0x3d2cce45	0.0421889
32	0x3d962f78	0.07333273
33	0x3da4bce5	0.08043841
34	0xbdbe2d6d	-0.09286008
35	0xbd380812	-0.04492957
36	0xbdede2be	-0.11615513
37	0xbd880afb	-0.06642719
38	0xbda7b1b2	-0.081881896
39	0x3d207ee1	0.0391835
40	0xbcb19a3e	-0.021679994
41	0xbd955bfd	-0.07292936
42	0x3d2eddc2	0.042691953
43	0x3da7641f	0.081733935
44	0x3d76a7f0	0.06021875
45	0x3cd9b949	0.026577609
46	0x3d767cb7	0.06017753
47	0x3da09833	0.0784153
48	0xbe1fb4f1	-0.15596367
49	0xbd845c5f	-0.06462931
50	0x3b943751	0.004523196
51	0x3da7111f	0.081575625
52	0x3de6a6c0	0.11262274
53	0x3d9826f3	0.07429304
54	0x3ce460df	0.027878223
55	0x3d977d37	0.0739693
56	0x3dd32998	0.10310668
57	0x3ce8f0ca	0.02843513
58	0xbcdf5faf	-0.027267305
59	0xbd030cf8	-0.03199479
60	0x3e0d873f	0.13821124
61	0xbc3a2113	-0.011360425
62	0xbd40e412	-0.047092505
63	0xbdf76882	-0.1208048

network.11.weight f4 [128, 1024]
0	0x3c437a09	0.011930951
1	0xbcee7f8f	-0.029113559
2	0xbd9c3834	-0.076279074
3	0xbc31f8ff	-0.010862588
4	0xbd64349d	-0.05571424
5	0xba2e4420	-0.00066477247
6	0xbdc2a925	-0.09504918
7	0x3ceca67a	0.028887976
8	0xbddc48a5	-0.10756043
9	0xbd47dab6	-0.048792563
10	0xbd6ec4bf	-0.0582931
11	0xbd03bc51	-0.032162014
12	0xba2fe5ff	-0.00067099923
13	0x3b3af434	0.0028526904
14	0x3d4d6476	0.050144635
15	0x3d5204b5	0.05127402
16	0x3cfc2cff	0.030783175
17	0xbd8fa657	-0.07014149
18	0x3c6080de	0.013702599
19	0x3dd5d60e	0.10441218
20	0x3d299e15	0.041410524
21	0xbdb4ebf6	-0.088340685
22	0xbd038631	-0.032110397
23	0xbc29d00f	-0.010364546
24	0x3d0a95d4	0.033834293
25	0xbe016208	-0.12635052
26	0xbceda2b6	-0.02900825
27	0x3c6da6fa	0.014505142
28	0xbc0153a6	-0.0078934785
29	0x3d41801b	0.04724131
30	0xbb1fa3e3	-0.0024359159
31	0x3d797726	0.060904644
32	0x3dc85add	0.09782956
33	0xbdaa7542	-0.083231464
34	0xbdf0a44d	-0.11750088
35	0x3db71bc3	0.08940842
36	0x3d42c832	0.047554202
37	0xbdc4f653	-0.09617295
38	0xbd82c76a	-0.063856915
39	0x3d8f03a8	0.06983119
40	0x3b481402	0.0030529504
41	0xbd5b31a6	-0.053514145
42	0x3ba0299f	0.004887774
43	0x3d77196d	0.060326982
44	0xbcf2ce95	-0.029639522
45	0xbc81c939	-0.01584302
46	0x3d56db82	0.052455433
47	0x3cc9bb5b	0.02462547
48	0xbd22065c	-0.039556846
49	0x3de4a767	0.11164742
50	0xbd9c513b	-0.07632681
51	0x3d0e27f5	0.034706075
52	0xbd155ccb	-0.036465447
53	0x3e3021f9	0.1720046
54	0x3d9bdbd9	0.07610292
55	0x3d6c167a	0.057638623
56	0xbd7fb83d	-0.062431563
57	0x3de7932e	0.11307369
58	0x3e257d61	0.1616111
59	0x3d2c51e0	0.04207027
60	0x3d2209a4	0.039559975
61	0x3de82134	0.11334458
62	0x3bd19c74	0.0063968245
63	0x3d59b528	0.05315128
64	0xbdaff535	-0.085916914
65	0xbd2597a1	-0.040427808
66	0xbdb7ab5d	-0.08968232
67	0x3b836c3f	0.0040107067
68	0xbcda2e02	-0.026633266
69	0xbd1f6b84	-0.038920894
70	0xbc958fb1	-0.018256994
71	0x3c839651	0.016062887
72	0x3c95d082	0.0182879
73	0xbcf691b3	-0.030098772
74	0xbc38c842	-0.011278214
75	0x3d010e07	0.03150752
76	0xbdb845ea	-0.0899771
77	0xbcaac3bb	-0.020845285
78	0xbb283c61	-0.0025670754
79	0xbc942e02	-0.018088344
80	0x3dd3e2fe	0.1034603
81	0x3e5518af	0.20810197
82	0x3e6f5827	0.23373471
83	0x3de2da24	0.11076763
84	0x3d20581c	0.039146528
85	0x3e85a9c5	0.26106086
86	0x3ea21d08	0.31662774
87	0x3e013df2	0.12621287
88	0x3d572aea	0.05253116
89	0x3e186b49	0.14884676
90	0x3e0baf15	0.13641007
91	0x3d6705fb	0.056402188
92	0x3d81619a	0.06317444
93	0x3e8e04dc	0.27738082
94	0x3e94ed26	0.2908718
95	0x3daf1ce6	0.08550434
96	0x3dd89548	0.10575348
97	0x3e88f7e7	0.26751634
98	0x3e3be286	0.1834813
99	0x3e99c50e	0.30033153
100	0x3e7ef274	0.24897176
101	0x3eb35b7b	0.35030732
102	0x3e8b57c9	0.27215412
103	0x3e392340	0.18079853
104	0x3e488418	0.1958164
105	0x3ece0c0c	0.40243566
106	0x3eb48e2e	0.35264724
107	0x3e6d50f9	0.2317542
108	0x3e643ef8	0.22289646
109	0x3ecfa8d4	0.40558493
110	0x3ea43949	0.32074955
111	0x3e7553a4	0.23957688
112	0x3d8b9beb	0.06816848
113	0x3dd4ce5a	0.10390921
114	0x3db2c3d3	0.08728757
115	0x3e12760b	0.14302842
116	0x3e303dbc	0.1721105
117	0x3eba746b	0.36416945
118	0x3ec1fc55	0.37887827
119	0x3e8f12ac	0.27943933
120	0x3e84e7e4	0.25958169
121	0x3ea5251a	0.3225487
122	0x3eb6db41	0.35714152
123	0x3eb148e9	0.3462594
124	0x3e7cffe7	0.24706994
125	0x3ebbd77c	0.3668784
126	0x3eb331f1	0.3499904
127	0x3e80b511	0.25138143
128	0x3d0c7c01	0.034297947
129	0x3e193420	0.1496129
130	0x3d034da2	0.03205646
131	0xbcdfdb27	-0.02732618
132	0x3e33a819	0.17544593
133	0x3e067b6e	0.13133022
134	0x3d3308eb	0.043709677
135	0x3d64555f	0.05574548
136	0x3dc66f25	0.09689168
137	0x3de00e87	0.10940271
138	0x3dd71cf7	0.105035715
139	0x3d5549bd	0.052072275
140	0x3df297fa	0.118453935
141	0x3e1bc066	0.15210113
142	0x3c5d0465	0.013489817
143	0x3dbb98e1	0.09160019
144	0xbd846d78	-0.06466192
145	0xbd879405	-0.06620029
146	0xbdcd2957	-0.100176506
147	0xbdfe338b	-0.12412175
148	0x3e234324	0.15943581
149	0x3e6ffeac	0.23436993
150	0x3e577e4a	0.21044269
151	0x3de980db	0.1140153
152	0x3e45c3e8	0.19313014
153	0x3e723634	0.2365349
154	0x3e7ee51a	0.24892083
155	0x3c87e935	0.016590694
156	0x3e9c3c76	0.30514878
157	0x3e9a1936	0.3009736
158	0x3ea6dd87	0.32590887
159	0x3e16d133	0.1472824
160	0x3d3e06cc	0.0463932
161	0x3e4588fd	0.19290538
162	0x3e30d761	0.1726966
163	0x3d9eeb5a	0.077597335
164	0x3e215b27	0.15757428
165	0x3ea72bf6	0.32650727
166	0x3ea5a3b5	0.3235146
167	0x3df6dc21	0.12053705
168	0x3dae9a91	0.08525575
169	0x3e7ec66b	0.24880378
170	0x3e684541	0.22682668
171	0x3db611d8	0.08890122
172	0x3ccfeef0	0.025382489
173	0x3ec43140	0.38318825
174	0x3edac439	0.4272783
175	0x3e864921	0.26227668
176	0x3dd39767	0.10331612
177	0x3dd799eb	0.105274044
178	0x3da1fabf	0.07909154
179	0x3caef29e	0.021355923
180	0x3e0524d4	0.1300233
181	0xbcded25d	-0.027199918
182	0xbd7f63e9	-0.06235114
183	0x3c0f1ecb	0.008735369
184	0x3d997cc1	0.07494498
185	0xbb89d6df	-0.004206523
186	0x3d5c6b30	0.05381316
187	0x3d1fb2d3	0.0389889
188	0x3c64c80f	0.013963713
189	0x3cf03568	0.029322341
190	0xbd0fc404	-0.035099044
191	0xbcfc45e7	-0.03079505
192	0xbd0f217f	-0.034944054
193	0xbdd91f06	-0.106016204
194	0xbcfa1169	-0.03052588
195	0x3d12d675	0.035849053
196	0x3e79ec76	0.24406609
197	0x3eb4d0db	0.35315594
198	0x3e8ef106	0.2791826
199	0x3e2aa397	0.16663967
200	0x3ea1cdf3	0.3160244
201	0x3ed29514	0.41129363
202	0x3eb29df8	0.34886146
203	0x3ecea0f4	0.40357172
204	0x3ea0216c	0.312755
205	0x3ec7dacc	0.39034116
206	0x3ea38159	0.31934622
207	0x3e72e87e	0.23721501
208	0x3d85e09b	0.06536981
209	0x3d9c012f	0.07617413
210	0x3dab644d	0.0836874
211	0x3ccd8ddc	0.025092058
212	0x3db31a46	0.08745246
213	0x3d2fd75c	0.042929992
214	0xbd6444b7	-0.055729594
215	0xbbc82925	-0.0061084204
216	0x3d299450	0.041401207
217	0x3c2ff7c1	0.0107402215
218	0xbd914184	-0.07092574
219	0xbbb1e30a	-0.0054286765
220	0x3e31cd67	0.17363511
221	0x3d9d1dc9	0.07671697
222	0xbd07743f	-0.033069845
223	0x3c9ea24a	0.019364495
224	0xbcc55f51	-0.024093302
225	0xbd74dff8	-0.059783906
226	0xbc97b926	-0.018520903
227	0x3e169073	0.1470354
228	0x3b79f788	0.0038141925
229	0xbc219ff3	-0.009864795
230	0x3d769b27	0.06020656
231	0x3e5242d4	0.20533305
232	0x3d9cfa9d	0.07664988
233	0x3df752da	0.120763496
234	0x3e597225	0.21234949
235	0x3e4cbca6	0.19993839
236	0xbc12301b	-0.008922602
237	0x3d34ac63	0.044109713
238	0x3dbce63d	0.09223602
239	0x3e0fd793	0.14047079
240	0xbc9fd545	-0.019510875
241	0x3d875495	0.066079296
242	0xbd3241c7	-0.04351976
243	0xbd637126	-0.05552783
244	0x3cbadbbc	0.022809856
245	0x3e18a7f8	0.14907825
246	0x3dd02c67	0.10164719
247	0xbb9c720d	-0.004774338
248	0xbc33430a	-0.010941276
249	0x3dd6d5ea	0.104900196
250	0x3d73f948	0.059563905
251	0x3c502d23	0.012706074
252	0x3dd94601	0.10609055
253	0x3e405608	0.18782818
254	0x3e890199	0.2675903
255	0xbd3acbc7	-0.045604493

network.11.bias f4 [128]
0	0xbd6a87de	-0.05725848
1	0xbd1b8d1b	-0.037976366
2	0xbcef0078	-0.029175028
3	0xbd589b98	-0.05288276
4	0xbd276941	-0.040871862
5	0xbd2eba69	-0.042658243
6	0xbcbe37a7	-0.023219896
7	0x3cfd0638	0.030886754
8	0xbbb18bd2	-0.005418279
9	0x3cf26a8d	0.029591823
10	0xbda6bdbb	-0.08141657
11	0x3ccdb836	0.025112253
12	0x3b72b3e2	0.0037033488
13	0xbd3b6ba5	-0.045756955
14	0xba121d55	-0.0005573829
15	0xbd933715	-0.071882404
16	0xbce15e3a	-0.027510751
17	0xbd747a88	-0.059687167
18	0xbd653d0e	-0.05596643
19	0xbc2874d9	-0.010281765
20	0x3bb1897f	0.005418002
21	0xbd5228a0	-0.051308274
22	0xbd8767ac	-0.06611571
23	0x3d0da587	0.034581687
24	0xbd00179f	-0.031272527
25	0xbdc62f16	-0.0967695
26	0xbd83092f	-0.06398236
27	0x3b8f82fe	0.004379629
28	0xbd57180c	-0.052513167
29	0xbcf21caf	-0.029554693
30	0xbd32f938	-0.043694705
31	0xbd054fa3	-0.03254665
32	0xbd377046	-0.044784807
33	0xbc288ece	-0.010287954
34	0xbd3aef02	-0.04563809
35	0xbd07f0f4	-0.033188775
36	0x3b354722	0.0027660807
37	0xbd15df86	-0.03659012
38	0x3d011280	0.031511784
39	0xbca14993	-0.019688403
40	0xbcb31f53	-0.021865522
41	0x3d131d4d	0.035916615
42	0xbccddb1a	-0.02512889
43	0x3d1cf86a	0.038322844
44	0xbcce21ce	-0.025162604
45	0xbc3fda63	-0.011709782
46	0xbdcd28e6	-0.100175664
47	0x3d6d530a	0.05794052
48	0xba7f8d9c	-0.00097485795
49	0xbc9c5c32	-0.01908693
50	0xbc0a42d4	-0.008438785
51	0xbd910e7c	-0.07082841
52	0xbb90c743	-0.004418285
53	0xbd985c1a	-0.07439442
54	0xbb7e5942	-0.0038810526
55	0xbc3c8494	-0.011506218
56	0x3cfe6737	0.031055076
57	0xbccb98cc	-0.024853133
58	0xbda8cbea	-0.082420185
59	0x3ba0ed38	0.004911091
60	0xbd8b4170	-0.067995906
61	0xbd06bcd9	-0.032894943
62	0xbc44aead	-0.012004537
63	0xbd37260e	-0.044714026
64	0xbca448c6	-0.020054232
65	0xbd7da576	-0.061925374
66	0xbdb25f94	-0.08709636
67	0xbc935385	-0.017984161
68	0xbd60e5ab	-0.05490653
69	0x3cc1b016	0.023643535
70	0xbd6fe5b6	-0.05856868
71	0xbd3fa520	-0.046788335
72	0xbd891fcc	-0.06695518
73	0xbcd9110d	-0.026497388
74	0xbc819f20	-0.015822947
75	0x3d18396e	0.037164144
76	0xbd4f1218	-0.050554365
77	0xbc5f793f	-0.013639747
78	0xbd1d7351	-0.038440052
79	0xbcc05756	-0.023479145
80	0x3cfbbf10	0.030730754
81	0x3d1836ab	0.03716151
82	0xbd20e294	-0.03927858
83	0x3bbae66e	0.005703739
84	0xbd2ae4c5	-0.041722078
85	0xbcdd08dd	-0.026981765
86	0xbda5d4c8	-0.080972254
87	0xbc9c1521	-0.019053044
88	0xbdbf9982	-0.09355451
89	0xbcdfcc9a	-0.027319241
90	0x3c8260d4	0.015915312
91	0xbd4d7eab	-0.050169628
92	0x3d3fb57f	0.046803948
93	0xbd5020fd	-0.05081271
94	0x3c6626f3	0.014047372
95	0xbc6ba720	-0.014383107
96	0xbccac520	-0.0247522
97	0xbcf1ee72	-0.029532645
98	0x3cb452fa	0.022012223
99	0xbce47109	-0.02788593
100	0xbd0dfb30	-0.03466338
101	0xbd1e3dd9	-0.0386332
102	0x3c9d8a4c	0.019230984
103	0xbcdda6f7	-0.027057154
104	0xbd263acb	-0.040583413
105	0xbd3f1579	-0.046651337
106	0xbca93b03	-0.020658022
107	0xbcd723da	-0.026262213
108	0xbcfcf27a	-0.03087734
109	0xbcd8d524	-0.02646882
110	0xbd293d0f	-0.041317996
111	0xbd22069d	-0.03955709
112	0xbd12d4a9	-0.03584734
113	0xbcdbe780	-0.026843786
114	0xbdad6624	-0.084667474
115	0xbca8e50b	-0.020617029
116	0xbd0b2fae	-0.033981018
117	0xbd4bd1e8	-0.04976073
118	0xbd804170	-0.06262481
119	0x3cc57250	0.02410236
120	0x3c9bcfa4	0.01901991
121	0xbcfb1b2b	-0.030652603
122	0xbca9da2d	-0.020733917
123	0xbd09e325	-0.033663888
124	0xbc811ef2	-0.015761826
125	0xbcc63c40	-0.024198651
126	0x3cc69c9a	0.024244595
127	0x3d859801	0.06523133

network.14.weight f4 [4, 128]
0	0x3d65b1c6	0.05607774
1	0xbcd53419	-0.026025819
2	0x3d097194	0.033555582
3	0xbead9520	-0.33902836
4	0xbe6231bd	-0.22089286
5	0xbf476d7f	-0.7790145
6	0x3ebcc39e	0.36867994
7	0x3dac55d4	0.08414808
8	0x3c9bb9d6	0.019009512
9	0x3d7e583c	0.062095866
10	0xbf1a50ee	-0.6027974
11	0x3e0baefc	0.1364097
12	0x3bce6b1c	0.0062993895
13	0x3ece2d7b	0.40269074
14	0xbcfb9ce4	-0.03071446
15	0x3dd3fc19	0.10350818
16	0xbeb072f2	-0.34462696
17	0xbf1f7d28	-0.6230035
18	0xbeef33f9	-0.4671934
19	0xbec54c58	-0.38534808
20	0xbf4607f5	-0.7735589
21	0xbf26e269	-0.65189224
22	0xbf09fed6	-0.53904474
23	0x3dc2d796	0.09513776
24	0x3d3d7f58	0.046264023
25	0x3dda6523	0.106638215
26	0x3dd23dd7	0.10265701
27	0xbf0746f4	-0.5284264
28	0x3dc2deeb	0.095151745
29	0xbec6d3bf	-0.38833424
30	0x3b075b62	0.0020653834
31	0x3d159985	0.03652336
32	0xbee6e014	-0.45092833
33	0xbea2e675	-0.3181645
34	0x3dc06c17	0.093956165
35	0xbf388ef6	-0.7209314
36	0xbf3e08fe	-0.7423247
37	0x3d96b882	0.07359411
38	0x3e0fe246	0.1405116
39	0x3d651972	0.05593247
40	0xbc7c623a	-0.015404278
41	0xbea48798	-0.321347
42	0xbf4a792e	-0.79091156
43	0x3de115c9	0.10990483
44	0xbeac34af	-0.33633944
45	0xbf3eb540	-0.74495316
46	0x3cf89825	0.030345986
47	0x3ddff0a3	0.1093457
48	0xbed1672e	-0.40899032
49	0x3d303522	0.04301942
50	0xbf4c4403	-0.7979128
51	0x3da2a9cd	0.07942543
52	0xbf323d90	-0.69625187
53	0xbf11ae80	-0.5690689
54	0xbf3e4cb6	-0.743358
55	0x3e859586	0.2609064
56	0x3db31aba	0.08745332
57	0x3ed4fa60	0.4159727
58	0x3d68c86f	0.056831773
59	0x3ec65991	0.3874021
60	0xbf0648f8	-0.5245509
61	0xbcf86f3d	-0.03032648
62	0xbd98a20e	-0.074527845
63	0x3edd200f	0.4318852
64	0xbdab7660	-0.083721876
65	0x3e0b01dc	0.13574928
66	0xbef450f3	-0.4771801
67	0xbf375522	-0.7161428
68	0x3c4f4a24	0.012651954
69	0x3d76953e	0.060200922
70	0xbf204d0d	-0.6261757
71	0xbeecdce1	-0.46262267
72	0x3dd92a81	0.1060381
73	0xbf328bed	-0.6974476
74	0x3eb327c4	0.34991276
75	0x3dbe7e68	0.09301454
76	0xbeca8715	-0.39556184
77	0xbebd9081	-0.3702431
78	0x3dcc808c	0.09985456
79	0xbeaa390f	-0.33246657
80	0x3dd4d6d9	0.103925414
81	0x3df7712c	0.12082133
82	0x3cb14be9	0.021642642
83	0xbf43cd50	-0.76485157
84	0xbe4981fa	-0.19678488
85	0x3da579dd	0.08079884
86	0x3dcc29a6	0.09968881
87	0x3d834e1f	0.06411385
88	0x3db44e51	0.08804
89	0x3d9005f4	0.070323855
90	0x3dcc18a6	0.09965639
91	0x3db8a0ac	0.09015021
92	0x3db5f142	0.08883907
93	0xbed5fff2	-0.41796833
94	0xbe017f51	-0.12646224
95	0xbf0a0d24	-0.539263
96	0xbd6d9557	-0.05800375
97	0x3ebd0cd3	0.36923847
98	0x3de93351	0.11386741
99	0xbeca6d78	-0.39536643
100	0xbedeadc6	-0.43491954
101	0xbeb176a1	-0.3466082
102	0x3e0f3fde	0.13989207
103	0xbd897f55	-0.0671374
104	0x3d4a7bce	0.049434476
105	0x3ed4f71a	0.41594774
106	0xbd833e32	-0.06408347
107	0xbf3a1221	-0.7268391
108	0xbd8ac6b6	-0.06776182
109	0x3ed6b79c	0.41936958
110	0xbf23087b	-0.63684815
111	0xbeb5137f	-0.35366437
112	0x3ea60dee	0.32432503
113	0xbf52938a	-0.82256377
114	0x3de26efd	0.110563256
115	0xbf0301cf	-0.51174635
116	0x3d93bf1f	0.07214188
117	0xbeea0224	-0.45704758
118	0x3de86d50	0.11348975
119	0x3dcc0992	0.09962763
120	0xbd528b4b	-0.05140237
121	0xbf24d537	-0.6438784
122	0x3b36a871	0.0027871395
123	0xbe9e746d	-0.309482
124	0x3db3cef4	0.087797076
125	0xbd9211b8	-0.07132286
126	0xbe6eeac9	-0.23331751
127	0x3df75b88	0.12078005
128	0x3d29aa1f	0.041422006
129	0x3bb1484f	0.005410231
130	0x3c62f3ed	0.013852102
131	0xbf58ed49	-0.8473707
132	0xbf4e5949	-0.8060499
133	0x3e05e6c7	0.13076316
134	0xbeda02a8	-0.42580152
135	0xbf14051e	-0.5782031
136	0x3b799406	0.0038082614
137	0xbecc561f	-0.39909455
138	0x3e64422a	0.22290865
139	0xbf0806dd	-0.5313547
140	0x3d91ccea	0.071191624
141	0xbec0b836	-0.37640542
142	0xbc753cc6	-0.014968103
143	0x3de7ab38	0.11311954
144	0xbf5e88cb	-0.8692748
145	0x3e66bbea	0.22532621
146	0xbf1ed4db	-0.6204354
147	0xbf498243	-0.7871439
148	0x3d9ed47d	0.07755373
149	0x3e2602e9	0.16212048
150	0x3e89cefc	0.2691573
151	0xbf0bef8f	-0.5466241
152	0x3d3345ce	0.043767743
153	0x3ddb7b5a	0.10716887
154	0xbf3e68f1	-0.7437888
155	0xbf5b5701	-0.8567963
156	0x3dacc59e	0.0843613
157	0xbf2ba92a	-0.67055
158	0xbbe620e9	-0.007022966
159	0x3d0c58ba	0.034264304
160	0xbf324ee0	-0.69651604
161	0xbf51b95b	-0.81923455
162	0x3dd56be6	0.104209706
163	0x3dd1b1a1	0.10238958
164	0x3e0ba835	0.13638385
165	0x3da14263	0.078739904
166	0xbf10975b	-0.5648095
167	0x3d44194e	0.047875695
168	0x3b8f98ad	0.004382214
169	0xbed07f33	-0.40722045
170	0x3dc7dea0	0.09759259
171	0xbef60604	-0.48051465
172	0xbf62c325	-0.88579017
173	0x3e15e49f	0.14637993
174	0xbf7ddde0	-0.9916668
175	0xbef0de38	-0.4704454
176	0xbf55d55b	-0.8352868
177	0x3d96dba9	0.073661156
178	0x3e18d0bd	0.14923377
179	0xbf4d1c3c	-0.8012121
180	0x3e2a4925	0.16629465
181	0x3e820c13	0.25399837
182	0x3e0d6bed	0.13810702
183	0xbf163a16	-0.5868238
184	0xbf0fd92c	-0.56190753
185	0xbeb479cb	-0.3524917
186	0x3d8e7a95	0.069569744
187	0xbef2ab29	-0.4739621
188	0x3e630c6c	0.22172707
189	0xbd4834b9	-0.048878405
190	0xbd39f6b2	-0.045401283
191	0xbf0668bf	-0.5250358
192	0xbd120ba0	-0.035655618
193	0x3dfa73f1	0.12229145
194	0x3e76df35	0.24108584
195	0x3e4237ea	0.18966642
196	0xbc11a3e4	-0.008889172
197	0xbefc92ad	-0.49330655
198	0x3e7e4378	0.24830425
199	0xbf3567cb	-0.708615
200	0x3dd5cd70	0.10439575
201	0x3e824464	0.25442803
202	0xbeac72e3	-0.33681402
203	0xbef31d76	-0.47483414
204	0xbf271f30	-0.65281963
205	0xbf355685	-0.70835143
206	0x3dc2d016	0.095123455
207	0xbf5452d8	-0.8293891
208	0xbf0be330	-0.54643536
209	0xbeebe16e	-0.46070427
210	0xbd85bbfa	-0.06529994
211	0x3df03776	0.11729328
212	0xbf74b5f2	-0.95590127
213	0x3db09f28	0.08624107
214	0x3dec365e	0.11533807
215	0x3d50f2b0	0.051012695
216	0x3dd891e9	0.10574705
217	0x3d48379d	0.048881162
218	0xbf080dd8	-0.53146124
219	0x3db7ab34	0.08968201
220	0xbf0926aa	-0.5357462
221	0xbf1977a3	-0.59948176
222	0xbe6978ff	-0.22800063
223	0xbf2bdf26	-0.6713737
224	0x3cbe85d3	0.023257172
225	0xbebbdfee	-0.36694282
226	0xbf128243	-0.57230014
227	0xbf5831f3	-0.84451216
228	0xbf68db41	-0.90959555
229	0xbf47e53c	-0.7808416
230	0xbeeb819e	-0.45997328
231	0xbd775cbf	-0.060391184
232	0x3d22e83b	0.039772253
233	0xbee1019a	-0.43946534
234	0x3d70417d	0.058656204
235	0x3e5b5edf	0.21422909
236	0x3e7ef972	0.24899843
237	0xbecaa5f0	-0.39579725
238	0x3e4d9bd9	0.20078982
239	0xbf7575fb	-0.9588315
240	0xbeeceae7	-0.46272966
241	0x3dfbd1a7	0.122958474
242	0x3defe044	0.11712697
243	0xbf080ed5	-0.5314763
244	0x3d95934d	0.07303486
245	0xbf31ddc9	-0.6947904
246	0x3dda980d	0.10673533
247	0xbefeb537	-0.4974763
248	0x3d98d44f	0.0746237
249	0x3e7b7cec	0.24559373
250	0x3d2d6749	0.04233483
251	0xbf73f2c8	-0.9529233
252	0x3dc21d68	0.09478265
253	0x3e73b8dc	0.23800987
254	0xbec992fa	-0.39369947
255	0xbee21be0	-0.44161892

network.14.bias f4 [4]
0	0xbed1ff3d	-0.41015044
1	0x3c076f0c	0.008266222
2	0xbe1f3764	-0.15548474
3	0x3f2196d2	0.6312076
