models/vgg/VGG2_Adam_16_lr0.0001_wd0/VGG2_Adam_16_lr0.0001_wd0.pth (torch, 716955 bytes, 12 tensors)

network.0.weight f4 [16, 1, 3, 3]
0.39283347 -0.39509937 -0.46079183 0.3591948 0.19892846 -0.40877575 -0.13546082 0.24963486
0.24934806 -0.39722526 0.13641249 0.4867583 -0.6668657 -0.4240627 0.4233688 0.2379078
0.07379353 0.35937867 0.17293178 0.06934378 0.49762076 -0.11640023 0.29266518 0.07723033
-0.31208223 -0.4068237 0.04233464 0.047072407 -0.04025896 0.3705065 0.34956023 0.09548461
-0.050655045 -0.327293 -0.42476833 -0.08590503 0.025595477 0.09278274 0.24942824 -0.41541892
0.10985025 0.2981053 -0.41375214 -0.45790932 0.21020997 0.23352565 0.34798062 0.31720635
-0.10570838 0.24925853 -0.10617019 0.0047309813 -0.3069992 0.14923081 0.41240308 -0.0069135837
0.21818681 -0.27254242 -0.2658848 0.18688227 0.20661785 0.30470088 -0.28428814 0.12582463
0.3954105 -0.100579694 -0.06631112 -0.08093486 -0.031866718 0.2564304 -0.443128 -0.007305806
-0.25302067 0.033292077 -0.3874754 -0.1369634 0.030275067 0.3440467 -0.037377726 0.37003264
0.23045625 -0.29986307 0.26589683 0.14348826 -0.2462366 -0.2540941 0.3926126 0.06936746
0.029924463 0.1410714 -0.32795385 -0.28761688 0.20920633 -0.09734605 0.0019902526 0.022855151
0.07179409 0.19451608 0.30849984 0.29181015 -0.115011 -0.40650812 0.46069893 -0.070424095
0.269024 0.18194447 -0.51213896 -0.017611396 -0.42521325 -0.30373955 -0.29706427 -0.22162795
-0.29437557 0.15193218 0.26236546 0.12700833 0.089449435 -0.119371004 0.15038043 -0.09888227
-0.36831266 -0.48185226 0.33497676 0.2346221 -0.00093387754 0.49275753 0.27589825 0.31016463
0.19714187 -0.23814154 0.04541086 0.013832298 -0.18485373 -0.060184114 0.10633558 0.098761946
-0.28727436 -0.214463 0.45193183 0.17557932 0.0718583 -0.0052372017 -0.08708362 -0.1061542
00000000: 7821 c93e 774a cabe e8ec ebbe 61e8 b73e
00000010: e7b3 4b3e 0e4b d1be 3eb6 0abe 48a0 7f3e
00000020: 1955 7f3e 1c61 cbbe b7af 0b3e 6238 f93e
00000030: b6b7 2abf bf1e d9be ccc3 d83e 1a9e 733e
00000040: 1021 973d 7b00 b83e 0715 313e 1d04 8e3d
00000050: 26c8 fe3e 3e63 eebd 36d8 953e ef2a 9e3d
00000060: 3ec9 9fbe 324b d0be 1667 2d3d ffce 403d
00000070: 94e6 24bd 07b3 bd3e 8ff9 b23e 6f8d c33d
00000080: aa7b 4fbd f392 a7be 3c7b d9be faee afbd
00000090: 9bad d13c e104 be3d 1e6a 7f3e cab1 d4be
000000a0: 2bf9 e03d 42a1 983e 52d7 d3be 1773 eabe
000000b0: 4841 573e 5921 6f3e 842a b23e df68 a23e
000000c0: a37d d8bd a13d 7f3e c26f d9bd 5906 9b3b
000000d0: 002f 9dbe f6cf 183e 7f26 d33e 588b e2bb
000000e0: 5d6c 5f3e ae8a 8bbe 0d22 88be 115e 3f3e
000000f0: a193 533e c101 9c3e 378e 91be 2cd8 003e
00000100: 3f73 ca3e bafc cdbd 20ce 87bd 2dc1 a5bd
00000110: ad86 02bd d84a 833e ace1 e2be 8b65 efbb
00000120: ed8b 81be 465d 083d 2d63 c6be 2240 0cbe
00000130: 6b03 f83c e426 b03e 6319 19bd eb74 bd3e
00000140: b9fc 6b3e a787 99be a123 883e 96ee 123e
00000150: 7325 7cbe 9f18 82be 8504 c93e 8710 8e3d
00000160: 2624 f53c 0575 103e 91e9 a7be 8542 93be
00000170: 2f3a 563e 5e5d c7bd e66e 023b ba3a bb3c
00000180: c808 933d 392f 473e b1f3 9d3e 2468 953e
00000190: e38a ebbd d521 d0be bbe0 eb3e 823a 90bd
000001a0: 84bd 893e a74f 3a3e 8a1b 03bf c645 90bc
000001b0: 8db5 d9be c083 9bbe cf18 98be 70f2 62be
000001c0: 65b8 96be 1c94 1b3e c454 863e 790e 023e
000001d0: 4431 b73d c978 f4bd 54fd 193e ca82 cabd
000001e0: 7a93 bcbe 57b5 f6be 1382 ab3e c740 703e
000001f0: 76cf 74ba b74a fc3e 8942 8d3e e6cd 9e3e
00000200: 8fdf 493e 60db 73be bd00 3a3d dda0 623c
00000210: 4c4a 3dbe 9e83 76bd 78c6 d93d b443 ca3d
00000220: a015 93be 309c 5bbe 9c63 e73e 11cb 333e
00000230: 722a 933d d59c abbb e658 b2bd 6067 d9bd

network.0.bias f4 [16]
0.16342106 0.056512326 -0.1339299 0.28615683 -0.09201108 -0.013300049 -0.24940133 0.053277995
-0.23433533 -0.16991231 0.26180437 0.012171177 -0.18140317 0.18774387 0.12908855 0.17028423
00000000: da57 273e 7879 673d eb24 09be 2683 923e
00000010: 4e70 bcbd 73e8 59bc 1063 7fbe 073a 5a3d
00000020: 9af5 6fbe 7efd 2dbe 390b 863e 9e69 473c
00000030: c1c1 39be ee3f 403e ca2f 043e fd5e 2e3e

network.2.weight f4 [32, 16, 3, 3]
-0.106114 0.0709832 0.053107727 -0.0072649955 -0.07493164 -0.038037006 -0.15003464 0.0384779
0.091011725 0.04221231 0.016033664 -0.005278317 0.021503577 -0.05954912 -0.08334146 0.13220072
-0.06806597 -0.09652779 -0.012470699 -0.12695132 -0.11672974 -0.09024016 -0.07430535 -0.18307275
-0.18316494 -0.102662854 -0.22330528 0.049097527 0.00040450104 0.04299366 0.029001841 -0.0778473
-0.027454115 0.07246865 0.06544016 0.048916377 -0.019995512 -0.30617857 -0.66146666 -0.15324809
-0.25170493 -0.45899546 -0.33652568 -0.40164033 -0.28235665 0.0121429125 0.0686479 0.09175881
0.083129875 0.11560864 0.05048364 -0.051605638 0.041849464 -0.016245715 -0.25155032 -0.12121548
-0.06619536 -0.40751377 -0.24345258 -0.014279168 -0.23274758 -0.48774987 -0.30053234 0.04543468
0.03067496 -0.07565463 -0.048002508 -0.024401607 -0.015406489 -0.04463315 0.013106237 -0.048689302
-0.21434177 -0.020386714 -0.1719204 -0.018168492 -0.011525019 -0.16974081 0.031033974 -0.041562047
-0.0028330933 -0.04308879 -0.22226542 -0.28174376 -0.092779644 -0.38124567 -0.27107725 -0.026308479
-0.28205243 -0.28168464 0.039661292 -0.03675183 0.05348733 0.06672316 0.012287661 -0.0063252808
0.03062695 0.096325494 0.08792282 -0.16773862 -0.087822676 0.045995947 -0.40238735 -0.1906511
-0.040575095 -0.26841316 -0.24647492 -0.10612783 -0.005874487 -0.05157313 -0.13980716 -0.0908795
-0.17635816 -0.106333844 -0.18100879 -0.35632032 -0.42618057 -0.025383865 0.058412407 0.037964094
-0.012467707 0.0051642465 -0.09758554 0.01783249 0.027336545 -0.023839843 0.040125888 -0.04336863
-0.04861117 0.04945839 0.040733166 0.11770965 0.06723605 0.107609876 0.07645736 -0.07889667
0.06011942 0.12068269 -0.0013768572 0.047686562 0.07040399 -0.050794557 -0.009918686 -0.020192156
-0.07463444 0.11264229 0.10692099 -0.13619381 -0.21954742 -0.2879691 0.033222023 -0.13782558
-0.08630876 0.06363407 0.0050561354 0.15292744 0.14713115 0.08854097 0.053222295 -0.09809139
-0.09404626 0.094248295 -0.063742734 -0.017621161 0.112007886 -0.070892654 -0.05185858 0.27106968
0.04681439 0.11270458 0.10797406 -0.113506965 -0.2507126 -0.31055954 -0.18890502 -0.016287742
0.019674685 0.07232257 0.11323075 0.018361766 -0.0018473745 -0.046072796 0.05383415 0.17627591
0.020905018 0.015169449 -0.032222107 -0.024727847 -0.16547838 0.01845895 -0.06675656 -0.11464314
-0.12701215 -0.108754255 -0.0111427745 0.050390903 0.013112562 0.064104475 0.29444796 0.21463978
-0.017458089 0.009580942 -0.034781076 0.005976072 -0.28092173 -0.087516814 0.01060762 0.01625737
0.03141379 -0.039113868 -0.09924479 -0.25655067 0.0031622788 -0.05057488 0.011780373 0.03724173
0.061257105 0.2563908 0.4600842 0.2317841 0.08048723 -0.026037559 0.030639302 -0.24954188
-0.10547518 -0.13195936 -0.059196226 0.15307511 -0.053342666 -0.03514011 0.15830334 -0.22140492
-0.26081273 0.022396453 0.0540332 -0.00736042 0.06355285 0.07276524 0.015241863 0.05210093
-0.027232753 0.10396752 -0.0013284258 -0.23547864 -0.23162358 -0.26601964 0.0069500236 -0.076564275
0.12097899 0.20856373 -0.074237026 -0.15239869 0.079645544 0.18302166 0.19457993 0.20804583
00000000: 4c52 d9bd a45f 913d 7d87 593d 330f eebb
00000010: c275 99bd b1cc 1bbd aea2 19be 019b 1d3d
00000020: 5b64 ba3d d1e6 2c3d 0859 833c bbf5 acbb
00000030: 4528 b03c c7e9 73bd edae aabd a05f 073e
00000040: 2c66 8bbd 5db0 c5bd e751 4cbc 87ff 01be
00000050: 0010 efbd d5cf b8bd 672d 98bd 6c77 3bbe
00000060: 978f 3bbe e740 d2bd 24aa 64be 7d1a 493d
00000070: 3613 d439 1f1a 303d 4595 ed3c 686e 9fbd
00000080: 74e7 e0bc 726a 943d 7e05 863d 8a5c 483d
00000090: a1cd a3bc 70c3 9cbe e155 29bf 11ed 1cbe
000000a0: 78df 80be 7401 ebbe 184d acbe cda3 cdbe
000000b0: 0d91 90be 11f3 463c 4597 8c3d 0bec bb3d
000000c0: ff3f aa3d 39c4 ec3d efc7 4e3d 6f60 53bd
000000d0: 586a 2b3d bc15 85bc 34cb 80be d23f f8bd
000000e0: 6f91 87bd a5a5 d0be a24b 79be 2cf3 69bc
000000f0: 6255 6ebe 5aba f9be 60df 99be b719 3a3d
00000100: 0e4a fb3c d1f0 9abd 479e 44bd e1e5 c7bc
00000110: 806b 7cbc 40d1 36bd 8bbb 563c 6f6e 47bd
00000120: 697c 5bbe 0a02 a7bc e70b 30be 17d6 94bc
00000130: 6fd3 3cbc 89d0 2dbe f63a fe3c f73c 2abd
00000140: 6bab 39bb df7d 30bd 8c99 63be b840 90be
00000150: 4103 bebd a232 c3be a3ca 8abe e184 d7bc
00000160: 2d69 90be f838 90be e173 223d 1689 16bd
00000170: 8815 5b3d 27a6 883d 3052 493c 4d44 cfbb
00000180: 5fe5 fa3c 4d46 c53d e110 b43d acc3 2bbe
00000190: 60dc b3bd 3f66 3c3d b705 cebe 0b3a 43be
000001a0: 1232 26bd 736d 89be ec63 7cbe 8c59 d9bd
000001b0: c57e c0bb 593e 53bd 9c29 0fbe 081f babd
000001c0: 3c97 34be 8fc5 d9bd 5e5a 39be 9e6f b6be
000001d0: 5734 dabe d3f1 cfbc d941 6f3d 3d80 1b3d
000001e0: 5a45 4cbc d738 a93b edda c7bd 7115 923c
000001f0: e4f0 df3c c64b c3bc 0b5b 243d 4ea3 31bd
00000200: 821c 47bd e194 4a3d d2d7 263d c211 f13d
00000210: 0eb3 893d 9162 dc3d ad95 9c3d 9494 a1bd
00000220: c83f 763d 7c28 f73d a977 b4ba fc52 433d
00000230: f82f 903d f40d 50bd fc81 22bc 056a a5bc
00000240: f1d9 98bd 00b1 e63d 64f9 da3d 6476 0bbe
00000250: 0ad1 60be b070 93be d113 083d 2622 0dbe
00000260: a6c2 b0bd 9452 823d f0ad a53b 0399 1c3e
00000270: 8ca9 163e f854 b53d 9fff 593d 24e4 c8bd
00000280: 539b c0bd 4005 c13d 8d8b 82bd 415a 90bc
00000290: 6464 e53d 2b30 91bd aa69 54bd a5c9 8a3e
000002a0: 72c0 3f3d a9d1 e63d 8121 dd3d 5776 e8bd
000002b0: 675d 80be a901 9fbe 5170 41be df6d 85bc
000002c0: ce2c a13c db1d 943d 86e5 e73d 6a6b 963c
000002d0: 9a23 f2ba d4b6 3cbd 3381 5c3d ac81 343e
000002e0: 0041 ab3c 4889 783c 54fb 03bd 0e92 cabc
000002f0: 2a73 29be 3937 973c aab7 88bd 06ca eabd
00000300: 790f 02be 8dba debd 2f90 36bc b166 4e3d
00000310: 12d6 563c 3549 833d e2c1 963e 88ca 5b3e
00000320: 4404 8fbc 62f9 1c3c 9a76 0ebd edd2 c33b
00000330: f9d4 8fbe 043c b3bd 95cb 2d3c 2d2e 853c
00000340: bfab 003d dd35 20bd da40 cbbd 9c5a 83be
00000350: 3c3e 4f3b 9b27 4fbd 7702 413c c98a 183d
00000360: bbe8 7a3d a845 833e 2890 eb3e d058 6d3e
00000370: 7dd6 a43d b84c d5bc 46ff fa3c e887 7fbe
00000380: 5f03 d8bd 5b20 07be be77 72bd b9bf 1c3e
00000390: d77d 5abd 13ef 0fbd 451a 223e f9b7 62be
000003a0: 3f89 85be c478 b73c eb51 5d3d ae2f f1bb
000003b0: ff27 823d f105 953d 02b9 793c c967 553d
000003c0: 3917 dfbc ecec d43d 931e aeba 5021 71be
000003d0: bb2e 6dbe ba33 88be 06bd e33b bbcd 9cbd
000003e0: d5c3 f73d bb91 553e 9509 98bd 670e 1cbe
000003f0: 341d a33d 086a 3b3e f63f 473e f709 553e

network.2.bias f4 [32]
0.042545676 -0.06138409 0.039984502 0.043866426 0.014104529 -0.102957554 -0.027347863 -0.032020442
0.038369235 0.08733885 -0.04938744 3.7681184e-05 0.00043305513 0.11068083 0.0015347335 -0.06267837
0.031717945 -0.10869813 -0.14080943 -0.062048495 0.027977051 0.055485066 -0.022632904 -0.042507675
-0.17321086 -0.2529482 -0.090727195 0.03341964 0.038978044 0.008902931 -0.022987856 -0.11257176
00000000: 6044 2e3d e26d 7bbd cac6 233d 48ad 333d
00000010: af16 673c 69db d2bd a008 e0bc de27 03bd
00000020: 0f29 1d3d b6de b23d 7c4a 4abd dd0b 1e38
00000030: ad0b e339 a2ac e23d 1c29 c93a 845d 80bd
00000040: adea 013d 209d debd 5930 10be 9026 7ebd
00000050: 2130 e53c 4f44 633d a468 b9bc 871c 2ebd
00000060: 305e 31be 6d82 81be 2ecf b9bd 08e3 083d
00000070: 71a7 1f3d 99dd 113c 0751 bcbc 068c e6bd

network.5.weight f4 [48, 32, 3, 3]
0.003870007 0.007457243 -0.06289572 0.1314626 0.09807914 -0.022461625 0.113643184 0.07033876
-0.08145996 0.10757158 0.020568177 -0.10855166 0.052070066 -0.046829067 -0.06592938 0.038692098
0.013026748 0.06829764 0.07237472 0.0662319 0.030323539 0.1917151 0.06878995 0.030614302
0.16493678 0.08264501 0.006336952 -0.0703229 -0.12882335 -0.10750844 -0.15054303 -0.21377677
-0.26083145 0.085191496 0.013628146 0.1383142 -0.08727604 -0.03518875 -0.08901477 -0.050329134
-0.08352839 -0.26211396 0.1020362 -0.00798347 -0.12565455 0.035345275 0.11572346 0.072790936
0.028376285 0.05518908 0.04669238 -0.028590977 0.04715637 0.052152842 -0.08874046 -0.108978264
-0.11035895 0.017729608 0.056586333 -0.0056782663 -0.08752424 -0.04326557 -0.02413553 0.061106678
0.06774759 0.20799048 0.057781495 0.02959126 0.13227308 0.06759136 0.04559033 0.11397859
-0.07811627 -0.06640546 -0.101142384 0.023607085 0.10321577 0.016647503 0.03216713 0.046766378
0.0041867523 -0.21716167 -0.21038696 -0.022903947 -0.37237963 -0.19425745 -0.18217313 -0.01134876
0.10651767 0.22259192 0.02873993 0.10987733 0.14126898 0.04620996 0.06391048 0.21594952
0.021566017 0.032087218 0.25433385 -0.20412497 -0.19272698 -0.20305103 -0.0566572 -0.026637763
-0.06825306 0.08757165 0.045660067 0.0035847744 -0.0016841505 0.06669609 0.012002428 -0.22923
0.052493483 -0.019008882 -0.45192552 -0.3423035 -0.123781666 0.17855139 0.12791973 -0.12258676
0.036296897 0.002935213 -0.056227677 -0.01169502 0.10071142 0.106281206 -0.00509297 -0.053278703
0.06363944 0.072889976 0.064865515 0.14119352 0.01025715 0.14580052 0.17181037 0.06606916
0.10598539 0.048367653 0.12717927 0.104955494 0.044756055 0.26871175 0.047459483 -0.07315196
-0.20457736 -0.009978301 -0.047135893 -0.08716061 -0.00011268536 0.003596995 -0.098541245 0.044136167
0.075835496 -0.035293344 -0.0059015793 0.04123309 -0.33036453 -0.17539221 -0.1277439 -0.61462486
-0.6257663 -0.30250993 0.031835336 0.22408062 0.1208335 -0.16965705 -0.3169733 -0.27532324
-0.06365063 -0.06723802 -0.03332692 0.027233692 -0.06097392 -0.004585085 0.037075438 -0.030751731
0.0035461448 -0.066540435 -0.0013030362 0.011951849 0.10484929 0.0744458 0.12118444 0.079426326
-0.005758136 0.031547736 0.07792148 0.033189535 4.1704952e-05 -0.13606042 -0.10989847 -0.045905754
-0.38299328 -0.32545966 -0.39027566 -0.21879841 -0.19862443 -0.111158945 0.027905526 -0.013427812
0.07301208 0.0028724207 -0.019220795 0.057816856 0.020392861 0.005126315 0.15010512 -0.06894627
-0.11543502 -0.13287291 -0.09179195 -0.06491643 -0.091439396 0.016207708 0.040608518 0.15440987
-0.16780773 -0.15475102 -0.11792157 -0.29130083 -0.20488638 -0.22815032 -0.2199155 -0.35066327
-0.48730505 0.12783113 0.1402486 0.030181922 -0.27845907 -0.17633665 -0.24571656 -0.12326455
-0.16499794 0.03940631 -0.09978623 -0.04894998 -0.08993531 -0.021001646 0.08438154 0.14152166
0.08635811 0.08735185 0.086511835 0.06839114 0.08802184 -0.07087678 -0.022724451 0.033078425
-0.16326188 0.08346958 0.04064898 -0.27307492 -0.018359842 -0.12579432 -0.03554477 -0.06011197
00000000: f29f 7d3b e35b f43b 79cf 80bd 229e 063e
00000010: b7dd c83d 7101 b8bc c2bd e83d c50d 903d
00000020: 7bd4 a6bd 7d4e dc3d 987e a83c 5550 debd
00000030: 6c47 553d d6cf 3fbd fc05 87bd 9b7b 1e3d
00000040: 246e 553c a2df 8b3d 3239 943d 97a4 873d
00000050: 1269 f83c f750 443e bfe1 8c3d d8ca fa3c
00000060: 30e5 283e c941 a93d 35a6 cf3b 7405 90bd
00000070: 45ea 03be 632d dcbd f427 1abe 4ce8 5abe
00000080: b38b 85be e178 ae3d 9648 5f3c 3da2 0d3e
00000090: c8bd b2bd 1422 10bd 604d b6bd ec25 4ebd
000000a0: ef10 abbd cd33 86be 5bf8 d03d 1acd 02bc
000000b0: 96ab 00be 35c6 103d 6c00 ed3d 6a13 953d
000000c0: 6275 e83c f20d 623d 8240 3f3d a037 eabc
000000d0: 0a27 413d 389e 553d 8fbd b5bd ff2f dfbd
000000e0: e003 e2bd af3d 913c 12c7 673d c010 babb
000000f0: e93f b3bd 3d37 31bd e0b7 c5bc ff4a 7a3d
00000100: 40bf 8a3d 75fb 543e 4aac 6c3d 5f69 f23c
00000110: 9872 073e 576d 8a3d edbc 3a3d 9b6d e93d
00000120: 6cfb 9fbd 96ff 87bd bd23 cfbd a563 c13c
00000130: ca62 d33d 5860 883c aec1 033d 1a8e 3f3d
00000140: 0631 893b a15f 5ebe ae6f 57be 0fa1 bbbc
00000150: 8ba8 bebe 6deb 46be 988b 3abe 26f0 39bc
00000160: f025 da3d 23ef 633e 0070 eb3c 5e07 e13d
00000170: d1a8 103e a846 3d3d 7fe3 823d df21 5d3e
00000180: 37ab b03c e36d 033d 0c38 823e 2306 51be
00000190: 395a 45be 9cec 4fbe 6111 68bd 7037 dabc
000001a0: 43c8 8bbd c458 b33d 0d06 3b3d 89ee 6a3b
000001b0: b7be dcba f697 883d d5a5 443c 45bb 6abe
000001c0: 6803 573d 84b8 9bbc c862 e7be 6842 afbe
000001d0: 3e81 fdbd 2dd6 363e 64fd 023e c40e fbbd
000001e0: 0eac 143d b45c 403b fe4e 66bd 789c 3fbc
000001f0: ca41 ce3d f6a9 d93d eee2 a6bb c53a 5abd
00000200: 6555 823d 5747 953d 36d8 843d 0995 103e
00000210: 9b0d 283c bb4c 153e 0fef 2f3e 454f 873d
00000220: de0e d93d 291d 463d 483b 023e e8f2 d63d
00000230: 2052 373d 9694 893e e064 423d b2d0 95bd
00000240: ba7c 51be 077c 23bc 9111 41bd 4381 b2bd
00000250: 7e51 ecb8 90bb 6b3b fecf c9bd 20c8 343d
00000260: a44f 9b3d c18f 10bd 0962 c1bb 07e4 283d
00000270: 8a25 a9be 049a 33be 4ccf 02be 0e58 1dbf
00000280: 3832 20bf 95e2 9abe c565 023d 6475 653e
00000290: 8e77 f73d 94ba 2dbe 534a a2be 2bf7 8cbe
000002a0: 435b 82bd 16b4 89bd cf81 08bd 3119 df3c
000002b0: cabf 79bd 7b3e 96bb 6adc 173d 0eeb fbbc
000002c0: 7066 683b 5a46 88bd a4ca aaba b0d1 433c
000002d0: 39bb d63d 0a77 983d 8c2f f83d 45aa a23d
000002e0: bfae bcbb 3338 013d 4c95 9f3d c0f1 073d
000002f0: 5aec 2e38 6c53 0bbe 7312 e1bd ac07 3cbd
00000300: b217 c4be a6a2 a6be 36d2 c7be b10c 60be
00000310: 3464 4bbe 4da7 e3bd 219a e43c 5300 5cbc
00000320: 5b87 953d 393f 3c3b ee74 9dbc 5ed1 6c3d
00000330: ee0e a73c a6fa a73b 28b5 193e b433 8dbd
00000340: 3269 ecbd d60f 08be 6bfd bbbd e8f2 84bd
00000350: 9444 bbbd 07c6 843c 1e55 263d 9f1d 1e3e
00000360: cad5 2bbe 0d77 1ebe dd80 f1bd 6225 95be
00000370: bccd 51be 3da0 69be 8731 61be 238a b3be
00000380: 0c80 f9be 2ae6 023e 549d 0f3e 1440 f73c
00000390: 3092 8ebe 9891 34be 1f9d 7bbe 2072 fcbd
000003a0: 38f5 28be 8368 213d b95c ccbd c67f 48bd
000003b0: 0130 b8bd a50b acbc 3bd0 ac3d 0eeb 103e
000003c0: 85dc b03d 87e5 b23d 1e2d b13d a710 8c3d
000003d0: cb44 b43d d827 91bd a128 babc 3e7d 073d
000003e0: 1f2e 27be 19f2 aa3d 8b7f 263d 7ad0 8bbe
000003f0: 6167 96bc 3ad0 00be 6597 11bd f837 76bd

network.5.bias f4 [48]
0.001424975 -0.003917474 -0.094805315 -0.028979313 -0.07476525 -0.022980262 -0.019814136 -0.08065493
0.031641066 -0.049806915 0.0694172 -0.012228952 0.050443962 -0.04107089 -0.047871247 0.039908435
0.093067534 0.0045578107 0.030476024 -0.0065954686 0.040464193 0.12331476 0.08896925 -0.07889672
0.055536386 -0.01595981 -0.18392618 -0.00022104313 0.0284259 0.068559945 0.10316874 -0.026240824
-0.16501437 0.02568519 0.097036004 0.026876329 -0.0601779 -0.013306413 -0.04547411 0.030767133
0.04005696 0.04426677 -0.01188153 -0.013270942 -0.047286794 0.07366535 -0.10884017 0.14864011
00000000: 3ac6 ba3a 275e 80bb 4a29 c2bd 0666 edbc
00000010: 861e 99bd 1a41 bcbc 4151 a2bc 692e a5bd
00000020: 109a 013d 5602 4cbd 9b2a 8e3d f15b 48bc
00000030: 549e 4e3d f339 28bd a414 44bd 0777 233d
00000040: 319a be3d b059 953b dba8 f93c cd1e d8bb
00000050: c8bd 253d 738c fc3d 8335 b63d 9b94 a1bd
00000060: 1f7a 633d 26be 82bc 2557 3cbe d0c7 67b9
00000070: 6fdd e83c 2869 8c3d 224a d33d fff6 d6bc
00000080: 87f9 28be bf69 d23c d0ba c63d bf2b dc3c
00000090: 1a7d 76bd 2403 5abc 0f43 3abd 5b0b fc3c
000000a0: c412 243d 1351 353d c0aa 42bc 5d6e 59bc
000000b0: ccaf 41bd dcdd 963d 98e7 debd 1d35 183e

network.7.weight f4 [64, 48, 3, 3]
-0.04689573 -0.07335292 -0.09182479 -0.0524824 -0.110785976 -0.09222882 0.015862165 -0.026432723
-0.06491721 -0.2084799 -0.17518608 -0.14444323 -0.28213337 -0.094088 -0.13614039 -0.071145296
-0.056094963 -0.11205871 -0.04800202 -0.1271196 -0.13372995 -0.13012731 -0.10579888 -0.0065027904
-0.059688248 -0.035617236 -0.051303357 0.11396842 0.15970123 0.1792972 0.123241775 0.16128908
0.13206065 0.07855799 0.11772123 0.14162274 0.03663814 0.059804942 0.036938705 0.019937357
0.062014695 0.04487113 0.05581127 0.05116319 0.0017328258 0.0020264552 -0.09262491 -0.007621949
0.010732186 -0.040981155 0.013054764 -0.09965522 -0.040457375 -0.054570887 -0.23195106 -0.10517339
-0.09303649 -0.08844316 0.009290693 -0.010183673 -0.01906684 0.055344533 0.028406942 0.08155411
0.0798165 0.08076526 0.09352204 0.016318707 0.004096316 0.0061751 0.014126539 -0.060167804
-0.04830086 0.03875617 0.020399993 9.201419e-05 -0.038991835 -0.03341268 -0.020994924 0.019056505
0.00097410975 -0.27823737 -0.2949065 -0.35305065 -0.25483486 -0.11736213 -0.21180746 -0.25157347
-0.1400713 -0.23994534 0.017017024 0.03677302 0.030590283 -0.14684168 -0.043153603 -0.03386414
-0.051950265 -0.03383995 -0.029620735 0.05271561 0.10963049 0.0811168 0.07643091 0.060204
0.093358375 0.062129784 -0.0047681755 0.09085536 -0.012110061 -0.004074614 0.045310594 -0.022814387
0.015303348 0.032784868 -0.034811668 -0.028205212 0.0006106403 0.056898538 0.0121327285 -0.04401075
0.056637734 0.10497289 0.04455883 0.06878474 0.055555046 0.13838239 0.106870875 0.07356676
0.033663664 0.052063517 0.049168255 0.060215693 -0.0024162463 0.003348306 -0.01155529 -0.25038716
-0.13926373 -0.29277173 -0.17659909 0.003957319 -0.19824515 -0.2483834 -0.15423055 -0.33291698
-0.17654358 -0.15051506 -0.12655592 -0.00826854 -0.025111241 -0.052404772 -0.057587635 -0.028929044
0.072189964 -0.06373802 -0.114676535 -0.22659561 0.023198163 0.090500705 -0.0014868352 0.13298258
0.16748096 0.12205669 0.0294565 0.03814353 0.006750051 -0.012030052 -0.0014561615 -0.024557518
-0.10298899 0.048594154 -0.038220193 -0.19111785 -0.29687616 -0.45870858 -0.20755592 -0.21735623
-0.30571604 -0.18025695 -0.089809135 -0.11484505 0.038526352 0.07044993 0.013711535 -0.037139624
-0.023963686 -0.013193022 -0.08666229 -0.058484264 -0.10433933 -0.119625375 -0.11764365 -0.12641904
-0.07710158 -0.1010062 -0.09054586 -0.06089039 -0.004952839 0.0057358323 -0.19791567 -0.040433336
0.09685331 0.002012992 -0.06528404 -0.0001338628 -0.020072669 -0.021630298 0.033450104 0.049543727
0.048930958 0.0914867 0.024029955 0.027713727 -0.0494126 0.007728964 -0.0061715767 0.012186833
-0.17189987 -0.22863963 -0.27000263 -0.20224673 -0.15637498 -0.22844724 -0.14541632 -0.17303629
-0.31944966 -0.061881453 0.089953244 0.001573415 -0.06815479 0.022500865 0.012652368 0.03434278
0.03724601 0.03583135 0.09630392 0.06681308 0.042614665 0.0077252416 0.03662478 -0.038114514
-0.0716097 0.0009776868 -0.039256915 0.02109464 -0.014414472 -0.020079961 -0.033915583 -0.026477804
-0.0466214 -0.06743443 -0.031242229 0.049784243 -0.16700146 -0.09166637 -0.12785095 -0.08290688
00000000: bd15 40bd 0e3a 96bd a30e bcbd c9f7 56bd
00000010: c2e3 e2bd 77e2 bcbd 5ff1 813c 7089 d8bc
00000020: 50f3 84bd c17b 55be fb63 33be ede8 13be
00000030: c973 90be 36b1 c0bd 6368 0bbe a0b4 91bd
00000040: d5c3 65bd 097f e5bd c49d 44bd a42b 02be
00000050: 81f0 08be 1840 05be 15ad d8bd 5c15 d5bb
00000060: aa7b 74bd 61e3 11bd 7823 52bd 4668 e93d
00000070: b888 233e af99 373e 2f66 fc3d f728 253e
00000080: e83a 073e 03e3 a03d d417 f13d 8d05 113e
00000090: e011 163d 07f6 743d 0a4d 173d ab53 a33c
000000a0: 1f03 7e3d caca 373d 5c9a 643d 7e90 513d
000000b0: fc1f e33a 47ce 043b 21b2 bdbd 8bc1 f9bb
000000c0: 0dd6 2f3c dbdb 27bd a6e3 553c 0918 ccbd
000000d0: a2b6 25bd b985 5fbd 9484 6dbe 2565 d7bd
000000e0: ea89 bebd b021 b5bd fe37 183c 6cd9 26bc
000000f0: 1032 9cbc f3b0 623d adb5 e83c d705 a73d
00000100: d576 a33d 4268 a53d 7c88 bf3d cfae 853c
00000110: 643a 863b 7e58 ca3b 0073 673c 8472 76bd
00000120: 1fd7 45bd cabe 1e3d e31d a73c bef7 c038
00000130: e7b5 1fbd bcdb 08bd 8cfd abbc 631c 9c3c
00000140: 665b 7f3a 2175 8ebe fcfd 96be 0ec3 b4be
00000150: b779 82be 8e5b f0bd 0ee4 58be 3dce 80be
00000160: da6e 0fbe 3bb4 75be 4967 8b3c 4e9f 163d
00000170: 7998 fa3c aa5d 16be d5c1 30bd 20b5 0abd
00000180: cdc9 54bd c29b 0abd 2fa7 f2bc 53ec 573d
00000190: f385 e03d 9120 a63d cf87 9c3d 7898 763d
000001a0: ad32 bf3d cd7b 7e3d 5b3e 9cbb 6012 ba3d
000001b0: 4769 46bc 5784 85bb 9a97 393d 3de5 babc
000001c0: e5ba 7a3c 6d49 063d ae96 0ebd 9e0e e7bc
000001d0: 6013 203a 710e 693d 5ac8 463c 9e44 34bd
000001e0: f8fc 673d 07fc d63d 5283 363d 04df 8c3d
000001f0: b08d 633d 1db4 0d3e 1edf da3d 2baa 963d
00000200: e9e2 093d 8e40 553d a764 493d bba4 763d
00000210: e359 1ebb 416f 5b3b 6652 3dbc bf32 80be
00000220: 279b 0ebe 2de6 95be 64d6 34be 66ac 813b
00000230: c700 4bbe 3858 7ebe 9dee 1dbe 1874 aabe
00000240: d7c7 34be 9f20 1abe e097 01be c578 07bc
00000250: 17b6 cdbc 63a6 56bd 03e1 6bbd 9afc ecbc
00000260: 55d8 933d 1489 82bd 88db eabd ae08 68be
00000270: 130a be3c 6f58 b93d e9e1 c2ba 962c 083e
00000280: 2180 2b3e dcf8 f93d c24e f13c 643c 1c3d
00000290: 882f dd3b b219 45bc acdc beba d92c c9bc
000002a0: e4eb d2bd aa0a 473d c78c 1cbd 66b4 43be
000002b0: 2700 98be dadb eabe 8a89 54be a292 5ebe
000002c0: d086 9cbe 4795 38be daed b7bd e233 ebbd
000002d0: cfcd 1d3d 0e48 903d 59a6 603c b81f 18bd
000002e0: 7e4f c4bc 8c27 58bc 007c b1bd 328d 6fbd
000002f0: dcaf d5bd 26fe f4bd 27ef f0bd fe73 01be
00000300: 6fe7 9dbd 57dc cebd 1c70 b9bd 3468 79bd
00000310: 6d4b a2bb a6f3 bb3b 68aa 4abe 6d9d 25bd
00000320: 075b c63d 67ec 033b a4b3 85bd 865d 0cb9
00000330: 706f a4bc 0632 b1bc fa02 093d 5dee 4a3d
00000340: d46b 483d 615d bb3d 78da c43c e607 e33c
00000350: de64 4abd 4043 fd3b f03a cabb 48ab 473c
00000360: 8506 30be 8220 6abe c93d 8abe c419 4fbe
00000370: c320 20be 13ee 69be 04e8 14be 6d30 31be
00000380: e88e a3be 6877 7dbd 6839 b83d 0c3b ce3a
00000390: bd94 8bbd bc53 b83c e14b 4f3c 04ab 0c3d
000003a0: 468f 183d e5c3 123d fd3a c53d 4cd5 883d
000003b0: b78c 2e3d 0624 fd3b de03 163d f71d 1cbd
000003c0: 1ba8 92bd ba25 803a dccb 20bd abce ac3c
000003d0: ad2a 6cbc bb7e a4bc 11eb 0abd fbe7 d8bc
000003e0: 15f6 3ebd 101b 8abd b4ef ffbc 90ea 4b3d
000003f0: 6e02 2bbe 94bb bbbd 5ceb 02be 15cb a9bd

network.7.bias f4 [64]
0.046974845 0.0009987174 0.053955782 0.029107261 -0.06768896 0.04888745 0.009890955 0.06733921
0.030806305 0.15005635 0.037711844 -0.07637327 0.008130594 0.033607304 0.10869652 0.161121
-0.019498222 0.1123394 -0.061265625 -0.087655105 -0.06600063 0.012369795 -0.0037065812 0.06751561
0.014064553 0.03568602 0.07637055 0.050000317 -0.0457009 -0.063412204 0.006409493 0.045917008
0.077473216 0.08032456 -0.08689181 -0.04332258 -0.12179801 -0.07068907 -0.08694425 0.0414603
-0.022941189 -0.07244013 0.046308544 0.0818598 0.059318777 0.029182984 0.0602768 0.080906965
-0.15804029 -0.06603065 0.0056399447 0.08192216 0.11448175 0.076276995 0.030805046 0.07402754
0.10341933 0.02994009 -0.025563754 -0.03315857 0.13638957 -0.015022626 -0.056817092 -0.12441442
00000000: b268 403d 65e7 823a bd00 5d3d 5a72 ee3c
00000010: 82a0 8abd 353e 483d ac0d 223c 24e9 893d
00000020: 815d fc3c 5fa8 193e bc77 1a3d 9769 9cbd
00000030: 2f36 053c d0a7 093d 489c de3d e7fc 243e
00000040: bcba 9fbc 3312 e63d aaf1 7abd 8584 b3bd
00000050: 572b 87bd aeaa 4a3c 1dea 72bb a045 8a3d
00000060: 036f 663c 812b 123d 2a68 9c3d 22cd 4c3d
00000070: de30 3bbd 42de 81bd b906 d23b 7913 3c3d
00000080: 47aa 9e3d 3481 a43d 55f4 b1bd 0573 31bd
00000090: 3c71 f9bd 6ec5 90bd d40f b2bd 47d2 293d
000000a0: 29ef bbbc 7e5b 94bd 07ae 3d3d 1ca6 a73d
000000b0: 3ff8 723d 2711 ef3c cee4 763d 8db2 a53d
000000c0: 50d5 21be 143b 87bd 49cf b83b cec6 a73d
000000d0: 6875 ea3d 1d37 9c3d dd5a fc3c c09b 973d
000000e0: 84cd d33d eb44 f53c 146b d1bc 48d1 07bd
000000f0: b5a9 0b3e 7621 76bc 0ab9 68bd fdcc febd

network.11.weight f4 [128, 1024]
0.0226473 -0.025071336 -0.071738325 -0.0034675973 -0.051899705 -0.00738463 -0.07962601 0.038840767
-0.121457145 -0.052877624 -0.07100876 -0.049770758 -0.0038810913 0.0044072797 0.05950561 0.056125116
0.030352712 -0.068933986 0.013748877 0.11333517 0.04804144 -0.08477591 -0.03208722 -0.015256535
0.028932007 -0.13620223 -0.03287319 0.0070199734 0.01356398 0.062078126 0.011520776 0.070092976
0.09329304 -0.087676086 -0.11286448 0.10080235 0.07458158 -0.08148239 -0.050853502 0.07460714
-0.013083273 -0.054790035 -0.0059976703 0.061329804 -0.03851091 -0.020093359 0.060637187 0.042515144
-0.03509069 0.108994246 -0.089004666 0.03591432 -0.040920164 0.17165984 0.06173197 0.03863592
-0.06553912 0.107347585 0.15492858 0.055535704 0.057805855 0.12949729 0.020538045 0.06786828
-0.08745918 -0.03495432 -0.08866221 0.019361245 -0.017592639 -0.03678106 -0.027713591 0.0014910944
0.011773864 -0.025439646 -0.010023533 0.03350684 -0.08256167 -0.009084778 0.010594494 -0.014236857
0.10240787 0.2228617 0.27094686 0.15165868 0.03754587 0.27456766 0.31075147 0.12518047
0.05513879 0.12998787 0.125796 0.06664912 0.085494205 0.28599128 0.3127913 0.09148222
0.107063375 0.27662063 0.2134301 0.3273526 0.25980866 0.39574704 0.3077253 0.19995874
0.21712343 0.45135847 0.3796355 0.25990868 0.24516344 0.42574745 0.33856493 0.26104107
0.070053376 0.1128095 0.10340577 0.16449751 0.19513099 0.39229092 0.38806626 0.31385547
0.28631043 0.3633949 0.40122643 0.3932522 0.27856466 0.40884244 0.382895 0.26317796
0.04688923 0.16123639 0.024032097 -0.039103106 0.1926913 0.15700407 0.047835693 0.063627616
0.11206733 0.13001531 0.11872966 0.06690101 0.12264198 0.17553702 0.025230328 0.103914194
-0.06539623 -0.06899778 -0.08924066 -0.12427635 0.16845885 0.25655854 0.2440893 0.11650011
0.21180771 0.26678726 0.29808667 0.043775544 0.3263183 0.34903625 0.36717376 0.16902675
0.04781587 0.1963767 0.18116903 0.089681946 0.16108032 0.33728346 0.30884194 0.09144916
0.10459259 0.2347554 0.21121678 0.09314469 0.032747496 0.39249128 0.43592858 0.28232992
0.12534095 0.12506707 0.06909307 0.04510161 0.14628312 -0.0077854213 -0.056516062 0.014994509
0.08491398 -0.016573846 0.047800086 0.043391753 0.008466589 0.045601293 -0.024246616 -0.034000337
-0.03145808 -0.08197437 -0.0006320669 0.04942514 0.26799685 0.3785383 0.30719763 0.19644111
0.34610876 0.43345064 0.38003045 0.44852978 0.34018293 0.41820154 0.33984908 0.24043705
0.060714003 0.060362317 0.07717885 0.031043893 0.07542686 0.029658116 -0.0691894 -0.022794457
0.040138822 0.015349857 -0.08455326 -0.008570567 0.18369643 0.09021898 -0.024512189 0.024127293
-0.027087823 -0.08005293 -0.017070837 0.13861121 -0.0033114846 0.0030632506 0.061689626 0.20872475
0.072476864 0.121739 0.21183148 0.19848064 -0.028666226 0.022696069 0.077193834 0.14061822
-0.019037869 0.09167553 -0.029906543 -0.040922735 0.031640828 0.17278913 0.09799847 -0.00737245
0.008774436 0.10960399 0.06491723 0.016524486 0.1411077 0.22146563 0.3002581 -0.04285873
00000000: d586 b93c 6762 cdbc 8beb 92bd a140 63bb
00000010: c994 54bd c4fa f1bb f612 a3bd 7f17 1f3d
00000020: 86be f8bd 3596 58bd 0a6d 91bd 6cdc 4bbd
00000030: e859 7ebb f16a 903b 28bc 733d 73e3 653d
00000040: 40a6 f83c 432d 8dbd f842 613c 451c e83d
00000050: 1ac7 443d fe9e adbd e46d 03bd 8cf6 79bc
00000060: d102 ed3c 9978 0bbe 0aa6 06bd ce07 e63b
00000070: 753b 5e3c a245 7e3d a3c1 3c3c e88c 8f3d
00000080: 6c10 bf3d 858f b3bd 7e25 e7bd 7671 ce3d
00000090: 3abe 983d 3de0 a6bd c34b 50bd a1cb 983d
000000a0: 395b 56bc 846b 60bd 1b88 c4bb f634 7b3d
000000b0: 9ebd 1dbd d49a a4bc b35e 783d 5c24 2e3d
000000c0: 41bb 0fbd 6038 df3d 1448 b6bd e51a 133d
000000d0: e79b 27bd 99c7 2f3e aada 7c3d b340 1e3d
000000e0: 6039 86bd 0dd9 db3d 99a5 1e3e 6879 633d
000000f0: d5c5 6c3d f09a 043e 673f a83c 86fe 8a3d
00000100: cc1d b3bd 432c 0fbd 8894 b5bd 799b 9e3c
00000110: 701e 90bc bda7 16bd 9d07 e3bc d370 c33a
00000120: 2ae7 403c ce66 d0bc bf39 24bc 783e 093d
00000130: 1816 a9bd 52d8 14bc 8794 2d3c b541 69bc
00000140: 38bb d13d dc35 643e 8cb9 8a3e 6a4c 1b3e
00000150: b3c9 193d 2294 8c3e d11a 9f3e 4f2f 003e
00000160: 36d9 613d 8a1b 053e abd0 003e 557f 883d
00000170: 9617 af3d 736d 923e 2e26 a03e 085b bb3d
00000180: 0b44 db3d 38a1 8d3e 6c8d 5a3e c39a a73e
00000190: a405 853e 5b9f ca3e 2c8e 9d3e fcc1 4c3e
000001a0: 9b55 5e3e 7518 e73e 965f c23e c012 853e
000001b0: 200c 7b3e 92fb d93e 6258 ad3e 2da7 853e
000001c0: 2578 8f3d ab08 e73d 68c6 d33d 0972 283e
000001d0: 6bd0 473e 5bda c83e 9fb0 c63e aab1 a03e
000001e0: 4897 923e e50e ba3e 8d6d cd3e 5a58 c93e
000001f0: 07a0 8e3e cc53 d13e d00a c43e 43bf 863e
00000200: ec0e 403d 271b 253e f6de c43c 942a 20bd
00000210: de50 453e adc5 203e 5cef 433d 324f 823d
00000220: 8e83 e53d bc22 053e 8928 f33d 6603 893d
00000230: b82b fb3d fabf 333e d5af ce3c f7d0 d43d
00000240: 75ee 85bd b54e 8dbd cfc3 b6bd 9984 febd
00000250: 7a80 2c3e a45b 833e 8cf2 793e 9c97 ee3d
00000260: 1fe4 583e 5798 883e d19e 983e fc4d 333d
00000270: 3113 a73e e1b4 b23e 33fe bb3e 5915 2d3e
00000280: 93da 433d f916 493e 6084 393e 2bab b73d
00000290: 3df2 243e 6bb0 ac3e 8820 9e3e b249 bb3d
000002a0: a434 d63d b863 703e 3649 583e a5c2 be3d
000002b0: 3d22 063d 9ef4 c83e 0832 df3e 8c8d 903e
000002c0: 6159 003e 9511 003e ab80 8d3d 77bc 383d
000002d0: 3ecb 153e d91c ffbb 637d 67bd 87ab 753c
000002e0: 61e7 ad3d e0c5 87bc 06ca 433d 8dbb 313d
000002f0: 73b7 0a3c 6cc8 3a3d d7a0 c6bc f043 0bbd
00000300: 30da 00bd 2ee2 a7bd 4bb1 25ba 0472 4a3d
00000310: e236 893e c6cf c13e 0249 9d3e dc27 493e
00000320: 2b35 b13e 3eed dd3e 5a93 c23e b2a5 e53e
00000330: 752c ae3e 831e d63e b300 ae3e 2135 763e
00000340: 3faf 783d 7a3e 773d f20f 9e3d c34f fe3c
00000350: 6679 9a3d 94f5 f23c 2cb3 8dbd 71bb babc
00000360: 9b68 243d f77d 7b3c 422a adbd 906b 0cbc
00000370: eb1a 3c3e bbc4 b83d c9cd c8bc 9aa6 c53c
00000380: 48e7 ddbc caf2 a3bd 24d8 8bbc 19f0 0d3e
00000390: 7e05 59bb d1c0 483b 43ae 7c3d f1bb 553e
000003a0: c06e 943d 4c52 f93d 5aea 583e 823e 4b3e
000003b0: 6fd5 eabc 1bed b93c cd17 9e3d 39fe 0f3e
000003c0: 4ef5 9bbc 61c0 bb3d 91fe f4bc 999e 27bd
000003d0: d099 013d a2ef 303e 6cb3 c83d 9894 f1bb
000003e0: a7c2 0f3c 0f78 e03d 53f3 843d 5c5e 873c
000003f0: 897e 103e e3c7 623e 6ebb 993e a38c 2fbd

network.11.bias f4 [128]
-0.058886815 -0.037976366 -0.025857938 -0.057216544 -0.049677473 -0.039274998 -0.031628303 0.029316332
-0.005418279 0.025652692 -0.08686597 0.027985163 0.0037033488 -0.052819036 -0.0005573829 -0.07693254
-0.034075726 -0.06857983 -0.060780328 -0.012622956 0.0046607214 -0.053678438 -0.075184606 0.029860737
-0.031272527 -0.101584606 -0.07662147 0.0026120325 -0.059500325 -0.03404568 -0.041574646 -0.03254665
-0.05044335 -0.013343945 -0.056164786 -0.028187418 0.0044392226 -0.0422904 0.038932893 -0.014527735
-0.021873612 0.033995923 -0.019039605 0.040451117 -0.032139827 -0.010160733 -0.1100826 0.06627068
-0.009060753 -0.02463902 -0.006539699 -0.074199855 -0.011858129 -0.07866693 -0.008127345 -0.016240316
0.026013792 -0.03217064 -0.079721175 -0.010624811 -0.069457784 -0.032894943 -0.0151807545 -0.054272495
-0.010444813 -0.06394438 -0.09396734 -0.021101784 -0.05355978 0.0292358 -0.06658266 -0.051039215
-0.07535174 -0.030612506 -0.028320087 0.030410768 -0.049817707 -0.020652268 -0.043055885 -0.026416454
0.03033971 0.042922888 -0.03927858 0.007616242 -0.04691795 -0.030983191 -0.09125707 -0.02756817
-0.098009355 -0.032214563 0.016526075 -0.048963975 0.041066986 -0.057543814 0.020334706 -0.026735963
-0.0247522 -0.038241304 0.016659275 -0.029981116 -0.042538516 -0.04490939 0.015724737 -0.027057154
-0.045194536 -0.057352867 -0.020658022 -0.029125554 -0.030106895 -0.03407877 -0.04905671 -0.03965118
-0.044311017 -0.029045623 -0.0967362 -0.029011127 -0.042088363 -0.049320832 -0.06287722 0.022010852
0.01901991 -0.039303273 -0.020733917 -0.037504967 -0.021675253 -0.029218255 0.033895705 0.06386826
00000000: 4d33 71bd 1b8d 1bbd 07d4 d3bc e55b 6abd
00000010: 9b7a 4bbd d2de 20bd ae8c 01bd ce28 f03c
00000020: d28b b1bb 9825 d23c c9e6 b1bd 2441 e53c
00000030: e2b3 723b c658 58bd 551d 12ba cf8e 9dbd
00000040: fd92 0bbd 9573 8cbd cbf4 78bd 84d0 4ebc
00000050: f7b8 983b ecdd 5bbd 63fa 99bd 819e f43c
00000060: 9f17 00bd 970b d0bd b8eb 9cbd a22e 2b3b
00000070: 9db6 73bd 7c73 0bbd 2d4a 2abd a34f 05bd
00000080: b09d 4ebd 90a0 5abc 0c0d 66bd 4de9 e6bc
00000090: e676 913b b338 2dbd 1978 1f3d bd05 6ebc
000000a0: 4a30 b3bc 4f3f 0b3d f2f8 9bbc 12b0 253d
000000b0: 0da5 03bd 3479 26bc fc72 e1bd ecb8 873d
000000c0: 8d73 14bc c5d7 c9bc f94a d6bb 18f6 97bd
000000d0: 9948 42bc 211c a1bd 8e28 05bc 690a 85bc
000000e0: e01a d53c 5cc5 03bd db44 a3bd b013 2ebc
000000f0: e23f 8ebd d9bc 06bd b3b8 78bc d64c 5ebd
00000100: b920 2bbc 45f5 82bd f371 c0bd a6dd acbc
00000110: 8061 5bbd eb7f ef3c 7d5c 88bd 7f0e 51bd
00000120: 0352 9abd 14c7 fabc 87ff e7bc 0120 f93c
00000130: a70d 4cbd f22e a9bc 5e5b 30bd 5267 d8bc
00000140: fc8a f83c e9cf 2f3d 94e2 20bd ab91 f93b
00000150: 092d 40bd 76d0 fdbc fde4 babd a5d6 e1bc
00000160: 21b9 c8bd 6bf3 03bd b161 873c 738e 48bd
00000170: db35 283d 10b3 6bbd f894 a63c 6105 dbbc
00000180: 20c5 cabc eaa2 1cbd 0879 883c f59a f5bc
00000190: de3c 2ebd e9f2 37bd 2ad1 803c f7a6 ddbc
000001a0: e81d 39bd d7ea 6abd 033b a9bc b798 eebc
000001b0: bca2 f6bc 2e96 0bbd b0ef 48bd 4769 22bd
000001c0: 787f 35bd 16f1 edbc a11d c6bd bea8 edbc
000001d0: d964 2cbd a404 4abd c6c5 80bd 1a50 b43c
000001e0: a4cf 9b3c 78fc 20bd 2dda a9bc cf9e 19bd
000001f0: 4d90 b1bc 1f5b efbc 39d6 0a3d 5dcd 823d

network.14.weight f4 [4, 128]
0.053486355 -0.026025819 0.042460274 -0.34197664 -0.26216224 -0.80898976 0.38292146 0.087306604
0.019009512 0.051814076 -0.61694807 0.13386056 0.0062993895 0.42514718 -0.03071446 0.10158091
-0.3524489 -0.65585476 -0.46294162 -0.42305064 -0.8109028 -0.67910886 -0.55582136 0.09291886
0.046264023 0.10112243 0.10044731 -0.53018475 0.093691476 -0.38261494 0.0074231494 0.03652336
-0.4607514 -0.33827955 0.09786999 -0.7601314 -0.7877336 0.08309077 0.14369787 0.061999395
-0.0155387 -0.34690517 -0.8373656 0.117191255 -0.36116007 -0.7954773 0.026091807 0.10974027
-0.41704273 0.054156717 -0.83009654 0.07679183 -0.7368866 -0.59841186 -0.7793487 0.27027223
0.086558245 0.42310235 0.06953857 0.3900928 -0.5406389 -0.03032648 -0.07769787 0.45624226
-0.07371442 0.13145481 -0.47879478 -0.74176127 0.004722763 0.072272144 -0.65474236 -0.48851353
0.10864075 -0.71265644 0.37835976 0.09880674 -0.42275625 -0.39382705 0.104199775 -0.33936065
0.10154824 0.11597752 0.021642642 -0.7956335 -0.20118332 0.077117234 0.106903955 0.054631114
0.086531796 0.07265241 0.09757862 0.098448925 0.08400498 -0.41275305 -0.16131517 -0.52771264
-0.05800375 0.39049277 0.122763366 -0.4380946 -0.4283701 -0.3576239 0.13523024 -0.0671374
0.052499224 0.43260452 -0.06408347 -0.755384 -0.0767711 0.43344808 -0.66799396 -0.3514364
0.3329806 -0.8388767 0.11667744 -0.5442827 0.07389022 -0.4428152 0.10707629 0.09854321
-0.05140237 -0.66144544 0.0027871395 -0.33008006 0.08918192 -0.080933176 -0.2649681 0.12531057
0.045218788 0.005410231 0.013999426 -0.90152323 -0.8357532 0.13824172 -0.45633513 -0.61647403
0.0038082614 -0.42166537 0.22466096 -0.5597202 0.071191624 -0.3993696 -0.014968103 0.11907426
-0.9008421 0.23176455 -0.68455386 -0.85059917 0.09524319 0.16018248 0.27504513 -0.5542678
0.043767743 0.10801741 -0.75395256 -0.91561556 0.091145694 -0.72715443 -0.0066395537 0.034264304
-0.7433099 -0.8742884 0.10311835 0.108293034 0.13045895 0.056639306 -0.5993652 0.044057507
0.0022850432 -0.470772 0.1226667 -0.5038433 -0.93203384 0.1399393 -1.0373913 -0.5070257
-0.9040021 0.0635941 0.16294017 -0.8115101 0.16698049 0.25518134 0.14387035 -0.6203056
-0.58000386 -0.37695873 0.06380536 -0.4998268 0.21409492 -0.048878405 -0.048576076 -0.551076
-0.05075366 0.13157527 0.23270653 0.19220953 -0.007497287 -0.51778793 0.27155426 -0.7545565
0.10149454 0.2619851 -0.35039815 -0.5447499 -0.7118886 -0.7419856 0.09855417 -0.90076643
-0.56798 -0.49422932 -0.06529994 0.13680474 -1.0029606 0.08897572 0.11210871 0.06531973
0.10763027 0.045135073 -0.5606099 0.087628834 -0.5668312 -0.65456593 -0.2958507 -0.7422698
0.023257172 -0.39462656 -0.5829916 -0.899145 -0.97007746 -0.8368881 -0.48141214 -0.060391184
0.03588637 -0.47211176 0.058656204 0.21761873 0.23360981 -0.43846944 0.2021384 -1.0163729
-0.45876864 0.109196015 0.124992006 -0.5768356 0.07382426 -0.7636365 0.11561198 -0.50249946
0.0746237 0.25733057 0.04233483 -1.0046018 0.09443052 0.23813035 -0.46343723 -0.47065216
00000000: 8214 5b3d 1934 d5bc d3ea 2d3d 9017 afbe
00000010: 213a 86be f419 4fbf 480e c43e cecd b23d
00000020: d6b9 9b3c ff3a 543d 4ff0 1dbf be12 093e
00000030: 1c6b ce3b e4ac d93e e49c fbbc a709 d03d
00000040: 2f74 b4be 19e6 27bf af06 edbe 189a d8be
00000050: 5397 4fbf 14da 2dbf 4f4a 0ebf 3e4c be3d
00000060: 587f 3d3d 4719 cf3d 52b7 cd3d 30ba 07bf
00000070: 51e1 bf3d 1be6 c3be e43d f33b 8599 153d
00000080: 9ce7 ebbe fa32 adbe 1070 c83d f997 42bf
00000090: e9a8 49bf 7e2b aa3d 8925 133e 14f3 7d3d
000000a0: 0896 7ebc 8e9d b1be 985d 56bf f801 f03d
000000b0: f9e9 b8be 66a4 4bbf 7cbe d53c 82bf e03d
000000c0: a086 d5be 6fd3 5d3d 3581 54bf 0945 9d3d
000000d0: 9aa4 3cbf 8531 19bf 6583 47bf 1f61 8a3e
000000e0: 7345 b13d dfa0 d83e 3d6a 8e3d 3eba c73e
000000f0: 5067 0abf 3d6f f8bc 1020 9fbd 9698 e93e
00000100: 96f7 96bd 179c 063e 9724 f5be 11e4 3dbf
00000110: 68c1 9a3b 6b03 943d 329d 27bf 721e fabe
00000120: 0b7f de3d a770 36bf 5fb8 c13e 305b ca3d
00000130: 8273 d8be b3a3 c9be b166 d53d aec0 adbe
00000140: 86f8 cf3d 9f85 ed3d e94b b13c a3ae 4bbf
00000150: 0003 4ebe a4ef 9d3d 76f0 da3d e0c4 5f3d
00000160: 9537 b13d c9ca 943d 4dd7 c73d 979f c93d
00000170: ce0a ac3d 5e54 d3be ce2f 25be 2d18 07bf
00000180: 5795 6dbd abee c73e 5c6b fb3d ef4d e0be
00000190: 5353 dbbe 7b1a b7be cc79 0a3e 557f 89bd
000001a0: 6d09 573d 577e dd3e 323e 83bd d960 41bf
000001b0: 2b3a 9dbd e8ec dd3e a701 2bbf 79ef b3be
000001c0: 6f7c aa3e a0c0 56bf 95f4 ee3d 1c56 0bbf
000001d0: c153 973d adb8 e2be d04a db3d 06d1 c93d
000001e0: 4b8b 52bd 7d54 29bf 71a8 363b 4100 a9be
000001f0: 03a5 b63d 4bc0 a5bd e6a9 87be 6a51 003e
00000200: 5637 393d 4f48 b13b d95d 653c 3aca 66bf
00000210: ecf3 55bf 3d8f 0d3e c2a4 e9be 3ed1 1dbf
00000220: 0694 793b 86e4 d7be 860d 663e d349 0fbf
00000230: eacc 913d 2c7a ccbe c63c 75bc 35dd f33d
00000240: 969d 66bf b053 6d3e ec3e 2fbf dec0 59bf
00000250: dd0e c33d e006 243e b7d2 8c3e 7fe4 0dbf
00000260: ce45 333d 3b38 dd3d 0903 41bf c865 6abf
00000270: 98aa ba3d cb26 3abf 9d90 d9bb ba58 0c3d
00000280: 8f49 3ebf 5dd1 5fbf b72f d33d bdc8 dd3d
00000290: 0897 053e 9efe 673d ff6f 19bf a575 343d
000002a0: aac0 153b 0709 f1be ae38 fb3d e0fb 00bf
000002b0: c599 6ebf 3f4c 0f3e 3dc9 84bf 70cc 01bf
000002c0: ae6c 67bf a03d 823d cad9 263e 20bf 4fbf
000002d0: effc 2a3e 21a7 823e c052 133e 59cc 1ebf
000002e0: 227b 14bf bc00 c1be 62ac 823d 4ce9 ffbe
000002f0: b33b 5b3e b934 48bd b5f7 46bd 5113 0dbf
00000300: 12e3 4fbd abbb 063e 9f4a 6e3e 93d2 443e
00000310: cdab f5bb c08d 04bf 2909 8b3e 9d2a 41bf
00000320: 5fdc cf3d e922 863e 6367 b3be bb74 0bbf
00000330: 553e 36bf c5f2 3dbf c5d6 c93d a198 66bf
00000340: 2367 11bf a00b fdbe fabb 85bd 8b16 0c3e
00000350: 0361 80bf e738 b63d 4099 e53d 5ac6 853d
00000360: 426d dc3d 8edf 383d 2184 0fbf bf76 b33d
00000370: d91b 11bf a291 27bf be79 97be 6505 3ebf
00000380: d385 be3c 7e0c cabe f03e 15bf 5e2e 66bf
00000390: ff56 78bf 4c3e 56bf a77b f6be bf5c 77bd
000003a0: 96fd 123d a2b8 f1be 7d41 703d 72d7 5e3e
000003b0: 6937 6f3e 117f e0be 5efd 4e3e 8218 82bf
000003c0: b9e3 eabe 29a2 df3d cffb ff3d 7fab 13bf
000003d0: 2c31 973d af7d 43bf f9c5 ec3d cea3 00bf
000003e0: 4fd4 983d d5c0 833e 4967 2d3d cb96 80bf
000003f0: ca64 c13d 71d8 733e a547 edbe 52f9 f0be

network.14.bias f4 [4]
-0.42404348 0.016598113 -0.1547301 0.63669693
00000000: 3a1c d9be c4f8 873c 9171 1ebe 92fe 223f
