models/vgg/VGG2_RMSprop_32_lr1e-06_m0.99_wd0.001/VGG2_RMSprop_32_lr1e-06_m0.99_wd0.001_best.pth (torch, 716955 bytes, 12 tensors)

network.0.weight f4 [16, 1, 3, 3]
0.029229714 -0.4010028 -0.40394396 0.13704179 -0.05941043 -0.06439371 0.25879544 0.3293069
0.36467162 0.5040824 0.14684197 -0.2077776 0.56281614 -0.24484238 -0.6854422 0.32995093
-0.24515249 0.19905214 -0.33631146 -0.23299727 0.3481086 -0.38702345 0.30255577 0.44857934
-0.24031417 0.27591372 -0.05232451 0.27040634 0.31849518 0.25693136 0.023444131 0.006754421
0.013128551 -0.44308951 -0.44320375 -0.39888713 0.3800249 -0.1985495 0.10707996 -0.11060857
-0.5120901 -0.103146374 0.46490183 -0.12992775 0.19412349 0.5589137 0.034386232 -0.35492632
0.31880158 -0.0578208 -0.6295774 0.23845673 -0.12384799 -0.34240317 -0.51206887 0.039192844
-0.55693877 -0.2657015 0.05216906 -0.17640603 0.1148629 0.2896771 -0.18557462 -0.3039672
-0.03990879 -0.22358966 -0.30597758 0.058528934 0.17171977 0.4809171 0.2527507 -0.1816896
-0.53172374 -0.0054232134 0.38010854 -0.2135295 -0.47791642 0.37646258 0.06977397 0.14909664
0.41476578 0.15557474 0.32425657 0.2134467 0.11224536 0.06711685 -0.2248368 -0.12122365
-0.17587705 -0.03930355 0.3736858 0.3080631 0.32811376 0.24270292 -0.11870526 0.15596548
-0.20744841 -0.21181163 -0.11983635 0.43159422 0.20611088 0.16831706 -0.21109016 0.2543348
0.46757162 -0.2803815 -0.53943187 -0.10855543 0.1012356 -0.030631663 -0.3114534 0.15312265
-0.0047083944 0.18760069 0.3298931 0.014736629 0.21424013 0.091712505 -0.51777554 -0.44517168
0.067755915 -0.29126874 -0.425526 0.4154478 0.09074763 0.3103146 0.21010646 -0.0899709
-0.45504102 0.057365883 0.2529616 0.15668619 -0.424242 0.09016073 0.5283484 -0.29308468
-0.21307512 0.12752563 0.15524982 0.12578376 0.33218846 -0.30763093 -0.14958623 0.337792
00000000: 2773 ef3c 3d50 cdbe bed1 cebe af54 0c3e
00000010: 5a58 73bd d9e0 83bd d680 843e ea9a a83e
00000020: 3db6 ba3e 8b0b 013f be5d 163e a7c3 54be
00000030: b814 103f f6b7 7abe 2479 2fbf 54ef a83e
00000040: 4109 7bbe 53d4 4b3e 0431 acbe d696 6ebe
00000050: 4a3b b23e f027 c6be 97e8 9a3e 31ac e53e
00000060: eb14 76be 9044 8d3e 3a52 56bd b372 8a3e
00000070: cd11 a33e 828c 833e e80d c03c 3154 dd3b
00000080: 2219 573c a1dc e2be 9aeb e2be ef3a ccbe
00000090: a092 c23e 8f50 4bbe bd4c db3d bf86 e2bd
000000a0: 5618 03bf 683e d3bd 9d07 ee3e c80b 05be
000000b0: 4fc8 463e f814 0f3f 94d8 0c3d e7b8 b5be
000000c0: f639 a33e 81d5 6cbd fc2b 21bf 002e 743e
000000d0: 04a4 fdbd 784f afbe f216 03bf ad88 203d
000000e0: 8a93 0ebf 070a 88be 39af 553d c8a3 34be
000000f0: 3d3d eb3d 8f50 943e 4607 3ebe 97a1 9bbe
00000100: 6677 23bd b0f4 64be 18a9 9cbe 09bc 6f3d
00000110: 4fd7 2f3e c43a f63e 8a68 813e d70c 3abe
00000120: 0c1f 08bf 36b5 b1bb 969d c23e 7aa7 5abe
00000130: 76b1 f4be b4bf c03e a8e5 8e3d caac 183e
00000140: 2e5c d43e fc4e 1f3e f504 a63e c691 5a3e
00000150: e5e0 e53d 8f74 893d 9e3b 66be 1b44 f8bd
00000160: 1d19 34be c2fc 20bd bf53 bf3e 72ba 9d3e
00000170: 87fe a73e 1d87 783e be1b f3bd 6ab5 1f3e
00000180: 5b6d 54be 26e5 58be c36c f5bd ebf9 dc3e
00000190: bb0e 533e 4f5b 2c3e 0528 58be 2c38 823e
000001a0: 8c65 ef3e 2a8e 8fbe 3518 0abf 4f52 debd
000001b0: 9c54 cf3d 41ef fabc d276 9fbe 2fcc 1c3e
000001c0: e048 9abb 651a 403e c0e7 a83e e771 713c
000001d0: c461 5b3e c4d3 bb3d f08c 04bf 8bed e3be
000001e0: 9dc3 8a3d 2d21 95be 8bde d9be 93b5 d43e
000001f0: e5d9 b93d 8ee1 9e3e 2626 573e aa42 b8bd
00000200: 23fb e8be 7df8 6a3d 2f84 813e 5872 203e
00000210: 3f36 d9be 30a6 b83d d741 073f 320f 96be
00000220: 5d30 5abe 1496 023e cff9 1e3e 75cd 003e
00000230: 9b14 aa3e cd81 9dbe 222d 19be 13f3 ac3e

network.0.bias f4 [16]
-0.18595657 0.13651176 0.04053342 0.25166392 0.04421213 0.022028493 0.37583557 0.33417407
0.050258625 -0.43825728 0.10775218 0.059302952 -0.16425803 -0.20492074 -0.0734304 0.39628503
00000000: 666b 3ebe bdc9 0b3e 5f06 263d 18da 803e
00000010: c717 353d 1975 b43c 856d c03e dd18 ab3e
00000020: fddb 4d3d 4263 e0be 2dad dc3d a7e7 723d
00000030: 4233 28be bed6 51be ad62 96bd dfe5 ca3e

network.2.weight f4 [32, 16, 3, 3]
-0.042868435 -0.07869267 -0.06621302 -0.058262464 0.02502376 0.03293856 -0.12085505 -0.104047604
-0.12666957 -0.11488141 -0.023582216 0.0497584 -0.08909978 -0.014732178 0.040376626 -0.23829976
-0.1871518 -0.06258944 0.14536048 0.102584295 -0.030257981 0.07377454 0.07313571 0.015631037
0.19713467 0.13739398 0.03122574 0.09792819 0.11350536 0.12820627 -0.030352667 -0.08589021
-0.09954479 0.040694155 0.015691103 0.16509612 -0.03757823 -0.051871546 -0.04437297 0.012327143
0.03212127 0.05644559 -0.085541844 -0.07415121 -0.14912541 0.01224424 0.024615362 -0.026793048
0.04502003 0.02448001 -0.03568448 -0.020689968 -0.034249783 -0.015564803 -0.04867427 0.00044422806
-0.080606595 0.042928413 0.03102049 0.010541344 0.056638975 0.071757324 -0.010562212 -0.05376291
-0.051212866 -0.17096077 -0.12611862 -0.014241814 0.110539444 -0.042902783 0.040849485 -0.07914045
0.10612965 0.042530473 -0.048216663 0.13684478 0.12904644 0.06854197 -0.06410165 -0.110902786
-0.16377506 0.021071164 0.06474952 0.069993965 -0.030490726 -0.0040187626 -0.019029556 0.03603214
0.050466128 0.10100566 -0.015671646 0.032612145 0.04489227 -0.076408826 -0.06733115 -0.014727327
0.054560773 0.044736642 0.04770552 0.038005937 0.06247247 0.058211368 -0.13199364 -0.091819115
-0.06689262 0.16417551 0.15545925 0.16410881 -0.110583216 -0.033209004 0.01618776 -0.06912299
0.040668737 0.020113397 -0.07839268 -0.047266852 -0.12234254 -0.03422117 -0.088990375 -0.10121917
-0.044727363 -0.009495474 -0.02405055 -0.006903275 0.010408279 -0.012973801 -0.066298015 -0.025513139
0.02297383 0.014075259 0.012933722 -0.00092292053 -0.014484267 -0.03512717 -0.0585038 -0.0351019
-0.06588696 -0.015755752 0.03261894 -0.01926764 -0.07592491 0.06936266 0.08277868 0.07575698
0.122723855 0.18718232 0.26632643 0.008601131 0.037466556 0.096347466 0.13415325 0.11082617
0.14657898 0.055805426 -0.009269128 -0.016538464 -0.0038166805 -0.06116176 -0.07261044 -0.016182281
0.00422626 0.044386312 -0.13304597 -0.044818062 -0.041585255 -0.11925336 -0.023041122 0.049832534
-0.018516352 -0.018427728 -0.026771959 -0.044024087 -0.0573247 -0.0776733 -0.06075147 -0.047644854
0.023083234 -0.06625991 -0.0321901 0.044666536 -0.12863423 -0.0883298 0.06547896 -0.0027655796
-0.07565322 -0.09570647 -0.010405837 0.008487214 0.08506874 0.021802744 -0.002567453 0.044660788
-0.03032885 -0.015501499 0.01792636 -0.059850205 -0.042348623 0.014285541 0.15970519 0.17315368
0.17261226 0.032837994 0.06718838 0.048143566 -0.011829257 0.01179846 -0.031709906 -0.0852569
-0.022157356 0.08144889 -0.033729747 0.0008285076 0.020330798 -0.088016205 0.011828321 -0.0035400537
-0.22236872 -0.07170349 0.07664726 -0.13882165 -0.10770509 -0.027954323 -0.015695123 0.08108141
0.098902784 0.03904697 -0.00833569 -0.03400143 0.030664999 0.05270774 0.05643772 -0.02465295
0.063685276 0.101638325 0.018687885 -0.115076974 -0.18497945 0.023654988 0.0015937784 0.001058839
-0.06762982 -0.0831769 -0.00054466975 0.13004863 0.013010282 -0.012415785 0.14382464 0.14560425
0.16212115 -0.024314325 0.012240832 0.013273274 0.07244537 0.0516111 0.06507522 0.017730417
00000000: d096 2fbd 9f29 a1bd b19a 87bd 9fa4 6ebd
00000010: a1fe cc3c 95ea 063d da82 f7bd e916 d5bd
00000020: abb5 01be f246 ebbd 7e2f c1bc 77cf 4b3d
00000030: f279 b6bd 3c5f 71bc f661 253d da04 74be
00000040: b9a4 3fbe e42e 80bd 61d9 143e b717 d23d
00000050: 96df f7bc 1b17 973d 2dc8 953d a90c 803c
00000060: acdd 493e 02b1 0c3e 20cd ff3c 938e c83d
00000070: 8075 e83d 8148 033e 28a6 f8bc 35e7 afbd
00000080: 24de cbbd eaae 263d a18a 803c f50e 293e
00000090: a1eb 19bd 4277 54bd 6ec0 35bd c9f7 493c
000000a0: 9891 033d 7e33 673d 9030 afbd 97dc 97bd
000000b0: 55b4 18be 119c 483c 28a6 c93c 187d dbbc
000000c0: ec66 383d 4d8a c83c e429 12bd 027e a9bc
000000d0: 8049 0cbd 8403 7fbc ac5e 47bd 48e7 e839
000000e0: 1215 a5bd b4d5 2f3d af1e fe3c 9ab5 2c3c
000000f0: 45fe 673d 81f5 923d 210d 2dbc 7f36 5cbd
00000100: 95c4 51bd 5710 2fbe 3d25 01be 7f56 69bc
00000110: 8162 e23d d4ba 2fbd ca51 273d 6314 a2bd
00000120: 805a d93d 6f34 2e3d d67e 45bd 0a21 0c3e
00000130: c024 043e bb5f 8c3d ba47 83bd 0021 e3bd
00000140: a6b4 27be 6f9d ac3c 659b 843d ff58 8f3d
00000150: b0c7 f9bc d3af 83bb dfe3 9bbc 7096 133d
00000160: 92b5 4e3d 0edc ce3d d361 80bc 5094 053d
00000170: f5e0 373d 3b7c 9cbd eae4 89bd e34a 71bc
00000180: 1e7b 5f3d c53d 373d dd66 433d 1dac 1b3d
00000190: 22e3 7f3d 0b6f 6e3d 5729 07be a90b bcbd
000001a0: fffe 88bd a01d 283e b630 1f3e 240c 283e
000001b0: 7479 e2bd 2a06 08bd 319c 843c 5b90 8dbd
000001c0: 4394 263d dac4 a43c 578c a0bd e39a 41bd
000001d0: ba8e fabd 7f2b 0cbd 9640 b6bd ff4b cfbd
000001e0: 0a34 37bd e892 1bbc a905 c5bc de34 e2bb
000001f0: 7c87 2a3c 1190 54bc 41c7 87bd ee00 d1bc
00000200: 9d33 bc3c ea9b 663c f6e7 533c 26f0 71ba
00000210: 6b4f 6dbc 82e1 0fbd aea1 6fbd 03c7 0fbd
00000220: beef 86bd 3512 81bc 709b 053d 2bd7 9dbc
00000230: 857e 9bbd 030e 8e3d de87 a93d 7a26 9b3d
00000240: a556 fb3d b9ac 3f3e f05b 883e c2eb 0c3c
00000250: 8876 193d d251 c53d 785f 093e d5f8 e23d
00000260: cd18 163e 3b94 643d 8add 17bc ac7b 87bc
00000270: 4621 7abb c184 7abd c8b4 94bd b490 84bc
00000280: 707c 8a3b 6cce 353d 343d 08be 2593 37bd
00000290: 4d55 2abd 1b3b f4bd bcc0 bcbc 331d 4c3d
000002a0: 9baf 97bc bff5 96bc de50 dbbc 9a52 34bd
000002b0: 4ecd 6abd 2e13 9fbd 89d6 78bd 4027 43bd
000002c0: 0d19 bd3c 47b3 87bd c4d9 03bd 42f4 363d
000002d0: b1b8 03be 41e6 b4bd d519 863d ba3e 35bb
000002e0: 13f0 9abd c101 c4bd 3e7d 2abc f50d 0b3c
000002f0: 8538 ae3d ab9b b23c b742 28bb 3bee 363d
00000300: 3574 f8bc 00fa 7dbc 4dda 923c 7d25 75bd
00000310: c075 2dbd e70d 6a3c c289 233e 334f 313e
00000320: 45c1 303e 2281 063d 109a 893d 3032 453d
00000330: 80cf 41bc 544e 413c 3fe2 01bd 2b9b aebd
00000340: 5883 b5bc adce a63d 3428 0abd 3430 593a
00000350: c68c a63c d741 b4bd 93cb 413c 3f00 68bb
00000360: a0b4 63be 48d9 92bd 3df9 9c3d 4327 0ebe
00000370: 7c94 dcbd 7700 e5bc 0f93 80bc 030e a63d
00000380: 8b8d ca3d b7ef 1f3d 6b92 08bc 1545 0bbd
00000390: 2a35 fb3c 12e4 573d 3d2b 673d fcf4 c9bc
000003a0: 6d6d 823d c127 d03d 5617 993c 7aad ebbd
000003b0: 416b 3dbe 1bc8 c13c 54e6 d03a bec8 8a3a
000003c0: 8181 8abd a758 aabd 2bc8 0eba 782b 053e
000003d0: 1429 553c 946b 4bbc c446 133e 4819 153e
000003e0: 1603 263e d62e c7bc c58d 483c 2578 593c
000003f0: 3d5e 943d 2966 533d 2846 853d 613f 913c

network.2.bias f4 [32]
-0.032434087 -0.17189142 -0.05658588 -0.012112541 0.10867018 0.072311565 -0.031442843 0.054199416
-0.02502162 -0.061319795 -0.0741287 0.04754755 0.086212575 -0.023701375 -0.08836139 -0.14936762
0.06684584 -0.011155691 0.05509409 0.018387513 -0.070669375 -0.07441156 -0.3199446 0.021442652
-0.06882227 -0.08292177 -0.0049511995 0.06942053 0.07360179 0.16456152 -0.11523017 -0.050839983
00000000: 9bd9 04bd 4e04 30be 99c6 67bd ae73 46bc
00000010: 798e de3d 1618 943d 36ca 00bd 3500 5e3d
00000020: 24fa ccbc 772a 7bbd cad0 97bd 38c1 423d
00000030: 3890 b03d 6329 c2bc d1f6 b4bd d3f3 18be
00000040: 79e6 883d 5cc6 36bc 57aa 613d 69a1 963c
00000050: 1bbb 90bd 1765 98bd c7cf a3be 80a8 af3c
00000060: b1f2 8cbd e4d2 a9bd ac3d a2bb 5a2c 8e3d
00000070: 89bc 963d d182 283e ccfd ebbd 963d 50bd

network.5.weight f4 [48, 32, 3, 3]
-0.0053076814 -0.0073017166 0.007344431 0.019421445 0.0046401387 0.021673318 0.04682376 0.04847308
0.051939484 -0.060557984 -0.053941615 -0.04316508 -0.012066151 -0.006588375 0.010886754 0.017625159
0.017800039 0.018723946 0.01655711 0.013766829 0.018849215 0.01585896 0.022983918 0.026243897
-0.013623877 -0.0020823057 -0.0012991679 0.042384446 0.02083562 -0.016148025 0.037691567 0.0412971
0.016629653 0.08624987 0.07037478 0.10598776 -0.037857838 -0.04232407 -0.043154754 0.0012262979
-0.025650764 -0.008130844 0.033820376 0.018290518 0.01684148 0.03837993 0.06359908 0.10032173
0.03570082 0.04712729 0.07036441 0.059246533 0.03894874 0.039166234 -0.0067800605 -0.02045931
-0.0070474227 0.047711212 0.025531601 0.018285338 0.017246198 0.028056145 0.04187101 -0.008898181
0.008740358 0.040562667 0.011084126 0.005788799 0.038916066 0.009663633 0.010595191 0.04121208
-0.0011853807 0.0056036655 0.004562227 -0.015862271 -0.0095278155 -0.008857325 -0.03477355 -0.024137208
-0.04134943 -0.021103242 -0.016861869 -0.010837078 -0.017871572 -0.020821977 -0.023742609 0.011451787
0.019328631 0.0293876 -0.008430965 0.018709766 0.019147106 -0.026712213 -0.027001651 -0.0028975508
-0.012796424 0.017071601 0.011609108 -0.065280534 -0.102771625 -0.09992675 -0.014692231 -0.022288334
0.010438913 -0.0077034263 -0.00349407 0.011180145 -0.050108857 -0.030319043 -0.0043144077 -0.0494957
-0.031901572 -0.021846997 0.015174398 -0.020229328 -0.010755072 0.02513261 0.013456314 -0.026292933
0.03955577 0.011818009 0.008678465 0.011048017 -0.006190595 0.0112612415 -0.007310018 0.018030515
0.052490816 0.035070095 0.048102047 0.070047155 0.042842112 0.041413166 0.057004377 0.04268197
0.055157587 0.06325073 -0.015337791 -0.003662713 0.021887586 -0.04017475 -0.0314149 -0.017540064
0.006963954 0.005193648 0.010040829 -0.005454113 -0.0021304246 -0.0019523739 0.051986028 0.047682367
0.060760055 0.00075706624 -0.009428493 0.011815801 -0.02313087 -0.011834992 0.0052904068 0.013424022
0.0062747425 0.008564519 -0.017833676 -0.021248559 -0.042022616 -0.006873671 -0.030834496 -0.028475909
0.0012995923 -0.027854087 -0.011973659 0.009526462 0.014513071 0.04114316 -0.02021332 -0.02069907
-0.008545568 0.0044830902 -0.006992179 -0.012830361 0.039696347 0.04132569 0.015038976 -0.029635806
-0.013744113 -0.021623224 -0.043028623 -0.03022102 -0.012642011 -0.0072678723 -0.00383151 0.00329367
0.035136342 0.028082442 0.03838755 0.058861285 0.046765257 0.051019114 0.005385772 0.02994129
0.04171866 0.0058351257 0.01482194 0.015184859 -0.017446022 -0.019497776 -0.019133646 -0.042293802
-0.044190697 -0.042727318 -0.029184746 -0.0344418 -0.034888066 -0.03200843 -0.022855718 -0.020955477
0.028458387 0.037356943 0.034906786 -0.026916308 -0.02499964 -0.014824041 -0.061855767 -0.03619067
-0.05064303 0.011105451 0.018826425 0.049139917 -0.022943925 -0.0057157185 0.009197652 -0.04747835
-0.03785905 -0.026253846 0.0026845797 0.008500091 -0.023179736 -0.00037490163 0.0017352181 -0.0070926626
0.02212782 0.002795701 0.010490928 -0.025704915 -0.03669175 -0.027121227 0.018170265 0.01312111
0.008728549 -0.010996476 0.0039472603 -0.01585095 0.008561914 -0.011705932 -0.025641493 0.06356051
00000000: 0fec adbb 3d43 efbb 8da9 f03b b919 9f3c
00000010: 4e0c 983b 3e8c b13c 45ca 3f3d b58b 463d
00000020: 7fbe 543d a60b 78bd e2f1 5cbd decd 30bd
00000030: 1bb1 45bc 4ce3 d7bb 5b5e 323c a362 903c
00000040: 63d1 913c f662 993c c7a2 873c 448e 613c
00000050: ab69 9a3c a6ea 813c c548 bc3c 71fd d63c
00000060: af36 5fbc 4b77 08bb d748 aaba 509b 2d3d
00000070: 76af aa3c dd48 84bc 7962 1a3d 2627 293d
00000080: e93a 883c c6a3 b03d a720 903d 1c10 d93d
00000090: d210 1bbd 015c 2dbd 0ac3 30bd bbbb a03a
000000a0: 8d21 d2bc 3b37 05bc 3c87 0a3d ffd5 953c
000000b0: 25f7 893c 4634 1d3d 3c40 823d 7b75 cd3d
000000c0: 063b 123d 8c08 413d 371b 903d 7eac 723d
000000d0: b788 1f3d c66c 203d 452b debb 489a a7bc
000000e0: 11ee e6bb d56c 433d a627 d13c 22cb 953c
000000f0: e647 8d3c 00d6 e53c f080 2b3d adc9 11bc
00000100: b833 0f3c 0a25 263d 329a 353c f7af bd3b
00000110: 7466 1f3d 3754 1e3c 7497 2d3c ffcd 283d
00000120: c75e 9bba f49e b73b bc7e 953b 98f1 81bc
00000130: 8e1a 1cbc 501e 11bc b66e 0ebd 65bb c5bc
00000140: 055e 29bd b5e0 acbc e721 8abc 008e 31bc
00000150: 6767 92bc da92 aabc dc7f c2bc 47a0 3b3c
00000160: 1457 9e3c 44be f03c 0822 0abc 3945 993c
00000170: 64da 9c3c 92d3 dabc 9132 ddbc d6e4 3dbb
00000180: 18a8 51bc bed9 8b3c 2134 3e3c cdb1 85bd
00000190: ee79 d2bd 65a6 ccbd afb7 70bc 0696 b6bc
000001a0: f907 2b3c 066d fcbb c4fc 64bb ed2c 373c
000001b0: f23e 4dbd a45f f8bc e05f 8dbb 01bc 4abd
000001c0: 39ab 02bd 79f8 b2bc 0a9e 783c fab7 a5bc
000001d0: 0b36 30bc e7e2 cd3c df77 5c3c 4764 d7bc
000001e0: 3b05 223d 53a0 413c 1f30 0e3c be02 353c
000001f0: 7ada cabb 1281 383c e088 efbb bbb4 933c
00000200: 9c00 573d a9a5 0f3d a706 453d e274 8f3d
00000210: 367b 2f3d daa0 293d 6c7d 693d 4ad3 2e3d
00000220: ecec 613d 9989 813d 5c4b 7bbc 210a 70bb
00000230: 984d b33c 478e 24bd e9ac 00bd 2eb0 8fbc
00000240: e131 e43b 7a2f aa3b 4a82 243c 6ab8 b2bb
00000250: 989e 0bbb cce6 ffba 4def 543d 964e 433d
00000260: 89df 783d db75 463a f779 1abc 1097 413c
00000270: f37c bdbc 8ee7 41bc 265b ad3b 6ef0 5b3c
00000280: 5b9c cd3b 3252 0c3c ee17 92bc 7511 aebc
00000290: e81f 2cbd 883c e1bb a098 fcbc 4f46 e9bc
000002a0: 1557 aa3a 412e e4bc 2a2d 44bc e114 1c3c
000002b0: 3bc8 6d3c bb85 283d 6896 a5bc 1991 a9bc
000002c0: b602 0cbc e3e6 923b a61e e5bb 6f36 52bc
000002d0: a398 223d 2045 293d 0a66 763c cac6 f2bc
000002e0: fd2e 61bc 3023 b1bc c83e 30bd 1392 f7bc
000002f0: 7020 4fbc 5527 eebb 121a 7bbb 9dda 573b
00000300: 20eb 0f3d 260d e63c 433c 1d3d 8818 713d
00000310: ed8c 3f3d 6bf9 503d 217b b03b 7047 f53c
00000320: 30e1 2a3d 9534 bf3b b9d7 723c eac9 783c
00000330: f6ea 8ebc cdb9 9fbc 2abe 9cbc 443c 2dbd
00000340: 4e01 35bd d702 2fbd d914 efbc d812 0dbd
00000350: cae6 0ebd 461b 03bd ea3b bbbc d2aa abbc
00000360: 9021 e93c 9803 193d 6bfa 0e3d 977f dcbc
00000370: 0ccc ccbc 89e0 72bc 795c 7dbd ab3c 14bd
00000380: 116f 4fbd a3f3 353c e039 9a3c f046 493d
00000390: e6f4 bbbc ec4a bbbb c0b1 163c a978 42bd
000003a0: 1712 1bbd 4e12 d7bc c6ef 2f3b f743 0b3c
000003b0: 6ee3 bdbc 728e c4b9 4270 e33a 9169 e8bb
000003c0: 6745 b53c 1438 373b 24e2 2b3c 1d93 d2bc
000003d0: 174a 16bd 562d debc cfd9 943c edf9 563c
000003e0: 3002 0f3c 902a 34bc 0558 813b dad9 81bc
000003f0: 4547 0c3c 3dca 3fbc 1c0e d2bc 032c 823d

network.5.bias f4 [48]
-0.07876875 0.07536473 -0.098861046 0.041827463 -0.028229203 0.020944526 0.007578688 -0.006456529
-0.0020881318 -0.10693461 -0.014131097 0.021035438 -0.06610662 0.111849025 0.040713057 -0.0028585487
-0.029527668 -0.012685784 -0.0014641468 0.07434566 0.0076020625 -0.034916263 0.119761966 -0.036448985
0.119281635 -0.042407382 0.064256474 0.04793117 -0.009250578 -0.01893052 -0.02732149 -0.010352588
-0.03308128 -0.05747901 -0.026099212 0.05208209 0.051195532 -0.02951229 -0.06032601 -0.020662304
-0.10513983 -0.035985447 -0.12084943 0.04790058 0.06319634 0.019889293 -0.021214863 -0.050056163
00000000: 8351 a1bd d358 9a3d a977 cabd 4653 2b3d
00000010: ee40 e7bc db93 ab3c a556 f83b 4a91 d3bb
00000020: 0ad9 08bb 8800 dbbd 1e86 67bc 8352 ac3c
00000030: e862 87bd 1a11 e53d bcc2 263d 7d56 3bbb
00000040: 02e4 f1bc 09d8 4fbc 9de8 bfba 8a42 983d
00000050: b91a f93b 5b04 0fbd c345 f53d 884b 15bd
00000060: ee49 f43d 5db3 2dbd e698 833d 7953 443d
00000070: bc8f 17bc 2e14 9bbc 51d1 dfbc e79d 29bc
00000080: 3c80 07bd 1c6f 6bbd 04ce d5bc 0854 553d
00000090: 68b2 513d c2c3 f1bc 6818 77bd fe43 a9bc
000000a0: 8d53 d7bd 7a65 13bd e87f f7bd 6633 443d
000000b0: 156d 813d dfee a23c cbca adbc b107 4dbd

network.7.weight f4 [64, 48, 3, 3]
-0.031550776 -0.043149933 -0.053882126 -0.024153842 -0.03263936 -0.035082128 -0.028616058 -0.035692185
-0.03805985 -0.03677152 -0.029380133 -0.029771062 -0.020986952 -0.021108974 -0.020076724 -0.008869034
-0.016466543 -0.020859137 -0.03859062 -0.049539957 -0.06465344 -0.028744882 -0.03682653 -0.043348502
-0.035786904 -0.044513434 -0.05217716 -0.062393647 -0.044952203 -0.043587513 -0.049700566 -0.034980074
-0.03567568 -0.037116762 -0.026256757 -0.02231877 0.034170892 0.047644544 0.06331009 0.03366937
0.027081063 0.036268756 0.031490836 0.009516575 0.016290026 -0.0044590156 -0.013383884 -0.017144967
-0.014638921 -0.013252059 -0.016387986 -0.0013537464 -2.3242548e-05 -0.00326682 0.06259182 0.0594273
0.06350975 0.016006295 0.019778147 0.024297846 -0.00958157 -0.0042988947 0.0015807236 -0.034238685
-0.053362127 -0.05027295 -0.03408769 -0.043462727 -0.038769286 -0.026877915 -0.032805964 -0.031780977
0.010544142 0.024133863 0.026820665 0.04482694 0.035236135 0.039418295 0.0723435 0.05413682
0.05939408 -0.004174184 -0.019568898 -0.03231807 -0.02265922 -0.0485309 -0.06159966 -0.038559332
-0.058311988 -0.075933665 0.036595974 0.031339057 0.03331894 0.024795664 0.02413264 0.030188877
0.014170842 0.019288527 0.012911616 -0.03870867 -0.022839742 -0.008150032 -0.009552865 -0.0021331173
-0.010818033 -0.04472546 -0.036429606 -0.043511897 0.014425838 0.012844551 0.0059425547 0.0039016437
0.006616969 -0.0014303777 0.0014938723 -0.0010716438 -0.011211516 0.04706239 0.045461174 0.05206356
0.054981638 0.056349587 0.061634507 0.058685202 0.056695778 0.045852877 -0.01720869 -0.009451642
0.011533256 -0.027127216 -0.019587262 -0.0233663 -0.027064178 -0.02040192 -0.030254778 -0.06549653
-0.05803681 -0.06967855 -0.01988422 -0.013716113 -0.012501585 -0.030232655 -0.04251525 -0.045433853
0.03692025 0.03381112 0.028288402 0.038204446 0.02460929 0.018688045 0.03052949 0.01323686
0.0022597476 0.09208122 0.07634115 0.07137521 0.05337664 0.04548432 0.04423718 0.02770849
0.027127225 0.026614102 0.04228082 0.03713882 0.05018355 0.037030097 0.034821946 0.047929574
0.012028616 0.023085807 0.039171293 -0.04210319 -0.04177353 -0.04554943 -0.04804147 -0.048830386
-0.050970495 -0.08091308 -0.07859279 -0.08840058 0.0069372742 0.010450974 0.020714164 -0.00018249739
0.004551216 0.009662019 -0.00058249093 -0.008050225 -0.015835019 0.032670166 0.030297555 0.028446171
0.016043251 0.020424537 0.022656405 0.026959265 0.0230298 0.027817085 -0.002422621 -0.024443934
-0.048488464 -0.01138305 -0.030298423 -0.041888785 -0.04649577 -0.05886761 -0.06628591 0.054117903
0.041718643 0.037605736 0.03347322 0.023320653 0.018067501 0.00073309185 -0.0022785054 -0.008551086
-0.052233737 -0.07556906 -0.092202574 -0.09435301 -0.10981078 -0.11435646 -0.07101429 -0.08709336
-0.08398549 0.015764764 0.0020762004 -0.010330281 -0.013586118 -0.02831538 -0.045616414 -0.0063509336
-0.016942896 -0.03158624 -0.072291724 -0.026395407 0.016243739 -0.07094522 -0.02669067 -0.011938546
-0.106463976 -0.07863278 -0.08042808 -0.03959903 -0.030452104 -0.039186325 -0.036134083 -0.025188483
-0.027990384 -0.03774263 -0.04012293 -0.041098673 -0.04577898 -0.014818533 0.010083339 -0.037758224
00000000: 633b 01bd fcbd 30bd 81b3 5cbd 47de c5bc
00000010: d9b0 05bd 47b2 0fbd 396c eabc f831 12bd
00000020: a5e4 1bbd bc9d 16bd 9bae f0bc 71e2 f3bc
00000030: d4ec abbc baec acbc f177 a4bc 6d4f 11bc
00000040: d8e4 86bc c8e0 aabc 3311 1ebd 69ea 4abd
00000050: 0669 84bd 637a ebbc 6ad7 16bd 338e 31bd
00000060: 4a95 12bd b853 36bd b8b7 55bd 7b90 7fbd
00000070: cd1f 38bd d288 32bd d292 4bbd 4447 0fbd
00000080: a920 12bd bf07 18bd 6918 d7bc dad5 b6bc
00000090: c7f6 0b3d ed26 433d b8a8 813d e5e8 093d
000000a0: 1bd9 dd3c 8c8e 143d 89fc 003d 69eb 1b3c
000000b0: a972 853c ef1c 92bb 1448 5bbc 9a73 8cbc
000000c0: 16d8 6fbc 2a1f 59bc 1940 86bc 3170 b1ba
000000d0: fef8 c2b7 2518 56bb 2430 803d 0a6a 733d
000000e0: 6611 823d a21f 833c c805 a23c 470c c73c
000000f0: 04fc 1cbc bedd 8cbb 4830 cf3a dd3d 0cbd
00000100: 3f92 5abd 02eb 4dbd 899f 0bbd f905 32bd
00000110: 8bcc 1ebd 132f dcbc 8c5f 06bd c52c 02bd
00000120: 56c1 2c3c 61b4 c53c 03b7 db3c 749c 373d
00000130: c453 103d 1475 213d d428 943d 92be 5d3d
00000140: 3547 733d 98c7 88bb f44e a0bc f45f 04bd
00000150: d49f b9bc 56c8 46bd ed4f 7cbd 64f0 1dbd
00000160: 8dd8 6ebd 1c83 9bbd a9e5 153d 625d 003d
00000170: 7179 083d 4720 cb3c d0b1 c53c aa4e f73c
00000180: d22c 683c f902 9e3c 3e8b 533c fb8c 1ebd
00000190: 691a bbbc b687 05bc 9f83 1cbc c5cb 0bbb
000001a0: 1e3e 31bc 0b32 37bd 3637 15bd 8839 32bd
000001b0: 5a5a 6c3c f471 523c c3b9 c23b b8b2 7f3b
000001c0: 29d3 d83b 837b bbba 09ce c33a 6676 8cba
000001d0: 82b0 37bc 7ec4 403d 7f35 3a3d 9940 553d
000001e0: 6d34 613d d3ce 663d 7774 7c3d e55f 703d
000001f0: d539 683d 3ad0 3b3d 3df9 8cbc 0fdb 1abc
00000200: fbf5 3c3c e539 debc 7775 a0bc af6a bfbc
00000210: b2b5 ddbc ed21 a7bc ded8 f7bc 0b23 86bd
00000220: 02b8 6dbd a1b3 8ebd 3be4 a2bc 8cb9 60bc
00000230: 73d3 4cbc 79aa f7bc 7924 2ebd d918 3abd
00000240: b039 173d 877d 0a3d 14bd e73c 447c 1c3d
00000250: 6c99 c93c ac17 993c fb18 fa3c 6adf 583c
00000260: 4618 143b 1495 bc3d c058 9c3d 2b2d 923d
00000270: 77a1 5a3d c44d 3a3d 0c32 353d eafc e23c
00000280: ea39 de3c d105 da3c a72e 2d3d e01e 183d
00000290: 448d 4d3d dfac 173d 75a1 0e3d cd51 443d
000002a0: ac13 453c 721e bd3c 1472 203d 6574 2cbd
000002b0: b91a 2bbd 0a92 3abd 22c7 44bd 5f02 48bd
000002c0: 70c6 50bd c2b5 a5bd 42f5 a0bd 5d0b b5bd
000002d0: 1352 e33b 903a 2b3c c0b0 a93c c55c 3fb9
000002e0: 5e22 953b 724d 1e3c 4eb2 18ba 17e5 03bc
000002f0: 71b8 81bc 27d1 053d 9432 f83c f207 e93c
00000300: 236d 833c 5c51 a73c ed99 b93c add9 dc3c
00000310: fea8 bc3c a8e0 e33c d6c4 1ebb a53e c8bc
00000320: d79b 46bd f97f 3abc 6634 f8bc 9393 2bbd
00000330: 5972 3ebd 2a1f 71bd e8c0 87bd bcaa 5d3d
00000340: 2be1 2a3d 7908 1a3d 371b 093d f40a bf3c
00000350: 4c02 943c f62c 403a fa52 15bb db19 0cbc
00000360: 0bf3 55bd f4c3 9abd b4d4 bcbd 273c c1bd
00000370: 79e4 e0bd b833 eabd f16f 91bd 015e b2bd
00000380: 9600 acbd 1b25 813c dd10 083b 5740 29bc
00000390: 4f98 5ebc a8f5 e7bc 47d8 3abd 7e1b d0bb
000003a0: d4cb 8abc 9360 01bd af0d 94bd 2e3b d8bc
000003b0: 9711 853c ba4b 91bd 64a6 dabc e499 43bc
000003c0: c909 dabd 390a a1bd 7ab7 a4bd 9832 22bd
000003d0: b176 f9bc d781 20bd 5501 14bd 1458 cebc
000003e0: 174c e5bc 0498 1abd f157 24bd 1557 28bd
000003f0: bd82 3bbd 6fc9 72bc 9734 253c 5ea8 1abd

network.7.bias f4 [64]
0.05080044 -0.0017183995 -0.001805735 0.0039475653 0.0028851475 0.048140954 0.0031541556 -0.025133304
-0.01430942 0.094591886 -0.016684689 -0.0005628596 0.0003720755 0.027061358 0.03050457 0.0658145
0.05089271 -0.0016133714 0.013815524 -0.0002509876 0.03481386 -0.0011617889 -0.0009388886 -0.0007272561
-0.06308194 0.010929425 -0.0057812775 0.00037811487 0.04327881 0.016109541 0.027567621 0.02539389
-0.004794876 0.023281386 -0.000305915 -0.0012060311 -0.0024820527 -0.00037589672 0.09895595 -0.0017542515
-0.004682142 -0.0015772611 -0.059651535 -0.0001654604 0.012399152 -0.045378394 -0.0014076038 8.604849e-05
-0.0014453487 0.0072888457 0.012245478 -0.0022865478 -0.0006730188 -0.0029839883 -0.0013371576 -0.0003865367
0.0035155115 -0.0007315234 0.08088996 0.045240223 0.0006877684 0.0045527313 -0.00078598043 0.10202067
00000000: 1f14 503d eb3b e1ba 6aae ecba 945a 813b
00000010: be14 3d3b 732f 453d f3b5 4e3b 5ce4 cdbc
00000020: 0f72 6abc 64b9 c13d 54ae 88bc de8c 13ba
00000030: 2113 c339 c8af dd3c b8e4 f93c c1c9 863d
00000040: e074 503d c377 d3ba 825a 623c fc96 83b9
00000050: fa98 0e3d 2b47 98ba bf1f 76ba 55a5 3eba
00000060: 1b31 81bd 5511 333c df70 bdbb b83d c639
00000070: 1f45 313d 28f8 833c 7ed5 e13c d906 d03c
00000080: 561e 9dbb 9bb8 be3c 3763 a0b9 b013 9eba
00000090: efa9 22bb 0114 c5b9 6ba9 ca3d eaee e5ba
000000a0: a76c 99bb 1abc ceba 2b55 74bd 707f 2db9
000000b0: d025 4b3c b2de 39bd 597f b8ba ee74 b438
000000c0: db71 bdba 45d7 ee3b 42a1 483c e8d9 15bb
000000d0: 876d 30ba 048f 43bb 9043 afba 14a8 cab9
000000e0: 7f64 663b b4c3 3fba a3a9 a53d d04d 393d
000000f0: 5b4b 343a 142f 953b 410a 4eba 37f0 d03d

network.11.weight f4 [128, 1024]
-0.0026166765 -0.008374771 -0.006765293 -0.0052625216 -0.050394956 -0.053972814 -0.04416352 -0.041313652
-0.023824833 -0.043076318 -0.0397036 -0.024174482 -0.0030831124 -0.0095228115 -0.010966164 -0.005000027
0.00076256145 0.00082905474 0.00044539323 0.00075258804 0.0005183135 0.00065452594 0.00044322407 0.00044663626
0.0017565351 0.0016931195 0.0019661514 0.0016857818 -0.00014308882 4.1744996e-05 0.00024306498 0.0001448214
0.00035605693 0.0006065266 0.0001448141 -0.00023005983 -0.0008328906 0.00068719423 0.0009947742 0.0033395668
-0.0012690832 -0.0013492124 -0.0014190669 -0.00032156333 4.2108983e-05 -8.097484e-05 -0.0018524464 -0.0019108314
0.003402989 0.0037530554 0.00447517 0.005453326 0.00033964438 -0.00016902442 0.0015633614 0.0027710167
0.0038499008 0.003813388 0.0032792524 0.0024068814 0.005910078 0.0060504954 0.006272529 0.005669141
0.0013018765 0.0013888662 0.0018938434 0.0025872206 0.0060712765 0.0065523554 0.0048810174 0.0040926207
0.003901257 0.0057838806 0.003692671 0.0027058602 0.00534765 0.0046056993 0.0045286953 0.004783266
0.00034466985 0.008003914 -0.0037925672 0.0027993056 0.022178518 0.06155243 0.006570989 0.008031612
0.002643404 0.03458701 0.006518904 -0.0041613295 0.010987358 0.0023192018 0.0019168537 0.0069562146
-0.0018140274 -0.0015708605 0.0002702847 0.00037684632 -0.0025026528 -0.0020548238 -0.0012367091 0.00015935654
0.0023767229 0.0014294486 0.0005349861 -0.00041952688 0.0029793747 0.0023526188 0.0024458 0.0023791876
-0.0143523365 -0.018704064 -0.015253565 -0.021794163 -0.08444021 -0.169415 -0.114308454 -0.0820651
-0.06340114 -0.12930898 -0.09915343 -0.052017067 -0.012443419 -0.027900955 -0.028283527 -0.013462159
-0.035352375 -0.030853331 -0.024152694 -0.028967751 -0.0066870637 -0.015589354 -0.019941116 -0.029378802
-0.0072901174 -0.0023053265 -0.0028919263 -0.00850016 -0.013409797 -0.0015719539 -0.0046488657 -0.012393062
0.0052993745 -0.0024616113 0.0018736677 0.013115534 0.017033953 0.027263353 0.047545567 0.036300093
0.03260269 0.058565345 0.060195003 0.01455296 0.009854005 0.013836451 0.019538423 0.018347299
-0.0055456497 -0.005003537 -0.009094516 -0.006274678 -5.7684643e-05 0.0023036755 0.0075706416 -0.017929455
0.0050727734 -0.0077016344 0.0026663868 -0.006639866 0.0017088618 0.00092877675 0.0017104733 0.0060798624
-0.0018842986 -8.084982e-05 4.2532916e-05 0.0006390389 -0.0024042681 -0.002804168 -0.0029475337 -0.0025797375
-0.000827606 -0.0020565449 -0.0015981172 -0.002438607 -0.0011412294 7.2003604e-05 -0.00034213773 0.0006890959
0.0017721406 0.002424194 0.0037724026 0.0025773316 -0.00044831174 0.0014376043 0.0019640478 0.0016474229
0.0012812768 0.0019537248 0.0016154941 0.00069967686 -0.002865485 -0.0012831633 1.329332e-05 -0.00030388747
0.063507594 0.00022613566 0.011684649 0.018735517 0.059776377 -0.055044036 -0.0389264 0.03441937
0.07279314 -0.014262708 -0.031180296 0.027722804 0.027101288 -0.031600088 -0.023851678 -0.013793915
-0.009674076 -0.014046805 -0.013984812 -0.010658562 -0.057505634 -0.059372146 -0.049838297 -0.053264324
-0.027776785 -0.047898863 -0.046897367 -0.029386453 -0.0038854424 -0.011498545 -0.012648065 -0.005878227
-0.00567645 0.009655041 -0.015150607 0.047014147 0.009898441 0.06689498 0.0037234444 0.064059004
0.0005966344 0.006516328 -0.00812192 0.06907132 -0.006652513 -0.016628247 -0.011332585 0.051118538
00000000: 8c7c 2bbb 5636 09bc 64af ddbb 3b71 acbb
00000010: f16a 4ebd 9912 5dbd cfe4 34bd 8138 29bd
00000020: 4c2c c3bc cb70 30bd 3ea0 22bd 9009 c6bc
00000030: 0b0e 4abb 9105 1cbc 6dab 33bc 44d7 a3bb
00000040: a2e6 473a ec54 593a ab83 e939 5449 453a
00000050: 6edf 073a 7e94 2b3a 8760 e839 812a ea39
00000060: 8a3b e63a aaeb dd3a 8cda 003b 73f5 dc3a
00000070: 1d0a 16b9 5917 2f38 42df 7e39 33db 1739
00000080: 27ad ba39 50ff 1e3a 3dd9 1739 373c 71b9
00000090: 5856 5aba d324 343a 1563 823a a2dc 5a3b
000000a0: 5e57 a6ba 0ed8 b0ba fcff b9ba 8097 a8b9
000000b0: 2d9e 3038 09d1 a9b8 c9cd f2ba dd74 faba
000000c0: ae04 5f3b d2f5 753b 72a4 923b d0b1 b23b
000000d0: 4c12 b239 263c 31b9 b4e9 cc3a f299 353b
000000e0: 9e4e 7c3b 09ea 793b bae8 563b c5bc 1d3b
000000f0: 54a9 c13b 3c43 c63b c989 cd3b 34c4 b93b
00000100: baa3 aa3a 9e0a b63a d73a f83a 5c8e 293b
00000110: 8ff1 c63b 24b5 d63b f1f0 9f3b 641b 863b
00000120: 3bac 7f3b b586 bd3b bd00 723b cd54 313b
00000130: 573b af3b 68eb 963b 7365 943b f2bc 9c3b
00000140: ceb4 b439 d922 033c b88c 78bb 8e74 373b
00000150: b9af b53c 671e 7c3d 7351 d73b 0697 033c
00000160: f63c 2d3b 1cab 0d3d 889c d53b c35b 88bb
00000170: 5204 343c c0fd 173b f03e fb3a f5f0 e33b
00000180: a9c4 edba 55e5 cdba 00b5 8d39 7593 c539
00000190: 8c03 24bb 39aa 06bb 1219 a2ba f218 2739
000001a0: cbc2 1b3b 565c bb3a 4f3e 0c3a f2f3 dbb9
000001b0: 9d41 433b 652e 1a3b b749 203b 25ec 1b3b
000001c0: 1026 6bbc 4439 99bc 17ea 79bc ac89 b2bc
000001d0: fdee acbd 207b 2dbe 8d1a eabd bf11 a8bd
000001e0: 75d8 81bd 9369 04be f410 cbbd d90f 55bd
000001f0: 7bdf 4bbc 8b90 e4bc dbb2 e7bc 6390 5cbc
00000200: a7cd 10bd 20c0 fcbc dfdb c5bc c74d edbc
00000210: 281f dbbb 7d6a 7fbc 8d5b a3bc d0ab f0bc
00000220: f0e1 eebb f614 17bb 7986 3dbb 4144 0bbc
00000230: c4b4 5bbc 050a ceba 8355 98bb 450c 4bbc
00000240: 60a6 ad3b fc52 21bb db95 f53a 89e2 563c
00000250: ca8a 8b3c 6557 df3c 24bf 423d 68af 143d
00000260: 668a 053d 37e2 6f3d 098f 763d 8a6f 6e3c
00000270: b172 213c 48b2 623c 0b0f a03c 134d 963c
00000280: 48b8 b5bb b6f4 a3bb 2a01 15bc d09b cdbb
00000290: 6af2 71b8 43f9 163b 2513 f83b cbe0 92bc
000002a0: 8239 a63b fe5d fcbb 8cbe 2e3b 3c93 d9bb
000002b0: e3fb df3a 2779 733a f631 e03a 9539 c73b
000002c0: 92fa f6ba eb8d a9b8 5f65 3238 2d85 273a
000002d0: ed90 1dbb 22c6 37bb 692b 41bb d010 29bb
000002e0: b3f3 58ba 19c7 06bb ea77 d1ba 09d1 1fbb
000002f0: 4e95 95ba a400 9738 f360 b3b9 71a4 343a
00000300: 2c47 e83a 3adf 1e3b 6a3a 773b 73e8 283b
00000310: 620b ebb9 ff6d bc3a 41b7 003b 57ee d73a
00000320: 84f0 a73a 100a 003b fdbe d33a 856a 373a
00000330: dcca 3bbb d12f a8ba 6006 5f37 1653 9fb9
00000340: 4510 823d d41e 6d39 f870 3f3c 3a7b 993c
00000350: 13d8 743d db75 61bd 4a71 1fbd 53fb 0c3d
00000360: 9214 953d 22ae 69bc d26d ffbc ef1a e33c
00000370: 8503 de3c 186f 01bd 9864 c3bc dfff 61bc
00000380: 0480 1ebc 9224 66bc 8e20 65bc 40a1 2ebc
00000390: 078b 6bbd 3530 73bd 3e23 4cbd b12b 5abd
000003a0: 248c e3bc 9931 44bd 7417 40bd dcbb f0bc
000003b0: e8a2 7ebb 6564 3cbc d439 4fbc 249e c0bb
000003c0: 8401 babb 2d30 1e3c 403a 78bc e891 403d
000003d0: 122d 223c 3c00 893d 0805 743b 5e31 833d
000003e0: 7567 1c3a ec86 d53b cd11 05bc 4475 8d3d
000003f0: 53fd d9bb f637 88bc 4eac 39bc ac61 513d

network.11.bias f4 [128]
0.021985903 0.04451236 -0.024164377 0.042800643 0.036610536 -0.031033885 -0.11959133 -0.11640651
-0.10916829 0.021820467 -0.03600919 0.039373387 0.02740606 0.025974592 -0.102955535 0.031581793
0.022304704 -0.10548929 -0.11442264 0.02102214 -0.10800332 -0.027468493 -0.03384706 -0.116602935
-0.034212813 -0.05995069 0.036867443 0.03536968 0.043975543 -0.066493556 -0.11117614 -0.027052946
-0.13825618 -0.028640758 0.036146216 0.040592514 -0.10729281 -0.09545971 -0.107428774 0.028490495
-0.1496281 0.017099302 -0.03158659 0.050153006 -0.06531592 -0.11145459 -0.05993715 -0.13342057
0.039743505 0.041908003 0.0495122 0.042036097 -0.07408226 -0.1176933 -0.026408346 -0.11390062
-0.031718783 -0.06941674 -0.06358169 -0.13193385 0.03558333 -0.04235896 -0.03867308 0.029542964
-0.06796849 -0.096258365 -0.041538022 0.04291956 0.02513872 0.019979931 -0.04617514 -0.089339934
-0.10658143 0.03700564 -0.11203432 0.02132379 -0.031442717 0.034806035 0.02441052 -0.040721405
0.046397988 0.04480447 -0.03229246 0.044364054 0.02400057 0.018848091 0.038395938 -0.032655377
-0.035007264 0.040774267 0.03867875 0.018625956 0.04732834 0.037547167 -0.023051267 0.050692935
0.042491954 -0.033339176 -0.102379486 0.03350476 0.03595494 -0.13303418 -0.026356772 -0.021970963
-0.066981204 -0.031629663 -0.11744454 -0.030763853 -0.07502729 -0.12590045 -0.09411869 -0.021211049
0.029928884 -0.060678147 -0.039093316 0.051740814 0.045411132 -0.0676507 0.0171358 -0.1158286
0.024232307 -0.07574873 0.03765713 0.03299794 0.0406606 -0.11858525 -0.028189765 -0.081295274
00000000: c81b b43c 9852 363d 5ff4 c5bc ba4f 2f3d
00000010: eef4 153d c63a febc 4dec f4bd 8966 eebd
00000020: a093 dfbd d6c0 b23c 5f7e 13bd fd45 213d
00000030: ac82 e03c abc8 d43c 5ada d2bd e95b 013d
00000040: 5bb8 b63c c50a d8bd 6b56 eabd 9f36 ac3c
00000050: d830 ddbd 9b05 e1bc 37a3 0abd 85cd eebd
00000060: bc22 0cbd db8e 75bd 5102 173d ccdf 103d
00000070: b31f 343d c62d 88bd 51b0 e3bd 249e ddbc
00000080: 0793 0dbe 06a0 eabc 0e0e 143d 5644 263d
00000090: 55bc dbbd 6180 c3bd 9e03 dcbd e664 e93c
000000a0: 1c38 19be d613 8c3c f160 01bd 3d6d 4d3d
000000b0: 5ac4 85bd 4e42 e4bd a880 75bd 679f 08be
000000c0: 16ca 223d baa7 2b3d 4ecd 4a3d 0b2e 2c3d
000000d0: 71b8 97bd 2f09 f1bd 5156 d8bc ba44 e9bd
000000e0: 8eeb 01bd 5d2a 8ebd 1e37 82bd ab19 07be
000000f0: d3bf 113d 9780 2dbd aa67 1ebd 1604 f23c
00000100: 1033 8bbd 1b23 c5bd c623 2abd 6ccc 2f3d
00000110: b8ef cd3c f4ac a33c 2522 3dbd dbf7 b6bd
00000120: 5d47 dabd 3a93 173d 4072 e5bd 3baf ae3c
00000130: 14ca 00bd c690 0e3d 92f8 c73c 7dcb 26bd
00000140: d10b 3e3d e484 373d 1945 04bd 15b7 353d
00000150: d89c c43c 5067 9a3c 0f45 1d3d a5c1 05bd
00000160: c763 0fbd eb02 273d 9c6d 1e3d 7695 983c
00000170: 5ddb 413d 0fcb 193d 03d6 bcbc 65a3 4f3d
00000180: 0b0c 2e3d a98e 08bd 56ac d1bd 4a3c 093d
00000190: 7d45 133d 1d3a 08be 28ea d7bc 73fc b3bc
000001a0: 712d 89bd 1b8e 01bd c386 f0bd 7a04 fcbc
000001b0: e8a7 99bd 0cec 00be 4dc1 c0bd cbc2 adbc
000001c0: 6b2d f53c a689 78bd 5020 20bd 2dee 533d
000001d0: 0601 3a3d 738c 8abd 6160 8c3c 8c37 edbd
000001e0: d582 c63c 2622 9bbd 5d3e 1a3d d928 073d
000001f0: bb8b 263d d3dc f2bd 39ee e6bc 237e a6bd

network.14.weight f4 [4, 128]
-0.5676484 0.0613137 -0.28940874 0.06387437 0.18830717 0.12959279 -0.08370549 -0.06944788
0.12781103 -0.568212 -0.292924 0.18454514 -0.5952352 -0.589359 0.2923396 0.18924893
-0.5660667 0.17645909 0.36604127 -0.58023447 0.11233713 -0.28255025 0.14323898 0.36508644
0.12037477 0.14180577 0.18325765 0.19223207 0.06938645 -0.33217388 0.36333507 -0.27150553
0.098024756 -0.29384273 0.17941684 0.17507616 0.19143443 0.31496897 -0.08644396 0.16641538
0.094727285 -0.57280654 0.14325197 0.05911331 -0.32110527 0.15864433 -0.3236741 0.11511447
0.1875248 0.066922285 0.06800534 0.07183676 -0.31382135 -0.076220706 -0.28875142 -0.08321273
-0.28891116 0.13261111 -0.32010826 0.11135024 0.18001862 0.13910364 0.13960108 0.19006985
-0.31621462 0.32491606 0.14393257 0.06284224 -0.5757467 -0.57060874 0.13176832 0.30731937
0.3046744 0.19827467 0.366264 -0.58271796 0.13587578 0.21364154 -0.5686478 0.13749887
0.063867204 0.06611891 -0.27851352 0.06278648 -0.58106744 -0.5770366 0.06416439 0.13898876
0.14527127 0.177642 0.18359995 -0.5766667 0.069852546 0.18160565 -0.29857114 0.056076597
0.18200512 0.16663781 0.31558833 0.1811859 0.2132917 0.104650624 -0.28523082 -0.26891258
-0.3208659 0.1410235 0.18320124 -0.2952298 -0.32825848 0.100719206 0.3442252 -0.2828207
0.20839275 0.121816106 0.15282232 0.076946355 0.06652809 -0.30639204 -0.5692454 -0.09231365
-0.5796384 0.10982644 0.19086148 0.19852085 0.07150652 -0.092751235 0.1396658 0.12112071
0.16410671 0.038747963 -0.46283916 0.01812268 -0.39771736 0.16175118 -0.33538267 -0.35288906
0.14125331 0.18769467 -0.47052017 -0.4011794 0.18775795 0.17558861 -0.3979028 -0.40304974
0.18011223 -0.542275 -0.2939342 0.18466336 0.11968094 -0.47139513 0.1603491 -0.28536522
0.1425771 0.15288179 -0.3943261 -0.40515757 0.015616679 0.28669235 -0.26477665 -0.47950837
0.10664168 -0.47417298 -0.4199774 -0.41554403 -0.5225714 -0.36906144 -0.34666955 -0.40079883
0.11338901 0.16531608 0.14643256 0.028159367 0.2691811 -0.5467343 0.28943643 0.12134746
-0.42343464 0.02587412 0.0194985 0.02661294 0.29561523 -0.34518084 -0.46354225 -0.34666312
-0.4530995 0.14522162 0.27607995 0.124525435 -0.40320998 0.1818556 0.15638565 -0.39897117
0.28108975 -0.38204998 0.1527168 0.041015692 0.15821658 0.19202857 0.15160759 -0.3717991
-0.38541684 -0.392854 -0.28495744 0.16680127 0.15439378 -0.39354873 0.16948314 0.15928409
0.019858778 0.021939794 -0.4779755 0.017735576 0.18399261 0.16176896 0.034256436 0.15474066
0.16704686 -0.40594578 -0.41994864 0.17438345 0.064135425 -0.38838872 -0.47836587 0.027759135
-0.42100084 0.15481706 -0.43442592 -0.39816055 -0.3865473 0.114949174 -0.47731775 -0.49036855
0.2637446 0.15462828 -0.51826036 -0.47077045 0.27474457 0.117547534 -0.36031783 -0.47873107
-0.39928663 0.14371076 0.15695925 0.03614269 0.020173393 0.2853029 0.16811574 -0.35001156
0.18391618 0.1419833 -0.3987737 -0.38748392 0.012857928 -0.33234894 0.16222355 0.12612155
00000000: 6851 11bf 1324 7b3d 622d 94be 91d0 823d
00000010: 98d3 403e f9b3 043e c96d abbd b13a 8ebd
00000020: e5e0 023e 5776 11bf 22fa 95be 67f9 3c3e
00000030: 5661 18bf 3be0 16bf 89ad 953e 79ca 413e
00000040: bfe9 10bf b1b1 343e c369 bb3e 3f8a 14bf
00000050: 0211 e63d 6daa 90be 3dad 123e 9cec ba3e
00000060: 0c87 f63d 8835 113e e5a7 3b3e 7cd8 443e
00000070: 7c1a 8e3d b212 aabe 0e07 ba3e c602 8bbe
00000080: 34c1 c83d 8e72 96be 0cb9 373e 2a47 333e
00000090: 6307 443e 9d43 a13e 8809 b1bd cb68 2a3e
000000a0: 6100 c23d 73a3 12bf a5b0 123e cc20 723d
000000b0: e967 a4be a973 223e 9db8 a5be 23c1 eb3d
000000c0: 8006 403e 8d0e 893d 6246 8b3d 271f 933d
000000d0: 31ad a0be 9a19 9cbd 3ad7 93be 706b aabd
000000e0: 2aec 93be 35cb 073e 3be5 a3be 980b e43d
000000f0: cd56 383e 2f71 0e3e 96f3 0e3e aca1 423e
00000100: e2e6 a1be 665b a63e 0f63 133e 6fb3 803d
00000110: 2364 13bf 6a13 12bf 46ee 063e f758 9d3e
00000120: 48fe 9b3e 8408 4b3e f486 bb3e 012d 15bf
00000130: 0523 0b3e d9c4 5a3e e792 11bf 81cc 0c3e
00000140: cfcc 823d 5a69 873d 5399 8ebe 3396 803d
00000150: d6c0 14bf acb8 13bf 9f68 833d 1253 0e3e
00000160: fec1 143e c9e7 353e a001 3c3e 6ea0 13bf
00000170: da0e 8f3d d5f6 393e 51de 98be 93b0 653d
00000180: 8d5f 3a3e 1aa3 2a3e cb94 a13e cc88 393e
00000190: 2469 5a3e 1153 d63d c609 92be e9ae 89be
000001a0: 8948 a4be 7768 103e 1b99 3b3e 5c28 97be
000001b0: 7f11 a8be df45 ce3d 493e b03e e0cd 90be
000001c0: e964 553e b97a f93d 747d 1c3e 0d96 9d3d
000001d0: e13f 883d 6bdf 9cbe 11ba 11bf f00e bdbd
000001e0: 2f63 14bf afec e03d 3171 433e 0d49 4b3e
000001f0: 0372 923d 5cf4 bdbd 8d04 0f3e 230e f83d
00000200: 970b 283e 2fb6 1e3d 41f9 ecbe 0476 943c
00000210: 9ca1 cbbe 1aa2 253e 47b7 abbe e0ad b4be
00000220: b5a4 103e 0833 403e 05e8 f0be 6367 cdbe
00000230: 9f43 403e 80cd 333e eab9 cbbe 895c cebe
00000240: 576f 383e 89d2 0abf 8b7e 96be 6418 3d3e
00000250: 481b f53d b45a f1be 8e32 243e 641b 92be
00000260: bbff 113e 0b8d 1c3e 1ce5 c9be d070 cfbe
00000270: 19dd 7f3c 57c9 923e ce90 87be 1f82 f5be
00000280: f466 da3d cdc6 f2be 4707 d7be 30c2 d4be
00000290: 3dc7 05bf 9ff5 bcbe ac7e b1be 8135 cdbe
000002a0: 7f38 e83d 9e48 293e 6bf2 153e 79ae e63c
000002b0: 1bd2 893e c7f6 0bbf 0331 943e 0485 f83d
000002c0: 6dcc d8be f6f5 d33c 51bb 9f3c 6103 da3c
000002d0: e15a 973e 8bbb b0be 6955 edbe d47d b1be
000002e0: a8fc e7be fab4 143e 5a5a 8d3e 3107 ff3d
000002f0: 8a71 cebe 5b38 3a3e 8f23 203e f345 ccbe
00000300: ffea 8f3e 0e9c c3be cb61 1c3e 1200 283d
00000310: 8703 223e 23a3 443e 053f 1b3e 745c bebe
00000320: 5b55 c5be 2924 c9be f1e5 91be f4cd 2a3e
00000330: 6719 1e3e 387f c9be fd8c 2d3e 5e1b 233e
00000340: e0ae a23c 15bb b33c 34b9 f4be 334a 913c
00000350: 8f68 3c3e c3a6 253e 7a50 0c3d 5674 1e3e
00000360: 550e 2b3e 20d8 cfbe 8203 d7be 9391 323e
00000370: 6f59 833d e3da c6be 5fec f4be 2067 e33c
00000380: 6c8d d7be 5d88 1e3e 136d debe b3db cbbe
00000390: 87e9 c5be 796a eb3d fe62 f4be 9611 fbbe
000003a0: 8809 873e e056 1e3e b6ac 04bf d308 f1be
000003b0: 52ab 8c3e c3bc f03d 947b b8be 3d1c f5be
000003c0: 4c6f ccbe ea28 133e edb9 203e 5b0a 143d
000003d0: ac42 a53c 3913 923e 8826 2c3e b734 b3be
000003e0: 8654 3c3e 1264 113e 112c ccbe 4b64 c6be
000003f0: 0faa 523c a429 aabe ee1d 263e 0226 013e

network.14.bias f4 [4]
-1.0302684 -0.09042148 -0.11926515 1.1690506
00000000: d6df 83bf e62e b9bd 4941 f4bd 73a3 953f
