models/vgg/VGG2_RMSprop_32_lr1e-06_m0.99_wd0.001/VGG2_RMSprop_32_lr1e-06_m0.99_wd0.001.pth (torch, 716955 bytes, 12 tensors)

network.0.weight f4 [16, 1, 3, 3]
00000000: 56cd e93c 2234 cfbe b1e8 d2be 3a57 103e
00000010: 6834 6dbd be2c 85bd 9e75 873e 5370 ac3e
00000020: 5550 bd3e b617 023f 8eb1 163e 36ac 55be
00000030: 85d0 113f 6183 7dbe 4b65 31bf d571 aa3e
00000040: d82d 79be e7bc 4a3e 3ca3 afbe bc94 6fbe
00000050: 3db2 b33e a98b c8be 19e2 9b3e 6761 e83e
00000060: e05f 76be aca2 8d3e 2f78 57bd a49b 8b3e
00000070: 0922 a43e e606 853e d17d b93c befe d33b
00000080: 647f 563c 7814 e6be bbf4 e4be c20b cebe
00000090: b452 c33e 93c3 4abe 1c77 e13d 627e e6bd
000000a0: 7b19 05bf cd31 d8bd 1530 f03e 888b 03be
000000b0: e03e 483e 0955 113f 1927 323d bc22 b7be
000000c0: 1a23 a83e 63a5 4fbd cc04 23bf 81f3 773e
000000d0: b6a3 f8bd 780c b5be e8ef 03bf aae6 133d
000000e0: 19e0 11bf 6bba 88be 98eb 733d 8946 3cbe
000000f0: 526b de3d 302a 953e b5fa 3abe e313 9ebe
00000100: 2ce3 24bd 254d 69be db88 9dbe ba56 783d
00000110: 7c9d 313e aafd f83e dcfa 823e abfd 3bbe
00000120: a968 09bf 0e31 e6bb 15f3 c33e 189d 60be
00000130: 9c1d f6be 859c c13e 7c5c 963d 68ae 1c3e
00000140: 42c1 d63e 0a71 243e cb9c a83e 09d4 5f3e
00000150: 9b36 ea3d 701b 893d 2e52 66be 6bf5 fdbd
00000160: 5f7f 39be df5e 3dbd ed2e c33e f308 a03e
00000170: 7822 ab3e 6666 7f3e 25dc e9bd 301d 233e
00000180: 5554 53be 68c9 5abe d256 f4bd c260 df3e
00000190: 1620 563e 339e 2e3e cee0 58be ead1 833e
000001a0: ea71 f43e 1120 93be 0814 0bbf 2ab6 debd
000001b0: 96a2 d33d f489 f8bc fed7 9ebe fc55 1e3e
000001c0: 1ba7 0dbb 5854 423e b453 ab3e 6507 a23c
000001d0: c41e 5f3e 3919 b53d dd61 06bf ed28 e9be
000001e0: 6743 933d 5858 96be 4f68 dbbe d426 d63e
000001f0: bf5f c23d f09a a03e 6392 573e 5d5d c2bd
00000200: eb65 edbe 0c9b 7b3d 56aa 833e 43c2 223e
00000210: 8a3c dbbe 9515 bc3d f135 093f e3f9 96be
00000220: ef85 5bbe e9a7 043e ac93 1f3e b25d 023e
00000230: 4218 ab3e de7b 9fbe bdf9 1bbe e498 ac3e
0.028540295 -0.40469462 -0.41193154 0.14095774 -0.057911307 -0.065026745 0.26456922 0.33679447
0.3697535 0.5081743 0.14716169 -0.20866475 0.569588 -0.24757148 -0.69295186 0.33289972
-0.24333894 0.19798623 -0.34304225 -0.23396581 0.35096923 -0.39169052 0.30445936 0.45386812
-0.24060011 0.2766317 -0.05260485 0.27267182 0.32057217 0.25981826 0.022643002 0.0064695766
0.013091896 -0.4493749 -0.44717965 -0.40243345 0.38149035 -0.19801168 0.110090464 -0.11254574
-0.51992005 -0.10556374 0.46911684 -0.12846196 0.19555235 0.5677038 0.043494318 -0.35768688
0.3283928 -0.050694834 -0.63679194 0.24213983 -0.121406004 -0.35361075 -0.5153794 0.03610865
-0.5698257 -0.26704726 0.05955085 -0.18386282 0.108603135 0.2913375 -0.182597 -0.30874547
-0.04025571 -0.22783335 -0.30768475 0.060629584 0.17345232 0.4863103 0.25582016 -0.18358485
-0.53675324 -0.0070248907 0.38271394 -0.21934927 -0.48069465 0.37814727 0.07341859 0.15300906
0.4194432 0.16058746 0.32932124 0.21858229 0.114361964 0.066946864 -0.22492287 -0.124003254
-0.18114994 -0.046233054 0.3812174 0.31256828 0.33424735 0.24941406 -0.11418942 0.15929103
-0.20637639 -0.21365893 -0.11930622 0.43628508 0.20910677 0.17052536 -0.21179506 0.2574609
0.4774316 -0.28735402 -0.5432744 -0.10874589 0.10333745 -0.030339219 -0.31024164 0.15462488
-0.0021614495 0.18977487 0.33462298 0.019778917 0.2178908 0.088427015 -0.5249308 -0.45539036
0.0719059 -0.29364276 -0.4285302 0.41826499 0.09490918 0.31368208 0.21051936 -0.09490464
-0.4636682 0.06142716 0.25715894 0.15894417 -0.42819625 0.09183804 0.53597933 -0.29487523
-0.2143781 0.12954678 0.15583676 0.12731054 0.33416945 -0.3114919 -0.15231986 0.33710396

network.0.bias f4 [16]
00000000: 8794 3dbe 87b8 123e 671e 283d b2de 823e
00000010: 1089 3b3d ca39 b53c 53bf c33e fb66 ad3e
00000020: f843 4d3d cf1f e1be 97e5 e13d f44d 823d
00000030: a6e0 26be 2994 50be 1103 92bd dc34 cd3e
-0.1851369 0.14328204 0.04104462 0.25560528 0.04578501 0.022122283 0.38231906 0.3386763
0.05011365 -0.4396958 0.11030119 0.06362525 -0.16296634 -0.20369019 -0.07129491 0.4007939

network.2.weight f4 [32, 16, 3, 3]
00000000: a886 2bbd 8535 a2bd 5e36 8abd 19e7 6ebd
00000010: 8649 c63c 3788 063d 232b f8bd 7f55 e2bd
00000020: dc00 04be e166 f3bd 5815 cabc 4b51 463d
00000030: dd4b b6bd b114 6cbc 9377 233d d7c9 76be
00000040: 2341 42be 1f29 83bd 901f 183e e85a cf3d
00000050: b24c 07bd da36 9b3d 7246 933d 1d83 713c
00000060: fca2 4a3e e108 0c3e bf8f ea3c afa3 c83d
00000070: fed5 e93d 50b0 043e d214 01bd 5855 afbd
00000080: 5d17 cbbd 3cab 263d 0a64 8b3c 37cc 293e
00000090: e707 35bd 4056 5dbd 52df 3cbd 2e11 363c
000000a0: 1906 0b3d d306 683d c6f8 acbd 06b1 9abd
000000b0: b538 15be b859 033c d7b5 993c 7ca7 0cbd
000000c0: caf0 243d 22ff a53c 1908 27bd 0443 c1bc
000000d0: 56f5 2bbd a6e9 c4bc df90 3fbd faf0 afba
000000e0: aee6 a5bd 0628 323d cb68 f83c 3e2c 403c
000000f0: 0e9a 6b3d 54a1 923d 8eab 00bc 5e8c 59bd
00000100: c543 5fbd 38c6 2fbe 6893 00be 944c 70bc
00000110: e7e6 df3d 724c 37bd 4b51 1d3d 9a32 9ebd
00000120: 2631 db3d 3578 303d fd05 46bd 26ec 0e3e
00000130: dacf 043e 23b7 8b3d 406f 83bd 65ed e5bd
00000140: 3400 2dbe 2fd2 873c 03ee 793d 88ac 853d
00000150: 7fae 11bd d903 23bc 3785 d5bc edcb 073d
00000160: f3b3 4a3d 401b cd3d 5c94 80bc d41c 0e3d
00000170: 127d 433d 4a8f 9dbd f816 8abd 0217 75bc
00000180: fe45 5e3d 373a 3c3d bb71 4d3d 5ac8 1d3d
00000190: 28da 7e3d 8bc0 6e3d b6c9 07be c18b bcbd
000001a0: e7f0 8bbd 3492 283e ad9b 203e 6d38 2a3e
000001b0: ed9c e3bd 81cd 0dbd aeba 6c3c c84c 8abd
000001c0: 0552 293d b1a2 b53c eead 9fbd cea9 45bd
000001d0: fed9 f8bd ebd5 22bd 4191 c2bd 6af1 dfbd
000001e0: bf6b 4cbd aaa7 7ebc e0a6 01bd e6eb eebb
000001f0: 7a1a fa3b 06f6 9abc a889 86bd 9f45 e7bc
00000200: 01d7 9e3c 91d0 573c 9953 423c de42 03bb
00000210: 9149 63bc e191 16bd 9286 75bd a5dc 04bd
00000220: 1e6d 81bd c105 82bc 48e6 093d 61ec 98bc
00000230: dbef 99bd f12d 913d fe17 ab3d 3e47 993d
00000240: 5a27 ff3d 7aac 423e 0609 8c3e 520d d23b
00000250: dcb6 113d 977b b83d be63 0b3e 925a e23d
00000260: d306 133e 1989 713d 9f3f c3bb 690a 70bc
00000270: d49c 87bb 49d8 84bd b44a a2bd 214c 61bc
00000280: 7bf0 b63b 475d 4d3d 8ead 07be 50c1 39bd
00000290: daf3 1cbd 7838 f0bd 8751 aabc 8dcd 653d
000002a0: 0e3d 6fbc 8454 7fbc 1b02 ebbc cc62 43bd
000002b0: 0e85 79bd e9b9 a7bd 501b 89bd 4b2c 54bd
000002c0: 8bd1 ab3c 58a2 8bbd 2c1a 0fbd 6990 273d
000002d0: cc19 09be 36b4 b4bd b30d 823d 12e2 45bb
000002e0: bba2 98bd a449 d8bd f50a e2bb 713e 663c
000002f0: 1f71 b53d c58f 5c3c 3c2a 30bc 4afd 213d
00000300: 34ec 0fbd 2386 cfbc 5528 1f3c d817 89bd
00000310: bb1c 3cbd 786f 473c cfad 293e ef73 353e
00000320: 6d38 363e 7d4e 173d e934 893d 12a0 413d
00000330: 3ebd 15bc c836 203c 98c1 ffbc 3807 b5bd
00000340: 4086 aebc 624b ad3d 44d5 0ebd f569 95ba
00000350: f4d8 b03c a6a1 b2bd 8f62 3c3c 4c5c 7ebb
00000360: 787c 63be 6871 8fbd 77e5 a13d 01c6 0ebe
00000370: 9438 d7bd 36eb dfbc 93db 80bc 8317 af3d
00000380: f058 d63d 4edb 2c3d d89f dabb bebb 01bd
00000390: c678 003d c1d9 5b3d 929e 6e3d 5291 c8bc
000003a0: 6398 803d 8377 c83d e3f4 a33c 7233 e9bd
000003b0: 7b73 3ebe 372d cd3c 5345 da3a ae39 463b
000003c0: 02a4 8dbd 92a7 adbd 39b4 21bb 8db0 023e
000003d0: a467 413c 661a 33bc c2f0 0f3e e046 123e
000003e0: 213c 263e 2953 c6bc 843d 1f3c e485 dc3b
000003f0: 4336 983d 8ddc 553d 4145 8d3d 41be 993c
-0.041876465 -0.07920364 -0.06748651 -0.05832586 0.02420498 0.03284475 -0.12117603 -0.11051463
-0.12890953 -0.11884857 -0.02466838 0.04841737 -0.089011885 -0.01440923 0.039908957 -0.24100433
-0.1897016 -0.064043276 0.1485579 0.10124761 -0.033032127 0.075788215 0.07191171 0.0147407325
0.19788736 0.13675262 0.028632997 0.09796845 0.11417769 0.12957883 -0.031513996 -0.085612
-0.099165656 0.040690646 0.017015476 0.16581808 -0.04419699 -0.054037333 -0.046111412 0.011112494
0.033941362 0.056647133 -0.08445887 -0.07553296 -0.14572413 0.008016996 0.018763466 -0.034339413
0.040268697 0.020263258 -0.040779207 -0.023591526 -0.041982017 -0.024037194 -0.04676902 -0.0013423257
-0.08100639 0.0434952 0.030323407 0.011729298 0.057519965 0.07159677 -0.007853402 -0.05311238
-0.05450799 -0.17165458 -0.12556231 -0.014666695 0.10932713 -0.04475064 0.038407605 -0.07724495
0.10702734 0.04308339 -0.048345555 0.13957271 0.12969914 0.0682204 -0.06417704 -0.1122692
-0.16894609 0.016579716 0.061018 0.06527048 -0.035566803 -0.009949648 -0.026064498 0.033153463
0.04948802 0.10014963 -0.015695743 0.03469546 0.0477267 -0.07693346 -0.06742662 -0.014959099
0.05426597 0.045953956 0.05015729 0.03852115 0.06221977 0.058289092 -0.1326054 -0.092063434
-0.06833058 0.16462022 0.15684386 0.16623087 -0.111139156 -0.034619812 0.014448805 -0.06752926
0.041337986 0.022172304 -0.07796846 -0.04825764 -0.12150954 -0.03975479 -0.09500361 -0.10934718
-0.049907442 -0.015542904 -0.031653285 -0.007291305 0.007632551 -0.018916141 -0.065692246 -0.02823144
0.019389631 0.013172285 0.011860752 -0.002002887 -0.01387252 -0.036760215 -0.05994279 -0.032436986
-0.063196406 -0.015871884 0.03366688 -0.018667402 -0.07516452 0.07088841 0.083541855 0.074842915
0.124586776 0.19011107 0.27350634 0.0064102793 0.03557478 0.09007948 0.13612267 0.11052431
0.14358072 0.058968637 -0.005958512 -0.0146509195 -0.0041385684 -0.064865656 -0.07924405 -0.013751061
0.0055828667 0.050137784 -0.132498 -0.045350373 -0.038318492 -0.117295206 -0.020790828 0.05610423
-0.014601959 -0.015584115 -0.028687527 -0.047701642 -0.060917906 -0.081897564 -0.066946626 -0.051800054
0.020973941 -0.06818074 -0.03493707 0.040909205 -0.13388747 -0.08823435 0.06350269 -0.0030194563
-0.074529134 -0.10560921 -0.006898279 0.014052973 0.08859467 0.013462012 -0.010752257 0.039548196
-0.03513737 -0.025332516 0.009714206 -0.06694001 -0.045925837 0.012172572 0.16570209 0.17720006
0.17794962 0.036940087 0.06699545 0.047271796 -0.009139357 0.009778686 -0.031220242 -0.088392675
-0.02130425 0.08461644 -0.034871355 -0.0011399376 0.021587826 -0.08722238 0.011498108 -0.0038812337
-0.2221545 -0.070040524 0.07905095 -0.1394272 -0.10508838 -0.027333837 -0.015729701 0.085494064
0.10466182 0.042201333 -0.006671887 -0.031673186 0.03136518 0.053674463 0.058256693 -0.024483357
0.062790655 0.0978842 0.020014232 -0.113867655 -0.1859874 0.025045974 0.001665274 0.0030246782
-0.06916048 -0.08479227 -0.0024674071 0.12762661 0.011804495 -0.010931587 0.14056686 0.14284849
0.16233875 -0.024209576 0.009719256 0.006729828 0.074322246 0.052212287 0.06897975 0.018767478

network.2.bias f4 [32]
00000000: 076d 06bd fc67 31be a961 67bd d804 83bc
00000010: 0eab d93d 2a1a 943d 6621 02bd 0a32 5d3d
00000020: d69f cabc 6f7a 78bd 446b 94bd 435e 463d
00000030: b1f4 ae3d 610c c8bc 3e2a b3bd e7e7 1abe
00000040: 025f 8b3d 784e 6abc 5af5 643d e6e3 9a3c
00000050: f2bb 91bd 2ffa 99bd b9de a4be 6d7a b63c
00000060: 41f4 8ebd f888 afbd e39f e9bb 3d49 8d3d
00000070: 983e 9a3d 3c7a 2b3e 6fa9 ecbd 7c16 53bd
-0.03281882 -0.17324823 -0.05648962 -0.01599352 0.10628329 0.07231553 -0.031770132 0.0540028
-0.024734419 -0.060663637 -0.07247022 0.04842974 0.08542765 -0.024419965 -0.087482914 -0.15127526
0.06805231 -0.014300935 0.055898048 0.018907499 -0.07115926 -0.07518422 -0.32201174 0.022275174
-0.069801815 -0.085710466 -0.0071296557 0.06898735 0.0753147 0.16745847 -0.115557544 -0.051535115

network.5.weight f4 [48, 32, 3, 3]
00000000: 4f3a 8cbb d785 fabb 58cc aa3b e8a5 983c
00000010: 7692 643b 418d 983c 1b6d 403d 1a79 493d
00000020: 7471 5a3d 0bf7 76bd 1216 57bd 4243 1dbd
00000030: bbdf 2dbc eb76 bbbb e599 4f3c 1bb4 983c
00000040: 29cb 953c 580c 9d3c ffab 7c3c cc82 5c3c
00000050: 03e8 973c 5f6a 883c ae8d be3c 879a da3c
00000060: 13b7 5fbc eb7f 3bbb 8e73 16bb c414 323d
00000070: ec2d b73c c554 84bc aa57 193d 4384 283d
00000080: dff0 883c e676 af3d 7e1c 913d 5ed1 d93d
00000090: a3a3 0fbd 22b2 22bd 9614 26bd 9a77 423b
000000a0: 0790 c2bc 5e7e d4bb 1a45 0e3d 7f28 9b3c
000000b0: 1566 8b3c 7f8c 183d 5dc4 7d3d 1922 ca3d
000000c0: 7148 143d 7001 403d 7604 903d 5159 733d
000000d0: 1c26 1b3d bf91 183d 2e58 94bb b1f5 a3bc
000000e0: 28d8 b6bb bc79 453d 813d d63c 6831 9e3c
000000f0: 36f9 a23c 075e ec3c 264d 2f3d 19c8 06bc
00000100: 95c7 1b3c 6fb6 283d 2e13 373c eedb cd3b
00000110: d934 1f3d 5bfe 113c ff5f 243c f64d 243d
00000120: 7f7e 0fbb a8f6 723b 8c38 463b 8ef5 81bc
00000130: f868 1cbc 515a 00bc 87a0 0fbd e8bc cabc
00000140: 7c2d 29bd 26ea 98bc a528 6fbc 8904 f4bb
00000150: 3b07 71bc 5b6a 90bc 6ac1 9fbc f198 693c
00000160: 8c7c ac3c b601 f33c b099 28bc 2f14 623c
00000170: 535b 553c 30c1 e9bc 07a4 f1bc 1d18 dabb
00000180: 54b9 30bc 6891 8c3c 1f2a 573c 435d 7fbd
00000190: 1c5f cabd dbe1 bfbd de1e 6dbc 4872 acbc
000001a0: b49f 573c 18cf 09bc ba64 80bb 8d4e 2f3c
000001b0: 5e6a 3dbd e70e ccbc e3b4 2b3b 0b48 3dbd
000001c0: 00b5 e8bc f721 84bc 8d94 8f3c c31f 95bc
000001d0: 552b 13bc a8fb c53c 2fb6 513c 8c17 eabc
000001e0: 2141 223d a973 523c d106 103c 844c 323c
000001f0: f6e8 b0bb 360e 503c 68a1 20bc a89e 8c3c
00000200: d84f 573d bb14 093d 0975 3f3d 3877 8d3d
00000210: d0af 353d 965d 293d f8f2 673d 7fdb 2b3d
00000220: c444 583d 8abd 783d 26b5 3cbc b6d2 84ba
00000230: df08 ce3c c118 21bd 15b3 fbbc 409c 83bc
00000240: 9b89 053c 07d3 df3b e4c1 443c fb0c 9cbb
00000250: 75e5 b8ba 1de0 36ba 4f61 513d b89a 3f3d
00000260: c4b3 743d 5a66 39bb e98e 32bc 6c1c 623c
00000270: 39f1 cbbc 6bec 52bc 3495 ec3b a327 763c
00000280: 18a5 ec3b 4c85 163c a239 59bc eb59 8ebc
00000290: 60f8 17bd 3a58 87bb 44ec e2bc 7036 cfbc
000002a0: 0d96 063b 1743 dbbc fb3a 2ebc 517c 8f3b
000002b0: e236 1f3c a76f 1d3d be99 bebc 97af cabc
000002c0: d0fb 12bc 4387 053c 8abb adbb b70f 39bc
000002d0: 5d9c 343d f0dc 343d e0c8 963c 83ec cbbc
000002e0: bcf2 21bc 0aa2 8ebc f8f2 24bd fa66 dfbc
000002f0: 5681 2dbc 94af a1bb a928 09ba 7e3a c93b
00000300: 6b28 103d f1df e63c 526e 1d3d e10c 753d
00000310: caaf 433d 7a7c 523d 205d c13b fe90 fe3c
00000320: d7a7 3d3d 9d62 f93b 690e 863c 6a0c 983c
00000330: d5d2 8dbc bbc3 a8bc 7e39 a1bc eb25 26bd
00000340: 8d81 2ebd 84d2 2cbd 7871 e8bc f214 07bd
00000350: f5c0 0cbd a1db 03bd b9fe b6bc 14d4 9fbc
00000360: 642d ca3c 6a9c 083d 4a07 f93c 8e37 f9bc
00000370: b06a d5bc 3156 80bc aa8b 85bd 9b89 21bd
00000380: d0d8 57bd b369 503c 655b a93c 26e2 5a3d
00000390: 4784 b6bc ddf5 afbb c8ea 213c eb2b 40bd
000003a0: a0b1 1ebd 0671 debc e554 823b 092f 083c
000003b0: 3190 babc 557b 163b 2b94 a53b b657 aabb
000003c0: a1ab ba3c fd8a 653b 5cff 2a3c 6594 a5bc
000003d0: 0935 00bd 48ee a2bc 831b cb3c 75c0 a13c
000003e0: cef3 843c 28c8 18bc 9407 cd3b 22c1 55bc
000003f0: 71b1 c73b 58bb 54bc 5126 cebc 026f 7a3d
-0.004279412 -0.0076453495 0.005212348 0.018633798 0.0034877337 0.018622043 0.04697905 0.049187757
0.053330854 -0.060294192 -0.052511282 -0.03839422 -0.0106124235 -0.0057209632 0.012670969 0.018640568
0.01828535 0.019170925 0.015421866 0.013458919 0.018543249 0.016652284 0.023260918 0.026685013
-0.013654488 -0.002861018 -0.002295706 0.043476835 0.022360764 -0.016153703 0.03743712 0.04114176
0.016716419 0.085676 0.070855126 0.10635637 -0.035068166 -0.039720662 -0.040546976 0.002967334
-0.023750318 -0.0064847907 0.03473387 0.018940208 0.01701645 0.037243363 0.061954845 0.09869785
0.036201898 0.04687637 0.07032101 0.05941135 0.03787814 0.03724837 -0.0045271134 -0.020014616
-0.005579967 0.048211798 0.026152374 0.019310668 0.019894224 0.02885343 0.042798184 -0.008226418
0.009508033 0.041189607 0.011174006 0.006282321 0.03886876 0.008910741 0.010032653 0.04011341
-0.0021895466 0.0037073288 0.0030246107 -0.01586416 -0.009546511 -0.007834033 -0.0350652 -0.02474828
-0.041303143 -0.018666338 -0.014597093 -0.0074468297 -0.0147111965 -0.01762884 -0.019501407 0.0142576555
0.021055482 0.029663902 -0.010290548 0.013798757 0.013022262 -0.028534502 -0.02949716 -0.0066557066
-0.010786373 0.017159179 0.013132601 -0.0623448 -0.09881422 -0.093692504 -0.014472691 -0.021050587
0.013160635 -0.008411191 -0.0039182575 0.01069988 -0.046244018 -0.02490945 0.0026200346 -0.046211284
-0.02840662 -0.016129477 0.01752689 -0.018203622 -0.008982499 0.02416785 0.012799784 -0.028575681
0.039612893 0.012844958 0.008790688 0.010882501 -0.005398865 0.012698701 -0.009804107 0.017165497
0.05256638 0.033467036 0.046742473 0.06907505 0.04435712 0.041349016 0.056628197 0.041957375
0.052799955 0.060727634 -0.0115177985 -0.0010133598 0.025150714 -0.039330248 -0.030725041 -0.016065717
0.0081504835 0.0068305763 0.012009118 -0.0047622896 -0.001410647 -0.00069761445 0.05111819 0.04677841
0.05974175 -0.0028289766 -0.01089833 0.013800722 -0.024895297 -0.012873749 0.007219935 0.015024099
0.007221829 0.009187054 -0.01325837 -0.01737686 -0.037102103 -0.0041303905 -0.02770055 -0.025294513
0.0020536215 -0.02676539 -0.010634179 0.0043788333 0.009717675 0.038436558 -0.02326667 -0.02474193
-0.00897117 0.008149925 -0.0053018974 -0.011295251 0.044094432 0.044156015 0.018406332 -0.024893051
-0.009884533 -0.01741125 -0.040270776 -0.027270783 -0.010589918 -0.0049342606 -0.0005232194 0.006141006
0.035194796 0.028182955 0.038435288 0.059826735 0.047775067 0.05138824 0.005900994 0.031074997
0.046302643 0.0076106326 0.016364293 0.018560607 -0.017312447 -0.020601144 -0.019680735 -0.040563505
-0.042604018 -0.04219295 -0.028374419 -0.03297896 -0.034363706 -0.032191876 -0.022338258 -0.019510306
0.024679847 0.033352293 0.030398984 -0.030421998 -0.02605185 -0.0156661 -0.065207794 -0.03943787
-0.052697003 0.012720513 0.020673463 0.05343833 -0.022279872 -0.0053698854 0.009882636 -0.046916883
-0.038743615 -0.027153503 0.0039774054 0.008311995 -0.022773834 0.0022961695 0.0050530634 -0.0051984442
0.022786917 0.003502547 0.010436859 -0.020212362 -0.03130058 -0.019889012 0.024793392 0.019745091
0.016229536 -0.009325065 0.006257007 -0.013046535 0.0060941507 -0.012984119 -0.025164755 0.06114102

network.5.bias f4 [48]
00000000: cf04 9dbd 0285 983d 24f8 c5bd cc69 273d
00000010: 262a d8bc 3fc5 a53c d16b 0b3c 9899 c3bb
00000020: 39b5 98bb 9e66 d9bd 7899 7ebc d654 a23c
00000030: 8b15 88bd 5cd7 e73d 3423 283d 5f57 95bb
00000040: 9bb6 fdbc 62b0 2dbc 60c3 dcba 44f1 9b3d
00000050: 4d57 053c 89a7 0cbd 7f8e f93d a2ea 16bd
00000060: 9c81 f43d 9108 2cbd f07f 803d 90f5 493d
00000070: 8805 3ebc 1642 a8bc a408 e6bc 4f87 30bc
00000080: bf79 0abd 0441 60bd 2d80 d8bc 2d61 593d
00000090: 58ac 593d fc8b efbc 6de7 75bd 0233 a4bc
000000a0: 0dfe d4bd c770 1dbd 4caa 02be f60f 3f3d
000000b0: 776b 773d 654e ae3c 3a92 c6bc 9b25 59bd
-0.07666933 0.07447244 -0.0966647 0.04087238 -0.026387285 0.020235656 0.008509592 -0.0059692375
-0.0046602753 -0.10615276 -0.0155395195 0.019815844 -0.06644734 0.113203734 0.041049197 -0.0045575346
-0.030970862 -0.010601135 -0.0016842894 0.07614377 0.00813849 -0.03433946 0.12185382 -0.036844857
0.119387835 -0.042000357 0.06274402 0.049306452 -0.011597998 -0.020539325 -0.028080292 -0.010774448
-0.033807512 -0.054749504 -0.026428306 0.05307119 0.053142875 -0.029241554 -0.060035158 -0.020043854
-0.10400019 -0.03843763 -0.12760276 0.04664608 0.06040522 0.021277616 -0.024239648 -0.05301438

network.7.weight f4 [64, 48, 3, 3]
00000000: 1a28 ffbc e3b7 2abd aba6 50bd 3285 d1bc
00000010: c23e 0abd f67a 12bd 2863 03bd 8faf 1bbd
00000020: cf45 25bd 435d 10bd 65dd d3bc 79d0 cbbc
00000030: 1edd adbc c06b a0bc 753e 91bc 246d 1ebc
00000040: b1e3 76bc bad7 96bc ff89 1ebd b467 46bd
00000050: 86b3 7fbd 96b2 fabc 060f 1cbd f839 35bd
00000060: 62e0 1dbd a87a 3cbd f85a 5cbd 5e6d 85bd
00000070: ec70 3fbd 907c 3bbd c879 55bd 01fc 16bd
00000080: 1d56 1abd 3220 30bd d647 fbbc 61b3 d4bc
00000090: 6cd2 083d a5e0 3e3d d773 813d 65d9 083d
000000a0: cee4 da3c f217 163d 51d1 f63c d2b6 073c
000000b0: 0ea6 7a3c 5b99 71bb 9aed 2bbc 79c4 68bc
000000c0: ff92 6dbc 9d1c 51bc 709d 87bc 30e6 16bb
000000d0: 03c4 1ebb 7a5f dabb e891 7f3d 35e1 6f3d
000000e0: a7a7 813d ca7a 753c 92a5 943c 2059 b83c
000000f0: 41f6 32bc 7581 bdbb 821e 99b9 51d6 0abd
00000100: 82ea 5fbd 5831 52bd c813 0cbd 126e 35bd
00000110: 3c8e 1ebd 107b ddbc 2140 05bd 4bfe f5bc
00000120: 367a 013c cbc6 b93c 17f7 d43c df4c 323d
00000130: df29 093d 2e93 1d3d 40f5 8f3d 0c16 523d
00000140: 4df1 693d 0bda 76bb e778 9cbc df07 01bd
00000150: c870 b6bc 4674 3fbd 0011 77bd 9356 19bd
00000160: 968e 61bd fcb3 96bd a482 193d 794f 033d
00000170: 118f 083d 412a c33c 0006 c53c a6be f83c
00000180: c8c3 303c 5047 8b3c b65e 3d3c 6639 12bd
00000190: 46ce b7bc 2a8e 27bc 7638 febb 0d59 f3ba
000001a0: 65b8 4bbc 0a17 37bd 8c55 13bd 6aa7 32bd
000001b0: 1376 513c f161 263c 080e 3b3b fccf e2b8
000001c0: 4812 fe3a bbf0 e2bb 6b81 25bb 3027 9ebb
000001d0: cc39 7cbc c7c4 3d3d a87f 3c3d 447f 5b3d
000001e0: fa28 5b3d 2108 673d 66e6 803d 7861 643d
000001f0: bd41 5e3d e62b 333d 7f91 6dbc 035b 03bc
00000200: e1ca 493c 7eb7 c8bc ae6e 96bc f66a b2bc
00000210: f00d bfbc ca37 92bc 043b e4bc 33ae 86bd
00000220: 23e6 61bd b511 86bd 4c58 c9bc d0d7 7dbc
00000230: 923f 2ebc e0d3 03bd 92bd 39bd 3094 46bd
00000240: e16c 1d3d c6e4 103d b6a0 f83c a816 283d
00000250: 6aa0 e83c 9e4f be3c 23fb 0b3d 9165 843c
00000260: da21 933b 9ac6 b93d bf0d 9c3d a3ae 943d
00000270: 3913 523d ef09 343d 1b37 323d 0aee d23c
00000280: d697 d73c 725c e13c 803e 283d 0ebd 123d
00000290: 2c1d 4c3d 2733 143d 8b4f 0d3d 9be8 423d
000002a0: 01bb 543c a804 c73c cc07 213d e1cd 29bd
000002b0: b203 2bbd b598 3dbd 5951 51bd 1961 52bd
000002c0: 7908 5abd 85ce aabd 671d a6bd 4718 babd
000002d0: 6cd2 e83b cdc8 353c dbe3 be3c ae3e 04bb
000002e0: 9b4b 7d3b 6789 2c3c bd2b 8cba ffcd 09bc
000002f0: 7779 82bc 1812 063d cf61 003d 22f7 f23c
00000300: 815c 723c 3bdc a03c ebdc b33c 682f be3c
00000310: 12a0 a23c 7ddc d33c c8c0 a2bb 8632 d0bc
00000320: 821e 48bd 83ed 56bc 6cb9 fabc 3f4b 28bd
00000330: 9a57 35bd 4dec 69bd ac3b 86bd 95b1 4e3d
00000340: f1b6 213d cd13 163d c31e f63c 0ad3 aa3c
00000350: 68b5 883c 5281 94ba c56f 64bb 7b9d 0bbc
00000360: c754 6abd a588 a3bd b79f c5bd dd0d c4bd
00000370: db01 dfbd eb22 e4bd 53c0 95bd 42b2 b3bd
00000380: ee06 aabd 612b 693c 3fe4 8f3a 3756 37bc
00000390: e066 5cbc eac4 ccbc eb01 27bd 5b2c e0bb
000003a0: 67e9 77bc 94c6 e2bc 643a 90bd a2e3 c1bc
000003b0: c849 a13c 6225 8fbd 8c43 d6bc 5ef6 34bc
000003c0: 631e ddbd ca0d a2bd 9ee6 a4bd 1e5f 15bd
000003d0: cfcd dabc d7f4 0abd 35e6 11bd b9cb bebc
000003e0: fc51 c9bc d07a 26bd d0e8 28bd 232d 25bd
000003f0: 2249 3abd 7978 5bbc 600d 523c edf8 1cbd
-0.031147052 -0.041679274 -0.050940197 -0.025576208 -0.033751257 -0.035761796 -0.032076985 -0.038009223
-0.040349778 -0.03524519 -0.025862405 -0.024879681 -0.021223601 -0.01958263 -0.017729977 -0.009669576
-0.015068934 -0.018413413 -0.038705822 -0.048438743 -0.062427066 -0.030602735 -0.038100265 -0.044244736
-0.038544066 -0.04601541 -0.053797692 -0.06515001 -0.04673855 -0.04577309 -0.052118093 -0.036861423
-0.03767978 -0.042999454 -0.030673902 -0.02596444 0.0334038 0.046600956 0.06320923 0.03341045
0.02672043 0.03664393 0.030129107 0.008283334 0.01529838 -0.0036865089 -0.01049366 -0.014206999
-0.014500379 -0.01276317 -0.016554564 -0.0023025386 -0.0024225719 -0.0066642137 0.062395006 0.058564384
0.06330805 0.0149828885 0.018145356 0.022503436 -0.010922969 -0.0057832547 -0.00029205164 -0.033895794
-0.054667003 -0.05131659 -0.034198552 -0.044294424 -0.038709864 -0.02703622 -0.03253186 -0.030028483
0.0079026725 0.0226778 0.025996728 0.04353034 0.033487197 0.03847044 0.070291996 0.051290557
0.057114888 -0.0037666585 -0.01910062 -0.031501647 -0.022270575 -0.046741746 -0.060318947 -0.03743608
-0.05506762 -0.07358548 0.037478104 0.032058213 0.033339564 0.02382386 0.024050713 0.030364346
0.010788865 0.017001778 0.011558225 -0.03569927 -0.022437226 -0.010226766 -0.0077581955 -0.0018565968
-0.0124341 -0.044699706 -0.035970256 -0.04361669 0.012784499 0.010155187 0.0028542299 -0.0001081526
0.001938411 -0.00692567 -0.002525414 -0.004826449 -0.015394639 0.04633024 0.04602018 0.053588167
0.053505875 0.056404237 0.06293945 0.055757016 0.05426191 0.043743037 -0.014500021 -0.008017304
0.0123164365 -0.024501558 -0.018363323 -0.021779519 -0.023322076 -0.017848868 -0.027860172 -0.065761946
-0.055151116 -0.06546346 -0.024578236 -0.015493348 -0.0106352735 -0.03218448 -0.045346804 -0.048481166
0.038433913 0.035374425 0.03035007 0.04103723 0.028396804 0.023231324 0.03417505 0.016161712
0.0044901194 0.09071083 0.07619809 0.07259872 0.051287863 0.043954786 0.043509584 0.025748271
0.026317518 0.027509902 0.04107523 0.035824828 0.049832508 0.036181595 0.034499686 0.04758511
0.012984038 0.024294212 0.039314076 -0.041456107 -0.04175157 -0.04628821 -0.05110297 -0.05136213
-0.053230736 -0.08340172 -0.08111077 -0.09086662 0.0071051624 0.011095238 0.02330201 -0.0020178962
0.00386498 0.010530806 -0.0010694187 -0.00841093 -0.01592706 0.0327321 0.031343278 0.029658858
0.014792562 0.019636264 0.021955928 0.023215964 0.019851718 0.025861973 -0.004966829 -0.025414716
-0.04885722 -0.013118151 -0.030605994 -0.041087385 -0.044272996 -0.05711012 -0.0655435 0.050462324
0.039481107 0.036639977 0.030043965 0.020852584 0.016688064 -0.0011330044 -0.003485666 -0.008521433
-0.057209756 -0.07985047 -0.09649604 -0.09572957 -0.10889026 -0.111394726 -0.073120736 -0.08774234
-0.08302103 0.014231534 0.0010978057 -0.011189989 -0.013452262 -0.02499624 -0.040773313 -0.006841225
-0.015131331 -0.02768258 -0.07042387 -0.023668114 0.019688502 -0.06989552 -0.026155256 -0.011045067
-0.107968114 -0.07912786 -0.08051799 -0.036467664 -0.026709465 -0.033924904 -0.035619933 -0.023290502
-0.024575226 -0.040644467 -0.041237652 -0.04032625 -0.0454799 -0.013395422 0.012820572 -0.03832333

network.7.bias f4 [64]
00000000: 8d71 453d 532a baba 9dbf 9d3a 1ed8 32bb
00000010: 3488 87ba fea9 3d3d edfe 21bb 75bc c3bc
00000020: 6f2e 93bc 24e0 bd3d c372 7ebc 837b aab9
00000030: 9d2a feba 4f94 f43c 16a1 e63c 9fd5 7f3d
00000040: 2169 2f3d ea61 ed3a 23f7 6a3c a6ee 8bba
00000050: 614b 013d f798 803b 88d0 0ebb ccad 9aba
00000060: 083e 81bd aa9c 143c 3154 fdbb 92c4 0ebb
00000070: 6300 283d 384f 463c 1691 dc3c 30f9 fd3c
00000080: a573 d1bb 6de0 a23c fbae 5dba 2f30 c6ba
00000090: 731a 6a3b 6398 85ba 6167 c43d 6e26 dcba
000000a0: 944b 4bba a204 abba 40d7 7abd 9173 59b8
000000b0: 3376 3e3c 4b96 46bd 6a65 81bb 3cf4 d73a
000000c0: 9f5f 99ba 5596 093c bec9 d23a bc65 e2ba
000000d0: 76ee 6bb9 ee46 01bb 9660 90bb 2aef 6cb9
000000e0: d8e4 df3b d8ed 613a 801b b83d 4abf 2e3d
000000f0: 22e3 80ba a752 803b a07f 51bb ccbe d13d
0.048203994 -0.0014203287 0.0012035255 -0.002728946 -0.0010340274 0.046304695 -0.0024718598 -0.023893574
-0.017966477 0.09271267 -0.015530291 -0.0003251695 -0.0019391362 0.029855875 0.028152984 0.062459584
0.042824868 0.0018110846 0.014341149 -0.0010675981 0.031566028 0.003924485 -0.0021791775 -0.0011801063
-0.0631066 0.009070555 -0.0077309837 -0.0021784646 0.041015994 0.012103848 0.026924651 0.03100261
-0.0063919597 0.019882405 -0.0008456555 -0.0015120561 0.0035721331 -0.001019251 0.095900305 -0.0016796121
-0.00077550975 -0.0013047645 -0.061240435 -5.184446e-05 0.011624861 -0.048483174 -0.003948857 0.0016475986
-0.0011701471 0.008397658 0.0016081852 -0.0017272751 -0.0002250018 -0.0019726115 -0.004406045 -0.0002259581
0.0068327 0.00086185103 0.0898962 0.042662896 -0.0009833316 0.003916103 -0.003196694 0.1024147

network.11.weight f4 [128, 1024]
00000000: 418b 96bb ebc5 7dbb cf9f 143a 40ac a1bb
00000010: 8eb3 33bd 4b46 65bd 35e2 1ebd 1fd8 3cbd
00000020: a0d7 89bc 0bde dabc 2057 10bd 60ef a4bc
00000030: 3de1 2abc e853 81bc 3d62 1ebc 7dd2 f2bb
00000040: 1ad7 333a 90e1 3d3a d616 4e3a 14f1 0f3a
00000050: 87fc 013a 5e9c 293a e65e b539 0239 c139
00000060: 57f6 3339 509e db39 74b3 4d3a fc21 723a
00000070: fc02 52b9 a5c9 41b9 0f70 19b9 9ceb 1bb8
00000080: dcdf b63b 95fe 9d3b 2abb 6f3b a3fe 8a3b
00000090: 4ce4 ac3b f835 b83b d210 a63b 0395 b03b
000000a0: fbbc 823a f7d5 1a3b e85c 2e3b ab24 043b
000000b0: 3565 a639 ddb0 39ba 329e f6b7 16f4 1139
000000c0: 61dd b53a cd1b 5a3a 6d53 d03a 1573 0f3b
000000d0: 0e94 79ba 13f4 9cba 1fa3 52ba a1b5 3fba
000000e0: 6ddd 5e39 4b52 b3b7 d167 14b8 b57c 3f39
000000f0: ec33 7bb9 eb91 09b9 5a65 08b9 df01 1ab8
00000100: 1b65 fa39 9b63 9839 9914 8839 e713 5b39
00000110: b64d b5b8 c3a2 08b9 2aa3 2cb9 da24 7bb9
00000120: f60c a0b9 dd35 49b9 2a6b 37b9 ab94 6bb9
00000130: d95c 87b9 e4e2 e2b8 1c1c eeb8 3408 43b9
00000140: 0a45 3e3c 411a 2f3c e8fa 60bb a036 473c
00000150: 9a4d e23c ba84 823d 74ab fe3b 9eb7 c73b
00000160: 4105 bf3b 992d 0f3d e10b 4f3b 4cb3 ec37
00000170: 7dcd 5a3b 833a b7bb 53d5 c63a 317b 4b3b
00000180: a9ac ac3b 30d6 aa3b a867 a33b 7baf a13b
00000190: 2f5e 3f3b 5a91 753b b581 483b 2e98 513b
000001a0: a151 4a3a 3f9e 343a cf4d a43a 9c19 a83a
000001b0: 6666 693b 3a70 063b 236e 063b d4ab da3a
000001c0: 9813 12bc f830 5cbc 19e7 7bbb bdb8 97bc
000001d0: 3e8b 9ebd ee36 27be 5817 ccbd 5ef7 aebd
000001e0: 83de 5bbd c901 d1bd 5be1 b2bd c1c9 4fbd
000001f0: 1ce8 9cbc 8cc5 06bd 0f62 d3bc 1169 67bc
00000200: b678 2abd 0bad 19bd bc7a 04bd 8fd6 25bd
00000210: d59c 8dbc 8295 cebc 1fdf d7bc c169 f3bc
00000220: 4762 17bc c3e4 18bc f175 69bb 9e67 2bbc
00000230: fda0 96bc 40d3 d1bb 33a3 ffbb d636 9ebc
00000240: 8a6f e93b 29a2 4f3b 2b76 6d3a 0a23 1c3c
00000250: be59 143c a4a2 e73c b92c 393d 6199 0a3d
00000260: 692b 1c3d 4274 6b3d 1a69 5f3d c558 863c
00000270: 5853 c73b ff72 2c3c 33eb 933c b0ae be3c
00000280: 673c 28bb 5b39 43bb 0561 83bb 6ca3 7cbb
00000290: 6d8a 2a39 dc10 f8b8 392d 0c3c f164 62bc
000002a0: 17ed df3b bafa e5bb fc27 233b 334f 163b
000002b0: dc35 19bb 5259 45bb ea1c 413a 7ef0 d93b
000002c0: 123f 4fb8 2d02 12b8 0e67 3cb8 0c2f 73b8
000002d0: f049 01b8 5866 5db7 3338 c6b6 ef8e 87b6
000002e0: 0ef4 12b5 2abe 14b7 7827 b137 ca9e 4936
000002f0: ee75 eeb5 585a a736 b865 7335 0766 a6b5
00000300: bd47 d03b aaae 633b 2d5c 943b 3a4d d73b
00000310: 9509 863b bbeb 563b 1fed 573b aa8d b03b
00000320: 7c13 8d3a 3018 d63a 7762 d83a e097 3c3b
00000330: d31e b03a 5353 6f3a fc6e c13a 53b8 0e3b
00000340: f2e2 913d 0c26 493b b544 113c 9a11 8f3c
00000350: bbe8 a53d ea92 34bd 3b09 fdbc 114b 073d
00000360: 6907 9b3d 50ae 34bc 1ace debc a2d8 a33c
00000370: 48e8 173d f7c5 d6bc 24e6 64bc dad1 69bc
00000380: bbad f6bb a371 00bc faa0 81bb f7ad 2abc
00000390: 33ea 57bd d2eb 79bd 0f8b 37bd b131 71bd
000003a0: e094 abbc f0c0 f8bc 9d3c 20bd 3ecb b8bc
000003b0: 2ab6 39bc f3d5 8bbc a9e3 33bc eb54 03bc
000003c0: 7b39 4639 0bb6 653c a66b 4dbc 01e0 793d
000003d0: 350b 7e3c cfb8 8e3d 73b2 5b3b 9229 a03d
000003e0: 39a6 5b3b 6afe 383c 6d84 57bc 549b 993d
000003f0: c0a9 11bc bd71 ccbc 5124 4cbc b9bb 733d
-0.004594237 -0.0038722705 0.0005669565 -0.004933864 -0.04387241 -0.05597524 -0.038789947 -0.046104547
-0.01682645 -0.026717206 -0.03523934 -0.020133674 -0.010429678 -0.01578708 -0.0096669765 -0.007410346
0.0006860361 0.0007243389 0.0007861679 0.00054909405 0.0004958589 0.0006470139 0.00034593715 0.00036854303
0.00017162539 0.00041888887 0.000784687 0.00092366314 -0.00020028272 -0.00018481033 -0.00014632962 -3.7174308e-05
0.0055808853 0.0048216083 0.0036580064 0.004241781 0.0052762385 0.005621668 0.005067923 0.0053888573
0.0009974533 0.0023626068 0.002660567 0.0020163457 0.00031737392 -0.00070835446 -2.939915e-05 0.00013919207
0.001387518 0.00083201827 0.0015894003 0.0021888663 -0.0009520658 -0.0011974595 -0.0008035171 -0.00073131366
0.00021254057 -2.1376783e-05 -3.5382636e-05 0.00018261636 -0.00023956568 -0.00013119697 -0.00013007727 -3.6718204e-05
0.00047759045 0.0002906591 0.00025955288 0.00020892882 -8.645227e-05 -0.00013030604 -0.00016463982 -0.00023950954
-0.00030527235 -0.0001918892 -0.00017492162 -0.0002246673 -0.00025818383 -0.000108187814 -0.0001135396 -0.00018599705
0.01161314 0.010687412 -0.003432924 0.01215902 0.027624894 0.06372972 0.0077719036 0.006094887
0.0058294837 0.034955595 0.0031592774 2.8216884e-05 0.003338664 -0.005591692 0.0015169777 0.003104877
0.005269606 0.0052135214 0.004986722 0.004934249 0.0029200425 0.003747067 0.003059489 0.0031981575
0.0007717852 0.00068900356 0.0012535396 0.0012825015 0.0035614013 0.002051367 0.0020512424 0.0016683289
-0.008915804 -0.013439409 -0.0038437305 -0.018520707 -0.07741402 -0.16329548 -0.0996539 -0.08543275
-0.053679 -0.102054186 -0.087343894 -0.050729517 -0.019153647 -0.03290324 -0.025803594 -0.014124171
-0.041619025 -0.037518542 -0.03234361 -0.040487822 -0.017286697 -0.025217775 -0.02635151 -0.029713513
-0.00923974 -0.009331885 -0.0035623277 -0.010461716 -0.018387312 -0.006403357 -0.0078014373 -0.019313257
0.007123892 0.0031682348 0.0009058441 0.009529838 0.009054599 0.028275795 0.045208666 0.03383768
0.038127337 0.05748392 0.054543592 0.01639975 0.0060829334 0.010525464 0.018056488 0.023276657
-0.0025670768 -0.0029788825 -0.0040093684 -0.0038549555 0.00016264031 -0.00011828702 0.008555704 -0.013818012
0.0068336832 -0.0070184143 0.0024895659 0.002293539 -0.002337805 -0.0030113054 0.0007366674 0.0066509834
-4.9411385e-05 -3.481114e-05 -4.491867e-05 -5.797953e-05 -3.0824856e-05 -1.3196455e-05 -5.9074023e-06 -4.039953e-06
-5.4744385e-07 -8.865763e-06 2.1118423e-05 3.0043761e-06 -1.7766704e-06 4.9875052e-06 9.0672575e-07 -1.2397658e-06
0.006356208 0.003474156 0.00452759 0.0065704854 0.0040904977 0.0032794315 0.0032947732 0.0053879814
0.0010763253 0.0016334113 0.0016508837 0.0028777048 0.0013436921 0.0009129543 0.0014757807 0.0021777346
0.071233645 0.0030692844 0.008866479 0.017464448 0.081010304 -0.04408542 -0.03088819 0.033030573
0.07569773 -0.011027887 -0.027197886 0.02000076 0.037086755 -0.026217444 -0.013970885 -0.014271224
-0.0075280345 -0.007839593 -0.0039559575 -0.010417453 -0.052713584 -0.06101591 -0.04481035 -0.05888528
-0.020945013 -0.030365437 -0.039120305 -0.02255785 -0.011334935 -0.017069792 -0.010979571 -0.0080158515
0.00018904165 0.014020453 -0.012537872 0.061004642 0.015505602 0.06968843 0.0033523112 0.07820429
0.0033515824 0.011291126 -0.013154131 0.075003296 -0.008890569 -0.024956578 -0.01245983 0.0595052

network.11.bias f4 [128]
00000000: ccac d43c ef06 313d 0c1a b3bc 73f5 2e3d
00000010: c092 0b3d ce20 15bd 7af8 f2bd 548c efbd
00000020: aa35 d1bd 1390 d83c 77e8 0abd 5fe3 103d
00000030: ba7d e83c faeb e23c 6cb8 cfbd f4a9 fe3c
00000040: 0c85 e53c c553 d0bd 0dc1 eebd 76ef bc3c
00000050: 82ef d3bd 415a d6bc 9d30 16bd 7e3f f2bd
00000060: 45b8 14bd 20d6 83bd fb98 053d 3218 ef3c
00000070: 9033 393d 9a28 79bd 0841 efbd 192b e7bc
00000080: 280b 0bbe 0457 c6bc 4d5c fa3c 08b2 193d
00000090: 2ee4 d1bd ab16 cfbd 76c7 d6bd 5787 c73c
000000a0: 4256 18be e4b4 a83c 3a7e 14bd 87cd 4d3d
000000b0: 58cc 81bd 5180 e6bd ae6a 7bbd f699 fdbd
000000c0: 6808 163d b19c 363d 2dbd 503d 6098 223d
000000d0: bc68 91bd d05c edbd 0f36 c9bc 3837 ecbd
000000e0: b98e c5bc a0e7 93bd 4519 6abd 3c90 02be
000000f0: 203d ea3c 1250 2abd e5e4 1dbd eb6d d33c
00000100: 9553 7ebd 2fa6 cbbd c89f 33bd ba82 2e3d
00000110: 64d2 d33c e267 d13c a7cc 3dbd f3fb c2bd
00000120: 1bd0 d8bd f14b 063d 2b35 e1bd 388c c23c
00000130: 26c5 fbbc aa9e 0c3d fc97 ef3c 87c1 28bd
00000140: 62fb 413d 9715 393d 6e6b e5bc fd36 293d
00000150: 3e57 cf3c 22f9 9d3c 7742 343d b408 06bd
00000160: f09b 1bbd 5bf5 143d 7d38 193d 7304 a33c
00000170: d7fa 3b3d 8ab3 0c3d 54e7 babc e385 4f3d
00000180: 128d 263d 7f16 1abd 7fa6 d3bd f326 073d
00000190: c4dc 123d 450d 0abe 1396 c0bc e73f adbc
000001a0: 77e7 85bd 506b 13bd 27cc f4bd 0f87 01bd
000001b0: d7ef 94bd 5b7b ffbd 4766 c1bd e6e7 92bc
000001c0: c970 ee3c 0334 72bd f37d 15bd ce2e 4a3d
000001d0: f2ff 413d ca6d 85bd ad01 c03c 1670 f3bd
000001e0: cd91 ba3c ad81 98bd b0f2 0c3d ae44 193d
000001f0: 3880 293d 2b86 f2bd 059c fabc b510 a4bd
0.025961302 0.043219503 -0.021863006 0.042714547 0.0340755 -0.036408238 -0.118637994 -0.11696687
-0.10215314 0.026435887 -0.033913102 0.035373088 0.028380264 0.027700413 -0.101425976 0.0310869
0.028017543 -0.10172228 -0.11657915 0.023063403 -0.10348417 -0.026166083 -0.036667455 -0.118285164
-0.036308546 -0.064373255 0.032616597 0.029186342 0.04521519 -0.060829736 -0.116823256 -0.028218793
-0.13578475 -0.024211414 0.03056159 0.0375233 -0.102486 -0.101117454 -0.10487263 0.024356527
-0.14876655 0.020594068 -0.03625319 0.050244834 -0.063378036 -0.11254943 -0.061381035 -0.12382881
0.03662911 0.044583026 0.050961662 0.039696097 -0.071000546 -0.11589968 -0.02456191 -0.1153397
-0.024115907 -0.07221913 -0.057153005 -0.12750334 0.0285936 -0.041580267 -0.03854837 0.025809249
-0.06209143 -0.099438064 -0.04385355 0.04260514 0.025857158 0.02556223 -0.04633775 -0.09520712
-0.10586568 0.032787267 -0.10996469 0.023748502 -0.030733656 0.034331 0.029247276 -0.041200187
0.047358878 0.045186605 -0.028005328 0.041312207 0.025310155 0.019283835 0.0440087 -0.032723144
-0.03799051 0.0363668 0.037407387 0.019899582 0.045893516 0.03435091 -0.022815384 0.050664794
0.04066188 -0.03761911 -0.10334491 0.03299613 0.03585507 -0.13481624 -0.023509061 -0.021148635
-0.06538289 -0.035991013 -0.119530015 -0.031622943 -0.07272308 -0.124747 -0.09443336 -0.017932843
0.029106515 -0.059131633 -0.036497068 0.049361043 0.04736323 -0.06515081 0.0234383 -0.11886613
0.022774601 -0.07446609 0.034411132 0.037419014 0.041382045 -0.11841997 -0.030591974 -0.08010999

network.14.weight f4 [4, 128]
00000000: 7d3a 12bf a639 823d a553 97be c982 863d
00000010: badf 463e ced5 0f3e 586e bbbd 73ed 9ebd
00000020: edbe fb3d 1d02 10bf 7bf6 93be 8fc1 483e
00000030: f301 17bf a58b 16bf 65ca 983e b5ac 443e
00000040: eb29 0ebf 179a 3c3e 406a b93e 8a63 13bf
00000050: 12fb e13d c99b 92be b158 103e 1907 b93e
00000060: 4b1c ed3d 64fc 173e fc53 383e 8f63 473e
00000070: 0e07 8e3d 347d a8be 9696 b73e 60e4 8ebe
00000080: 828b b83d f9c9 92be 76ea 323e f6a5 383e
00000090: 6b81 3a3e 75d7 a73e 9131 b9bd b5b0 313e
000000a0: d751 be3d d7b6 0fbf 51c4 153e 6c80 963d
000000b0: 6317 a4be d0cf 293e 790a a2be f0f4 d43d
000000c0: e291 4b3e 8ed7 613d 33a3 8f3d 6b40 923d
000000d0: 07e2 a5be 4db1 c5bd e96f 92be f9d9 b6bd
000000e0: 7e3e 96be 6ab3 0f3e eaa0 a8be 6e7f eb3d
000000f0: 2980 393e c06f 1f3e b1d4 0e3e 368b 423e
00000100: fd96 a2be 4c6d a73e 4ac6 103e eb2f 893d
00000110: e295 10bf ad79 11bf c95c 053e a810 993e
00000120: 83b2 9d3e 1e3a 503e 3dd1 bd3e 2046 15bf
00000130: 1722 0d3e 2605 633e 83e4 0fbf c0f1 183e
00000140: bb3f 983d 5e45 8f3d 144f 8cbe 4bd8 833d
00000150: 17d4 13bf 0a1d 12bf d625 8b3d 32e8 113e
00000160: fbc1 263e d0b2 393e db45 3a3e 25f7 12bf
00000170: 7c8e ad3d ae7c 423e c5f3 9dbe 2e57 783d
00000180: b4e6 373e 3efa 1f3e aca7 a23e 5af1 323e
00000190: d795 593e ef27 eb3d 34ff 90be 7e1e 93be
000001a0: 7eef 9fbe bcfa 0b3e 50a3 3d3e 430b 98be
000001b0: a46b a3be 2873 cd3d 21bc ae3e 3cd7 8bbe
000001c0: f2cf 533e 8ddd f23d c533 1e3e 0bf8 a23d
000001d0: dd73 813d 9042 a4be 38ea 10bf 7a7c a2bd
000001e0: 7169 10bf eebb df3d a14d 483e eac3 503e
000001f0: 4655 833d e50b c8bd 19bd 093e c0f2 e63d
00000200: 3372 303e ef27 283d ff60 e6be ce8f 093d
00000210: 5e5c cabe 557e 1a3e 84eb afbe 252a b3be
00000220: dafc 153e 79be 343e 1b5a f0be fee1 cdbe
00000230: c2e4 343e f897 303e 303e cfbe b601 cebe
00000240: d8d9 353e 73b0 09bf 6199 95be 5436 373e
00000250: c6ff 073e a2bf ecbe 1acb 253e 2299 8bbe
00000260: 35c4 183e e69f 163e 65b2 c4be 8a31 cdbe
00000270: 4878 693c d012 943e 0f4c 84be e0ed efbe
00000280: 2d97 f93d 3591 f2be 0f6c d4be 9877 d1be
00000290: 3d8a 07bf 6ae7 b9be 1670 b1be 1f2d ccbe
000002a0: 0f68 e93d d5f5 373e 5924 133e 1414 b33c
000002b0: 7ac8 8d3e 5dc6 07bf 25fa 8f3e d5b3 073e
000002c0: 41dd cebe 5bef f83c 9553 e73c a2fa 033d
000002d0: c1e5 963e 80d0 b3be 93cc ebbe 0cb9 acbe
000002e0: d0eb e8be 1c3b 0e3e 0d25 923e daa9 ff3d
000002f0: 113a cabe e7b1 2b3e 50d2 1c3e b696 c7be
00000300: b2a2 8f3e 21c8 c2be 035b 1c3e 46ef 323d
00000310: dd82 443e 9e93 3f3e 82e9 193e 39cd c3be
00000320: 6610 c1be 21b1 c5be 27d7 95be 42e7 373e
00000330: 673b 1c3e 7c99 c5be 39cf 303e 4ad3 1d3e
00000340: 96c0 453c d264 7e3c c34f f6be c10a de3c
00000350: e472 3c3e c4f3 283e 89e4 303d 28bd 1a3e
00000360: 5d0d 203e e29a cebe d6d2 d7be 6d16 283e
00000370: bb4a 273d b3e9 c9be 4abf edbe 5f31 c03c
00000380: 2eea d8be ffd7 2b3e 1e88 d5be 999f cabe
00000390: c1dc c5be e5aa e43d da0c f7be 9dc2 fabe
000003a0: 6dd5 913e 2ebe 243e ec69 04bf a176 eebe
000003b0: 07b3 963e 4b00 013e ba2f babe f605 f3be
000003c0: ceaf c7be f7ac 1b3e 6406 233e 3ada b33c
000003d0: 8c9c d93c f736 903e aded 333e 0e03 aebe
000003e0: 459f 3c3e 790c 123e 75b2 d0be 5b2e c4be
000003f0: 61d8 5c3c ce00 aebe 81bd 303e 9e49 083e
-0.57120496 0.06358652 -0.29556003 0.06567914 0.19421282 0.14046404 -0.09151906 -0.077601336
0.122922756 -0.56253225 -0.28898987 0.19605087 -0.5898735 -0.5880683 0.29841915 0.19206508
-0.5553271 0.18418156 0.36213875 -0.5757376 0.11034216 -0.2863448 0.14096333 0.36138228
0.11577662 0.14842373 0.18000787 0.19471572 0.06934939 -0.32908022 0.35857075 -0.2790861
0.09010984 -0.28669718 0.17472252 0.18032059 0.18213432 0.32781568 -0.09042657 0.17352565
0.092929535 -0.56138366 0.1462567 0.07348713 -0.32049093 0.1658318 -0.31648615 0.103982806
0.19879869 0.05513721 0.0701355 0.07141193 -0.32399008 -0.09652958 -0.28601006 -0.08928294
-0.29344553 0.14033285 -0.32935268 0.11498915 0.18115295 0.15569973 0.13948323 0.18998417
-0.3175582 0.32700574 0.14138141 0.06698593 -0.56478703 -0.5682629 0.13023676 0.2989552
0.30800256 0.2033467 0.370737 -0.5831013 0.13782535 0.22169933 -0.56208056 0.1493597
0.074340306 0.069956526 -0.27404082 0.06437739 -0.577455 -0.5707556 0.06794326 0.14248732
0.16284935 0.18134618 0.1819071 -0.5740836 0.08474442 0.18992874 -0.30850044 0.060630016
0.179591 0.15622804 0.31768548 0.17474881 0.21248566 0.11482226 -0.28319705 -0.287342
-0.31237406 0.13669866 0.1851933 -0.29696092 -0.3191806 0.1003173 0.34127906 -0.27312648
0.20684794 0.11858664 0.15449436 0.07957467 0.06320927 -0.32082033 -0.5660739 -0.07933898
-0.5641089 0.109245166 0.19560863 0.20387235 0.06412749 -0.09767894 0.13451041 0.1127677
0.17231064 0.04105371 -0.44995877 0.03358441 -0.39523596 0.15087254 -0.34359372 -0.3499309
0.14647236 0.17650785 -0.46943745 -0.4021148 0.17665389 0.17245471 -0.40477133 -0.4023568
0.17758882 -0.53784865 -0.2921858 0.17891818 0.13281164 -0.46239954 0.16190758 -0.2726527
0.14918597 0.14709434 -0.38417354 -0.40076858 0.014249869 0.28920603 -0.25839278 -0.46861172
0.121870376 -0.4737641 -0.41488692 -0.40911555 -0.5294531 -0.36309367 -0.34655827 -0.39878175
0.11396801 0.17964871 0.14369334 0.02186016 0.27692014 -0.53037053 0.28120533 0.13252194
-0.40403178 0.030387571 0.028238097 0.032221444 0.29472163 -0.3512001 -0.46054515 -0.3373493
-0.4549241 0.13889736 0.28543893 0.124835685 -0.39497426 0.16767083 0.15314603 -0.3898217
0.28053814 -0.3804331 0.15269093 0.04368522 0.19190545 0.18708655 0.15030482 -0.3824251
-0.37707824 -0.386117 -0.2926571 0.17959312 0.15257035 -0.38593662 0.17266549 0.15412632
0.012069842 0.015526967 -0.48107728 0.027104737 0.18403202 0.16499239 0.043186698 0.1511122
0.15630098 -0.4035254 -0.42153043 0.16414805 0.040842753 -0.3943611 -0.46435004 0.023461042
-0.42366165 0.16781615 -0.41705412 -0.39574888 -0.38644984 0.11165408 -0.48251992 -0.48976603
0.28483143 0.16088173 -0.51724124 -0.46574882 0.29433462 0.12597768 -0.36364537 -0.47465485
-0.39001316 0.152027 0.15920407 0.021954644 0.026563905 0.28166935 0.17571135 -0.33986706
0.18420132 0.1426257 -0.40761152 -0.38316616 0.013479323 -0.3398499 0.1725979 0.13309333

network.14.bias f4 [4]
00000000: 204d 84bf 6c5a b6bd b606 f0bd a3cf 953f
-1.0336037 -0.08903965 -0.1172003 1.1703991
