models/inception/Inception1_Adam_32_lr0.001_wd0.001/Inception1_Adam_32_lr0.001_wd0.001_best.pth (torch, 823647 bytes, 262 tensors)

input_net.block.0.weight f4 [32, 1, 3, 3]
0	0x190bb0d3	7.221841e-24
1	0x104c39e0	4.027649e-29
2	0x0f7ea6ef	1.2555317e-29
3	0x02f0c5fd	3.537847e-37
4	0x80000265	-8.59e-43
5	0x80000b7c	-4.12e-42
6	0x148107f4	1.3028808e-26
7	0x1461ad2c	1.1393749e-26
8	0x16015dc1	1.045012e-25
9	0x00000660	2.287e-42
10	0x800007f2	-2.85e-42
11	0x80001161	-6.234e-42
12	0x8000017b	-5.31e-43
13	0x00000199	5.73e-43
14	0x8000100f	-5.761e-42
15	0x80001182	-6.28e-42
16	0x8000067d	-2.328e-42
17	0x80000b2b	-4.006e-42
18	0xbcb29449	-0.021799223
19	0x3d2f9d28	0.042874485
20	0xbe3b5ac9	-0.1829635
21	0xbe871633	-0.26384124
22	0x3e40e72d	0.18838187
23	0x3d97bab4	0.07408658
24	0xbd77db75	-0.060512025
25	0x3e11d83e	0.14242646
26	0xbe005cc1	-0.12535383
27	0x3e020aca	0.12699428
28	0x3e25a66d	0.16176768
29	0x3beb6cc7	0.007184598
30	0x3e1441a6	0.14478168
31	0xbe4802ea	-0.19532362
32	0xbebfa71d	-0.37432185
33	0x3e180233	0.14844589
34	0xbd36d1ed	-0.044633795
35	0x3dcf06ef	0.10108744
36	0x3c485b4a	0.012228796
37	0x3c9bcb3a	0.019017804
38	0x3d7092dc	0.058733806
39	0x3c022f47	0.007945842
40	0xbc8516b8	-0.016246185
41	0xbc91bd0e	-0.017790344
42	0xbd24ed5f	-0.040265437
43	0xbcfa6c0f	-0.030569104
44	0xbc91bca5	-0.017790148
45	0x3dafead7	0.08589714
46	0xbebf0ef2	-0.3731609
47	0xbed605b5	-0.4180123
48	0x3e484f76	0.19561562
49	0xbd88fdf7	-0.06689065
50	0xbd0e5a9d	-0.034754384
51	0x3e021740	0.12704182
52	0x3e15eb6f	0.14640592
53	0x3e8276ac	0.25481164
54	0x39920344	0.00027849723
55	0x39cd2937	0.00039131354
56	0x39cb8e11	0.00038825025
57	0xb7efc496	-2.8582563e-05
58	0x35f0103a	1.7886116e-06
59	0x3794b4fb	1.772725e-05
60	0x38b98894	8.846927e-05
61	0x38066932	3.204606e-05
62	0x382de384	4.1458305e-05
63	0x0000262d	1.3695e-41
64	0x00000220	7.62e-43
65	0x80003143	-1.7672e-41
66	0x800013c4	-7.09e-42
67	0x80000e89	-5.214e-42
68	0x00001581	7.714e-42
69	0x80003fc5	-2.2876e-41
70	0x00004193	2.3524e-41
71	0x00002a8e	1.5266e-41
72	0x80005310	-2.9797e-41
73	0x80001bce	-9.974e-42
74	0x80009d2d	-5.6384e-41
75	0x80004277	-2.3843e-41
76	0x800040d3	-2.3255e-41
77	0x8000192b	-9.029e-42
78	0x800035e2	-1.933e-41
79	0x000001e0	6.73e-43
80	0x00005c74	3.3166e-41
81	0xb58af6c2	-1.0353617e-06
82	0xb4cfc64d	-3.8701037e-07
83	0xb522d033	-6.065267e-07
84	0xb54669e4	-7.391484e-07
85	0xb216336d	-8.742842e-09
86	0xb1ddfbde	-6.4605805e-09
87	0xb0bada3b	-1.3595306e-09
88	0xb1e466cb	-6.6473596e-09
89	0xb20b6f44	-8.116164e-09
90	0x3dc1882e	0.09449802
91	0xbe3a03d4	-0.18165523
92	0x3e6d9a09	0.23203291
93	0xbe188e28	-0.14897978
94	0xbe7022a2	-0.23450711
95	0x3e35714e	0.17719004
96	0x3dbd3ff1	0.092407115
97	0x3dd07925	0.101793565
98	0xbc4c018f	-0.0124515435
99	0x000001c2	6.3e-43
100	0x0000032c	1.138e-42
101	0x00000eec	5.353e-42
102	0x800014cc	-7.46e-42
103	0x000012aa	6.695e-42
104	0x000009ff	3.586e-42
105	0x800005b7	-2.05e-42
106	0x80000468	-1.58e-42
107	0x00001d17	1.0435e-41
108	0x3e8de98c	0.27717245
109	0xbe801bc4	-0.25021183
110	0x3d343885	0.043999214
111	0x3e424d76	0.18974862
112	0xbdc60f00	-0.0967083
113	0xbe8c7f8a	-0.27441055
114	0x3d81d42c	0.06339297
115	0x3d71ca33	0.059030723
116	0xbe83dc3a	-0.25753957
117	0xbd12e2a1	-0.03586066
118	0xbe84ce69	-0.25938728
119	0xbe000052	-0.12500122
120	0x3dd358dd	0.10319684
121	0xbd630b7a	-0.055430867
122	0xbd9d3063	-0.07675245
123	0x3a8c07db	0.0010683493
124	0x3da3e120	0.080019236
125	0x3d51e02c	0.051239178
126	0x80000237	-7.95e-43
127	0x00001974	9.131e-42
128	0x00000754	2.629e-42
129	0x000007fa	2.861e-42
130	0x800016a5	-8.123e-42
131	0x8000093c	-3.313e-42
132	0x800016ac	-8.133e-42
133	0x8000073c	-2.595e-42
134	0x00001143	6.192e-42
135	0xbe210ebd	-0.15728278
136	0xbdb9de58	-0.09075612
137	0xbd47dfdf	-0.048797484
138	0xbdeb32d5	-0.11484305
139	0x3c278df4	0.010226715
140	0x3d758766	0.05994358
141	0x3e0f9400	0.14021301
142	0xbd68f56f	-0.05687469
143	0x3bf65946	0.0075179664
144	0xbe007fb2	-0.12548712
145	0xbd031885	-0.032005806
146	0xbd90fc5c	-0.07079384
147	0xbe5b9cfb	-0.21446602
148	0xbd078774	-0.033088163
149	0xbca0efce	-0.019645598
150	0xbb0608fb	-0.002045213
151	0xbd26f63b	-0.040762167
152	0x3e7775a6	0.24165973
153	0x3df0736f	0.11740767
154	0xbe277657	-0.16353737
155	0xbe4572ed	-0.19282122
156	0x3ce14a87	0.027501358
157	0xbcf095bf	-0.02936828
158	0x3d424f7e	0.04743909
159	0xbe461382	-0.19343379
160	0x3e43341c	0.19062847
161	0x3ea976c4	0.33098423
162	0xbe71347b	-0.23555176
163	0x3e474bff	0.19462584
164	0x3e43f18b	0.1913511
165	0x3e1a3a51	0.15061308
166	0x3e84572a	0.2584775
167	0x3e47b3b1	0.1950214
168	0xbeb103b6	-0.34573144
169	0xbdafc819	-0.085830875
170	0xbe89cb86	-0.2691309
171	0x80001e07	-1.0772e-41
172	0x80001fb0	-1.1367e-41
173	0x80001eb5	-1.1016e-41
174	0x00001c06	1.0053e-41
175	0x000013ce	7.105e-42
176	0x80001428	-7.23e-42
177	0x00001efe	1.1118e-41
178	0x000014fa	7.525e-42
179	0x00001aa7	9.561e-42
180	0xbe954535	-0.29154363
181	0xbd66f991	-0.05639035
182	0x3e9a2260	0.3010435
183	0xbe124616	-0.14284548
184	0x3df2a865	0.11848525
185	0xbe20dfb3	-0.15710334
186	0x3e791715	0.24325211
187	0x3e768261	0.24073173
188	0xbd9d0784	-0.07667449
189	0xbd2369c4	-0.039895788
190	0x3e2ff11a	0.17181817
191	0x3ea0eedc	0.31432235
192	0x3dafe302	0.0858822
193	0xbe5a82fa	-0.21339026
194	0xbe1375fc	-0.14400476
195	0xbe9ad241	-0.30238536
196	0xbe8f2d02	-0.27964026
197	0x3e144f05	0.14483269
198	0xbe894801	-0.26812747
199	0xbe94de72	-0.29075962
200	0x3e833aa8	0.2563069
201	0x3cec7b42	0.028867368
202	0xbde1ab4d	-0.11019001
203	0xbda30ccf	-0.079614274
204	0xbe12dc0e	-0.14341757
205	0x3de19204	0.110141784
206	0x3e0e1ac4	0.13877398
207	0x3e9d15c1	0.3068066
208	0xbebbac29	-0.36654785
209	0xbe6e820c	-0.23291796
210	0x3e4b0779	0.1982707
211	0xbd448b25	-0.04798426
212	0x3e9bcd22	0.3042994
213	0xbe4b1ca7	-0.19835149
214	0x3dedf36c	0.11618695
215	0x3c09ce05	0.008410935
216	0xbd3145b1	-0.043279354
217	0x3ce32fa5	0.02773268
218	0xbea3e025	-0.32006946
219	0xbc99b462	-0.018762771
220	0xbd215ebf	-0.039396998
221	0xbea32cdc	-0.31870162
222	0x3eab472b	0.33452734
223	0x3ea46bf2	0.32113606
224	0xbe3a32af	-0.18183397
225	0x3ebcffbc	0.3691386
226	0x3dea3798	0.11436385
227	0x3d0402d7	0.03222927
228	0x3da1abf9	0.07894129
229	0xbd88d956	-0.066820785
230	0xbe17eb4b	-0.14835851
231	0xbbdc325b	-0.00671987
232	0xbe37052a	-0.17873064
233	0x3d366c5c	0.044536933
234	0x800004c3	-1.708e-42
235	0x800000e9	-3.27e-43
236	0x00000a2c	3.649e-42
237	0x000008d5	3.168e-42
238	0x800007c8	-2.791e-42
239	0x8000060e	-2.172e-42
240	0x000003cf	1.366e-42
241	0x00001401	7.176e-42
242	0x000007b5	2.765e-42
243	0x3ce480be	0.02789342
244	0x3dc8dab2	0.09807338
245	0x3e06e95e	0.1317496
246	0x3cbb42c0	0.022858977
247	0xbc9772f1	-0.018487426
248	0xbd00de38	-0.031461924
249	0x3e560b99	0.20902862
250	0xbd289819	-0.041160677
251	0xbe1c6419	-0.15272559
252	0x3e926dbe	0.28599352
253	0xbe56e717	-0.20986591
254	0x3e795bc5	0.24351414
255	0xbe3b4b54	-0.18290454

input_net.block.0.bias f4 [32]
0	0xb75118e4	-1.2463166e-05
1	0x2d7d4090	1.4395721e-11
2	0xb7fca523	-3.0117639e-05
3	0x38a01b85	7.6345204e-05
4	0xb1662830	-3.349225e-09
5	0x398a8f5d	0.00026428225
6	0x3289bcce	1.6034758e-08
7	0x2e3d3e68	4.3029053e-11
8	0x3492dfde	2.7357504e-07
9	0x2bc082ca	1.3678722e-12
10	0xb790c8c3	-1.7259625e-05
11	0xa97d39cb	-5.6227412e-14
12	0x38d7af61	0.00010284666
13	0x3700605c	7.65183e-06
14	0x31c74928	5.799979e-09
15	0x36a60494	4.9477185e-06
16	0xb7bd135b	-2.2539569e-05
17	0xb866dcbc	-5.5041848e-05
18	0x381cc7ed	3.7379494e-05
19	0xb48384ce	-2.449728e-07
20	0x38881335	6.488563e-05
21	0x38d76020	0.000102699036
22	0x393c1118	0.00017935445
23	0xb971e4cf	-0.00023068789
24	0xb813128f	-3.5064815e-05
25	0x385859f6	5.1582196e-05
26	0x36e704d7	6.8849e-06
27	0x3767d013	1.3817119e-05
28	0xb88ce709	-6.718754e-05
29	0xb6d9fd6e	-6.496607e-06
30	0x39721c70	0.00023089512
31	0xb7d57f77	-2.5450934e-05

input_net.block.1.weight f4 [32]
0	0x39a4b9e0	0.00031419005
1	0x2f951a6f	2.7121724e-10
2	0x3e984a20	0.29744053
3	0x3e83c9ba	0.25739843
4	0x3a5da435	0.000845495
5	0x3f197f31	0.59959704
6	0x3be3934b	0.006945049
7	0x800017e2	-8.568e-42
8	0x8000400e	-2.2978e-41
9	0x3c527821	0.012846024
10	0x3e0e78f1	0.13913323
11	0x000008ea	3.198e-42
12	0x3ee7ecb1	0.4529777
13	0x3e141ecf	0.14464878
14	0x80000b72	-4.106e-42
15	0x3e2f7fa4	0.17138535
16	0x3e80c822	0.2515269
17	0x3ed675f6	0.41886872
18	0x3efdbd7f	0.49558637
19	0x0000116a	6.247e-42
20	0x3ebdf6ae	0.37102264
21	0x3ed64a72	0.41853672
22	0x3ef1ec25	0.47250476
23	0x3ebf465e	0.37358373
24	0x3f06fffd	0.5273436
25	0x3ea15560	0.31510448
26	0x32775a61	1.4397842e-08
27	0x3e817a6c	0.25288713
28	0x3ebc19c0	0.36738396
29	0x3e3aa332	0.18226317
30	0x3ef3b2d0	0.4759736
31	0x3de31e91	0.110898145

input_net.block.1.bias f4 [32]
0	0xb91eea38	-0.00015155307
1	0xa1abc00d	-1.1638246e-18
2	0xbdbe4211	-0.09289945
3	0x3d207dea	0.03918258
4	0xbbd7e7c3	-0.0065889074
5	0x3e120b76	0.14262185
6	0xbcce7b9f	-0.025205432
7	0x80002d79	-1.6313e-41
8	0x0c336e31	1.3822818e-31
9	0xbb6165cd	-0.0034392953
10	0xbd43c20e	-0.047792487
11	0x0b2d6a8b	3.3398742e-32
12	0x3e205063	0.15655665
13	0x3e2f4c03	0.1711884
14	0x00001195	6.307e-42
15	0xbc81a788	-0.015826955
16	0xbc2c93b2	-0.01053326
17	0xbcfcfa30	-0.030881017
18	0x3ec047ae	0.37554687
19	0x89cdbc16	-4.952883e-33
20	0xbdfbae44	-0.12289098
21	0x3dd5aec5	0.10433725
22	0x3e3dbffe	0.1853027
23	0x3e074f29	0.13213791
24	0x3e2e147c	0.17000002
25	0x3e43ad7d	0.1910915
26	0xa5915f7f	-2.52182e-16
27	0xbd0706f6	-0.032965623
28	0x3d9a79cf	0.075427644
29	0xbdf1ec9f	-0.1181271
30	0x3dd2da9a	0.10295601
31	0xbc828121	-0.015930714

input_net.block.1.running_mean f4 [32]
0	0x354d65da	7.6516665e-07
1	0xab594add	-7.719778e-13
2	0xba4ccadd	-0.00078122114
3	0xbac80dd8	-0.0015262915
4	0x39d8ed2a	0.00041375431
5	0xbb8ac556	-0.00423495
6	0x36dae51a	6.523577e-06
7	0xabb332fd	-1.2732867e-12
8	0xb27798d4	-1.4412041e-08
9	0xb2aaceda	-1.988467e-08
10	0xba9e5ccc	-0.0012082099
11	0x274842d2	2.77918e-15
12	0xba092185	-0.000523113
13	0xbb3e56b5	-0.002904338
14	0xafc090e9	-3.5027561e-10
15	0xbb1aef96	-0.002364134
16	0xbb7b560e	-0.0038350853
17	0xbacc360d	-0.0015580073
18	0x3bce55b2	0.006296837
19	0x3292be87	1.7083279e-08
20	0xbb03f308	-0.0020133872
21	0x3a28268d	0.0006414436
22	0xbb6bc5d2	-0.0035976064
23	0x3aeb73ec	0.0017963625
24	0xbb9c97fc	-0.00477886
25	0x3b1a9631	0.0023588056
26	0xb4805bd0	-2.390866e-07
27	0x3acf1dc4	0.0015801718
28	0x3b360983	0.0027776666
29	0x3b376146	0.0027981563
30	0x3b18db03	0.00233239
31	0x390ec120	0.0001361412

input_net.block.1.running_var f4 [32]
0	0x00000004	6e-45
1	0x00000004	6e-45
2	0x3d227eeb	0.03967182
3	0x3c9f7ab4	0.01946769
4	0x3b4a7fad	0.0030898855
5	0x3e076d87	0.13225375
6	0x35c73c1c	1.484415e-06
7	0x00000004	6e-45
8	0x0fcccd72	2.0195088e-29
9	0x2d17cddf	8.629069e-12
10	0x3c7c9372	0.015416013
11	0x00000337	1.153e-42
12	0x3d9ecee4	0.07754305
13	0x3def0ff4	0.11672965
14	0x00000004	6e-45
15	0x3d94bffd	0.07263181
16	0x3dd69e74	0.10479441
17	0x3d368d23	0.044568192
18	0x3daad5b6	0.083415434
19	0x00000004	6e-45
20	0x3d549540	0.05190015
21	0x3e0aab91	0.1354201
22	0x3e0ce430	0.13758922
23	0x3cf5e9d2	0.03001872
24	0x3dfd3f03	0.12365534
25	0x3db8446f	0.08997428
26	0x00000004	6e-45
27	0x3d8ca3ce	0.06867181
28	0x3d43056b	0.04761259
29	0x3d71a933	0.05899925
30	0x3e0fdb7e	0.14048573
31	0x3c885c30	0.01664552

inception_blocks.0.conv_1x1.block.0.weight f4 [8, 32, 1, 1]
0	0x313d5f10	2.7557157e-09
1	0x80000554	-1.911e-42
2	0x3d06f706	0.032950424
3	0xbe2657a3	-0.16244368
4	0xbbefb2fd	-0.0073150382
5	0xbdfff91f	-0.12498688
6	0xbae86c79	-0.0017732523
7	0x00001aa1	9.553e-42
8	0x0626e7b6	3.1391364e-35
9	0x385e1877	5.295171e-05
10	0x3cbd81bd	0.023133153
11	0x06278cd5	3.1512676e-35
12	0xbddf6eb2	-0.10909785
13	0x3d1f176b	0.038840692
14	0x80001c55	-1.0164e-41
15	0xbc23e538	-0.0100033805
16	0xbcfe97df	-0.031078277
17	0xbd91a917	-0.071123295
18	0x3d9efc79	0.07762999
19	0x05c6f8ee	1.8711273e-35
20	0x3d9c7e68	0.076412976
21	0xbe3873e0	-0.18012953
22	0x3d400474	0.046879247
23	0x3c963785	0.01833702
24	0xbea36b23	-0.31917676
25	0xbe6eb935	-0.23312838
26	0x0e032d88	1.616892e-30
27	0xbb9c6b7f	-0.0047735567
28	0x3d9db83e	0.07701157
29	0xbe290a7e	-0.16507909
30	0xbe829836	-0.25506753
31	0xbd8ca010	-0.06866467
32	0xaeb3a8eb	-8.1699834e-11
33	0x8000129b	-6.674e-42
34	0xbc7693cf	-0.015049889
35	0xbd3c5300	-0.045977592
36	0xbb28f545	-0.0025780958
37	0x3d4afd5d	0.049558032
38	0xba5e6c7e	-0.00084847945
39	0x00001e7f	1.094e-41
40	0x0698e09e	5.750609e-35
41	0xb6a137f4	-4.8046877e-06
42	0xbcd1c05d	-0.025604421
43	0x05a920b7	1.5904701e-35
44	0x3dc2f089	0.09518535
45	0x3d85d699	0.06535072
46	0x800015b2	-7.783e-42
47	0xbcf72cf8	-0.03017281
48	0xbdeb2aeb	-0.11482795
49	0x3e09766e	0.13424084
50	0xbe36980d	-0.1783144
51	0x06a64e47	6.255728e-35
52	0xbe490981	-0.19632532
53	0xbdc3a095	-0.09552113
54	0xbc844c35	-0.01614962
55	0x3e7f9557	0.24959312
56	0xbe45d651	-0.19320036
57	0x3e005fc9	0.12536539
58	0x00000345	1.173e-42
59	0xbe0e19e7	-0.13877068
60	0x3df16c91	0.117882855
61	0x3dfb1b9b	0.12261125
62	0xbe1a055f	-0.15041111
63	0x3cd7c9f0	0.026341408
64	0x00001431	7.243e-42
65	0x80001abd	-9.592e-42
66	0xb2040f63	-7.68691e-09
67	0xb3734474	-5.6640104e-08
68	0x80001193	-6.304e-42
69	0x38a40140	7.820362e-05
70	0x800010a8	-5.975e-42
71	0x80007240	-4.0985e-41
72	0x80011ef5	-1.02941e-40
73	0x800009ca	-3.512e-42
74	0x2bb013e8	1.2511077e-12
75	0x80002171	-1.1997e-41
76	0x351695fa	5.60976e-07
77	0x26db9531	1.5236616e-15
78	0x000012a1	6.683e-42
79	0xa4e11b1c	-9.762412e-17
80	0xa6857ce7	-9.262584e-16
81	0xb6fcc73b	-7.5333787e-06
82	0xb5ff4a5b	-1.9020621e-06
83	0x00000b2d	4.009e-42
84	0xb5887d08	-1.0169178e-06
85	0x306a59ed	8.5256496e-10
86	0x34032cc6	1.2216614e-07
87	0x373f66fb	1.1408464e-05
88	0x35c2525e	1.4478098e-06
89	0xb4a72b4d	-3.113768e-07
90	0x80001682	-8.074e-42
91	0xb0f3299c	-1.7692403e-09
92	0x36fa373e	7.4570116e-06
93	0xab27633d	-5.946804e-13
94	0x30b8a175	1.3433651e-09
95	0xa10ca01d	-4.7645753e-19
96	0x0000520b	2.9431e-41
97	0x8000296f	-1.4864e-41
98	0x00002358	1.2679e-41
99	0x80000665	-2.294e-42
100	0x00001332	6.886e-42
101	0x8000258c	-1.3469e-41
102	0x00003088	1.741e-41
103	0x00005b5b	3.2772e-41
104	0x2b2b16f5	6.0783263e-13
105	0x00001e75	1.0926e-41
106	0x800003dc	-1.384e-42
107	0x80005d75	-3.3526e-41
108	0x80001a1d	-9.368e-42
109	0x8000211b	-1.1876e-41
110	0x00008b9c	5.0082e-41
111	0x80000a05	-3.594e-42
112	0x00002ac9	1.5348e-41
113	0x0000153a	7.615e-42
114	0x8000178e	-8.45e-42
115	0x80003690	-1.9573e-41
116	0x00002252	1.2312e-41
117	0x800025f5	-1.3616e-41
118	0x0000414d	2.3426e-41
119	0x80002a74	-1.523e-41
120	0x80001dee	-1.0737e-41
121	0x80000485	-1.621e-42
122	0x80001ad1	-9.62e-42
123	0x80001641	-7.983e-42
124	0x00000a32	3.657e-42
125	0x8000123e	-6.544e-42
126	0x000003c4	1.351e-42
127	0x80002824	-1.44e-41
128	0x9c9084f9	-9.563493e-22
129	0x800000ec	-3.31e-43
130	0xbd15698e	-0.036477618
131	0x3db0a6ee	0.08625589
132	0x3b3665c7	0.002783166
133	0xbe224da8	-0.15849936
134	0xb923861d	-0.00015594852
135	0x000049be	2.6454e-41
136	0x06ec2644	8.882956e-35
137	0x2d7913cb	1.4158406e-11
138	0xbe09261d	-0.13393445
139	0x87002a44	-9.64207e-35
140	0x3df8e2e9	0.12152655
141	0xbda136ea	-0.07871802
142	0x800035d4	-1.931e-41
143	0xbd86c3c0	-0.06580305
144	0xbd840079	-0.06445403
145	0xbd3f235e	-0.04666459
146	0x3d34f6c3	0.044180643
147	0x03b32b06	1.0530552e-36
148	0xbe243191	-0.16034533
149	0x3ce97e68	0.028502658
150	0xbe055659	-0.1302122
151	0xbdc74b95	-0.09731213
152	0xbe04fc44	-0.12986857
153	0x3d0cc373	0.034366082
154	0x800001cb	-6.43e-43
155	0xbddb3040	-0.10702562
156	0xbe1a404e	-0.15063593
157	0xbc07b958	-0.0082839355
158	0x3e2b5257	0.16730629
159	0x3cf3ca4f	0.029759554
160	0x80000798	-2.724e-42
161	0x80000562	-1.931e-42
162	0x80000410	-1.457e-42
163	0x0477ff71	2.9152003e-36
164	0x800006dd	-2.462e-42
165	0x1f01bddc	2.747386e-20
166	0x80000d73	-4.825e-42
167	0x80003d76	-2.2048e-41
168	0x000051bb	2.932e-41
169	0x800012a9	-6.694e-42
170	0x000001a9	5.96e-43
171	0x800032b9	-1.8196e-41
172	0x80001128	-6.155e-42
173	0x80000576	-1.959e-42
174	0x80003065	-1.736e-41
175	0x800007f2	-2.85e-42
176	0x800014bc	-7.438e-42
177	0x998970f7	-1.4211094e-23
178	0x80000f15	-5.41e-42
179	0x80000f21	-5.427e-42
180	0x1676dd4d	1.9941552e-25
181	0x80000243	-8.11e-43
182	0x00000a7f	3.765e-42
183	0x00000617	2.185e-42
184	0x80000500	-1.794e-42
185	0x800000d3	-2.96e-43
186	0x80000e4b	-5.127e-42
187	0x000006a6	2.385e-42
188	0x0000131d	6.857e-42
189	0x00000190	5.6e-43
190	0x000003e4	1.396e-42
191	0x00000f94	5.588e-42
192	0x277008bb	3.3311424e-15
193	0x00000b6e	4.1e-42
194	0x3dbe4b2d	0.092916824
195	0x3e0e7d3a	0.13914958
196	0x3a9d01d4	0.0011978694
197	0x3e0b3ee9	0.13598217
198	0x38d823b7	0.00010306335
199	0x80004c20	-2.7309e-41
200	0x878ccb99	-2.1184523e-34
201	0x354500ed	7.3389566e-07
202	0xbd63b6f9	-0.05559442
203	0x07812233	1.9429863e-34
204	0xbd946f7b	-0.07247826
205	0x3ce94cf9	0.028479086
206	0x00000db9	4.923e-42
207	0x3c18bf6f	0.009322985
208	0xba90fa62	-0.0011060948
209	0x3e12a2cd	0.14319916
210	0x3e07bc76	0.13255486
211	0x08a78962	1.0083245e-33
212	0x3da711d7	0.081576996
213	0x3d30735b	0.04307876
214	0x3d946948	0.07246643
215	0x3d3a2ec1	0.045454744
216	0x3e451050	0.19244504
217	0x3d71af6d	0.05900519
218	0x80000b82	-4.128e-42
219	0x3d9a8fbc	0.075469464
220	0x3c87c2d1	0.016572388
221	0x3cdbcee9	0.02683206
222	0xbce1c43d	-0.027559394
223	0xbd01326d	-0.03154223
224	0x80000a22	-3.635e-42
225	0x00000b59	4.071e-42
226	0x3da61534	0.08109513
227	0xbde0e854	-0.10981813
228	0x356a60e1	8.731277e-07
229	0x3dd31357	0.10306423
230	0xb71f3742	-9.490004e-06
231	0x80000b30	-4.013e-42
232	0x89f71e95	-5.9491846e-33
233	0xa64c9e51	-7.0991277e-16
234	0x3afe3803	0.0019395355
235	0x83f5d6fd	-1.4449165e-36
236	0xbd2dd97f	-0.04244375
237	0xbc61ed0d	-0.0137894275
238	0x00001792	8.455e-42
239	0xbcafe5cd	-0.021471882
240	0x3badda11	0.0053055366
241	0x3e0c892d	0.13724203
242	0xbcc82b02	-0.02443457
243	0x061288c8	2.756004e-35
244	0x3dcde386	0.10053162
245	0xbca541d4	-0.02017299
246	0xbd543e9c	-0.05181752
247	0x3c738b20	0.014864713
248	0xbdb45bd0	-0.08806574
249	0xbb81ff3b	-0.0039671934
250	0x80000b4d	-4.054e-42
251	0x3cb694f9	0.022287833
252	0xbd58dd7f	-0.05294561
253	0xbb8b1282	-0.0042441497
254	0x3c1b3956	0.009474119
255	0x3d239589	0.03993753

inception_blocks.0.conv_1x1.block.0.bias f4 [8]
0	0x3969f680	0.0002231244
1	0xb8c8885d	-9.562143e-05
2	0x2fb2eca8	3.2546166e-10
3	0x2b3370f6	6.375034e-13
4	0x37f0828c	2.867102e-05
5	0xabc8df84	-1.4272893e-12
6	0x36ccec92	6.107214e-06
7	0x38a57db4	7.891227e-05

inception_blocks.0.conv_1x1.block.1.weight f4 [8]
0	0x3ec9bd8b	0.39402422
1	0x3eb33813	0.3500372
2	0x388611da	6.392943e-05
3	0x80001c51	-1.0158e-41
4	0x3ea8d279	0.32973078
5	0x28de56d9	2.4684615e-14
6	0x3e93ac89	0.2884257
7	0x3e17ae19	0.14812507

inception_blocks.0.conv_1x1.block.1.bias f4 [8]
0	0x3e865bc0	0.26241875
1	0xbc16e5a6	-0.009210026
2	0xba064ac1	-0.00051228335
3	0x00002432	1.2984e-41
4	0x3e7bc698	0.24587476
5	0xab04c8ba	-4.7174385e-13
6	0xbe33d985	-0.17563446
7	0xbd0d6154	-0.034516647

inception_blocks.0.conv_1x1.block.1.running_mean f4 [8]
0	0xbe7b0faf	-0.24517702
1	0xbd97bca5	-0.07409028
2	0x37b83058	2.1957021e-05
3	0xa8b4eee8	-2.0087624e-14
4	0xbdd791d2	-0.1052586
5	0x2a232986	1.4491715e-13
6	0x3e63fd11	0.22264506
7	0xbce0beef	-0.027434794

inception_blocks.0.conv_1x1.block.1.running_var f4 [8]
0	0x3ce0be03	0.027434355
1	0x3ca1d50f	0.019754915
2	0x308d7f1d	1.0295228e-09
3	0x00000cd1	4.598e-42
4	0x3d060d7a	0.032727696
5	0x002311de	3.220652e-39
6	0x3ce02234	0.02736006
7	0x3c23b744	0.009992424

inception_blocks.0.conv_3x3.0.block.0.weight f4 [12, 32, 1, 1]
0	0x8dcf199c	-1.2763525e-30
1	0x00000685	2.339e-42
2	0xbd49040c	-0.049076125
3	0x3d007a36	0.03136655
4	0xb8a57188	-7.88896e-05
5	0x3e21b181	0.15790369
6	0xb4956131	-2.782413e-07
7	0x800030f3	-1.756e-41
8	0x064789bd	3.7528934e-35
9	0xa8cf992c	-2.3048044e-14
10	0xbc706699	-0.014672899
11	0x84e44318	-5.366416e-36
12	0x3dcbaae9	0.09944708
13	0x3d5a49ff	0.053293224
14	0x800018ba	-8.87e-42
15	0x3d0b295a	0.033974983
16	0x3b9c20df	0.0047646607
17	0xbc8e24ed	-0.017351592
18	0xbe32576e	-0.17416164
19	0x85b4ed76	-1.7014348e-35
20	0x3d9dcb55	0.07704798
21	0xbd14903d	-0.03627037
22	0x3cc0eb51	0.023549708
23	0x3b8677fe	0.0041036597
24	0x3e0ff538	0.14058387
25	0xbdbeac4d	-0.093102075
26	0x000012c5	6.733e-42
27	0xbcae724a	-0.021294732
28	0xbd05eea6	-0.032698296
29	0x3c2066c9	0.009790131
30	0x3b8c8a04	0.0042889137
31	0x3c53806b	0.012909035
32	0x04148aee	1.746111e-36
33	0x80000dff	-5.021e-42
34	0xbcecbc99	-0.028898524
35	0xbdaab3bb	-0.08335062
36	0xb999b7ff	-0.00029319522
37	0x3d9ec432	0.07752265
38	0xb50c5230	-5.227366e-07
39	0x8000469c	-2.533e-41
40	0x06879679	5.1002456e-35
41	0x29248f6f	3.6539724e-14
42	0xbbb4eefa	-0.0055216523
43	0x8634bc00	-3.3992358e-35
44	0xbc8fe85f	-0.017566858
45	0x3cde00a6	0.027099919
46	0x80001899	-8.824e-42
47	0x3cc56d2b	0.024099907
48	0x3b3412d8	0.0027477052
49	0x3de72dfc	0.11288068
50	0xbd989674	-0.07450572
51	0x86c011f2	-7.224874e-35
52	0xbc023432	-0.007947015
53	0xbe06b6ac	-0.13155621
54	0x3c6c4ac3	0.014422121
55	0x3d0b32dd	0.033984054
56	0xbd1c31d8	-0.038133472
57	0xbdf89d71	-0.121394046
58	0x80001459	-7.3e-42
59	0xbda0019b	-0.07812806
60	0xbdfc9f85	-0.123351134
61	0xbcfcb754	-0.030849136
62	0xbe2684df	-0.16261624
63	0xbd2e8b1e	-0.04261314
64	0x29038793	2.9205435e-14
65	0x00000927	3.283e-42
66	0xbd363a9f	-0.0444895
67	0x3e231b86	0.15928468
68	0xba87d5f4	-0.0010363446
69	0xbe089101	-0.13336565
70	0xba0f8ee5	-0.000547631
71	0x00000b29	4.004e-42
72	0x86ac6c34	-6.48582e-35
73	0xb5b423b1	-1.3421433e-06
74	0x3d94efda	0.072723106
75	0x867a809c	-4.711426e-35
76	0xbb7b35d0	-0.0038331635
77	0xbd8fff80	-0.07031155
78	0x80001140	-6.188e-42
79	0xbd57386e	-0.05254405
80	0xbc46c278	-0.012131326
81	0x3d267b8f	0.04064518
82	0xbe6e257b	-0.23256485
83	0x86efc5de	-9.019255e-35
84	0x3d198afd	0.037486065
85	0xbe01b7dc	-0.12667793
86	0xbdb91200	-0.09036636
87	0xbc5ef797	-0.013608835
88	0xbe57fd0c	-0.21092623
89	0x3e162fd7	0.14666687
90	0x80000bee	-4.28e-42
91	0x3d69b21e	0.05705463
92	0xbd6f24c8	-0.058384687
93	0x3a761285	0.0009386915
94	0x3c8f382a	0.017482836
95	0x3da473d0	0.08029902
96	0x00000267	8.62e-43
97	0x8000119a	-6.314e-42
98	0xbc1cf4a4	-0.009579811
99	0xbd2fc31d	-0.042910684
100	0xb99f746b	-0.0003041358
101	0xbd777ee1	-0.060423736
102	0x3450113f	1.9377784e-07
103	0x00005f5f	3.4213e-41
104	0x86a3ed87	-6.16628e-35
105	0x22370527	2.4803852e-18
106	0x3d74468d	0.059637595
107	0x07aa94de	2.5666253e-34
108	0xbd736a01	-0.059427265
109	0x3cb481d3	0.022034561
110	0x80001897	-8.821e-42
111	0x3cdfaaa6	0.027303051
112	0x391c3881	0.00014898369
113	0xbda4da30	-0.080494285
114	0xbe259d9d	-0.16173406
115	0x858301b0	-1.23198e-35
116	0xbd52ff6d	-0.051513124
117	0xbd6ee369	-0.058322344
118	0x3da87ce9	0.0822695
119	0x3e0fd497	0.1404594
120	0xbde3825b	-0.11108848
121	0xbd3d07ab	-0.04614989
122	0x80001027	-5.794e-42
123	0xbb947a71	-0.0045311977
124	0x3c30b71d	0.010785845
125	0xbda0a2ba	-0.07843538
126	0xbe16da9f	-0.14731835
127	0xbcb98901	-0.022648336
128	0x2f14e6f7	1.3542577e-10
129	0x800012f3	-6.798e-42
130	0x3ca8f09f	0.02062255
131	0x3ac4b3de	0.0015007218
132	0x3abd56e3	0.001444545
133	0x3e5de428	0.21669066
134	0x396326b8	0.00021662831
135	0x80004d31	-2.7691e-41
136	0x85b0336c	-1.656985e-35
137	0x35609a03	8.367062e-07
138	0x3c653788	0.01399029
139	0x06e10174	8.463773e-35
140	0x3e0b0f34	0.13580018
141	0x3d89bbc7	0.06725269
142	0x800009e7	-3.552e-42
143	0xbbec573c	-0.0072125476
144	0xbdae391d	-0.08506987
145	0x3df0f00f	0.117645375
146	0xbe567de3	-0.2094646
147	0x836d2165	-6.9686375e-37
148	0xbdfb7a3e	-0.12279175
149	0xbe042e58	-0.12908304
150	0xbe397211	-0.18109919
151	0x3e65560c	0.22396106
152	0x3e3e0f4c	0.18560523
153	0x3cab3282	0.020898107
154	0x8000108c	-5.936e-42
155	0xbda0fa59	-0.0786025
156	0xbca04873	-0.019565796
157	0xbd7c1a21	-0.061548356
158	0x3c1f5f0e	0.009727253
159	0x3cd68087	0.026184333
160	0xa38b41c8	-1.509827e-17
161	0x80000e68	-5.168e-42
162	0xbd88bbd5	-0.06676451
163	0xbceb56f5	-0.028727988
164	0x3b6620dc	0.00351148
165	0xbd65c10a	-0.0560923
166	0xb84ed350	-4.9311027e-05
167	0x00003a23	2.0856e-41
168	0x04c2030d	4.5611983e-36
169	0xaec7d300	-9.0869534e-11
170	0x3da4c073	0.08044519
171	0x0725bf5a	1.2469454e-34
172	0x3e5220a2	0.20520261
173	0x3d9bbbbc	0.07604167
174	0x80001d0b	-1.0419e-41
175	0xbc6d5996	-0.014486691
176	0xbcbf4e34	-0.02335272
177	0xbcd009b2	-0.025395248
178	0xbe03529b	-0.1282448
179	0x05acfd4c	1.6267849e-35
180	0x3d185cc6	0.03719785
181	0x3dde020d	0.10840235
182	0x3d41e0d5	0.047333557
183	0x3e02e446	0.12782392
184	0xbd0573e1	-0.032581214
185	0x3cd628c3	0.026142484
186	0x00000d93	4.87e-42
187	0xbdb1a158	-0.08673352
188	0x3e3fa2d0	0.18714452
189	0xbd3e10c0	-0.046402693
190	0x3d4ef7bc	0.050529227
191	0x3c33c7d9	0.01097294
192	0x00006ccf	3.9033e-41
193	0x8000e99b	-8.3802e-41
194	0x9c79e198	-8.267876e-22
195	0x9f934361	-6.236839e-20
196	0x8000054a	-1.897e-42
197	0xa8a2504f	-1.8020441e-14
198	0x000002bb	9.8e-43
199	0x80000f57	-5.503e-42
200	0x32b39587	2.090634e-08
201	0x8000172b	-8.311e-42
202	0x000001f0	6.95e-43
203	0x0000c65b	7.1157e-41
204	0x20e10abe	3.812359e-19
205	0x00c9004e	1.8459044e-38
206	0x8000e434	-8.1864e-41
207	0x000003a4	1.306e-42
208	0x000008a0	3.094e-42
209	0xa6224580	-5.629923e-16
210	0x2decb844	2.6911924e-11
211	0x80004701	-2.5471e-41
212	0x9e0fa682	-7.60479e-21
213	0x0a5cae76	1.0625427e-32
214	0x25513422	1.8145524e-16
215	0x9a59c61e	-4.5034586e-23
216	0xa29bf9e3	-4.227741e-18
217	0xa7bd9bc8	-5.2626936e-15
218	0x00000418	1.469e-42
219	0x9cc8b64a	-1.328201e-21
220	0x2d1e6363	9.0033285e-12
221	0x8551141d	-9.830827e-36
222	0x9b18c2e2	-1.2636115e-22
223	0x800010ec	-6.07e-42
224	0x232921f1	9.168696e-18
225	0x80000c67	-4.449e-42
226	0x3db0de65	0.086361684
227	0xbda43a3c	-0.0801892
228	0x3bcde9f8	0.0062839948
229	0xbbf6b99a	-0.0075294496
230	0x3882de4f	6.240291e-05
231	0x80001434	-7.248e-42
232	0x86afe56c	-6.616479e-35
233	0xb41b19a1	-1.4444824e-07
234	0x3dd5afb4	0.10433903
235	0x07c79a5f	3.0032923e-34
236	0xbcb17c91	-0.021665843
237	0x3d76f015	0.060287554
238	0x000010dc	6.048e-42
239	0x3d2e0df5	0.04249378
240	0x3dca952c	0.098917335
241	0x3cd9e955	0.02660052
242	0x3d81d343	0.06339123
243	0x06b501c1	6.808721e-35
244	0xbb8d7f2d	-0.004318139
245	0x3dfcb275	0.123387255
246	0x3e930f00	0.28722382
247	0x3d2a72f9	0.041613553
248	0xbd48116c	-0.04884474
249	0xbd98de5c	-0.07464287
250	0x000003bf	1.344e-42
251	0x3b2752a5	0.0025531438
252	0x3e449195	0.1919616
253	0x3d981988	0.07426745
254	0x3c0a1a91	0.0084291855
255	0xbbf0107b	-0.0073261834

inception_blocks.0.conv_3x3.0.block.0.bias f4 [12]
0	0x37958147	1.7822384e-05
1	0x3867b51c	5.5243363e-05
2	0x38541ed3	5.0573446e-05
3	0xb876051c	-5.865573e-05
4	0xb85a9979	-5.2118183e-05
5	0xb8df8078	-0.00010657398
6	0x2cdca518	6.271105e-12
7	0x3852e8cc	5.028471e-05
8	0x3958c39f	0.0002067224
9	0x38e16288	0.00010747189
10	0x378bbbac	1.6657483e-05
11	0xb445bb4e	-1.8415196e-07

inception_blocks.0.conv_3x3.0.block.1.weight f4 [12]
0	0x3e5d060a	0.21584335
1	0x3e17750a	0.1479074
2	0x3e8026cf	0.2502961
3	0x3e20cf00	0.15703964
4	0x3ed3ddb5	0.41380087
5	0x3e56f86d	0.20993204
6	0x39e62055	0.00043893108
7	0x3e87ea81	0.265461
8	0x3e9bfdee	0.3046717
9	0x3ecbd7c7	0.39813063
10	0x3ee36f65	0.44420925
11	0x2f68d4b6	2.1175847e-10

inception_blocks.0.conv_3x3.0.block.1.bias f4 [12]
0	0xbce017c9	-0.027355092
1	0x3e119e3b	0.14220516
2	0xbcc51f7f	-0.02406287
3	0x3d95a960	0.07307696
4	0x3e49b9e4	0.19699818
5	0xbda9e3fe	-0.08295439
6	0xba364355	-0.0006952782
7	0xbdf73756	-0.12071101
8	0xbd238480	-0.039921284
9	0xbc047912	-0.008085506
10	0x3e0627eb	0.13101165
11	0xac9c15a1	-4.436188e-12

inception_blocks.0.conv_3x3.0.block.1.running_mean f4 [12]
0	0x3cef79f0	0.029232949
1	0xbde93876	-0.11387722
2	0xbe55f1bd	-0.20892997
3	0xbe144d2a	-0.14482561
4	0x3cb9f836	0.022701364
5	0x3d9f7b6a	0.07787211
6	0x2d70689e	1.366565e-11
7	0x3e269d93	0.16271047
8	0xbcbb539d	-0.022867018
9	0xbdfda8d9	-0.12385721
10	0x3cfdd312	0.030984435
11	0x31dcb797	6.4237144e-09

inception_blocks.0.conv_3x3.0.block.1.running_var f4 [12]
0	0x3d03f828	0.032219082
1	0x3cf1b52b	0.029505333
2	0x3c93a9bf	0.018025277
3	0x3c33908c	0.010959756
4	0x3d49d459	0.049274776
5	0x3b6e2cc2	0.0036342596
6	0x1b8b57ca	2.3052353e-22
7	0x3c0bea30	0.008539721
8	0x3c8aaabb	0.016927114
9	0x3d14d36f	0.03633445
10	0x3ceae3c0	0.028673053
11	0x0568c16a	1.0944112e-35

inception_blocks.0.conv_3x3.1.block.0.weight f4 [16, 12, 3, 3]
0	0xbd2bf174	-0.041978315
1	0x3c96528e	0.018349912
2	0x3c5a8e03	0.013339522
3	0xbaa49a46	-0.0012558184
4	0x3c8e41c8	0.017365351
5	0xba6152a0	-0.0008595381
6	0x3cd64ec6	0.026160609
7	0x3d5034c3	0.050831567
8	0x3ca26195	0.019821921
9	0xbc3af48a	-0.011410842
10	0xbbe22178	-0.0069009624
11	0x3c242f9b	0.010021116
12	0xbcb11e75	-0.021620968
13	0xbc859029	-0.016304092
14	0xbd2c6628	-0.04208961
15	0x3b817097	0.0039501893
16	0xbc01dbd6	-0.007925948
17	0xbce907dc	-0.02844613
18	0x3c8a27ff	0.016864775
19	0x3ce8a547	0.028399123
20	0xbd9c3591	-0.076274045
21	0xbd0e9e75	-0.034819085
22	0xbcead4e8	-0.028665975
23	0xbda76098	-0.08172721
24	0xbd035317	-0.032061663
25	0xbc44493a	-0.011980349
26	0xbd9e807d	-0.07739351
27	0x3a8157cf	0.0009868088
28	0x3cf49829	0.029857712
29	0xbd3b1df2	-0.045682855
30	0xbd64f187	-0.0558944
31	0x3d51968a	0.051168956
32	0xbda959cf	-0.08269083
33	0xbb9dd65f	-0.004816815
34	0x3ce7ac39	0.028280364
35	0xbd354819	-0.04425821
36	0xbdacb5a0	-0.0843308
37	0x3d4304df	0.047612067
38	0xba8e2cdf	-0.0010847113
39	0xbd01444b	-0.03155927
40	0x3d94e74b	0.07270678
41	0xbda8edf0	-0.08248508
42	0x39c8a15a	0.0003826719
43	0x3d9a6d32	0.075403586
44	0xbd80abdb	-0.06282779
45	0xbca58114	-0.02020315
46	0x3d8be532	0.06830825
47	0xbc2db6df	-0.010602682
48	0xbca76238	-0.020432577
49	0x3df024ec	0.11725792
50	0x3d315137	0.043290343
51	0xbcec615c	-0.028855018
52	0x3e22abb7	0.15885817
53	0x3b515f4c	0.003194767
54	0x000010a3	5.968e-42
55	0x00000cc3	4.578e-42
56	0x800005e3	-2.112e-42
57	0x0000091e	3.27e-42
58	0x80f2e35d	-2.2305753e-38
59	0x0044fba7	6.33509e-39
60	0x8005efda	-5.4522e-40
61	0x09c9226d	4.8421364e-33
62	0x0e0cf139	1.7372477e-30
63	0x3d277fa8	0.040893227
64	0x3d07c14b	0.033143323
65	0xbb4e2758	-0.0031456556
66	0x3c634085	0.013870363
67	0x3d96d0c7	0.0736404
68	0x3d1ced3a	0.038312174
69	0xbbbb77e0	-0.0057210773
70	0x3d4aab3f	0.04947972
71	0x3d18eccd	0.037335206
72	0xbd5d59fb	-0.05404089
73	0x3c1fec02	0.0097608585
74	0x3d5d99a1	0.05410159
75	0xbd22b007	-0.039718654
76	0x3ba9c74b	0.0051812283
77	0x3ce90218	0.028443381
78	0xbd731595	-0.059346754
79	0xbd5b9089	-0.053604636
80	0xbcb6c1ef	-0.022309272
81	0x3cf84760	0.030307472
82	0x3bdd1151	0.006746449
83	0x3c56fba2	0.013121517
84	0x3d827292	0.06369509
85	0xbcb92675	-0.022601346
86	0xbc35033c	-0.011048134
87	0xbc126b13	-0.008936661
88	0x3c95d74b	0.018291136
89	0x3d4ebb15	0.050471384
90	0xbd1f88c4	-0.03894879
91	0x3de4d42c	0.11173281
92	0xbced3dd6	-0.02896015
93	0xbd65806e	-0.056030683
94	0x3dea8af7	0.11452287
95	0xbcfc5879	-0.030803906
96	0xbda95c87	-0.08269601
97	0x3e0b5bf5	0.13609298
98	0x3c03fcfd	0.008055923
99	0x8000085c	-2.999e-42
100	0x000015ec	7.864e-42
101	0x800014ef	-7.51e-42
102	0x80000a4b	-3.692e-42
103	0x000003fe	1.432e-42
104	0x00001565	7.675e-42
105	0x00000a77	3.754e-42
106	0x00000be6	4.268e-42
107	0x80000b51	-4.06e-42
108	0x3c6108df	0.013735025
109	0xbcc4dad4	-0.024030127
110	0xbc826db4	-0.015921451
111	0xbd910ddc	-0.070827216
112	0xbdad1775	-0.0845174
113	0x3cb8591f	0.022503434
114	0x3dcde991	0.10054315
115	0x3c153712	0.009107368
116	0x3cf99c36	0.030469995
117	0xbcbea3d2	-0.023271475
118	0xbbfb2dea	-0.0076653855
119	0xbce24532	-0.027620886
120	0xbdec90c2	-0.11551048
121	0x3c646e32	0.013942288
122	0x3c204eb6	0.009784391
123	0x3e085e74	0.13317281
124	0x3dec47dc	0.115371436
125	0xbca5a371	-0.020219536
126	0xbdbcd88e	-0.09220992
127	0xbc2faee4	-0.0107228495
128	0xbbeb7368	-0.0071853884
129	0x3c15f5c6	0.009152835
130	0xbca9b7d5	-0.02071754
131	0xbde726c9	-0.112866946
132	0x3d3cc843	0.046089422
133	0x3d8d19be	0.068896756
134	0xbd327ac3	-0.043574106
135	0x3d0f528e	0.03499084
136	0xbd0c543e	-0.034260027
137	0xbda3b22a	-0.079929665
138	0x3c20edbf	0.009822308
139	0x3db230a1	0.087006815
140	0x3a897f9b	0.00104903
141	0xbb0f88f1	-0.0021901692
142	0x3cc0ede5	0.023550937
143	0xbd142781	-0.036170486
144	0xbc807839	-0.015682327
145	0xbe37287f	-0.17886542
146	0xbe7b0201	-0.24512483
147	0xbddf37e1	-0.1089933
148	0x3be6d6a5	0.0070446306
149	0x3d7e5fb9	0.062103007
150	0x3e67d01f	0.22637986
151	0x3d34324d	0.043993283
152	0xbc8cbe96	-0.017180722
153	0x3d68c79c	0.056830987
154	0x3c2ae322	0.010430129
155	0x3c82a199	0.015946196
156	0x3d8c8249	0.068607874
157	0xbd3e2886	-0.046425365
158	0x3cf804a2	0.030275647
159	0x3c18aa06	0.0093178805
160	0xbd633e48	-0.055479318
161	0x3d23dd37	0.04000589
162	0x93ef65fe	-6.0432654e-27
163	0x14efb2b5	2.420332e-26
164	0x160b5834	1.1256163e-25
165	0x8ca35a05	-2.5168305e-31
166	0x8fef3ed3	-2.3591419e-29
167	0x951a5b2f	-3.1171983e-26
168	0x000a2ac6	9.33699e-40
169	0x80000d2f	-4.73e-42
170	0x00285572	3.704072e-39
171	0xbd6a7588	-0.057240993
172	0xbdf2fc9e	-0.11864589
173	0xbd6f7177	-0.058457818
174	0xbd8f9bd1	-0.070121415
175	0xbc29e6fe	-0.010370014
176	0x3d6a886f	0.05725902
177	0xbd4ebfa9	-0.05047575
178	0x3d955667	0.072918706
179	0x3cb0a20b	0.021561643
180	0x3c55e8f1	0.013056026
181	0xbd404a06	-0.046945594
182	0xbd497555	-0.049184162
183	0xbd95ee05	-0.07320789
184	0xbd315da1	-0.043302182
185	0x3bdfb52d	0.0068270178
186	0xbddaa9fc	-0.10676953
187	0xbde7c29a	-0.11316414
188	0xbe1c1466	-0.15242156
189	0xbd1d5ddb	-0.038419586
190	0xbdf0d383	-0.11759093
191	0xbe097ead	-0.13427229
192	0xbd9411d3	-0.07229962
193	0xbe25094a	-0.16116825
194	0xbdd1ff65	-0.10253791
195	0x3d425a3f	0.047449347
196	0xbca9b7b6	-0.020717483
197	0x3d1bf42c	0.038074657
198	0x3db002f8	0.08594316
199	0xbb8e82a6	-0.0043490706
200	0xbe10cd25	-0.14140756
201	0x3d40f3c0	0.047107458
202	0x3d36507b	0.044510346
203	0x366ba214	3.511207e-06
204	0xbdbefc9d	-0.09325526
205	0xbdfe0af4	-0.12404433
206	0xbd9176c0	-0.07102728
207	0x00000d37	4.74e-42
208	0x0000044e	1.544e-42
209	0x80000c95	-4.514e-42
210	0x0000022a	7.76e-43
211	0x80000be5	-4.267e-42
212	0x00000db8	4.921e-42
213	0x0000125e	6.589e-42
214	0x00000fb3	5.632e-42
215	0x00001213	6.484e-42
216	0x399c1fc2	0.000297783
217	0xbc1d88ef	-0.009615167
218	0xbd3890f6	-0.04506012
219	0x3c9f0397	0.019410891
220	0xbc37553f	-0.011189758
221	0xbd26fe9c	-0.04077016
222	0x3dbdc163	0.09265401
223	0x3c20f8ab	0.009824912
224	0xbd0f8623	-0.035040032
225	0xbdf2c4db	-0.118539535
226	0xbe09ace0	-0.13444853
227	0xbdb7f812	-0.089828625
228	0xbd9fb3c7	-0.07797962
229	0xbd7881e1	-0.060670737
230	0xbd8b7bc5	-0.068107165
231	0xbcf6a70e	-0.030108955
232	0xbcaa8995	-0.020817557
233	0xbcfc422e	-0.030793276
234	0xbdf38a17	-0.11891573
235	0xbddec87c	-0.10878083
236	0xbe477884	-0.19479567
237	0xbcb16cac	-0.021658264
238	0x3c1cfb64	0.009581421
239	0xbd784252	-0.060610123
240	0xbd8294c4	-0.06376031
241	0x3bd20d2e	0.0064102625
242	0xbd62452c	-0.05524175
243	0xbddfbeea	-0.10925086
244	0xbca56591	-0.020190032
245	0xbdf5d1d9	-0.12002916
246	0xbcbb6f4e	-0.022880223
247	0x3d9a4db2	0.075343505
248	0xbd96bbf5	-0.07360069
249	0xbc783f1d	-0.015151766
250	0x3d9cda1c	0.076587886
251	0xbd415dea	-0.047208704
252	0xbc615afa	-0.013754601
253	0xbd323a26	-0.043512486
254	0xbe184279	-0.14869107
255	0xbc00e538	-0.00786715

inception_blocks.0.conv_3x3.1.block.0.bias f4 [16]
0	0xb9560f48	-0.00020414323
1	0xb910b8d0	-0.00013801758
2	0x38921311	6.965374e-05
3	0xb78ca5a3	-1.6766431e-05
4	0x3922a3db	0.00015510565
5	0xb04afc2c	-7.384553e-10
6	0xb60f469a	-2.1349756e-06
7	0x2f04f56b	1.209252e-10
8	0xb85da8eb	-5.2847823e-05
9	0xb86880fa	-5.543323e-05
10	0xb8debde6	-0.00010621156
11	0x380a4333	3.2964348e-05
12	0x33554fe0	4.9665573e-08
13	0xb7901724	-1.7176913e-05
14	0xb93a8906	-0.00017789387
15	0xb767b6c7	-1.3811229e-05

inception_blocks.0.conv_3x3.1.block.1.weight f4 [16]
0	0x3e389574	0.18025762
1	0x3ea33148	0.31873536
2	0x3ec8737f	0.39150617
3	0x3e4d7a19	0.20066108
4	0x3ec580fe	0.38574976
5	0x80000208	-7.29e-43
6	0x3cc8ad07	0.024496568
7	0x0000322b	1.7997e-41
8	0x3ec24efd	0.37950888
9	0x3c30f620	0.010800868
10	0x3e8fe3a2	0.28103358
11	0x3dddd075	0.10830776
12	0x3c58c0b1	0.013229535
13	0x3dec8450	0.11548674
14	0x3ec50c1c	0.384858
15	0x3eab7a86	0.33491915

inception_blocks.0.conv_3x3.1.block.1.bias f4 [16]
0	0x3c9c6976	0.019093256
1	0x3e74d57d	0.23909564
2	0x3e3a313c	0.18182844
3	0xbda7b534	-0.08188859
4	0x3b741b3a	0.0037247674
5	0x8000054f	-1.904e-42
6	0xbd2c3353	-0.042041134
7	0x0a28f903	8.13574e-33
8	0x3a9996a1	0.0011717865
9	0xbca3f184	-0.020012625
10	0x3e8f37ac	0.27972162
11	0x3d22efbe	0.039779417
12	0xbcc6ce53	-0.024268305
13	0xbd325251	-0.043535534
14	0x3dc52028	0.09625274
15	0x3d9b1835	0.075729765

inception_blocks.0.conv_3x3.1.block.1.running_mean f4 [16]
0	0xbc2a5ce0	-0.01039812
1	0xbe5c8f76	-0.21539101
2	0xbea96109	-0.33081844
3	0xbdc4afe5	-0.09603862
4	0x3d821b80	0.063529015
5	0x2ecbfcd0	9.27628e-11
6	0x3cee927e	0.029122587
7	0xacb58d80	-5.160039e-12
8	0x3c8e85b1	0.017397733
9	0xbc883091	-0.01662472
10	0x3e903a4f	0.28169486
11	0xbe2b4a49	-0.16727556
12	0xbc0969b8	-0.008387022
13	0x39f895df	0.0004741391
14	0xbed317cc	-0.41229093
15	0xbeb3e75f	-0.3513746

inception_blocks.0.conv_3x3.1.block.1.running_var f4 [16]
0	0x3c7777cf	0.015104248
1	0x3d92e9e2	0.07173516
2	0x3d8c1457	0.06839817
3	0x3d29fe3a	0.041502215
4	0x3d619714	0.05507572
5	0x09cccd72	4.9304413e-33
6	0x3b0908cf	0.0020909791
7	0x00000004	6e-45
8	0x3db2146c	0.086953014
9	0x3a1d448a	0.0005999288
10	0x3d1aaa64	0.037760153
11	0x3ca96b57	0.020681066
12	0x385b39a8	5.2267365e-05
13	0x3ca4eabe	0.020131465
14	0x3d9b615f	0.075869314
15	0x3d8a7595	0.06760708

inception_blocks.0.conv_5x5.0.block.0.weight f4 [4, 32, 1, 1]
0	0xb08ea472	-1.0378598e-09
1	0x9d22b270	-2.1532772e-21
2	0xbe4c7552	-0.19966629
3	0x3e0d902c	0.13824528
4	0xbbb6a89a	-0.005574298
5	0xbea1936c	-0.31557786
6	0xbba1ce7d	-0.0049379454
7	0x00001824	8.66e-42
8	0x85a69e44	-1.5668703e-35
9	0xba060fba	-0.0005114038
10	0x3d1ca450	0.038242638
11	0x05d9185b	2.0415529e-35
12	0x3dce6021	0.10076929
13	0xbde3d583	-0.111247085
14	0x0000134c	6.922e-42
15	0x3c52426f	0.012833222
16	0xbd36bac5	-0.04461171
17	0xbe60611a	-0.21912041
18	0xbd327dbc	-0.04357694
19	0x05e71873	2.1732117e-35
20	0xbc8beaa1	-0.017079653
21	0xbd7be3df	-0.06149661
22	0xbdeb0c06	-0.11476903
23	0xbe03c20e	-0.12866995
24	0xbde2cefe	-0.11074637
25	0x3e0f11ce	0.13971636
26	0x9a5633d6	-4.4296036e-23
27	0x3d5dc8d0	0.054146588
28	0x3c7ae181	0.015312553
29	0xbd788b36	-0.060679637
30	0xbdaee63f	-0.0854001
31	0x3d834bb7	0.06410926
32	0xac2b0d8a	-2.4308077e-12
33	0x80000db0	-4.91e-42
34	0xbb586568	-0.0033019427
35	0xbd1f92e1	-0.038958434
36	0x3b73c11b	0.0037193957
37	0x3d0abaef	0.03386968
38	0x3a46acb5	0.0007578836
39	0x0000386c	2.024e-41
40	0x86972db5	-5.686705e-35
41	0xb6e9421f	-6.9516386e-06
42	0xbc913964	-0.017727561
43	0x858c4ed6	-1.3194496e-35
44	0xbd022371	-0.03177208
45	0xbd4bc868	-0.04975167
46	0x000013bd	7.081e-42
47	0xbd259e51	-0.040434185
48	0xbdcb1185	-0.09915451
49	0xbe3b1461	-0.18269493
50	0x3e4ed652	0.20198944
51	0x069c1225	5.870734e-35
52	0x3e47be8d	0.19506283
53	0x3e2f8268	0.1713959
54	0xbdd9cca3	-0.106347345
55	0xbd37c7a0	-0.04486811
56	0x3dafe680	0.08588886
57	0xbd0cd5f9	-0.034383748
58	0x00003254	1.8054e-41
59	0xbbef3ec0	-0.0073011816
60	0x3d6b3893	0.057427
61	0xbd49c993	-0.0492645
62	0x3e8f60c6	0.2800352
63	0x3db13301	0.08652306
64	0xae2efe95	-3.9789134e-11
65	0x00000192	5.63e-43
66	0xbe492ac0	-0.19645214
67	0x3deaabe4	0.11458567
68	0xbb886c58	-0.004163306
69	0x3e536a5e	0.20646045
70	0xbb151ab4	-0.0022751512
71	0x8000084e	-2.979e-42
72	0x86c32fee	-7.3421274e-35
73	0xb7d4bb47	-2.5359577e-05
74	0x3d82b342	0.06381847
75	0x85e5022f	-2.1535859e-35
76	0xbd3b953f	-0.04579663
77	0x3df29707	0.118452124
78	0x00000ffb	5.733e-42
79	0x3da6dd58	0.08147687
80	0x3db04308	0.08606535
81	0x3d8b79c7	0.068103366
82	0xbe8b17d2	-0.2716661
83	0x8619e6be	-2.8945624e-35
84	0x3dc5372b	0.09629663
85	0x3bbb7b2c	0.0057214703
86	0x3e159a71	0.14609696
87	0xbdcc2954	-0.0996882
88	0x3dc6c3b8	0.09705299
89	0xbda1c83d	-0.078995205
90	0x001e955f	2.808649e-39
91	0xbdd79458	-0.10526341
92	0xbe451b4b	-0.19248693
93	0xbd8cc362	-0.06873204
94	0xbe39afd6	-0.18133482
95	0x3cd278f1	0.025692435
96	0xa9453db7	-4.3796316e-14
97	0x1afb5845	1.03953774e-22
98	0x3d6783c0	0.05652213
99	0xbe207075	-0.15667899
100	0x3b779722	0.003777929
101	0x3e5ac60c	0.21364611
102	0xbbb572c2	-0.005537362
103	0x00003460	1.8789e-41
104	0x867059a4	-4.520484e-35
105	0xb74bc4b3	-1.21455405e-05
106	0xbe1b35bf	-0.15157221
107	0x864971f5	-3.788762e-35
108	0xbe6a4b40	-0.22880268
109	0x3e089471	0.13337876
110	0x00000bbd	4.211e-42
111	0xbd84e8da	-0.064897254
112	0xbcb85340	-0.022500634
113	0x3d3fc01d	0.046814073
114	0x3e8f8102	0.28028113
115	0x86aaf94a	-6.431319e-35
116	0xbe3cf233	-0.18451767
117	0x3c62c566	0.013841009
118	0x3d874577	0.06605046
119	0x3df7f144	0.12106565
120	0x3d798979	0.06092212
121	0xbdbebb39	-0.09313054
122	0x963c136f	-1.5192651e-25
123	0xbdd63e6b	-0.10461124
124	0x3d5db56c	0.054128096
125	0x3ccc96c8	0.024974242
126	0x3da1bf0a	0.07897766
127	0xbd55e49d	-0.052219976

inception_blocks.0.conv_5x5.0.block.0.bias f4 [4]
0	0xb90f4c6b	-0.0001366601
1	0x38e5c946	0.00010957061
2	0xb7dff340	-2.6696944e-05
3	0x392d5d31	0.00016533282

inception_blocks.0.conv_5x5.0.block.1.weight f4 [4]
0	0x3ede2cc5	0.4339353
1	0x3e89114a	0.26771003
2	0x3ed1d7c8	0.4098494
3	0x3eb51758	0.35369372

inception_blocks.0.conv_5x5.0.block.1.bias f4 [4]
0	0x3ea7c089	0.3276408
1	0x3d00a72b	0.031409424
2	0x3e8cd813	0.27508602
3	0xbd125ffa	-0.03573606

inception_blocks.0.conv_5x5.0.block.1.running_mean f4 [4]
0	0xbe4cf356	-0.200147
1	0x3e0a77d9	0.13522281
2	0xbd56d9fa	-0.052453972
3	0x3e22dee5	0.1590534

inception_blocks.0.conv_5x5.0.block.1.running_var f4 [4]
0	0x3d6357ef	0.055503782
1	0x3cdfdb5f	0.027326284
2	0x3dc0b1c4	0.09408906
3	0x3cc5fc6e	0.02416822

inception_blocks.0.conv_5x5.1.block.0.weight f4 [4, 4, 5, 5]
0	0xbdbd92c8	-0.09256512
1	0x3c91c9f6	0.017796498
2	0x3c4ecd60	0.012622207
3	0xbdf017a9	-0.11723263
4	0xbe80badf	-0.2514257
5	0xbbf337e8	-0.007422436
6	0x3e06037c	0.13087267
7	0x3ce40f34	0.02783928
8	0xbd98eb94	-0.07466808
9	0xbd84672c	-0.06464991
10	0xbd029aac	-0.031885788
11	0x3d8730f6	0.066011354
12	0xbdc37e0b	-0.09545525
13	0xbcd276da	-0.025691438
14	0xbd0db02d	-0.034591842
15	0xbe10d741	-0.14144613
16	0xbe064d31	-0.13115384
17	0x3d1e3b7a	0.03863094
18	0x3e264d09	0.16240324
19	0x3dffc31a	0.124883845
20	0xbe8aa668	-0.27080083
21	0xbe4cd700	-0.20003891
22	0x3d4be425	0.049778122
23	0x3e5883b2	0.21143988
24	0x3e505285	0.20343979
25	0x3b31b229	0.0027114248
26	0x3cbd999c	0.023144536
27	0x3dc40049	0.09570367
28	0x3d011e8c	0.031523272
29	0xbc2b6904	-0.010462049
30	0xbc9ea863	-0.019367402
31	0xbd65e283	-0.05612422
32	0x3cb5a019	0.022171067
33	0x3ac71db0	0.0015191343
34	0xbb1a317a	-0.0023528025
35	0xbe1b2fe4	-0.15154988
36	0xbdcb1683	-0.09916403
37	0x3d870406	0.06592564
38	0x3dba0fcb	0.090850435
39	0x3c968263	0.01837272
40	0xbdb86ef0	-0.09005535
41	0xbd810911	-0.063005574
42	0x3db18860	0.086685896
43	0x3dcd899b	0.10036012
44	0xbbc1e7bd	-0.005917518
45	0x3d2711c6	0.040788434
46	0xbb3a6218	-0.0028439816
47	0x3e1e7709	0.15475096
48	0x3d8107a4	0.063002855
49	0x3d1d34f7	0.03838059
50	0x3e00b2ba	0.12568179
51	0x3e0d0fb8	0.13775527
52	0x3d3ac35e	0.045596473
53	0x3d8b2517	0.06794184
54	0x3d5c6887	0.053810623
55	0x3c7938a6	0.01521126
56	0x3db0214a	0.086000994
57	0x3dc2206e	0.09478842
58	0x3d4c808e	0.049927287
59	0x3d5f00a6	0.054443978
60	0xbd8aa416	-0.06769578
61	0x3d3d926c	0.046282217
62	0x3c714d37	0.014727882
63	0x3b52ef68	0.0032186154
64	0x3d9fc4d0	0.07801211
65	0x3e515236	0.20441517
66	0x3e875503	0.26432046
67	0x3dd55070	0.10415733
68	0xbceeedd3	-0.029166138
69	0xbd81d399	-0.06339187
70	0x3e33f2ca	0.17573085
71	0x3e1c9690	0.1529181
72	0x3cc4120e	0.02393439
73	0xbd822f86	-0.063567206
74	0xbe1933a8	-0.14961112
75	0x3e1669f0	0.1468885
76	0x3de0a69d	0.10969279
77	0x3d6f1347	0.058367994
78	0x3ca76a30	0.020436376
79	0x3c18a552	0.009316759
80	0x3cd94db4	0.02652631
81	0x3d0abadf	0.03386962
82	0xbcc8f61c	-0.024531417
83	0xbc9c29ea	-0.019062955
84	0xbd1b8c2a	-0.037975468
85	0x3c0d2c47	0.008616514
86	0x3d84e185	0.06488327
87	0x3d616222	0.055025227
88	0x3c365972	0.011129724
89	0x3d943af9	0.07237811
90	0x3d913dae	0.070918426
91	0x3e2f92d4	0.17145854
92	0xbd9e1f12	-0.0772077
93	0xbddb6509	-0.1071263
94	0x3de46892	0.11152758
95	0x3ead195d	0.33808413
96	0x3e8354d9	0.2565067
97	0xbd94d21c	-0.07266638
98	0xbe68acae	-0.22722122
99	0xbd517229	-0.051134262
100	0x3c827f87	0.01592995
101	0x3c8afcc2	0.016966227
102	0x3d27f253	0.041002583
103	0x3e0e1dda	0.13878575
104	0x3e0708de	0.13186976
105	0xbaa1f6cd	-0.0012356878
106	0x3cc03246	0.023461472
107	0x3db47920	0.08812165
108	0x3dad5791	0.084639676
109	0x3d17956b	0.03700773
110	0x3d756257	0.059908237
111	0x3dcf90ad	0.101350166
112	0x3da01457	0.078163795
113	0x3dd74d50	0.10512793
114	0x3dc10323	0.094244264
115	0x3d9be0ea	0.07611258
116	0x3d803f42	0.062620655
117	0x3d7a5ff8	0.06112668
118	0x3dac0c9a	0.08400841
119	0x3d6cfa49	0.057855878
120	0xbd660d38	-0.05616495
121	0xbe042d3a	-0.12907878
122	0xbe141c6e	-0.1446397
123	0xbe0eadbe	-0.13933465
124	0xbdff964e	-0.1247984
125	0x3db774c0	0.08957815
126	0x3d4d3d82	0.050107487
127	0x3cf5ede5	0.030020664
128	0x3af4e8c4	0.0018685092
129	0x3d06d2ba	0.03291581
130	0x3d581410	0.052753508
131	0x3c2ac966	0.010423994
132	0xbcbed8c5	-0.023296723
133	0xbd23c3c9	-0.039981637
134	0xbd0c5b9a	-0.034267046
135	0x3d53c092	0.05169732
136	0xba3cc35e	-0.0007200743
137	0x3b2d6082	0.0026455228
138	0x39ace1ad	0.00032974538
139	0x3d3ae1a3	0.04562534
140	0x3c0300a0	0.0079957545
141	0xbd0f6ade	-0.035014026
142	0xbc0176d0	-0.007901862
143	0xbc009028	-0.0078468695
144	0x3da61b85	0.08110718
145	0x3da8d227	0.082432084
146	0xbbb3b9b7	-0.0054847854
147	0x3d25a01a	0.040435888
148	0x3c5217fb	0.0128231
149	0x3c471269	0.012150385
150	0xbd51170f	-0.05104738
151	0xbdb80b6e	-0.08986555
152	0xbdea983e	-0.11454819
153	0xbdacd6c0	-0.08439398
154	0xbd8ce8d4	-0.06880346
155	0x3c76f16d	0.015072209
156	0xbd69345a	-0.056934692
157	0xbdf13e5f	-0.117794745
158	0xbda5ff04	-0.08105281
159	0xbbf5c4da	-0.007500273
160	0x3d088ba3	0.033336293
161	0xbd5d2559	-0.053990696
162	0xbe167be1	-0.14695694
163	0xbe19a157	-0.15002953
164	0xbdb27b55	-0.0871493
165	0xbc8a7cf6	-0.01690529
166	0xbd192fab	-0.037398975
167	0xbddff984	-0.10936263
168	0xbdaf000e	-0.08544932
169	0xbb7f2c2d	-0.0038936243
170	0x3d445c8b	0.04793982
171	0x3dbf137b	0.093298875
172	0x3e0d92f5	0.13825591
173	0x3e28fbba	0.16502276
174	0x3e01793b	0.12643902
175	0xbda97cc9	-0.08275754
176	0xbcd9f23c	-0.026604764
177	0x3b302707	0.002687873
178	0xbd874cd8	-0.06606454
179	0xbcef3280	-0.029198885
180	0xbd01c299	-0.031679723
181	0xb97490a7	-0.0002332354
182	0xbb1a90bc	-0.0023584804
183	0xbcda439f	-0.026643572
184	0x3d0c69f0	0.034280717
185	0xbca2c63f	-0.019869922
186	0xbc9a1a8b	-0.018811485
187	0xbcfa1a4c	-0.030530117
188	0xbd3f907a	-0.046768643
189	0x3d421de7	0.0473918
190	0x3d4fb102	0.050705917
191	0xbca9bd42	-0.020720128
192	0xbd6ad751	-0.057334248
193	0xbde20995	-0.11036984
194	0xbbd2dc82	-0.006434978
195	0x3d8cf535	0.06882707
196	0x3d32903c	0.043594584
197	0x3cab5892	0.020916257
198	0xbc407d4a	-0.011748621
199	0x3d9d7315	0.07687966
200	0xbcb9ec2a	-0.02269562
201	0x3b4ddabe	0.0031410898
202	0x3d610afa	0.05494211
203	0x3ccdb40c	0.025110267
204	0x3d384443	0.044986974
205	0xbda6f2df	-0.08151793
206	0xbd842a32	-0.064533606
207	0x3cb0c50d	0.021578336
208	0x3bb89011	0.0056324084
209	0x3d6939a7	0.056939747
210	0xbd3bd5c4	-0.04585816
211	0xbd8908a8	-0.06691104
212	0x3dde681d	0.10859702
213	0x3de158c5	0.110032596
214	0x3e03a06d	0.12854166
215	0xbbc28e3c	-0.005937366
216	0xbcfbb852	-0.03072754
217	0x3dc38988	0.095477164
218	0x3d4b24a3	0.049595486
219	0x3dd9ea84	0.106404334
220	0x3d0e2f96	0.03471335
221	0x3d1d2b05	0.038371105
222	0x3deac5f0	0.11463535
223	0x3d7adda1	0.061246518
224	0x3e12fd4a	0.14354435
225	0x3de2a68a	0.11066921
226	0x3e31b9bc	0.17356008
227	0x3de345c7	0.11097293
228	0x3d9f49fd	0.07777784
229	0x3b9c78cb	0.004775142
230	0x3b82dc16	0.0039935214
231	0x3d9cb054	0.076508194
232	0xbccbcce9	-0.024877982
233	0xbce836fd	-0.028346533
234	0xbe157097	-0.14593731
235	0xbc13e589	-0.009026893
236	0x3c86a666	0.016436767
237	0xbb8ebf9b	-0.0043563372
238	0x3d0ebac9	0.0348461
239	0x3ca21db0	0.019789547
240	0xbdda3041	-0.10653735
241	0xbcb48c0a	-0.022039432
242	0xbdd31857	-0.10307377
243	0xbc220316	-0.009888431
244	0x3c820190	0.015869886
245	0xbe0428d3	-0.12906198
246	0xbc4eaa96	-0.012613913
247	0xbe3148ec	-0.17312974
248	0xbde9d3ba	-0.11417337
249	0xbd88fa8f	-0.06688415
250	0xbd25fb19	-0.04052267
251	0x3c2c4f91	0.010517017
252	0x3d5e19df	0.05422389
253	0x3da182ac	0.07886252
254	0x3d8db6e7	0.069196515
255	0xbdd420e0	-0.10357833

inception_blocks.0.conv_5x5.1.block.0.bias f4 [4]
0	0xb788d247	-1.6310381e-05
1	0xb87fbbd2	-6.097166e-05
2	0xb894467e	-7.07032e-05
3	0x37cf6119	2.4721538e-05

inception_blocks.0.conv_5x5.1.block.1.weight f4 [4]
0	0x3f031602	0.51205456
1	0x3ec821a6	0.39088172
2	0x3f11f1cf	0.57009596
3	0x3ef15a38	0.47139144

inception_blocks.0.conv_5x5.1.block.1.bias f4 [4]
0	0x3e4ae782	0.19814876
1	0x3dd1cc8b	0.102440916
2	0xbd5e82ba	-0.05432389
3	0x3e3a7ecf	0.18212436

inception_blocks.0.conv_5x5.1.block.1.running_mean f4 [4]
0	0x3eb66888	0.35626626
1	0x3d5f52ad	0.054522205
2	0xbe8275d4	-0.2548052
3	0x3d0ec35b	0.034854274

inception_blocks.0.conv_5x5.1.block.1.running_var f4 [4]
0	0x3e30415b	0.17212431
1	0x3e311b7a	0.17295638
2	0x3e8c9a42	0.2746144
3	0x3e4138a9	0.1886927
