models/inception/Inception1_Adam_32_lr0.001_wd0.001/Inception1_Adam_32_lr0.001_wd0.001.pth (torch, 823647 bytes, 262 tensors)

input_net.block.0.weight f4 [32, 1, 3, 3]
00000000: 9618 0000 000a 0000 ba16 0000 3c0d 0000
00000010: f507 0080 6b0d 0080 471a 0080 581b 0080
00000020: 3102 0000 3f13 0000 8a13 0000 b201 0000
00000030: 4c1a 0000 762c 0080 ef0c 0000 2816 0080
00000040: dc0c 0080 ee06 0080 065e 0080 563b 0080
00000050: ad30 0000 4906 0000 8907 0000 d0b8 0080
00000060: cf7f 0000 354a 0080 8b3c 0000 d3f5 9f3d
00000070: a018 1e3e d275 d3bc 64bc 5a3d 96d2 5bbe
00000080: 9629 c8be af06 483e efe2 a1bc f12b 863d
00000090: 4102 0000 7209 0080 6069 0080 053a 0000
000000a0: cb3d 0000 d446 0000 5620 0000 850d 0000
000000b0: 4822 0080 5f7d 773d 134d edbe fdcd f1be
000000c0: f8e0 6f3e 43d1 3bbd 3ec4 d83a 9ad1 963d
000000d0: afdd 1f3e 28e2 953e dc61 3ea3 74c1 2818
000000e0: fd3b 8928 cadc a82e 459a 832a 41fa 9529
000000f0: 591f ff34 36d8 8135 7988 6b34 7bad 4db9
00000100: eaac afb8 a0dc 4fba cd65 cdb9 bb64 d3b9
00000110: ada6 80ba b567 463a 9807 4c38 e5fc aeba
00000120: 6f3c 0080 3923 0080 c02d 0080 8906 0080
00000130: 0514 0000 4222 0000 a320 0000 4914 0080
00000140: 152f 0000 d60a 0000 2503 0000 870b 0000
00000150: 4702 0000 ad0b 0080 4b07 0080 bc12 0000
00000160: 2913 0000 ad00 0080 3dc6 b53b acc4 973c
00000170: e64b 213d 45fa 0a3c c8a8 143c 3548 cb3c
00000180: 0220 b939 a824 81bb 1c51 2bbc 641a 0080
00000190: e927 0080 bd06 0000 020e 0000 fc1b 0080
000001a0: 9214 0000 6908 0080 2111 0000 3617 0080
000001b0: d047 963e 97ba 60be a3e0 4abd 31e2 603e
000001c0: 882a ddbd 4531 88be 8da1 193e 0096 313b
000001d0: fef9 7cbe 285f 0000 36f8 0000 dee0 0000
000001e0: 5db8 0000 10d7 0000 b96e 0000 8049 0000
000001f0: 89a2 0080 272e 0100 8750 0000 9c26 0000
00000200: 995d 0080 f34e 0000 3347 0080 2648 0000
00000210: ba41 0000 c350 0080 e822 0080 9722 4c34
00000220: 4db8 2d34 4b1c 4c33 a160 6233 4db6 5833
00000230: 232a b231 ea45 1db5 ae16 99b5 1c73 b635
00000240: 6e0b a3bd 1608 95bc 530a 42bd b625 39be
00000250: e2e9 a0bd aaef dd3c 7a74 063d 4cf6 9b3b
00000260: b1a9 233e fb50 c83d 6d22 05be ad69 8fbe
00000270: dba1 a13b db6e 8a3d d922 d43d 02c1 53be
00000280: 7a52 7d3e 0006 943e da49 82be 0274 683e
00000290: 7be9 2e3e 93ff 753d 420e b33e e138 613e
000002a0: 9852 b1be a7f9 85bd eb86 b1be 4c0f 0080
000002b0: dd18 0080 2611 0080 3d17 0080 b21b 0000
000002c0: 3b18 0080 d409 0080 8106 0080 fe18 0080
000002d0: 38d3 aebe 2f80 9fbd 3983 983e ead5 adbd
000002e0: 131a 7b3d eb06 a4bd 6f71 913e 971c 2d3e
000002f0: fc68 d6bd 6d66 143d 9b5b 003e d044 833e
00000300: 0c02 8a3b ba85 59be b7b0 4cbd 46d6 a2be
00000310: e43a 8fbe 76e6 ff3d 0a8c 9dbe 5291 67be
00000320: f83e 7b3e fd85 f9bd d732 1dbe 20ca 823b
00000330: b4da 1cbe fb92 943d d780 1d3e 95f4 ac3e
00000340: 9662 aebe 48f2 78be 3e64 423e 9b92 2abb
00000350: 8399 9c3e 6b52 84be c7fb 043d cd79 65bb
00000360: dbf1 febc 9398 cd3b 77c2 c1be f5fd 71bd
00000370: db89 9dbd 7edd ccbe d687 b03e 65c4 b33e
00000380: 9167 efbd 6cbc ae3e 3997 ae3d 7927 923d
00000390: b04f f83d 9756 90bd 94f0 0bbe f09b 873d
000003a0: 2bb4 19be 8995 00bb eda0 972d ba3a c92d
000003b0: 98c8 142e 397b 9d2d 3dfb b02d a8c8 142e
000003c0: 2c01 e62d be91 d62d 7ed8 ca2d 3406 0000
000003d0: de0c 0000 450c 0080 f402 0080 0904 0000
000003e0: 8911 0000 af02 0000 5d13 0000 2009 0080
000003f0: d2c4 953e 7798 e5bd 1bba 5c3e c712 53bd
8.82e-42 3.587e-42 8.153e-42 4.748e-42 -2.854e-42 -4.813e-42 -9.427e-42 -9.809e-42
7.86e-43 6.904e-42 7.009e-42 6.08e-43 9.434e-42 -1.595e-41 4.64e-42 -7.948e-42
-4.613e-42 -2.486e-42 -3.3729e-41 -2.1286e-41 1.7462e-41 2.255e-42 2.703e-42 -6.6298e-41
4.5849e-41 -2.662e-41 2.1719e-41 0.07810559 0.15439081 -0.025813017 0.05340232 -0.21467051
-0.39094228 0.195338 -0.01976153 0.0655135 8.09e-43 -3.388e-42 -3.7801e-41 2.0813e-41
2.2167e-41 2.5408e-41 1.16e-41 4.85e-42 -1.2298e-41 0.060422298 -0.46347865 -0.4722747
0.23425663 -0.045853864 0.0016537977 0.07364197 0.1561191 0.29274106 -1.0320643e-17 2.181116e-24
1.5236071e-14 7.6789755e-11 2.337732e-13 6.6603414e-14 4.752026e-07 9.674175e-07 2.1935729e-07 -0.0001961495
-8.376858e-05 -0.0007929299 -0.00039176494 -0.00040320106 -0.0009815298 0.0007568554 4.8644462e-05 -0.0013350515
-2.168e-41 -1.2636e-41 -1.6412e-41 -2.344e-42 7.182e-42 1.229e-41 1.1708e-41 -7.277e-42
1.689e-41 3.887e-42 1.128e-42 4.135e-42 8.17e-43 -4.188e-42 -2.616e-42 6.72e-42
6.873e-42 -2.42e-43 0.0055473135 0.018526398 0.039379023 0.0084825205 0.009073444 0.024814704
0.00035309797 -0.0039411373 -0.01045635 -9.467e-42 -1.4317e-41 2.417e-42 5.025e-42 -1.0039e-41
7.379e-42 -3.017e-42 6.145e-42 -8.327e-42 0.29351664 -0.21946178 -0.049530637 0.21961285
-0.10799128 -0.2660009 0.15003033 0.0027097464 -0.2470474 3.4136e-41 8.9041e-41 8.0667e-41
6.6137e-41 7.715e-41 3.972e-41 2.6367e-41 -5.8307e-41 1.08392e-40 2.8888e-41 1.385e-41
-3.3577e-41 2.8322e-41 -2.5541e-41 2.5882e-41 2.3578e-41 -2.8972e-41 -1.2522e-41 1.9011564e-07
1.6178929e-07 4.7523184e-08 5.270761e-08 5.045722e-08 5.185272e-09 -5.8588796e-07 -1.1405989e-06 1.3593558e-06
-0.079611644 -0.018192332 -0.047373127 -0.18080792 -0.078571096 0.02709182 0.032825924 0.0047595855
0.15982701 0.09781071 -0.13001414 -0.28010312 0.0049326248 0.06759425 0.10358209 -0.20679095
0.24738494 0.28910828 -0.2544697 0.22700503 0.17081253 0.060058188 0.34971815 0.21994354
-0.34633327 -0.06541758 -0.34673247 -5.487e-42 -8.919e-42 -6.152e-42 -8.336e-42 9.935e-42
-8.692e-42 -3.526e-42 -2.333e-42 -8.966e-42 -0.34145522 -0.07788121 0.29787615 -0.084880665
0.061304163 -0.08009132 0.28406855 0.16905437 -0.10469243 0.036230493 0.12534945 0.25638437
0.00421167 -0.21242419 -0.049973216 -0.31804103 -0.27974617 0.12495129 -0.30770904 -0.22614029
0.2453574 -0.12183759 -0.15351425 0.0039913803 -0.15317804 0.07254597 0.1538118 0.3378035
-0.3405959 -0.24311173 0.18983552 -0.0026027325 0.3058587 -0.2584413 0.032466676 -0.0035015226
-0.031121185 0.006274292 -0.37843677 -0.059080083 -0.076923095 -0.40012735 0.34478635 0.35110775
-0.116896756 0.3412813 0.08524937 0.07136435 0.12124574 -0.07047766 -0.13665992 0.066215396
-0.15010135 -0.001962038 1.7238178e-11 2.2877134e-11 3.3829467e-11 1.7903555e-11 2.0120456e-11 3.3829523e-11
2.6148493e-11 2.4393706e-11 2.3060883e-11 2.225e-42 4.616e-42 -4.401e-42 -1.06e-42 1.448e-42
6.29e-42 9.63e-43 6.946e-42 -3.273e-42 0.29251724 -0.11210721 0.21555369 -0.05153158

input_net.block.0.bias f4 [32]
00000000: df6c a7b3 33a2 75b5 38ee 8629 655b 9d38
00000010: 87dd b137 aab9 cc38 ccce ee2a c78c fbb6
00000020: 8519 0fa8 fada 4aaa 69b6 47b0 f42e fb37
00000030: 879b 3eb9 48ff a3b3 91ed 78b2 58ff 9334
00000040: 7d51 6c37 619b 9f38 7309 2638 9c36 6d38
00000050: e073 9c39 1943 f537 27b9 64b8 0f93 6fb8
00000060: dcff da38 889c 6fb8 5c29 bb2a 247f d733
00000070: 26fa 94b9 3ffb 7535 44e0 7338 4e67 c0ad
-7.796347e-08 -9.1505643e-07 5.99212e-14 7.503367e-05 2.1203201e-05 9.762061e-05 4.2420787e-13 -7.4967716e-06
-7.943628e-15 -1.8017177e-13 -7.2655e-10 2.9943396e-05 -0.0001817775 -7.6367144e-08 -1.4489516e-08 2.756667e-07
1.4085669e-05 7.6106524e-05 3.9586284e-05 5.6556062e-05 0.00029840972 2.923752e-05 -5.4531873e-05 -5.7119e-05
0.000104427076 -5.712782e-05 3.3246572e-13 1.00348444e-07 -0.00028415135 9.1635223e-07 5.814458e-05 -2.187375e-11

input_net.block.1.weight f4 [32]
00000000: e205 0080 0d0e 0000 fb4b 8085 233e 353e
00000010: ba2e 0000 7a2b c63e 9797 acba 50d0 003d
00000020: 4d0b 0000 8bd3 2933 ebfb 563c 8ba3 14a6
00000030: 0189 b33e c307 0000 c210 0000 bdea 0e3b
00000040: 394b b23d a625 9c3e 9130 c73e 9762 59a6
00000050: 5fbc 8e3e 4e2b 923e 5f89 c23e 6346 423e
00000060: 101d dd3e e535 2e3e ea99 3239 e582 c02c
00000070: 4551 283e 3eb8 97ba 1b3b 903e 710e 0000
-2.11e-42 5.04e-42 -1.2064973e-35 0.17699485 1.6762e-41 0.38705045 -0.0013167736 0.031448662
4.054e-42 3.9540776e-08 0.013121585 -5.1569457e-16 0.35065463 2.784e-42 6.012e-42 0.0021807395
0.08705754 0.30497473 0.3890424 -7.5420613e-16 0.2787809 0.28548664 0.3799543 0.18972163
0.43186235 0.17012747 0.0001703274 5.4715004e-12 0.16437252 -0.0011575294 0.28170094 5.18e-42

input_net.block.1.bias f4 [32]
00000000: 931f 3f96 232a 7c8e 862a 5aa3 c845 c63c
00000010: 9862 269d b05a 9d3e 3e21 09bb a679 21bd
00000020: ee33 fd10 aeba 00ae feef 8fbd 6a54 838b
00000030: 88e5 fb3d 1781 082d ab19 6d94 3c57 bcbb
00000040: adb5 23bc 85a2 853c 658f 9d3e a36e 30a8
00000050: fc13 12be 3b91 6c3d d6e9 253e f696 5d3d
00000060: f238 043e 7869 fe3d 0d54 44a5 7745 3ca3
00000070: a64f 663d 65bf eb3c d730 a83d 37a6 0190
-1.543882e-25 -3.1081686e-30 -1.1826808e-17 0.024203196 -2.2020889e-21 0.30733252 -0.0020924355 -0.039422654
9.9870915e-29 -2.9269635e-11 -0.07028197 -5.0586377e-32 0.12299639 7.759369e-12 -1.1970504e-26 -0.005747704
-0.009992045 0.016312847 0.30773464 -9.793953e-15 -0.14265436 0.05775569 0.16202483 0.054099046
0.12912348 0.1242246 -1.7028768e-16 -1.020621e-17 0.056228302 0.028777787 0.082124405 -2.556881e-29

input_net.block.1.running_mean f4 [32]
00000000: 09e5 6432 13fe 6c33 ec47 54a7 9c35 26bb
00000010: 599f b1b5 2999 06bb c87d 65b1 a903 1eb7
00000020: 1cb9 ed25 5028 3428 1c2c d339 13be 1eb6
00000030: ea24 e0b8 5277 a932 e1dd 66af bad9 41b2
00000040: 6311 0bbb ed7f 02ba 3c76 a13b 3a6f 28b6
00000050: 54ca d0ba 0383 fa38 c2e7 3abb 5129 1f3b
00000060: 7fdc 8ebb bca2 aa3a 0474 94a8 2cff cdb1
00000070: 8dd1 d73a bd08 01ba 6af6 cc3a 6b85 352c
1.3323423e-08 5.517911e-08 -2.94599e-15 -0.0025361544 -1.3233904e-06 -0.0020538068 -3.3395384e-09 -9.418386e-06
4.1238381e-16 1.0000749e-14 0.0004027792 -2.3654472e-06 -0.00010688028 1.972845e-08 -2.0997205e-10 -1.1283584e-08
-0.002122008 -0.0004978169 0.0049274247 -2.5098693e-06 -0.0015929439 0.00011945332 -0.0028519486 0.00242861
-0.0043597813 0.0013018469 -1.6481615e-14 -5.995295e-09 0.0016465649 -0.00049222616 0.0015637402 2.5795709e-12

input_net.block.1.running_var f4 [32]
00000000: 0400 0000 0400 0000 3703 0000 b813 0d3d
00000010: 0400 0000 979a 393e 366b 5b2c 4b86 4c37
00000020: 3700 0000 0400 0000 c07a 0c3c 72cd cc17
00000030: 4fbb 5b3d 0400 0000 0400 0000 b1c2 2a2a
00000040: 4a97 3c3d 1ec0 963d 983e b63d 0400 0000
00000050: ae31 163d 6942 1d3e 635e 7f3e 69af 933c
00000060: 1536 633e 003b f03d d1cc 0000 0400 0000
00000070: 91d5 783d 6180 273d 5e11 583e 72cd cc04
6e-45 6e-45 1.153e-42 0.034442633 6e-45 0.18125378 3.1181286e-12 1.2190615e-05
7.7e-44 6e-45 0.008574188 1.3235053e-24 0.05364543 6e-45 6e-45 1.516658e-13
0.046042718 0.07360862 0.088986576 6e-45 0.036668472 0.15357365 0.2493835 0.018027978
0.221886 0.11730003 7.3474e-41 6e-45 0.060750548 0.040893916 0.21100375 4.814884e-36

inception_blocks.0.conv_1x1.block.0.weight f4 [8, 32, 1, 1]
00000000: 6472 970f 3b13 b806 0cbd 1c1b 32cc 42be
00000010: c2c2 3d92 f5bc 2bbd 0a06 0db8 763c b93c
00000020: 0e0f 8a0d b695 0e95 9403 7bbb 597e d80e
00000030: 25cb 06be ec5d 322a 2d37 0b90 7634 1139
00000040: 4f84 e9bb e821 b6bd df64 ba3d 2613 0080
00000050: a8ce ad3d 49d9 0bbe de06 c23d f5aa 083d
00000060: 434e babe f928 71be e6e5 052c 8104 0080
00000070: f1ff a83d 0926 793d 8896 3ebe e42b 9685
00000080: 9ee8 b711 cb64 9186 1625 969a 6743 4ebd
00000090: 7614 2391 3d48 a03d 154f 8638 6f67 dfba
000000a0: 41b2 830e a0a5 170d 1764 68bc 5bec f80e
000000b0: bc2d a13c afbb 7d28 5831 4790 7959 d4b7
000000c0: 31d2 4abd a857 183e 2cd7 e2bd ff12 0080
000000d0: cda1 72be 6e68 8abb dbf4 08bd 7e56 913e
000000e0: 627b 62be 930e 953d 37ae 91a1 500c 0080
000000f0: b5ed 9d3d 1f11 233d 71a2 1cbd f802 c184
00000100: b1c5 112b 1ea5 6b33 7812 8736 5378 2738
00000110: 180c b334 7f09 2639 1dea 8bab f8a5 7f33
00000120: f9b7 11b4 e862 3233 52fd 1f2b c8f2 df34
00000130: e818 1638 8773 be32 a1a8 1031 3d16 0000
00000140: 0006 0000 6ecd a73a 2d65 b537 8d5c e6b6
00000150: abaf a739 ae9f 8a34 947a a4b6 c280 ec36
00000160: 89cd ca37 7538 1138 318f 8730 fd23 b234
00000170: 22f0 30b3 c5ab 07aa 06f6 a436 bb2e 042a
00000180: 596b 3b33 6927 2c37 7b80 15b5 0418 c3a7
00000190: 7bf1 acaf 60b6 0029 b2fe 8832 6560 f838
000001a0: cd83 1eae 73c2 8630 298f b130 1d5e 9131
000001b0: a408 2f29 8862 59b1 f87a 832f 686d b32f
000001c0: 8642 9427 3187 a826 023d f4a8 8f47 542e
000001d0: 3718 8028 0a8c ca27 3972 04a7 fd15 e827
000001e0: 5c6f 8e28 c1a1 dda6 52ba a3b1 1221 0000
000001f0: d342 ac28 1e05 e031 c3a6 5ea7 a58c b738
00000200: 3275 5191 b17e 7f06 a615 db1a 1105 d3bc
00000210: 09a0 5993 64b9 41be 51c6 0d39 1062 643c
00000220: ccff 3f0d 5d4d 3e91 bde1 dcbc 9f44 f18c
00000230: a024 7b3d 64d5 bca8 5c28 870f ed04 0c36
00000240: 297e f83b 5dc0 22bc 8712 983d 6f07 0080
00000250: 3bd6 90be bcb1 2bbd b751 e9bd dff9 08be
00000260: 11f2 f6bb 85c8 abbd 1dd7 5da8 e907 0000
00000270: acef 59be c550 15ba 1540 0a3e 4b40 2306
00000280: 7b86 43b2 a1c9 c7b4 a42e 682e 39f6 48b9
00000290: 6bd0 3c29 fa79 ceb8 0552 6aaf d974 3318
000002a0: 6d14 81b0 cb31 e02c 75b6 aa95 3013 3937
000002b0: a7d4 cf39 102a 9228 4a0f adaf 1922 c92e
000002c0: 5bd5 591d 90dd 47ba 0bf3 1db9 0e45 8fac
000002d0: d688 dfb9 ca2c 1338 6bec e639 bffa 10b9
000002e0: 0174 13b9 18c6 f2b8 ce52 0334 9e51 2d17
000002f0: fc72 64b6 189d 959f c901 a7b6 abc2 25b7
00000300: 3dd5 0b10 3cc9 b505 ae5c c29a fcba 1b3d
00000310: d68f 1310 d538 ec3d 651a f6af 8957 06ba
00000320: 0d5f 778d f80b 0080 674e 32bc 61ad 8f8d
00000330: 28d4 1cbb dedd baad e208 240f 8017 c5b1
00000340: e3be cabb 00d0 283e e911 223e fd14 0080
00000350: bd7e f53d a9fc 073d 7726 b63d f647 093d
00000360: afac 353e 3731 d73d 3b80 5712 d810 0000
00000370: b6b6 8c3d 2cf5 56bc 08ac 3f3d 48f6 a784
00000380: 2ff5 d80d 3734 5f05 cfbf 779a 2f53 44be
00000390: 03bc 0912 5df6 963d 5aee 5e37 0147 c3bb
000003a0: 8255 3e8d c412 0080 16fc 883c 744d 640d
000003b0: bf5c d7bd 2ab5 41a9 653a f28f 8f47 5eb5
000003c0: e5d7 113b a396 1e3e 9225 d5bd 410c 0080
000003d0: 2e53 123e fd86 c9bc 95d7 b4bd 169d 4fbc
000003e0: 2643 e3bd 24aa d2bc afcc d292 3605 0080
000003f0: ff17 e03a a54b 173d af7c 613d 4091 cf05
1.4933811e-29 6.9241364e-35 1.2965102e-22 -0.19023207 -5.987794e-28 -0.04192825 -3.3622644e-05 0.022611838
8.508531e-31 -2.8794773e-26 -0.0038301693 5.336978e-30 -0.13163431 1.5842162e-13 -2.7455422e-29 0.00013847821
-0.007126368 -0.08893186 0.09101271 -6.869e-42 0.08486682 -0.13657106 0.09473966 0.033366162
-0.36387834 -0.23550786 1.9028056e-12 -1.616e-42 0.08251942 0.06082729 -0.1861211 -1.4122055e-35
2.901567e-28 -5.469104e-35 -6.209846e-23 -0.05035725 -1.2864738e-28 0.07826278 6.404348e-05 -0.0017044375
3.2465646e-30 4.672983e-31 -0.0141840195 6.1364322e-30 0.019675128 1.4085019e-14 -3.9283843e-29 -2.5314033e-05
-0.04951686 0.14877188 -0.11076197 -6.815e-42 -0.23694535 -0.004223875 -0.033436637 0.283863
-0.2211738 0.072781704 -9.871696e-19 -4.417e-42 0.07711355 0.03981125 -0.038240854 -4.537681e-36
5.17887e-13 5.4865374e-08 4.0254636e-06 3.9927963e-05 3.3350148e-07 0.00015834531 -9.941524e-13 5.9522762e-08
-1.3571106e-07 4.153381e-08 5.68397e-13 4.1713633e-07 3.5785983e-05 2.2171447e-08 2.1050612e-09 7.978e-42
2.152e-42 0.0012802312 2.1623995e-05 -6.8653085e-06 0.00031983605 2.5820685e-07 -4.901851e-06 7.0483375e-06
2.4175986e-05 3.4623274e-05 9.86324e-10 3.3181269e-07 -4.1196593e-08 -1.2050003e-13 4.9162218e-06 1.1740168e-13
4.3636962e-08 1.0261175e-05 -5.569379e-07 -5.414941e-15 -3.14582e-10 2.8579895e-14 1.5948306e-08 0.000118435164
-3.6042103e-11 9.805049e-10 1.2919134e-09 4.230755e-09 3.88653e-14 -3.1633665e-09 2.3916136e-10 3.2637648e-10
4.1150377e-15 1.1693985e-15 -2.71159e-14 4.8266776e-11 1.4221356e-14 5.6218093e-15 -1.83806e-15 6.4416775e-15
1.5813461e-14 -1.5378799e-15 -4.7651065e-09 1.1863e-41 1.9124816e-14 6.51984e-09 -3.089909e-15 8.752317e-05
-1.6523307e-28 4.8053248e-35 9.061125e-23 -0.025759252 -2.7468154e-27 -0.18918377 0.00013520686 0.013939396
5.9164323e-31 -1.5012197e-28 -0.02696311 -3.717323e-31 0.061314225 -2.0964736e-14 1.3327574e-29 2.0864493e-06
0.007583399 -0.009933558 0.07425409 -2.667e-42 -0.28288445 -0.041917548 -0.11392539 -0.13376568
-0.007536181 -0.083878554 -1.231461e-14 2.838e-42 -0.21282834 -0.00056959345 0.13501008 3.0704128e-35
-1.1381071e-08 -3.7213343e-07 5.2792118e-11 -0.00019165211 4.192516e-14 -9.8455654e-05 -2.1311315e-10 2.31942e-24
-9.391791e-10 6.371991e-12 -6.895032e-26 1.1031327e-05 0.00039640555 1.6227498e-14 -3.147938e-10 9.146479e-11
2.8830013e-21 -0.0007624263 -0.00015063227 -4.071971e-12 -0.00042635825 3.5089244e-05 0.00044045164 -0.0001382632
-0.00014062227 -0.00011576357 1.223045e-07 5.600233e-25 -3.4041577e-06 -6.3363844e-20 -4.9771957e-06 -9.880091e-06
2.757719e-29 1.709508e-35 -8.038625e-23 0.03802012 2.9101445e-29 0.11534277 -4.4765894e-10 -0.0005124738
-7.6227165e-31 -4.294e-42 -0.01088295 -8.854795e-31 -0.0023930166 -2.124428e-11 8.087535e-30 -5.7361262e-09
-0.0061873063 0.16485596 0.15827145 -7.529e-42 0.11987064 0.03319994 0.08894055 0.033515893
0.17741655 0.10507434 6.8000094e-28 6.042e-42 0.06870787 -0.013119977 0.04679492 -3.9487685e-36
1.3371054e-30 1.0495e-35 -5.1233345e-23 -0.19172357 4.346132e-28 0.07371209 1.3287727e-05 -0.005959392
-5.8651197e-31 -6.732e-42 0.016721766 7.0351155e-31 -0.10515737 -4.3011744e-14 -2.3885535e-29 -8.2805576e-07
0.0022253927 0.15487151 -0.104075566 -4.396e-42 0.14289543 -0.0246005 -0.088301815 -0.01267173
-0.11096792 -0.025715895 -1.3303322e-27 -1.87e-42 0.0017096995 0.036937375 0.05505055 1.9519543e-35

inception_blocks.0.conv_1x1.block.0.bias f4 [8]
00000000: 6530 513a 5062 bf39 7e69 59b4 0c70 e8af
00000010: 9c03 4f38 1437 c836 c272 f638 2339 c4b8
0.00079799286 0.00036503607 -2.0248078e-07 -4.2280168e-10 4.9356007e-05 5.9668764e-06 0.000117515694 -9.356651e-05

inception_blocks.0.conv_1x1.block.1.weight f4 [8]
00000000: 7f60 9b3e c6cc 603e 1ff9 99bb e252 f62b
00000010: b356 863e d371 bc3b 2940 423e 7edc 113e
0.30347058 0.21953115 -0.004698887 1.7502356e-12 0.2623802 0.0057508736 0.18969788 0.14244267

inception_blocks.0.conv_1x1.block.1.bias f4 [8]
00000000: f1b3 633e 3bd6 22bd e878 34bb aefe 3ea8
00000010: 91b8 5e3e a327 f5bb 6def acbd bb41 e2bd
0.22236611 -0.039755087 -0.0027537886 -1.0602344e-14 0.21750094 -0.0074815317 -0.08444104 -0.11047693

inception_blocks.0.conv_1x1.block.1.running_mean f4 [8]
00000000: e76b 1bbe 9d19 08bd d5e1 7339 307c 8c2d
00000010: 1108 d5bd 52ae 82b8 3e06 5d3e ddb0 87bd
-0.1517788 -0.03322755 0.00023258415 1.5971308e-11 -0.10401929 -6.231353e-05 0.21584412 -0.06625531

inception_blocks.0.conv_1x1.block.1.running_var f4 [8]
00000000: 6b5e 363c 4411 e23b 6208 3634 b4c3 fc1d
00000010: cb11 3e3c ea40 1634 cc7c 2c3c 10be 0b3c
0.011130909 0.006899031 1.695312e-07 6.6906197e-21 0.011600922 1.3993454e-07 0.010527801 0.008529201

inception_blocks.0.conv_3x3.0.block.0.weight f4 [12, 32, 1, 1]
00000000: d954 0180 0209 8a32 65dd a2b5 3105 639f
00000010: 0d3b 6231 5c35 5717 a7eb 7b36 57c2 8033
00000020: 8937 fdae 6e20 1237 d916 57ae 8a3a 0080
00000030: bce5 b7ab 6ca0 1330 3fef b3b2 7303 0080
00000040: 3305 0000 72a0 d52d eca8 55a5 30ff 81a8
00000050: 4a5e ad25 2e7a e3a1 36b6 69ab 5a3b 6413
00000060: fbd4 fc24 ecf8 15a1 6c0b 0000 801a 0080
00000070: cee3 d98e ad5c cdad c974 bf9e 81e6 59ac
00000080: b983 39aa 5bf7 e4a8 4d2c 9519 666e 692c
00000090: e3a2 0eb7 925a 97ab 6239 43af 5e36 9fa3
000000a0: 8266 0000 a10f 3eab 7717 0ba9 86f2 222f
000000b0: dea3 022e 74ff 8bad cb14 12aa a56d 0829
000000c0: 8a95 cbab ebc1 68ad f262 622e 8296 d3b1
000000d0: 005c d22a 3d9a d72c aada b82d f93e abac
000000e0: 42f9 bf2d e605 86ad ba5c 2733 2a2e 0000
000000f0: 7213 86ad 3c3c 5c37 201e 8d2d 187a 1fb9
00000100: a93d de10 5d8d c886 6469 2218 ce1f d33d
00000110: 1921 f90f b824 b7bd 6d16 69b7 397d bf3a
00000120: 3fee 430d ee02 0080 bc16 f0bc 7102 180f
00000130: 8080 013e 68ac 94a9 26b9 e58f 0227 e2b7
00000140: 9db2 a03d a242 ddbc 3b13 aebe 650d 0080
00000150: bb36 b53c 633d 02be 71f4 703d a0ba cebb
00000160: 5ba4 f5bd a47e c33d 8e70 281b 9b08 0080
00000170: 24b3 daba f054 b1bc e9b6 9dbd 3440 1a05
00000180: ec77 3091 3d5f 0d05 13b4 3f9e 1c49 693a
00000190: 376e 8512 ee77 803b 8658 7daf 7b94 5d3b
000001a0: 9e99 a98d 980d 0000 46c2 ecba fadb 370e
000001b0: 99c2 cfbc e56e dca9 4b3c c10f 7622 8fb2
000001c0: 53a5 9dbc 1d8c 1dbc 4d82 6ebe 8616 0080
000001d0: af00 e9bd c74c bd3c 6130 a23d 88a8 1e3e
000001e0: aa63 f9bd 1f3f 2d3c 4c05 4a13 8902 0080
000001f0: a8b5 19bb ad4a 98bc 2f01 68bc 7744 9685
00000200: 0eea 2a10 1dec be05 c628 851a c878 a9bd
00000210: db87 8b12 b237 843e 5f70 c239 c067 c33c
00000220: 1b0d 330e cf26 a225 2939 1ebc 09ce 8f8d
00000230: d05c e93d 7a5a 96a9 6ccb b50e a732 00ba
00000240: 02ea 9cbd 5205 1f3e 2c75 2bbe 0807 0080
00000250: ff80 f5bd ef0e 33be 3ef1 65be a626 553e
00000260: 99b5 093e 7e90 5cba b3ff 462e dd01 0000
00000270: 6031 babc 134f e1bc 624d efbc 7225 9585
00000280: 4d40 350f e23c 8906 3521 b1aa acd3 b13d
00000290: c7fa 5a11 8ec3 d0bc b7cf d92f f95f 7b3b
000002a0: 7326 140c 5607 0080 dcfc 533b 4e1f 408e
000002b0: f70f 223e 1541 4b33 3302 470e e626 70b2
000002c0: 9228 93bb bb16 96bd cd7a 07be 950c 0000
000002d0: 01a9 883d f11e 2d3d 0795 e7bc 2d31 213d
000002e0: 74ca 1fbd 8fad 5b3d 5016 2691 db0e 0080
000002f0: 5878 393d 16fb c5bc 29dc ff3d 3a89 9b01
00000300: 92f8 37ab 1059 9f2f 8819 8fa7 0014 0080
00000310: ceed 95af 0a11 0000 d75c 0aac 339c 13aa
00000320: db92 af28 436f 06b7 00ec 1926 ff0e af2f
00000330: 4b07 0000 30b5 48b7 3ba5 55a9 98d5 ec35
00000340: 0d14 0000 1a08 0000 8500 0000 5cfa 64af
00000350: d00f 0080 4000 0000 2a04 0000 dd14 0080
00000360: b810 0080 b40b 0080 f904 0080 b301 0000
00000370: 7403 0080 760e 97ac ae10 0080 8f8f 51b7
00000380: deae 1335 42ed da36 2f12 a598 7a98 b805
00000390: 686e eca7 d33f 5013 b2a3 08b4 d410 07ad
000003a0: 5d3c 2131 c4c9 b5b5 c597 dea7 a3c4 7fb2
000003b0: 05f8 c91c a950 121e 4968 84af f426 0000
000003c0: bf13 0080 3a71 3ea5 a2f5 d0a0 ca9e a2ab
000003d0: 0060 d421 43d4 d79c 2138 16a3 8c39 7894
000003e0: d57f 6814 4131 af06 460f 0080 1c37 0000
000003f0: 8c0e 0080 b463 1faa 33cd f297 3f15 81b3
-1.22273e-40 1.606941e-08 -1.2134375e-06 -4.8073414e-20 3.2920895e-09 6.9537596e-25 3.7539082e-06 5.995815e-08
-1.1514973e-10 8.709829e-06 -4.8905633e-11 -2.1e-41 -1.3066696e-12 5.370626e-10 -2.094714e-08 -1.237e-42
1.865e-42 2.4286548e-11 -1.8532038e-16 -1.4432547e-14 3.007461e-16 -1.5414459e-18 -8.3031097e-13 2.8806908e-27
1.0964838e-16 -5.081261e-19 4.097e-42 -9.506e-42 -5.3713998e-30 -2.3346958e-11 -2.0271213e-20 -3.096551e-12
-1.6477001e-13 -2.5420358e-14 1.5424132e-23 3.3172575e-12 -8.501785e-06 -1.0754334e-12 -1.7755533e-10 -1.726184e-17
3.6773e-41 -6.752325e-13 -3.0884553e-14 1.4819976e-10 2.970412e-11 -1.5915914e-11 -1.2974619e-13 3.0293168e-14
-1.4465523e-12 -1.3230732e-11 5.1474332e-11 -6.158019e-09 3.7367331e-13 6.1277914e-12 2.1015484e-11 -4.8671037e-12
2.1824879e-11 -1.5236656e-11 3.8967052e-08 1.656e-41 -1.5242672e-11 1.3127046e-05 1.6043222e-11 -0.00015208905
8.765856e-29 -7.5439353e-35 2.0991218e-24 0.10308801 2.4566044e-29 -0.089425504 -1.3893104e-05 0.0014609463
6.0375793e-31 -1.051e-42 -0.029307716 7.494649e-30 0.12646675 -6.602428e-14 -2.265246e-29 -2.6959464e-05
0.07846568 -0.027009312 -0.33999047 -4.805e-42 0.022120824 -0.1271873 0.058826867 -0.0063088685
-0.11994239 0.09545639 1.3933003e-22 -3.087e-42 -0.0016685468 -0.021646947 -0.07700903 7.2528375e-36
-1.3920906e-28 6.647281e-36 -1.0148694e-20 0.0008899139 8.42065e-28 0.0039205467 -2.3041666e-10 0.0033810425
-1.0452411e-30 4.877e-42 -0.0018063269 2.2662406e-30 -0.025361346 -9.7892e-14 1.9054493e-29 -1.6663062e-08
-0.019243872 -0.009615925 -0.23291893 -8.08e-42 -0.113770835 0.0231079 0.07919384 0.15493977
-0.121772125 0.010574131 2.5498596e-27 -9.1e-43 -0.0023454223 -0.018590296 -0.014160438 -1.4131082e-35
3.3706898e-29 1.7954248e-35 5.5073384e-23 -0.0827499 8.805624e-28 0.25823742 0.00037086286 0.023853183
2.2069763e-30 2.8128818e-16 -0.009657183 -8.862657e-31 0.11394656 -6.677033e-14 4.4815833e-30 -0.000489036
-0.07661821 0.15529373 -0.16743916 -2.522e-42 -0.11987495 -0.17486165 -0.22455308 0.20815524
0.1344818 -0.0008413865 4.5247094e-11 6.68e-43 -0.022728622 -0.027503526 -0.029211704 -1.4025648e-35
8.936373e-30 5.162313e-35 -3.1464558e-13 0.08682951 1.7274444e-28 -0.025483873 3.961966e-10 0.0038356765
1.1413076e-31 -2.632e-42 0.003234676 -2.36809e-30 0.15826403 4.7323812e-08 2.4529703e-30 -1.3978683e-08
-0.0044909203 -0.07328554 -0.13230439 4.514e-42 0.0667286 0.042265836 -0.028269304 0.03935354
-0.039011434 0.053632315 -1.3101967e-28 -5.329e-42 0.045280784 -0.024167579 0.12493164 5.713492e-38
-6.535962e-13 2.8985214e-10 -3.9718154e-15 -7.175e-42 -2.7271913e-10 6.112e-42 -1.9662516e-12 -1.3110415e-13
1.9492591e-14 -8.0129275e-06 5.340238e-16 3.184297e-10 2.616e-42 -1.1963115e-05 -4.7438815e-14 1.7645534e-06
7.193e-42 2.906e-42 1.86e-43 -2.0825425e-10 -5.672e-42 9e-44 1.494e-42 -7.484e-42
-5.998e-42 -4.198e-42 -1.784e-42 6.1e-43 -1.239e-42 -4.2932836e-12 -5.984e-42 -1.2490796e-05
5.501623e-07 6.5245267e-06 -4.266986e-24 1.7359288e-35 -6.562286e-15 2.6284759e-27 -1.2725539e-07 -7.677598e-12
2.3462896e-09 -1.3544272e-06 -6.1781927e-15 -1.48876635e-08 1.3365176e-21 7.745856e-21 -2.408476e-10 1.3974e-41
-7.084e-42 -1.6518236e-16 -3.5399117e-19 -1.1554865e-12 1.439109e-18 -1.4282375e-21 -8.143402e-18 -1.25321494e-26
1.1738217e-26 6.5900056e-35 -5.479e-42 1.977e-41 -5.218e-42 -1.4156628e-13 -1.5690683e-24 -6.010895e-08

inception_blocks.0.conv_3x3.0.block.0.bias f4 [12]
00000000: aac1 b12a ab7e 21a8 f971 ba39 c91b 1a38
00000010: d171 4fb9 eb43 afb8 bd08 eea8 6d9d 34b4
00000020: 0166 d338 afd6 6fb9 5fd4 f7b8 20ae f1a9
3.1575897e-13 -8.964762e-15 0.000355616 3.6742338e-05 -0.00019783458 -8.357301e-05 -2.6427098e-14 -1.6821078e-07
0.00010080264 -0.00022872792 -0.00011817435 -1.0732756e-13

inception_blocks.0.conv_3x3.0.block.1.weight f4 [12]
00000000: 9f29 be39 9b6d e22d 2046 543e 5fcd ca3d
00000010: eab1 ac3e ef06 9d3d b51f 7ead 8874 d4b9
00000020: 7127 963e ce2d 923e 42cd 863e faff 19b3
0.00036270634 2.57419e-11 0.20729876 0.09902453 0.33729488 0.07667338 -1.4445269e-11 -0.00040522614
0.29326966 0.2855057 0.26328474 -3.5855898e-08

inception_blocks.0.conv_3x3.0.block.1.bias f4 [12]
00000000: 9ab5 8cb6 f597 84b8 216c 343e 857d 873d
00000010: 47cd 3f3e baac 18bd 1216 36b4 aed3 73ba
00000020: 77a4 cc3c 82ca 90bd 6367 b53d 0312 04b4
-4.1934663e-06 -6.322555e-05 0.17619373 0.06615738 0.18730651 -0.0372741 -1.69581e-07 -0.0009301257
0.024980767 -0.07069875 0.0885761 -1.230001e-07

inception_blocks.0.conv_3x3.0.block.1.running_mean f4 [12]
00000000: c834 0c2c 5f72 a2b2 d0e7 10be 6e99 a8bd
00000010: 130f b13c 2543 203b 51cc 0528 5867 2cb2
00000020: bbf5 9fbd 95d6 4abd 427e c339 b4e7 ae2d
1.9924496e-12 -1.8911292e-08 -0.1415093 -0.082323894 0.021613633 0.0024454084 7.427287e-15 -1.0035215e-08
-0.07810541 -0.049521048 0.00037287368 1.9884407e-11

inception_blocks.0.conv_3x3.0.block.1.running_var f4 [12]
00000000: 0ab4 9f1a 1315 d427 754f 343c 02d0 8f3b
00000010: 1a94 aa3c edb8 153b 6d1b 600f 30a8 9c10
00000020: d666 723c 4c89 033c ada1 623c c356 1121
6.605173e-23 5.886467e-15 0.011005272 0.00438881 0.020822573 0.002284582 1.1049335e-29 6.1790284e-29
0.014795026 0.00802834 0.013832492 4.924274e-19

inception_blocks.0.conv_3x3.1.block.0.weight f4 [16, 12, 3, 3]
00000000: a916 0000 df00 0080 890f 0080 300c 0080
00000010: be06 0000 4312 0000 dc02 0000 190a 0080
00000020: 4b12 0080 e65c 0000 0e61 0080 6352 0000
00000030: 2e3b 0000 f002 0080 4c37 0000 f518 0000
00000040: 223a 0000 cb38 0080 f004 85b3 7662 fa35
00000050: ead0 0f33 ab0d 5fb4 24fd 6735 5d66 ebb3
00000060: 1183 5fb5 9cfd 0935 5123 ccb4 9f11 1926
00000070: 60d0 582d 5b03 652c 135e 8b24 d532 d82d
00000080: 19a2 c52a ade8 532a 143c 892c 4b26 78ab
00000090: 3cb3 b4b9 a5fd cb39 aefb edb8 40d6 41ba
000000a0: 2919 87b9 8e11 15ba fdba 5db9 53f9 8138
000000b0: 23b6 04b9 3408 63ac 2d3e f9b4 95d7 18a5
000000c0: 629c 85af 4d96 62b5 d112 02aa 964e c0ae
000000d0: 4557 7eb4 a4a4 ffa5 510a 0000 382b 0080
000000e0: 4a34 0080 0138 0080 142f 0080 d70c 0080
000000f0: 4804 0000 e532 0080 7e32 0000 4620 0000
00000100: f008 0000 9107 0000 f41d 0080 3208 0000
00000110: 1608 0080 741b 0080 de1a 0080 d703 0080
00000120: af57 d337 1569 4eb6 9adb 4f37 ef37 4737
00000130: 066e 4937 90a9 9238 f792 8136 03ab 43b5
00000140: 8134 fc37 026f 2cb6 51e5 4cb6 2401 f5b2
00000150: 3fb1 5cb3 b8f2 2335 ba1c 51b3 5a29 3eb4
00000160: 16c6 1c35 0e32 dcb0 047d a6b7 248e 4938
00000170: 33aa 7db8 0705 0337 24b7 3e38 609b 27b8
00000180: f9c6 d1b7 a5a6 b538 cc39 a136 1214 0080
00000190: 5416 0000 3803 0080 bd1f 0000 8e19 0000
000001a0: 9b12 0000 4c0b 0000 8d0b 0080 ab04 0000
000001b0: d0b0 9011 b213 0587 e474 a20e 6f8e 6715
000001c0: fdae c012 2eee 1017 af64 8e15 bb92 0a18
000001d0: 5d17 161d 3bb0 56b6 4b01 9ab4 72c1 deb7
000001e0: 60b3 40b6 993e 6eaf 24e1 d0b7 0c65 34b6
000001f0: 81e3 8c34 4147 d5b7 cbe1 b5bd 478b 033d
00000200: b431 f2bc cccb 90b9 6c11 02bd a379 54be
00000210: 8ca3 053e 6da2 113e 899f 063c 59bc 6bbb
00000220: 1317 413d 5b5c 30bd 55a9 99bb cad0 7a3d
00000230: 2ab6 f0bc cc7b b13d e57f b73c 92a0 8ebd
00000240: 5d6a 423c 0d26 20be fa52 8dbe 65be 27be
00000250: 65bf 233b f2f1 ad3d a914 8a3e a500 033e
00000260: bfa8 c1bc 2353 d73c 177e 9a3c afe5 47bb
00000270: 31b9 913c 580c 05bd d4e8 cabc 9575 933c
00000280: 3654 0f3c f912 193c 6e12 0080 c906 0080
00000290: 5c13 0000 2e12 0080 050e 0080 7f0a 0080
000002a0: 0415 0080 d50d 0080 a612 0000 090f 0000
000002b0: 1b0c 0000 aa05 0080 0612 0000 d40f 0000
000002c0: be06 0080 330d 0000 8b09 0000 fd06 0080
000002d0: 93cc 633c bdd5 40bd 6c16 243d ca11 443c
000002e0: 52e3 2c3c b76b d03d 75e5 dbbd 8feb 24bd
000002f0: e02b bebd 9035 f53b ffb7 51bd a312 41bd
00000300: 564a bdbd 26c0 28be d7fa a9bd 0236 b43d
00000310: 167b bf3b a07f efbc ac28 893c c521 143d
00000320: 5ba2 fabd 7e04 7f3d 0f3b 6c3d 36f5 79bb
00000330: e858 93bd e45b 93bd f7f0 9cbd 5813 0000
00000340: 1f0a 0000 c710 0000 8c01 0080 e613 0000
00000350: f80f 0080 ae01 0000 e814 0080 8a0b 0080
00000360: 6298 5193 baa5 ec91 73c0 92a8 4b40 de17
00000370: 635d dc93 2420 83a8 a34b 8a1e b46c 749d
00000380: 8926 0baa b844 8ab7 6b56 93b6 d699 89b8
00000390: cd30 46b7 1384 672f c50c 7bb8 d3a7 68b7
000003a0: 3be4 00b6 52f4 77b8 2795 27be 6c89 a6bd
000003b0: 492d 6cbe fc61 95bc 4114 ff3d 51bc a1bd
000003c0: 4516 d63b a55d d23d 442d fcbc d362 babd
000003d0: fd78 ed3b 861e 0bbe abcb 1c3c 8820 003e
000003e0: 3e7f dcbd 3b92 4a3c 9967 d43d cdf1 d1bd
000003f0: c560 e3bd fcc5 0dbd 871b e4bd f5a2 073d
8.129e-42 -3.12e-43 -5.573e-42 -4.372e-42 2.419e-42 6.551e-42 1.026e-42 -3.622e-42
-6.562e-42 3.3326e-41 -3.4817e-41 2.9555e-41 2.123e-41 -1.054e-42 1.9837e-41 8.953e-42
2.0854e-41 -2.0373e-41 -6.194193e-08 1.8655107e-06 3.348479e-08 -2.0773466e-07 8.6422574e-07 -1.096166e-07
-8.32647e-07 5.140553e-07 -3.8023657e-07 5.310642e-16 1.2324447e-11 3.254472e-12 6.044101e-17 2.4578931e-11
3.5106708e-13 1.882129e-13 3.900444e-12 -8.816044e-13 -0.00034465815 0.00038908157 -0.0001134792 -0.00073942915
-0.00025767952 -0.0005686515 -0.00021145861 6.1976396e-05 -0.00012656352 -3.2263194e-12 -4.6425103e-07 -1.325694e-16
-2.4303676e-10 -8.441028e-07 -1.1552848e-13 -8.745109e-11 -2.3687342e-07 -4.4347013e-16 3.701e-42 -1.5504e-41
-1.8758e-41 -2.009e-41 -1.6888e-41 -4.606e-42 1.536e-42 -1.8258e-41 1.8113e-41 1.1578e-41
3.206e-42 2.714e-42 -1.0745e-41 2.94e-42 -2.9e-42 -9.848e-42 -9.638e-42 -1.377e-42
2.5193991e-05 -3.0757558e-06 1.2389291e-05 1.1874347e-05 1.200615e-05 6.993406e-05 3.8616085e-06 -7.2892016e-07
3.006519e-05 -2.5694612e-06 -3.0531849e-06 -2.8522273e-08 -5.1383946e-08 6.1075434e-07 -4.868773e-08 -1.7710173e-07
5.840278e-07 -1.6021333e-09 -1.9846957e-05 4.8054513e-05 -6.047841e-05 7.809379e-06 4.5470093e-05 -3.9960607e-05
-2.5007395e-05 8.6617925e-05 4.8049023e-06 -7.2e-42 8.01e-42 -1.155e-42 1.1386e-41 9.167e-42
6.674e-42 4.053e-42 -4.144e-42 1.675e-42 2.2828163e-28 -1.0011596e-34 4.0048645e-30 4.676244e-26
1.2160041e-27 4.6829534e-25 5.7512194e-26 1.7910162e-24 1.9864413e-21 -3.1991065e-06 -2.8685676e-07 -2.6554542e-05
-2.871464e-06 -2.1668213e-10 -2.4900371e-05 -2.6880907e-06 2.6242563e-07 -2.5424759e-05 -0.08880957 0.032115247
-0.029564716 -0.0002761766 -0.031754896 -0.20749526 0.1305067 0.14222117 0.008216747 -0.0035970418
0.047141146 -0.043056827 -0.0046893754 0.061234273 -0.029383738 0.086661905 0.022399852 -0.0696422
0.011866179 -0.15639515 -0.2760237 -0.16381223 0.0024985906 0.08493413 0.26968887 0.12793215
-0.023640035 0.02628476 0.018858952 -0.0030501892 0.017788501 -0.032482475 -0.024769224 0.018000403
0.008748105 0.009342902 -6.611e-42 -2.434e-42 6.945e-42 -6.522e-42 -5.029e-42 -3.765e-42
-7.539e-42 -4.962e-42 6.69e-42 5.394e-42 4.343e-42 -2.032e-42 6.466e-42 5.678e-42
-2.419e-42 4.735e-42 3.423e-42 -2.507e-42 0.013903755 -0.047078837 0.040060446 0.011967132
0.010552244 0.10176795 -0.10737125 -0.04026371 -0.09285712 0.007483192 -0.051200863 -0.047136914
-0.09242694 -0.16479549 -0.08299797 0.08799364 0.0058435304 -0.029235661 0.016743027 0.036165018
-0.12237998 0.062260143 0.05767351 -0.0038140542 -0.07194692 -0.07195261 -0.07663148 6.939e-42
3.631e-42 6.019e-42 -5.55e-43 7.138e-42 -5.729e-42 6.03e-43 -7.5e-42 -4.14e-42
-2.645464e-27 -3.7336372e-28 -1.6292718e-14 1.4362644e-24 -5.5627894e-27 -1.455786e-14 1.4642601e-20 -3.234933e-21
-1.235905e-13 -1.6482882e-05 -4.3910018e-06 -6.561323e-05 -1.1813082e-05 2.105625e-10 -5.9854956e-05 -1.3867352e-05
-1.9206334e-06 -5.911693e-05 -0.16365491 -0.0813168 -0.2306415 -0.0182352 0.12455035 -0.07897247
0.0065334165 0.102717675 -0.030783303 -0.091008805 0.007247089 -0.13585863 0.009570043 0.1251241
-0.10766457 0.012363966 0.10371322 -0.10251198 -0.11102442 -0.03461264 -0.11138063 0.033114392

inception_blocks.0.conv_3x3.1.block.0.bias f4 [16]
00000000: 8870 87ae b7db 73b9 f5d2 01b9 5488 56ae
00000010: 60e8 3f39 4a73 b9ac b7de 1aae b215 b435
00000020: fb87 95b8 5b3b de36 7e3f c4b9 9cda 6937
00000030: ac54 edb3 be33 d8b2 7cc4 0839 ac31 7f39
-6.159079e-11 -0.00023256136 -0.00012380986 -4.877905e-11 0.00018301746 -5.270816e-12 -3.5213357e-11 1.3417359e-06
-7.130202e-05 6.6230255e-06 -0.0003743134 1.3938781e-05 -1.1051574e-07 -2.516924e-08 0.00013043167 0.000243372

inception_blocks.0.conv_3x3.1.block.1.weight f4 [16]
00000000: 0a63 113c 2ed6 563e 35db ae3e 30a0 24a0
00000010: 3ccd 863e 005e 8039 ac43 0bb9 ab37 291c
00000020: 242a 7a3e 8b07 9abc 6150 543e e624 079d
00000030: a3e5 abbb 081f 1c3b 5a3f ad3e 4147 7c3e
0.00887371 0.2098014 0.34151617 -1.3944342e-19 0.26328456 0.00024484098 -0.00013281283 5.598936e-22
0.24430138 -0.018802425 0.20733787 -1.7886177e-21 -0.0052458807 0.0023822207 0.33837396 0.24636556

inception_blocks.0.conv_3x3.1.block.1.bias f4 [16]
00000000: defc a1bc 60bf 743e 13a1 0f3e fda5 332c
00000010: 32dc 72bc 5111 7bb9 94e7 2eba 89b3 f527
00000020: af7f 59bd 8c5d 9abc 650f 653e 0431 aaa2
00000030: ea2a 87bc 3fab acbb 62e2 9f3c 9e56 d33d
-0.019773897 0.23901129 0.14026289 2.5529572e-12 -0.0148230065 -0.00023943676 -0.0006672081 6.8195813e-15
-0.053100284 -0.018843435 0.22369154 -4.613049e-18 -0.016499955 -0.0052694376 0.019517127 0.10319255

inception_blocks.0.conv_3x3.1.block.1.running_mean f4 [16]
00000000: 40a9 cfb9 134c 9fbd 68fe 27be 37f8 1e2c
00000010: 35f2 ed3c a1ea 372e eb0f 9bb3 686f 8db3
00000020: bd02 1f3d 1feb a03c 9a96 1d3e 325e 42b5
00000030: e947 483c e9ff 7e36 03fb 72be 0234 4ebe
-0.00039608218 -0.07778182 -0.16405642 2.2590937e-12 0.029046157 4.1817775e-11 -7.2206454e-08 -6.586089e-08
0.03882097 0.019643364 0.15389481 -7.2407704e-07 0.012224176 3.7997909e-06 -0.23728566 -0.20137027

inception_blocks.0.conv_3x3.1.block.1.running_var f4 [16]
00000000: 7c3f 8434 fe0b 0c3d fafd 233d fe17 1b0b
00000010: 7912 333d f631 741d 72a9 8c28 8cae 8719
00000020: 65d2 e23c 8bfa 723c 113c b23c f95c d61a
00000030: 8e19 2439 648d e62d 7ff4 0a3d 5056 113d
2.4633107e-07 0.034191124 0.040037133 2.9869964e-32 0.04371879 3.231896e-21 1.5616608e-14 1.4029172e-23
0.027688215 0.014830242 0.021757158 8.865853e-23 0.00015649779 2.6210763e-11 0.033924576 0.035482705

inception_blocks.0.conv_5x5.0.block.0.weight f4 [4, 32, 1, 1]
00000000: f02e 1111 2ce7 ec85 2f6e 391b 730c 183e
00000010: c1d2 8511 ff8d a1be 2722 2bba 76c1 59bc
00000020: bba0 1d8e 0857 3321 4cfc 32bd c0e7 380e
00000030: 7efe 213e f8f3 16a9 be9e 808f 169a 4db6
00000040: b6c4 e2bc d90a 8dbe 2bce dbbd f90c 0000
00000050: 85ee c73c d7c7 90bd be9e 09bd 9c36 c0bd
00000060: c3a3 c0bd b27c 303e 6671 332d dd0b 0080
00000070: a360 4b3d db2f 343d 8172 473d c98a a505
00000080: b626 6b11 9bdd 4286 03fd c31a 3aac 3ebc
00000090: f32b aa0d e331 36bc 6cbd 83b8 7ba1 9bba
000000a0: 9891 488d de01 0000 dd72 7e3c fb44 870e
000000b0: de1f 953d 9341 0b2a 2915 770f 8de6 cb37
000000c0: aacc c9bc 2ec7 61be bf80 853e cc02 0000
000000d0: 500a 263e 2117 5c3d 3383 8fbd 6fb6 003d
000000e0: d1a8 5b3d 7f1f 6dbd ae52 3f1d cb07 0080
000000f0: d18d 1cbd 9886 3e3d 350a 4f3e ea09 2604
00000100: 24af 768e 8625 cd86 e63d 419b 94d5 e93d
00000110: b282 5492 edab 4c3e b6c1 dbba 8c62 adbc
00000120: 067d d00c 27f5 3b9e fa60 923c aebc d48e
00000130: fcb4 d9bc e398 09a9 bf38 fc8e 2adb 0338
00000140: 983d 663d 4091 723d c3f8 8cbe e50f 0080
00000150: 8853 6c3d f63c bb3b 4b6e 613e 3904 45bd
00000160: d13c 6b3e aeef b8bd 71d9 b02d fc0a 0080
00000170: 57c0 3cbb d21c cbbc 04bc 2ebe fdbd 1386
00000180: d7fe 240e 4a17 d904 acd8 c019 790f 42be
00000190: a4db 9a90 75e3 693e e31c 05bb ad2d 09bd
000001a0: ba6e 268d 2bf2 0b1c 31d5 f03c c0bc 620d
000001b0: b18e 95be ec0d d427 799c 890f 490b 1d3a
000001c0: 5903 26bd 9ff4 103d cc89 773e 610b 0000
000001d0: 5d3a 3fbe 8d5e 71bd 8205 033d cbc8 b53d
000001e0: 665b ca3d 8aae d5bd 6d8c d7ab bc10 0000
000001f0: 361e 2e3d 015b 11bd a29e 803d f334 a785
1.1452947e-28 -2.2278252e-35 1.5338444e-22 0.14848499 2.1113587e-28 -0.31553647 -0.00065282214 -0.013290754
-1.9429133e-30 6.0762744e-19 -0.04369764 2.2791335e-30 0.15819737 -3.35183e-14 -1.268292e-29 -3.063707e-06
-0.02768169 -0.2754734 -0.10732683 4.654e-42 0.024405727 -0.070693664 -0.033598654 -0.09385416
-0.09406235 0.17235067 1.02001515e-11 -4.256e-42 0.049652707 0.04399095 0.048693184 1.5567507e-35
1.855016e-28 -3.6650155e-35 8.105887e-23 -0.011637742 1.0487639e-30 -0.011120292 -6.281849e-05 -0.0011873686
-6.180501e-31 6.7e-43 0.015530315 3.3346495e-30 0.07281469 1.236843e-13 1.21821155e-29 2.4306844e-05
-0.024633724 -0.22048637 0.26074788 1.003e-42 0.16214871 0.053732995 -0.07007446 0.031423982
0.053627793 -0.057891365 2.5321384e-21 -2.796e-42 -0.038221184 0.046515077 0.20218737 1.9517759e-36
-3.0406168e-30 -7.7167565e-35 -1.5984586e-22 0.1141769 -6.70565e-28 0.1998746 -0.0016766104 -0.021165155
3.212272e-31 -9.950394e-21 0.017868508 -5.2443727e-30 -0.026575558 -3.055272e-14 -6.217744e-30 3.1436946e-05
0.056211084 0.059220552 -0.2753354 -5.702e-42 0.05769685 0.005714054 0.2201473 -0.04809973
0.22972418 -0.0903009 2.0105447e-11 -3.94e-42 -0.0028801167 -0.024794016 -0.1706391 -2.7787208e-35
2.0337262e-30 5.1037842e-36 1.9939848e-23 -0.18951215 -6.10807e-29 0.22840674 -0.0020311407 -0.033490825
-5.128598e-31 4.6304237e-22 0.029398533 6.9868826e-31 -0.29210427 5.8856914e-15 1.3569514e-29 0.00059907563
-0.040530536 0.03538954 0.24173659 4.082e-42 -0.18674608 -0.05892806 0.031987675 0.08876189
0.09880714 -0.10433681 -1.5315645e-12 6.003e-42 0.04250928 -0.03548718 0.06280257 -1.5724055e-35

inception_blocks.0.conv_5x5.0.block.0.bias f4 [4]
00000000: dee4 c9b8 b53d 4838 68a1 3aba 6848 0bb9
-9.627057e-05 4.7741185e-05 -0.00071193883 -0.00013283046

inception_blocks.0.conv_5x5.0.block.1.weight f4 [4]
00000000: cd91 943e adc1 613e a036 9c3e 7061 6c3e
0.29017487 0.22046538 0.30510426 0.23084044

inception_blocks.0.conv_5x5.0.block.1.bias f4 [4]
00000000: 7cd0 a03e c065 273d fe4c 553e 278d 8abb
0.3140906 0.04086852 0.20830151 -0.0042282525

inception_blocks.0.conv_5x5.0.block.1.running_mean f4 [4]
00000000: c69c 13be 83cc de3d 4414 713d 7c46 e23d
-0.14415273 0.10878851 0.058857217 0.110486

inception_blocks.0.conv_5x5.0.block.1.running_var f4 [4]
00000000: 7e02 b53c 6914 333c 39ce 193d 0dc4 1d3c
0.022095915 0.010930159 0.037550185 0.009629262

inception_blocks.0.conv_5x5.1.block.0.weight f4 [4, 4, 5, 5]
00000000: dab0 eabc a6fc 2a3d 91ff 81bb 12e2 74bd
00000010: 642c 30be 63a5 793c cd7c 913d 6fd7 c3bc
00000020: f269 8abc 3598 10bd 660b 4039 9ae4 8f3d
00000030: 8b9a b5bd f41d b0bd 32f9 983c 587e 4fbe
00000040: 587f 22be 1240 a73c e4fd 413e b5dd eb3d
00000050: c152 62be 227b 02be edd0 da3d e90a a83e
00000060: de78 513e 8d26 26bd 23f2 c3bb 1eed 773d
00000070: ac36 813d c825 e53c cc7e 9fbd 609f 9abd
00000080: e228 08bd f172 4b3c cd4e f2bc 7b88 20be
00000090: 25d1 d3bd 49fb 91bc 88a1 353c becc 903c
000000a0: 44d8 03be 8c59 c0bc 489f df3d bf04 fb3d
000000b0: f8c2 06bb 428f ddbd 7583 733d 9e23 1c3e
000000c0: 7583 6b3d d5c3 3e3d 753b d53d 5a2b 433e
000000d0: f150 973d fe00 e73c 448a d23d a9f1 e33b
000000e0: ecc1 513d 8d17 95bb d7b9 7a3c b75c 0d3e
000000f0: 8e58 b1bd ac41 d93a 0c4b 0fbd 0eb3 ef3c
00000100: c562 1d3e b28e 563e 4e28 953e 004c f63d
00000110: d49c 67bd e765 a4bd 27a4 203e 5064 993d
00000120: d690 2ebd 4a8f c6bd d003 1ebe 67ac 393e
00000130: 5744 083e 3a72 973d a32e 4cbd 8d68 82bd
00000140: 3257 e33b 5677 90bc 8346 2fbb e241 c83d
00000150: e577 6b3c 7e9e 293c b3d3 963d 911a f3bc
00000160: 3ab2 613d 0bfa a13d 732d 97bc 5dd9 243e
00000170: f8c3 81bc b4f2 04be a8fd bf3d c04f 233e
00000180: 23d7 963e 64e2 2dbd 7e22 71be ca0f 193a
00000190: 02aa d43c 1bdb 4b3d 2223 4c3d 6a19 053e
000001a0: b0d8 113e efcc 20bd 3e5b 983d ef3b e03d
000001b0: 9cf3 e93d df24 913d 416b 873d 31b5 e53d
000001c0: 2cc9 503d 4966 d83d 4839 b83d 289a 153e
000001d0: 305d 243e e087 693d 15a2 8c3d afd1 17bb
000001e0: 9034 c2bc 365d cbbd ff2e 21be 59f2 b2bd
000001f0: cc69 b5bd a563 e83d 413b b83d 6ce8 f33d
00000200: 34d4 b73c b324 983d a9b2 3f3d 428e a6bc
00000210: 6e6d 42bc 8264 8bbd 28ff 7d3d 9ecc 353d
00000220: a27a 47bc c9c1 843d b62f 733c e31d 0b3e
00000230: 776d bc3d 9c65 fbbb 69f0 9a3d 8e05 513a
00000240: 2e4b a53d fd3d be3d c476 f8bc 3160 a83c
00000250: 71e3 433c b481 533d 6c93 0bbd 1ce3 79bd
00000260: a254 30be 781b 1bbd d48f ebbc 8aaa b63c
00000270: a7dd 47bd d69b 22be 8fc4 9bbc 6abe e63c
00000280: 8535 a4bb ae7c 2fbd f2da 2fbe 86ef d5bd
00000290: 1654 cebd e98e 0d3d e7b1 55bd c738 e2bd
000002a0: ef95 f7bc 3877 f53c 3615 2b3d 8100 a83d
000002b0: 7427 033e 6ceb 4a3e 4af9 193e 220e 54bd
000002c0: 9062 a1bc d3ab 4b3d 1ed6 503c 6e0e 563d
000002d0: 500f abbd 4289 c0bd d6a8 01be f924 c7bd
000002e0: f674 3e3d 001b 82bd 0164 4dbd 4e53 143d
000002f0: 013e 5a3a bca4 da3d 8e81 93bc b50d e2bd
00000300: 9985 a0bd 2bb8 9cbd 68b8 aabc 3581 a03d
00000310: 3507 bcba cda3 493d c39f 363d b0c8 bf3d
00000320: a61a 8cbd 7f0f 07be 8ab9 ba3d 14f2 f03d
00000330: a95a 123d 2f90 b6bd e6a6 9abd 0ed4 643d
00000340: b7f3 5b3c 9094 e5bc f006 95bd 4649 28bd
00000350: f674 943d 8de4 a53d 6c16 243e b082 03bb
00000360: b3e5 86bd fe31 573d 47a6 2a3d 0c8b d5bc
00000370: 895e f93d a014 8dbc f633 b73d bbe3 ac3d
00000380: 53d1 d53d 4460 9c3d 6fbe 513e 6e83 fe3d
00000390: 7bb3 fc3d 0ea2 6dbd ae4a 053d a9d5 6d3d
000003a0: a1ff 7b37 fead 463a c904 f1bd b8f2 173d
000003b0: a544 6a3d 950c 883c 9b59 ef3c 4d87 52bc
000003c0: 0271 14bd 0b3c ce3c 9ed4 c6bd 9fdb 70bd
000003d0: 1ddb a9bd 634b 99bd 008f a8bd b101 44be
000003e0: 2c8a a2bd bb15 bdbd ee0b 19bd f80e 23bd
000003f0: 8c25 a8bb e2c5 09bc 365e bb3d d393 b4bd
-0.028648783 0.04174485 -0.0039672335 -0.05978591 -0.17204434 0.015237185 0.07103882 -0.023906438
-0.016896222 -0.035301406 0.00018314793 0.07026024 -0.08867367 -0.08599463 0.018673513 -0.2026304
-0.1586889 0.020416293 0.18944508 0.11516897 -0.2210188 -0.12742284 0.10684381 0.32820824
0.20456263 -0.04056411 -0.0059797927 0.060528867 0.06309256 0.027972117 -0.077878565 -0.075499296
-0.033242114 0.012417541 -0.02957859 -0.15677063 -0.103426255 -0.017820017 0.011085875 0.017675754
-0.12875468 -0.0234802 0.10919052 0.122567646 -0.0020562988 -0.1081834 0.05945154 0.15247962
0.057498414 0.04657348 0.10411731 0.19059506 0.07388485 0.028198715 0.10280278 0.0069562984
0.05121033 -0.0045499266 0.015303097 0.13804899 -0.086594686 0.0016575358 -0.03498368 0.029260185
0.15369709 0.20952871 0.29132313 0.120262146 -0.056546047 -0.08027249 0.15687619 0.07489836
-0.042618595 -0.09695299 -0.15431142 0.18132173 0.1330732 0.07394834 -0.049849164 -0.06367598
0.0069378847 -0.017635029 -0.002674491 0.09778191 0.014371847 0.010352729 0.07364597 -0.029675754
0.05510161 0.0790902 -0.018454289 0.16098543 -0.015840515 -0.12983209 0.09374553 0.15948391
0.2946101 -0.04245223 -0.23548314 0.00058388396 0.025959972 0.049769502 0.049838193 0.12997976
0.14242816 -0.03925794 0.07439278 0.109489314 0.11423418 0.07087111 0.06612254 0.112162
0.050973102 0.10566384 0.089953005 0.14609587 0.16051173 0.057014346 0.06866852 -0.0023165753
-0.023706704 -0.09929888 -0.15740584 -0.087376304 -0.0885807 0.11347131 0.08995677 0.11909565
0.022440054 0.07428875 0.046801243 -0.020331506 -0.01186691 -0.0680628 0.062010914 0.04438459
-0.012175234 0.06482274 0.014842918 0.1358562 0.09200566 -0.007672025 0.07565386 0.0007973545
0.0807098 0.09289167 -0.03033007 0.02055368 0.011956082 0.051637366 -0.03407614 -0.061007604
-0.17219785 -0.037867993 -0.028755106 0.022298116 -0.04879537 -0.15879759 -0.019014625 0.028166968
-0.005011263 -0.042843513 -0.17173365 -0.10446076 -0.10074632 0.034560118 -0.052171614 -0.11045986
-0.030222861 0.029964074 0.041768275 0.08203221 0.12808019 0.19816369 0.15036502 -0.05177129
-0.019700319 0.04972441 0.012746362 0.052259855 -0.0835253 -0.0940118 -0.12662062 -0.09723849
0.04649826 -0.06352806 -0.0501442 0.036212258 0.00083252793 0.10675952 -0.018006112 -0.11037771
-0.07837982 -0.07652315 -0.020839885 0.07837144 -0.001434541 0.04922848 0.044585954 0.0936445
-0.0684102 -0.13189505 0.0911742 0.11764923 0.03573099 -0.089142196 -0.075513646 0.055866294
0.013424805 -0.028024942 -0.07276714 -0.041085504 0.07248871 0.08100233 0.16024178 -0.002006691
-0.065867804 0.05253791 0.04166248 -0.02606728 0.12176234 -0.017221749 0.08945458 0.08441874
0.10440316 0.07635549 0.20482801 0.12427412 0.12338921 -0.058015876 0.032541923 0.05806509
1.5020284e-05 0.00075790274 -0.11768491 0.03709671 0.05719437 0.016607562 0.029217532 -0.012849641
-0.036240585 0.025175115 -0.09708522 -0.058803197 -0.08293746 -0.07485082 -0.082304 -0.1914127
-0.079365104 -0.092326604 -0.037364893 -0.039809197 -0.005131429 -0.008408995 0.09148829 -0.08817258

inception_blocks.0.conv_5x5.1.block.0.bias f4 [4]
00000000: 46e8 5239 1220 6338 536b 1939 b70e 21b9
0.00020113689 5.4150885e-05 0.00014631198 -0.00015359638

inception_blocks.0.conv_5x5.1.block.1.weight f4 [4]
00000000: 6b50 a43e 7b96 a23e ea49 d73e 0443 b13e
0.32092604 0.31755432 0.4204858 0.3462144

inception_blocks.0.conv_5x5.1.block.1.bias f4 [4]
00000000: 8dcd 4c3e a4d6 263e 39db e73c dca8 3b3e
0.20000286 0.16292816 0.028302776 0.18326133

inception_blocks.0.conv_5x5.1.block.1.running_mean f4 [4]
00000000: 1f2f 9f3e 7541 ad3e 710a bbbe b613 efbd
0.31090638 0.33839002 -0.36531404 -0.116736814

inception_blocks.0.conv_5x5.1.block.1.running_var f4 [4]
00000000: 0802 a13d 1d31 eb3d 16f5 233e ed13 cd3d
0.078617156 0.11483977 0.16011462 0.10013566

inception_blocks.0.max_pool.1.block.0.weight f4 [4, 32, 1, 1]
00000000: 24ce 1931 c848 8c30 577c dcb6 271a 0000
00000010: 1f75 35af e40d 0080 6c1d 9133 e132 06ac
00000020: 4ef4 d42d 0bda 732e eb92 85a8 b0da b6a8
00000030: 530e 0000 bba2 8035 0fd8 2929 b875 0080
00000040: 4c14 0080 8415 0000 2a08 0080 4948 0d2f
00000050: bc0a 0000 5c03 0000 de12 0000 fd0f 0080
00000060: a70b 0080 d719 0000 30d4 e633 1267 02a4
00000070: eb1e 0080 6939 0d36 1a05 0000 17e5 a32d
00000080: c154 4b91 72b0 9986 19bf 791b 637e 12bd
00000090: ea13 0112 37fb 053e 24f0 6837 adce 15bd
000000a0: 52ce 220e 0811 89a4 0847 68bd 4cad 0f10
000000b0: 8c31 5e3c 3d62 e028 acad 1c10 b280 4bb7
000000c0: 747b c7bd 99c6 fdbd df26 a6bd 7f14 0000
000000d0: e6d6 dcbd c820 39be d764 fabe a7aa d03c
000000e0: e3a4 cdbd 7793 783e b530 4c1e 6f0e 0000
000000f0: 18a6 f93d 5788 57bb a628 843d 7d77 b085
00000100: 0b54 1a91 cfca 0386 f4a1 621a 3302 053d
00000110: 1b32 1092 be1f 10be dfb4 b036 73f0 75bc
00000120: efac 620d e992 d884 2de6 5c3a 0a5a 0b0f
00000130: dff8 a5be dbc5 90a9 974a 890f 6e24 6138
00000140: 5c93 07bd 9ddb 07be a3fb 37bd 0515 0080
00000150: 582c 163e 67f7 81bd 7032 13bd b9ca f7bd
00000160: d858 6cbd 292b 24bd e500 8d22 130b 0000
00000170: 9d00 6cbe c2ac 2e3d 57e9 23be 9f25 a984
00000180: c9c8 1aa9 88fc ef32 f274 dca8 34aa 8a23
00000190: 44d1 f726 89af d9b1 b51b 81a9 ffc3 3530
000001a0: 602f e537 6a59 8f34 738d 84ad 299d fd34
000001b0: 0d53 c130 b711 10b8 98a7 e3b4 ba2a 0080
000001c0: 640d 0080 6faf 25ab 3996 8431 5e90 f728
000001d0: 3cb2 16ab 9e17 8125 5977 c9a5 f1a5 40b1
000001e0: e1db 8eae e1cf b9a6 0129 e928 51a8 9eb2
000001f0: 9860 3da7 2181 aeae 566c 4b25 37f8 5cac
2.2381608e-09 1.0207026e-09 -6.570986e-06 9.382e-42 -1.6503464e-10 -4.983e-42 6.7574405e-08 -1.9070789e-12
2.4210103e-11 5.5445464e-11 -1.4829682e-14 -2.03009e-14 5.139e-42 9.584104e-07 3.771294e-14 -4.223e-41
-7.281e-42 7.718e-42 -2.929e-42 1.2849556e-10 3.851e-42 1.205e-42 6.768e-42 -5.736e-42
-4.18e-42 9.27e-42 1.0748806e-07 -2.827656e-17 -1.1091e-41 2.1044054e-06 1.83e-42 1.8632691e-11
-1.6039993e-28 -5.7811467e-35 2.0658544e-22 -0.035765063 4.072977e-28 0.13084112 1.388419e-05 -0.036574055
2.0067381e-30 -5.944313e-17 -0.056708366 2.833528e-29 0.013561618 2.49116e-14 3.0899367e-29 -1.2129707e-05
-0.09740344 -0.12391395 -0.08112883 7.353e-42 -0.10783176 -0.18078911 -0.4890506 0.025471998
-0.10041215 0.24275003 1.08097425e-20 5.178e-42 0.12189883 -0.0032887661 0.064530656 -1.6594854e-35
-1.2174356e-28 -2.4787362e-35 4.686653e-23 0.0324728 -4.550015e-28 -0.14074609 5.266265e-06 -0.015010941
6.984979e-31 -5.091627e-36 0.0008426633 6.87057e-30 -0.32416436 -6.429207e-14 1.3537974e-29 5.3678108e-05
-0.033099517 -0.1326737 -0.044917714 -7.54e-42 0.14665353 -0.063460164 -0.035936773 -0.12099213
-0.057701916 -0.040080223 3.8219074e-18 3.973e-42 -0.23047109 0.042645223 -0.16006981 -3.976626e-36
-3.4369023e-14 2.79381e-08 -2.4475623e-14 1.5034074e-17 1.719579e-15 -6.3354872e-09 -5.733557e-14 6.6125944e-10
2.7320988e-05 2.6700883e-07 -1.5069479e-11 4.723927e-07 1.4066203e-09 -3.4348774e-05 -4.2403985e-07 -1.5327e-41
-4.804e-42 -5.886324e-13 3.858784e-09 2.7485118e-14 -5.3538055e-13 2.2393936e-16 -3.4948815e-16 -2.8034004e-09
-6.496471e-11 -1.2893299e-15 2.5885979e-14 -1.8470162e-08 -2.6281383e-15 -7.935542e-11 1.7644149e-16 -3.1401667e-12

inception_blocks.0.max_pool.1.block.0.bias f4 [4]
00000000: 98d8 3bad 96c3 9db9 4343 3d39 8035 2d31
-1.0677813e-11 -0.00030091096 0.00018049502 2.5205225e-09

inception_blocks.0.max_pool.1.block.1.weight f4 [4]
00000000: a5f4 9c9d 22de 7f3e 0322 6c3e 487e 2a39
-4.1545813e-21 0.2498708 0.2305985 0.00016259507

inception_blocks.0.max_pool.1.block.1.bias f4 [4]
00000000: 0dd7 a599 4b48 4e3e ebd2 103e eb8e 08ba
-1.7147458e-23 0.20144765 0.14142959 -0.0005209285

inception_blocks.0.max_pool.1.block.1.running_mean f4 [4]
00000000: f1f0 8fb1 dded 22be 5f8f abbe 50fa d7b0
-4.1892396e-09 -0.1591105 -0.3350782 -1.5714452e-09

inception_blocks.0.max_pool.1.block.1.running_var f4 [4]
00000000: 6340 3f26 df33 593c 8bc2 a83c b6db 3923
6.6353697e-16 0.013256996 0.020600578 1.0075396e-17
