models/inception/Inception1_RMSprop_32_lr1e-05_m0.99_wd0.001/Inception1_RMSprop_32_lr1e-05_m0.99_wd0.001.pth (torch, 823647 bytes, 262 tensors)

input_net.block.0.weight f4 [32, 1, 3, 3]
000000 9e 85 13 bc fb 4c 23 3d c5 dd ef 3c b5 ee 94 bc
       -0.009004025 0.039868336 0.029280553 -0.01818023
000010 eb 1d 19 3c dd 20 94 3c 72 52 61 bd 7a f7 3c bd
       0.009345512 0.018082077 -0.055010267 -0.04613445
000020 c1 5f 04 bd 59 9e 5f 3e df 82 d9 bd 6a a4 ae be
       -0.03231788 0.21837749 -0.10620665 -0.34109813
000030 18 69 77 3e 7c 4c fb 3d f5 44 fb be 7c 0b a1 3d
       0.24161184 0.122704476 -0.49076048 0.078635186
000040 f3 89 95 bd 07 b6 4e 3e 27 8e 9c bc f0 c1 d3 3d
       -0.07301702 0.20186625 -0.019110752 0.10339725
000050 21 92 2b 3e b5 5f 72 be 1d 61 7b 3e 0b a3 59 3e
       0.16754963 -0.23669322 0.24548765 0.21253602
000060 5e 93 a0 be e0 79 ff bc ed 03 4f be 08 b8 46 be
       -0.31362432 -0.031186044 -0.20216341 -0.1940614
000070 b5 3e f6 3d 7e 99 63 be 59 7c a1 3e f9 35 00 3e
       0.12023679 -0.22226521 0.31540182 0.12520589
000080 14 5d 3c be b6 25 84 3e a5 27 26 3d a9 93 5e be
       -0.18394881 0.2581002 0.04056515 -0.21736015
000090 43 47 89 3a f1 7d fe 39 aa f2 3a ba 2d 9a b1 3b
       0.0010473508 0.0004854049 -0.00071314967 0.0054199905
0000a0 04 82 b3 3b b0 06 c6 3b f7 47 30 3c 5f 24 43 3c
       0.0054781456 0.0060432777 0.010759345 0.011910527
0000b0 d6 f8 22 3c b8 c4 d0 37 9d ed 4c 37 b2 2b 54 b7
       0.009947022 2.4887137e-05 1.2214671e-05 -1.2646358e-05
0000c0 ec c8 2f b7 0e 33 36 b7 19 c6 9a 36 1a 29 c4 37
       -1.0477594e-05 -1.0859932e-05 4.6126193e-06 2.338416e-05
0000d0 7d ee d9 37 b4 c0 27 39 a6 ac b4 be 87 f5 ca be
       2.597947e-05 0.00015998149 -0.3528797 -0.39640447
0000e0 64 6f 5b be 75 f9 40 3e 75 4f 73 be 26 5c 29 3e
       -0.21429211 0.1884516 -0.23760779 0.16539058
0000f0 cc 42 02 3d 82 50 7e 3e 28 37 91 3e b8 e4 94 be
       0.031801984 0.24835399 0.28362393 -0.2908075
000100 91 29 42 bd c8 cc d8 3d 90 ec 5e be db 16 60 be
       -0.047402922 0.10585934 -0.21769929 -0.21883719
000110 69 b0 2c 3d 64 c0 41 3e 43 48 5b 3e 9d b4 61 3e
       0.042160425 0.18921047 0.21414284 0.22041555
000120 f6 c5 32 3c 6e cc f8 3b bb ce 06 3c 15 ce 22 bc
       0.010911455 0.0075927293 0.008227999 -0.009936829
000130 f9 ba dc bb ca 45 27 bc 19 d0 c5 bc b9 77 9d bc
       -0.006736156 -0.01020951 -0.02414708 -0.019222127
000140 3f 85 97 bc 0c 7b 97 bc 83 c7 7e bc 0c 8f 8a bc
       -0.018496154 -0.01849129 -0.015550497 -0.016913913
000150 8c a4 b5 bb 2d 02 00 bc f6 d0 e4 bb 50 0a 88 bb
       -0.005543297 -0.007813019 -0.006982918 -0.00415162
000160 77 39 42 ba 4a 32 db bb ab e2 d1 bb de e9 ed bb
       -0.00074090756 -0.0066893445 -0.0064051948 -0.007260545
000170 ec 45 d2 3a 47 2d f1 bc fe cd 4a bd c6 b2 b9 bc
       0.0016042567 -0.029440535 -0.049512856 -0.022668254
000180 e8 d6 ee bc de db 1d bd a0 40 05 bd 10 b7 ab bb
       -0.02915521 -0.03853976 -0.032532334 -0.0052403286
000190 e4 74 9a bb e5 63 ce 3b b1 ec 0d bc b9 f5 c5 bb
       -0.0047136415 0.0062985294 -0.008662389 -0.0060412553
0001a0 01 df dd ba 7f 18 bb bb 45 86 89 bb 82 0d 4b bb
       -0.0016927422 -0.0057097073 -0.0041969144 -0.0030983393
0001b0 10 fc 3b 3d 32 c1 a5 3d d0 49 c4 3d c6 d9 98 3b
       0.045894682 0.0809349 0.09584391 0.0046646325
0001c0 13 f4 51 3d 8d 40 69 3d 45 f6 5a bd 58 27 14 bd
       0.051258158 0.056946326 -0.053457517 -0.036170334
0001d0 cc 28 64 bc 26 67 1a 3d 16 00 d4 3c 7d f4 af 3c
       -0.013925742 0.037696026 0.025878947 0.021478886
0001e0 27 2f 1b 3c 53 89 c2 bb 3a b0 8d ba 0e db ff 3b
       0.009471691 -0.0059367805 -0.0010809966 0.007808096
0001f0 0b 26 d7 3a c0 68 ff bb 2d 71 93 b9 d4 e2 a7 b9
       0.0016414536 -0.0077944696 -0.00028122347 -0.00032021722
000200 61 ed b2 b9 a1 97 27 ba 2f 9d 28 ba d5 a5 28 ba
       -0.00034127667 -0.0006393139 -0.00064321136 -0.00064334023
000210 4f 60 0e ba 7a 45 37 ba 5c 43 91 ba 39 ae 75 38
       -0.0005431221 -0.0006991249 -0.0011082697 5.857481e-05
000220 74 1e 7c b9 36 b8 41 ba ac 54 14 3b e7 99 0e 3b
       -0.00024043937 -0.00073898153 0.0022633476 0.0021759213
000230 51 11 29 3b 6b 7c 23 3b 95 89 03 3b e8 e8 0d 3b
       0.0025797675 0.0024945985 0.002007102 0.0021653716
000240 6e a1 ce 3b 70 59 76 3b 8f ff 25 3a 6f 48 06 3b
       0.006305865 0.003758993 0.00063323317 0.002048995
000250 df bc 6d 3b 43 9f ce 3a 85 fd d7 3b 2e b7 25 3c
       0.0036275906 0.0015764016 0.006591501 0.010114474
000260 72 ea 35 3c f2 52 bc be ea 52 00 be b7 7b 60 3e
       0.011103259 -0.36782032 -0.12531629 0.21922193
000270 20 2e 02 bd fb b6 16 be d2 51 fd 3d ff fb 75 3e
       -0.03178227 -0.14718239 0.123691216 0.2402191
000280 4f dc ba 3d 56 07 b6 3c 13 d7 ac 3c 2a 6b 07 3d
       0.09124052 0.022220295 0.02109865 0.033061184
000290 24 e9 14 3d a4 7e 26 3d f8 ff 02 3d a2 38 26 3d
       0.036355153 0.040648118 0.031982392 0.040581353
0002a0 d1 41 67 3c 7e af 30 3d 7b 4d 8d 3d 4d 44 a2 bd
       0.014114813 0.043136112 0.06899544 -0.079231836
0002b0 e5 b2 5f bd 17 f1 63 bc 2d 7e e8 bb fc be f6 bc
       -0.054613966 -0.013912461 -0.0070951195 -0.030120365
0002c0 0e 4f 7b bc b9 db 84 3b 05 d7 0b bd ce eb d3 bc
       -0.015338672 0.0040545133 -0.034140605 -0.025869276
0002d0 62 a1 af 3b 15 17 08 bc 3a e6 8a 3c 6c 53 44 bb
       0.0053598145 -0.008306284 0.016955484 -0.002995695
0002e0 77 f3 a4 bc 02 c5 ed bb bc a6 58 bd ad 2d 3b bd
       -0.020135624 -0.007256151 -0.052893385 -0.045697857
0002f0 b7 ea 7b bc bf ee 31 3e 76 4b 6c 3e f3 f4 a1 bd
       -0.015375785 0.1737623 0.23075661 -0.079080485
000300 6e c9 e5 bc eb 3b 80 be 80 f4 c1 be dd 44 89 3e
       -0.02805015 -0.25045714 -0.3788185 0.2681035
000310 a5 a7 29 3e ec 0d 5d bd 5b 35 ff bc e8 43 b2 bc
       0.16567858 -0.053968355 -0.031153372 -0.021760896
000320 3b dd 13 bd 44 e0 b8 bc 52 0a 94 bc 25 8e 4d bc
       -0.036099654 -0.022567876 -0.018071327 -0.012546097
000330 85 b8 37 3c dd 2c 85 39 64 21 dd bb 44 50 fe bb
       0.0112134265 0.00025401163 -0.0067483652 -0.0077610333
000340 4a ea ad 3a 68 82 5f bb 2a 67 92 bb 2f 80 af ba
       0.0013268676 -0.0034104828 -0.0044678645 -0.0013389642
000350 05 a6 6b bb 8e 5c b6 3c 46 e8 be 3c 87 b1 b0 3c
       -0.003595711 0.02226093 0.023304116 0.021569027
000360 9a 0d 17 3e ac 2d 56 be 72 fa 59 be 69 29 9d 3d
       0.14751282 -0.2091586 -0.21286944 0.07673914
000370 0f cc 2d 3e 79 c3 00 3e 7e 42 c9 bd ab 5c 39 bd
       0.16972373 0.12574567 -0.098271355 -0.04525439
000380 08 38 3e 3d 4a 43 2c 3d 77 0d 39 3d b5 1b e2 3c
       0.046440154 0.04205636 0.045178857 0.027601102
000390 98 46 d7 3c d4 28 05 3d 98 df fd 3c bc 14 93 3c
       0.026278779 0.03250964 0.030990407 0.017954223
0003a0 3c 60 01 3c 9d da 1c bc eb 59 84 bc 5e 0e 9b bb
       0.007896479 -0.009573606 -0.016156157 -0.0047319373
0003b0 32 bd 0f 3c e2 3a d3 bb c4 e3 96 3b c9 39 95 3c
       0.008773135 -0.0064462284 0.0046047885 0.01821603
0003c0 60 93 c2 3c 32 16 1f 3d 05 34 3e 3d e0 ab 69 3c
       0.023751915 0.038839526 0.04643633 0.01426217
0003d0 79 dc 84 3e 53 ff c1 be 60 31 c1 3b ee 9e 26 bd
       0.25949457 -0.3789011 0.0058957785 -0.04067891
0003e0 01 ac 45 be 8a ae 39 be 4d 7d a3 3e 7f 90 58 3e
       -0.19303896 -0.18132988 0.31931534 0.21148871
0003f0 02 1b e4 bc 57 65 c8 bc 29 71 e5 bc b0 74 07 bc
       -0.02784491 -0.024462385 -0.02800806 -0.008267567

input_net.block.0.bias f4 [32]
000000 3b af 9f 37 a4 1e 3a b9 07 6b 8f b9 22 50 1c 38
       1.9035875e-05 -0.00017749757 -0.00027354827 3.7267928e-05
000010 05 ea 8c b6 82 19 01 32 48 05 01 39 c4 83 ad b8
       -4.1995686e-06 7.514588e-09 0.00012304366 -8.273826e-05
000020 b8 0f 22 b6 f9 ae 11 b5 b5 0b 4d b7 30 c4 de b3
       -2.414903e-06 -5.427133e-07 -1.2221678e-05 -1.0373367e-07
000030 c5 06 46 38 0b e2 b4 b4 ef 0c 4f 33 f2 f5 d6 b0
       4.7213183e-05 -3.369208e-07 4.8207706e-08 -1.5640451e-09
000040 19 fc a1 b3 23 7f 0f 39 81 1d 81 36 52 b4 cd b5
       -7.543003e-08 0.00013684905 3.8479343e-06 -1.532617e-06
000050 d3 87 e7 b5 bc af 1e b9 b1 78 fd 35 f7 ed 0e b6
       -1.7250371e-06 -0.0001513352 1.8885095e-06 -2.1298163e-06
000060 5f e1 90 b8 6a 21 91 35 a4 d5 02 b6 fe 9c a4 38
       -6.908434e-05 1.0813067e-06 -1.9495865e-06 7.8493715e-05
000070 3e b0 ad 36 86 a1 75 b8 ba c7 b1 b4 f2 8f e2 35
       5.176319e-06 -5.8562982e-05 -3.311414e-07 1.6880206e-06

input_net.block.1.weight f4 [32]
000000 6e f8 5e 3c d0 9b c4 3e c7 22 ac 3e 22 2b 49 3e
       0.013609035 0.38400126 0.33620283 0.1964536
000010 7f 07 80 bc f1 5c f2 3b 3b a5 0b 3f e8 be 68 3e
       -0.015628574 0.0073963334 0.54548997 0.22729075
000020 5b 85 63 bb c4 da 91 ba d0 be da bc 88 65 db 3b
       -0.0034716937 -0.0011127819 -0.026702315 0.006695453
000030 e8 a7 78 3d 5c 8e 9a bc 9e 43 bb b9 26 7d ee bb
       0.060707003 -0.01886671 -0.00035717798 -0.0072781025
000040 90 53 33 3c a1 08 6f 3e f9 8f 87 3c ca 7b 56 bb
       0.010945216 0.23343135 0.016548144 -0.0032727593
000050 c4 c3 28 bc ad dc 6e 3e 2b 3c b9 ba 9c a1 3c ba
       -0.01030058 0.23326369 -0.0014132311 -0.00071957125
000060 09 15 67 3e 9e c5 c9 3c f4 f2 93 bb 05 12 51 3e
       0.22566618 0.024630364 -0.0045150463 0.2041703
000070 78 b4 0a bc ef c0 d9 3e 3c f0 89 3b 49 e0 a6 bb
       -0.008465879 0.4253001 0.0042095464 -0.005092655

input_net.block.1.bias f4 [32]
000000 0d 47 a0 3c 5c 2c 8a 3d ee 04 12 3d 62 c2 0e 3e
       0.01956513 0.06746742 0.035649233 0.13941339
000010 79 e3 83 3c 05 ae 98 bb cd 36 e2 3e 4a 92 92 3d
       0.016099678 -0.0046594166 0.44182435 0.07156809
000020 cf 48 8f 3c 2d a7 16 bd 4d 99 0b 3d a2 cd e2 bc
       0.017490773 -0.036780525 0.034081746 -0.027685944
000030 fd 39 56 3d a3 2a c9 bc 02 95 1d bc a0 22 13 bd
       0.052301396 -0.024556464 -0.009618046 -0.035921693
000040 33 2c 6e bb 7e 57 fd 3d 11 0d c3 36 24 17 75 bc
       -0.0036342263 0.123702034 5.812974e-06 -0.01495913
000050 4b fb c7 3c 03 d0 72 3e 3e d8 6b bc ba c7 24 3c
       0.024411818 0.23712163 -0.014394818 0.010057384
000060 42 4f 0f bc 63 b8 1d 3d bf 10 61 bc e9 59 7c 3e
       -0.008746924 0.038505923 -0.013736903 0.24643673
000070 ae 31 95 3c 4e bc ad 3d db 32 6f 3a 60 68 21 bd
       0.018212166 0.08483182 0.00091247045 -0.03940618

input_net.block.1.running_mean f4 [32]
000000 20 10 6e ba 11 41 97 bb 44 a5 dc 3a 54 7f d7 3a
       -0.00090813823 -0.004615911 0.0016833921 0.0016441145
000010 27 fc 91 3a 76 63 9b 36 50 fd 19 bc 86 07 9d bb
       0.0011137769 4.6309387e-06 -0.009398773 -0.0047921566
000020 9d 78 99 ba fc d1 ff ba 5c 62 9c bb eb 67 54 ba
       -0.0011708919 -0.0019517536 -0.0047724675 -0.0008102643
000030 4d 1d cc 3b 60 36 09 3b 88 c5 f3 b8 1d 9e 9d 39
       0.006229079 0.002093695 -0.00011623936 0.00030063177
000040 39 e2 5d 3a d0 a7 ee ba 22 68 ec 3b 91 91 be bb
       0.0008464191 -0.0018207971 0.007214562 -0.0058156927
000050 4e 70 27 bb 73 c7 36 bb e1 d3 5d bb ec d5 40 3a
       -0.0025549117 -0.0027889877 -0.0033848213 0.00073560956
000060 4f 94 d6 3a ad c1 ac 3b f2 b6 08 3b d7 cc ee ba
       0.0016371104 0.0052721114 0.0020860997 -0.0018219006
000070 f7 1a ca ba 64 28 86 bb 7c a5 24 3a a1 4b 1a bb
       -0.0015419413 -0.0040941704 0.00062807626 -0.0023543613

input_net.block.1.running_var f4 [32]
000000 b9 e2 0a 3c b3 5a 65 3d 37 96 7d 3d 05 85 fc 3c
       0.008476906 0.0559947 0.061910834 0.030825147
000010 8f 64 2d 3b 18 aa c7 33 54 66 86 3e c8 73 8e 3d
       0.0026457643 9.2975995e-08 0.26249945 0.06955677
000020 40 73 7c 3b 80 6a e8 3b 0a a6 36 3d 6e ca c0 3a
       0.0038520843 0.007092774 0.04459194 0.0014708766
000030 84 42 7a 3d 86 1c 09 3c d0 0d e6 37 09 bd 58 39
       0.06109859 0.008368617 2.7424569e-05 0.00020669786
000040 01 94 b2 3a 0d c7 17 3d fc 22 c7 3d 69 95 7e 3d
       0.0013624431 0.037055064 0.097234696 0.062154207
000050 cd 8a 8d 3c ca f3 10 3d ab da 9e 3c d9 a2 32 3b
       0.0172781 0.035388745 0.019391378 0.002725771
000060 5c c1 4c 3c 0e 51 39 3d fb 2b 56 3c 7a 75 cf 3c
       0.012497272 0.045243315 0.013072009 0.025324572
000070 28 42 93 3b 60 51 04 3e 02 d8 1c 3a c6 58 30 3c
       0.0044939704 0.12921667 0.00059831154 0.010763353

inception_blocks.0.conv_1x1.block.0.weight f4 [8, 32, 1, 1]
000000 6c 94 25 ba 4f 27 b3 3a b4 f4 16 3b 21 a3 2d bc
       -0.0006316367 0.0013668331 0.0023034038 -0.010597975
000010 7c 13 60 b8 4c 18 1b b4 8a 51 9c bc e1 9d 3c bb
       -5.3423908e-05 -1.4444339e-07 -0.01908185 -0.0028780627
000020 d8 d7 f8 37 6f 5c 8c 38 94 6d 75 3a ae 93 80 b6
       2.9664414e-05 6.692937e-05 0.0009362337 -3.8318894e-06
000030 8d 35 5d b9 ab be cc 38 c2 2e c9 b3 6e ba 5a b5
       -0.00021096152 9.762993e-05 -9.368297e-08 -8.148262e-07
000040 bf 74 81 b4 38 d7 54 bc 88 22 29 b9 27 a1 1b ba
       -2.4113066e-07 -0.012990765 -0.0001612996 -0.00059367943
000050 cb 78 cc ba 40 3e 30 3b 3b 8c 15 38 bb 32 e6 39
       -0.0015599964 0.0026892573 3.5654968e-05 0.00043906816
000060 81 7e 0f bc 17 01 80 3a c7 8c 9b 3a a9 bd f1 bb
       -0.008758188 0.000976595 0.0011867516 -0.0073773456
000070 f2 fe 31 ba 40 f6 41 3c 3f 3a 4e b0 22 f3 b7 b8
       -0.0006790004 0.011838496 -7.5025136e-10 -8.771407e-05
000080 a2 32 8f bd 39 39 84 3e d3 f6 80 3c ba 54 95 bd
       -0.06992079 0.25824907 0.015742695 -0.07291551
000090 db 07 1a bc 35 61 0f b8 7e d4 0a 3e f6 43 bf bd
       -0.009401287 -3.4184388e-05 0.13557622 -0.093391344
0000a0 8b d4 a0 bc f3 8f 62 3b 93 08 81 bd 46 08 d5 ba
       -0.019632598 0.0034570664 -0.063004635 -0.0016253076
0000b0 67 9b 9c bd 23 61 18 bc a8 a4 80 ba 76 b2 a3 3b
       -0.07646828 -0.009300503 -0.0009814696 0.0049956394
0000c0 1b 3d 8c bc c1 4a 4d be 02 4c 89 3a 4a 9d d5 bb
       -0.017118981 -0.20048048 0.0010474923 -0.0065189945
0000d0 12 e2 d2 bb e8 ed cc 3b 00 b9 1e bd 66 4e 42 bc
       -0.006435641 0.0062539466 -0.03875065 -0.011859512
0000e0 40 55 7e 3d e5 07 6c 3d 87 52 e2 bb 7d ba 5c 3d
       0.06209302 0.057624716 -0.0069068107 0.053888787
0000f0 7c 7e 9d 3c 78 22 43 be 63 a1 43 bb 14 e5 80 3c
       0.019225352 -0.19056118 -0.0029850833 0.015734233
000100 7b 52 17 98 3b 56 05 99 73 51 6e 19 19 29 3f 17
       -1.9557935e-24 -6.893353e-24 1.232076e-23 6.17673e-25
000110 f7 cf b3 19 fb 86 72 19 1f ee c7 1a 24 3e f4 19
       1.8592163e-23 1.2538366e-23 8.2689176e-23 2.5254107e-23
000120 5a 5b 0e 99 97 65 a2 19 5a 6f 55 15 68 c8 b8 98
       -7.359676e-24 1.679144e-23 4.3102848e-26 -4.7765244e-24
000130 a9 13 ae 17 14 c4 95 16 95 c2 41 1a 2c 14 f2 18
       1.1249449e-24 2.419599e-25 4.0068647e-23 6.2575902e-24
000140 d8 74 54 97 12 bb 38 9a 1f a9 04 9a 3b 19 2f 99
       -6.864837e-25 -3.8201422e-23 -2.7433575e-23 -9.052383e-24
000150 09 1d b2 18 c7 c6 ee 9a 6a 29 f2 18 78 7f fc 16
       4.604124e-24 -9.8755635e-23 6.259735e-24 4.079324e-25
000160 0d 40 51 9a 45 64 b7 9a f0 fc a1 98 72 97 72 9a
       -4.3271927e-23 -7.584902e-23 -4.1872926e-24 -5.0166764e-23
000170 8f 63 d8 19 a6 7d ae 9a 1e d1 e4 97 61 27 67 19
       2.2374088e-23 -7.216771e-23 -1.4786943e-24 1.19503726e-23
000180 f4 14 8d bc 19 8e 16 be 09 30 f8 3c 75 80 8e bd
       -0.017221905 -0.14702643 0.030296342 -0.06958095
000190 b8 82 c9 3c 81 93 5f b7 f4 1f 9d be 51 36 0c be
       0.024598464 -1.3326179e-05 -0.3068844 -0.13692595
0001a0 ee 58 c4 bc 8e b7 21 3b 4a 71 b3 3c 7a 9b c9 ba
       -0.023968186 0.0024676058 0.021904606 -0.0015381419
0001b0 a4 4e 71 3d c3 53 d7 bc e0 b9 63 ba d6 1f 80 bb
       0.05891289 -0.026285058 -0.00086870603 -0.003910045
0001c0 07 f7 99 3b 5a e2 25 be 2c 5b 3d 3c 98 b6 d6 bc
       0.0046986374 -0.16199628 0.011557382 -0.026210114
0001d0 7a d7 d7 3b 97 2c 81 bc 09 84 63 bd 55 ab 13 3c
       0.006586966 -0.015768332 -0.05554584 0.009013017
0001e0 ee 69 20 be 50 5f 8a 3d 62 aa 1f 3d 85 da 63 bc
       -0.15665409 0.06756461 0.03898085 -0.01390708
0001f0 f9 a0 c1 3c 3d d9 98 bc 78 4e c2 bb 04 28 d5 bb
       0.023636328 -0.018658275 -0.0059297644 -0.0065050144
000200 74 43 74 bd 42 f3 43 be 32 2e 07 3e 17 6a b0 be
       -0.05963464 -0.19135764 0.13201216 -0.3445594
000210 6d aa 3b 3c 61 8c dd b8 b0 71 a5 bd 30 9c bc 3d
       0.011454207 -0.00010564249 -0.08078325 0.09209478
000220 89 f5 79 3c c0 28 df 3a b9 fa 27 3d 39 f4 e0 b7
       0.015256294 0.0017025694 0.041010592 -2.6816606e-05
000230 d9 c1 98 3d 55 d0 02 bc 3a e9 e0 ba a2 0a c2 3b
       0.074588485 -0.007984241 -0.0017159351 0.0059216777
000240 16 6f e2 ba e5 6b d1 3c 28 19 f2 bb ec 20 a3 bc
       -0.0017275538 0.025564143 -0.0073882528 -0.01991316
000250 06 30 95 3c 48 4f c2 bd 03 f4 b1 bc 69 67 04 3d
       0.018211376 -0.09487778 -0.0217228 0.032325182
000260 1b 9f 4a bd dd f2 47 bb 5d 39 5a 3c 49 f3 03 3e
       -0.04946814 -0.0030509748 0.013319341 0.12885775
000270 fd 94 b2 bc 40 f2 ee 3d 01 55 06 bb 89 ef 64 3c
       -0.021799559 0.11667299 -0.0020497444 0.013973125
000280 c1 04 00 80 34 15 00 80 a5 03 00 80 b7 01 00 00
       -1.705e-42 -7.606e-42 -1.307e-42 6.15e-43
000290 0c 00 00 80 2f 08 00 00 09 04 00 00 22 07 00 80
       -1.7e-44 2.936e-42 1.448e-42 -2.559e-42
0002a0 7f 00 00 80 84 01 00 80 70 02 00 80 10 02 00 00
       -1.78e-43 -5.44e-43 -8.74e-43 7.4e-43
0002b0 b2 14 00 00 17 02 00 80 01 01 00 80 5a 03 00 00
       7.424e-42 -7.5e-43 -3.6e-43 1.202e-42
0002c0 8c 00 00 80 e4 01 00 80 36 02 00 80 8d 01 00 00
       -1.96e-43 -6.78e-43 -7.93e-43 5.56e-43
0002d0 a1 06 00 80 05 05 00 80 4a 00 00 00 e7 04 00 00
       -2.378e-42 -1.8e-42 1.04e-43 1.759e-42
0002e0 df 01 00 80 79 04 00 80 76 01 00 80 0d 04 00 80
       -6.71e-43 -1.604e-42 -5.24e-43 -1.453e-42
0002f0 f5 00 00 80 ad 03 00 00 42 01 00 00 c5 01 00 00
       -3.43e-43 1.319e-42 4.51e-43 6.35e-43
000300 23 38 82 bc cc 40 bf bc 80 bc 7e bd 04 a8 14 bc
       -0.015895909 -0.023346327 -0.062191486 -0.009073261
000310 9e 6f a1 3c e9 d8 4c b8 d4 c2 dd bd a8 ee d0 3c
       0.019706544 -4.8839403e-05 -0.10828176 0.025504425
000320 a7 92 05 bc 75 43 aa b9 6c 1d 06 3d a2 20 82 b8
       -0.00815264 -0.00032475186 0.032742903 -6.2049614e-05
000330 08 d3 5e 3d 40 b5 15 3c 2e 6e 0d 39 b5 01 7c 3a
       0.054400474 0.009137452 0.00013487853 0.00096132915
000340 fe 58 1d 3c dc 71 62 3d b0 d2 18 3c e3 71 77 ba
       0.009603737 0.055284366 0.009327576 -0.00094392727
000350 66 e8 d6 3c 09 72 8b 3d 51 cc d4 bc bf 74 e9 3b
       0.026233863 0.0680886 -0.025976332 0.007124513
000360 39 83 ab bd 84 03 d0 3c a9 4b 9f b9 50 7e f2 bd
       -0.08374638 0.025392301 -0.00030383214 -0.118404984
000370 c4 35 18 bc b6 be 1c 3e ce 33 9f ba bd 1f 95 3c
       -0.0092901625 0.15307125 -0.0012146176 0.01820361
000380 31 6b 21 bd d9 3e 22 be ab b0 79 bd 66 a5 e0 bd
       -0.039408866 -0.15844287 -0.0609595 -0.10969047
000390 9e c6 a7 bb b1 4d 96 b7 d2 6c 30 3e da 0c 4e 3d
       -0.0051201126 -1.7917571e-05 0.17229012 0.050305225
0003a0 91 e9 ff bb 0d 71 58 ba 9c b1 6b bd 94 f8 ff b8
       -0.0078098257 -0.0008256592 -0.05754243 -0.00012205649
0003b0 a0 29 f7 bd bf b1 a3 3c 85 62 d2 39 60 cc 2b ba
       -0.12068486 0.019982217 0.00040127724 -0.00065535866
0003c0 de ef 7d 3c 9b 4b 87 3c f1 88 0e 3d 00 55 b4 bc
       0.015499083 0.016515544 0.034798566 -0.022013187
0003d0 9f 33 d5 bb 88 d6 c8 bc de a7 13 3c d1 58 ff bc
       -0.006506398 -0.024516359 0.009012191 -0.03117028
0003e0 c1 d7 59 be 0a 2b c0 3c 8d 28 07 3b 0b fe 3d bd
       -0.2127371 0.023458023 0.0020623535 -0.046384852
0003f0 51 5a 0b 3b f5 e0 ff bd e8 52 cd 39 e0 7f 5f bb
       0.002126355 -0.12494079 0.00039162417 -0.003410332

inception_blocks.0.conv_1x1.block.0.bias f4 [8]
000000 b3 80 42 36 9d a8 54 b8 a6 7d 94 94 46 79 5c 39
       2.8983166e-06 -5.0701772e-05 -1.499374e-26 0.00021026013
000010 10 84 58 b9 b5 00 00 00 f2 c4 21 b8 18 09 38 39
       -0.00020648562 2.54e-43 -3.856881e-05 0.00017550995

inception_blocks.0.conv_1x1.block.1.weight f4 [8]
000000 78 00 32 3b 38 b7 81 3e 0a 49 95 18 2c ef dd 3e
       0.0027160924 0.25335097 3.8589348e-24 0.43346536
000010 03 10 91 3e d5 02 00 00 1a c5 ce 3d a7 70 02 3e
       0.28332528 1.016e-42 0.10096188 0.12738286

inception_blocks.0.conv_1x1.block.1.bias f4 [8]
000000 79 86 0b bd ff 96 49 bd 2d 32 cc 1b e5 f4 69 3e
       -0.03406379 -0.049216267 3.3781394e-22 0.22847326
000010 8b 44 b2 3e 40 e2 a4 06 a9 67 46 3d 9c a8 07 3d
       0.3481792 6.202239e-35 0.0484387 0.033119783

inception_blocks.0.conv_1x1.block.1.running_mean f4 [8]
000000 bc 2a 62 bc 6a 6c 2a 3d 8d c0 a0 18 ec 42 75 be
       -0.013804134 0.041607298 4.1553457e-24 -0.2395131
000010 c4 a7 85 bd 94 00 00 00 07 c7 25 bd fd 9b 7c bc
       -0.065261394 2.07e-43 -0.04047301 -0.01541805

inception_blocks.0.conv_1x1.block.1.running_var f4 [8]
000000 90 40 3c 39 86 5a ab 3b 04 00 00 00 f6 35 12 3d
       0.00017953129 0.005229297 6e-45 0.035695992
000010 55 f2 36 3c 04 00 00 00 1f e1 69 3b 7d 73 ba 3b
       0.011166175 6e-45 0.003568716 0.005690037

inception_blocks.0.conv_3x3.0.block.0.weight f4 [12, 32, 1, 1]
000000 57 38 4d b9 22 83 7b 3a ba 0a 3c bb 66 8f 3e 3a
       -0.00019571312 0.00095944304 -0.0028692917 0.0007269293
000010 8d e2 b2 b6 31 e3 8d b6 8f 76 6d ba f7 3f 60 b9
       -5.3311874e-06 -4.228576e-06 -0.0009058499 -0.00021386133
000020 7e 79 45 b9 03 82 46 b8 da c3 40 b8 fa 07 38 b8
       -0.00018832643 -4.732796e-05 -4.5958768e-05 -4.3876447e-05
000030 37 4d 84 ba 43 60 33 34 42 c7 bb b7 6c ca d6 38
       -0.0010093813 1.6705694e-07 -2.2384924e-05 0.00010242019
000040 e3 e2 b5 35 0b 34 9d 39 da cc 88 37 35 93 06 37
       1.3551584e-06 0.0002998415 1.6307855e-05 8.021297e-06
000050 69 ef dd 33 7d 2a b6 3a 5a 7b e2 b9 88 5a d5 b8
       1.0334663e-07 0.001389816 -0.00043197983 -0.00010173494
000060 bf ca 3d ba bf 43 15 b9 e3 dd c7 b8 2d 55 34 3b
       -0.00072399894 -0.00014234985 -9.530389e-05 0.002751659
000070 8d dd 57 b6 da a3 19 ba 54 c3 5b 36 4e 28 5c 36
       -3.2166456e-06 -0.00058609026 3.274724e-06 3.2806015e-06
000080 44 b2 aa 3c c5 3a 9b 3d 52 04 02 be ac 2f 9f 3d
       0.020836957 0.07579569 -0.1269696 0.077727646
000090 92 5d 23 3c 87 b6 10 b9 60 2d 88 be 36 f2 a1 bd
       0.009971039 -0.00013800907 -0.26597118 -0.07907526
0000a0 79 8b 91 bb 08 cf 3f 3a e2 56 0a bc a6 6b 53 3a
       -0.0044416753 0.0007316922 -0.008443566 0.0008065052
0000b0 5f 45 d1 3d 69 55 83 3c 3d 16 f0 b8 ab 2b e9 3b
       0.102183096 0.016031938 -0.00011448234 0.0071158013
0000c0 2f ff 10 3c 70 d2 34 bd 2d f6 d0 bc be 82 37 bd
       0.008849903 -0.044146 -0.02550801 -0.04480242
0000d0 97 dc aa 3c c6 7c 88 3c 2c 2b 8b bc 08 c5 28 3c
       0.020857139 0.01666106 -0.01698836 0.010300882
0000e0 58 2c 8b bc 2a aa 35 3d 5b 5b bf 3c 7e 58 22 be
       -0.016988918 0.044351734 0.023358991 -0.1585407
0000f0 42 65 04 3c 14 6c 89 3e a7 18 06 bc 84 ce 0e 3d
       0.008080782 0.2684027 -0.0081845885 0.034864917
000100 22 b4 90 3a f1 5b 23 3d df 11 c3 bb d1 ac 8d 3c
       0.0011040012 0.039882604 -0.005953058 0.01729432
000110 0e a8 5f 38 33 4f f2 35 4d fd f2 ba 10 b8 9a bc
       5.3323856e-05 1.8053455e-06 -0.0018538624 -0.018886596
000120 4c 61 4d ba 67 cc 92 b8 33 1c 74 bb cf fd c6 b8
       -0.0007834628 -6.9998954e-05 -0.0037248253 -9.488651e-05
000130 ad 4a 91 bb 8b b0 a4 37 95 ab e5 37 63 07 13 3a
       -0.004433951 1.9632533e-05 2.7378826e-05 0.00056087057
000140 2b bb bb 36 b1 cc aa bc 16 02 8e 3a 86 04 d4 38
       5.5948235e-06 -0.020849558 0.0010834362 0.0001010979
000150 8d db b3 ba 23 96 a8 3c 2f 0d 92 3a ea 21 e1 3a
       -0.0013722047 0.020579403 0.0011142845 0.0017176245
000160 54 94 c3 bb a9 9e 0b 39 ec bb a1 39 2d ec 92 bc
       -0.00596861 0.00013315179 0.00030848326 -0.017934883
000170 f4 4a 18 ba 25 37 56 3c fe f1 0f b7 9c c6 b4 b8
       -0.0005809509 0.013074671 -8.579807e-06 -8.620063e-05
000180 f1 fd 73 bc 92 00 fc 3c 5c 67 34 3d a2 bc 74 bd
       -0.014892087 0.03076199 0.044043884 -0.059750207
000190 24 39 47 bc 94 1c 55 b7 82 f0 e7 3e 43 fc ac 3d
       -0.0121596195 -1.2702443e-05 0.4530068 0.084465526
0001a0 94 f1 36 bc e2 e9 7a ba 06 a3 92 bd 9c 35 2a b9
       -0.011165995 -0.00095715944 -0.071600005 -0.00016232434
0001b0 3f c5 ab bd 6e c6 4e 3d 23 ec 2f 3a 7f f1 bc 3b
       -0.08387231 0.050482206 0.00067109073 0.0057660933
0001c0 b1 ce c1 ba fa a2 e6 3c 98 e3 87 3d bf 8c ad bc
       -0.001478633 0.028153885 0.06635207 -0.021185277
0001d0 18 8a 07 bd d6 73 1b bd 43 9b da bc 75 15 0b bd
       -0.03309068 -0.037952267 -0.026685363 -0.03395601
0001e0 0a 1b 90 bd 04 21 07 3d f7 7d 29 3c 12 9a 0d 3d
       -0.07036407 0.03299047 0.010344974 0.03457076
0001f0 5d a7 70 3c 34 79 9c bd 43 18 5a 3b e5 bd 90 3a
       0.01468834 -0.07640305 0.0033278621 0.0011042921
000200 31 22 77 3b 82 0b 29 bd 11 e3 14 3d 78 d8 83 bc
       0.0037709589 -0.04127074 0.03634936 -0.016094431
000210 c3 0a 43 3a 32 ff f5 b6 be 37 f6 bc b6 c5 e8 3b
       0.0007440263 -7.3312776e-06 -0.030055877 0.007103647
000220 c6 d5 87 ba 95 b6 59 b9 ef a0 64 3d 52 79 11 39
       -0.0010363392 -0.0002076275 0.05581754 0.00013873473
000230 ee 37 4b 3c 21 8c b1 b9 b1 f8 c8 b8 1b eb e8 b8
       0.012403471 -0.00033864475 -9.5830655e-05 -0.00011106414
000240 40 49 51 3b 1e 01 96 3c a8 77 8e bc 07 2f 19 3a
       0.003193453 0.01831108 -0.01739104 0.00058434944
000250 e8 2d 04 bc cc 85 a4 37 ea e6 65 3c 5d 31 d2 3a
       -0.0080675855 1.9612628e-05 0.014032105 0.001603644
000260 d6 b1 36 bc 8a 5d 3d bc 70 7c 4d 3a db c0 86 bc
       -0.011150798 -0.011557946 0.0007838672 -0.016449383
000270 12 a4 39 39 4e 5d b7 3d 02 c2 3a 3b 47 d9 17 bb
       0.00017704096 0.08953343 0.0028496985 -0.002317028
000280 5e 4c 26 3c 95 0b 91 3d ac ab 54 be 7e de db bb
       0.010150043 0.07082287 -0.20768613 -0.0067098727
000290 52 58 79 bc 68 18 ed b9 87 4b 18 be a7 2f 79 bd
       -0.015218811 -0.00045222347 -0.14872561 -0.06083646
0002a0 ac 9d 25 bc 30 84 de bb f7 6b 4a 3d 42 f6 92 39
       -0.010108393 -0.0067906603 0.04941937 0.00028030766
0002b0 27 24 f0 bc 9e 38 6a bd 51 46 e8 b7 01 59 b9 3a
       -0.029314114 -0.0571829 -2.7689299e-05 0.0014140905
0002c0 51 b0 1a bc 7d 1f 6d bb b1 da c5 bc 68 bf d3 3c
       -0.009441451 -0.0036182099 -0.024152132 0.025848106
0002d0 bd 4f 4b 3b 8c 80 a8 bd 08 54 02 3c cd 80 48 bc
       0.003102287 -0.08227643 0.007954605 -0.01223774
0002e0 c6 55 16 be 0e 69 59 bc 00 1a 8e 3c d8 6f 10 bd
       -0.14681157 -0.013269676 0.017346382 -0.035262913
0002f0 0e 3c 00 3d c4 34 74 be b6 34 c7 3b 69 9c 0f bd
       0.031307273 -0.23848253 0.0060792817 -0.035061274
000300 5b 3f 8c bc fc 78 c9 3d 0b 36 ca 3d 65 7e 10 bd
       -0.017120054 0.09837529 0.09873589 -0.03527679
000310 84 ed da 3c d2 ae 27 b9 00 06 da bd 62 c8 87 bd
       0.026724584 -0.00015991487 -0.10645676 -0.06630017
000320 87 9b 8b bc 13 9a e1 ba c0 21 60 bc 22 cd 34 39
       -0.017041935 -0.0017212055 -0.013679922 0.00017242556
000330 7d 29 9b 3d c5 bf ee 3c 25 fe c7 b9 e0 97 cc 3b
       0.07576273 0.029144177 -0.0003814559 0.006243691
000340 31 78 dd 3a 02 a2 39 be 6d 9c 53 3c 28 54 1e bc
       0.0016896782 -0.18128207 0.012915713 -0.009663619
000350 12 a6 8c bb 99 8a a9 bd e3 03 5b 3b 17 ef fa bc
       -0.004292258 -0.082783885 0.0033419065 -0.030631585
000360 d4 a5 b2 bc 85 ad e0 3b f4 d3 83 3c 82 47 1e be
       -0.021807589 0.0068566226 0.016092278 -0.15456966
000370 17 40 75 bc dc 14 7b 3e 71 ab ce bb 65 db 23 3b
       -0.0149688935 0.24519676 -0.0063070585 0.0025002596
000380 8c dd 99 bc 4a c6 c4 bc 9f 8f 89 3d 1c 39 45 bd
       -0.0187824 -0.024020333 0.06716847 -0.048150167
000390 b3 9a 49 bb 21 08 12 37 7b 7d 58 3c 95 de 38 3d
       -0.0030762374 8.704171e-06 0.013213511 0.045134146
0003a0 3e 1b a4 3b bf 16 85 38 eb 93 1e 3d 3c 86 3a 38
       0.0050081303 6.346171e-05 0.038715284 4.447087e-05
0003b0 c2 57 5f 3b 85 a0 34 bb 7b aa 54 b9 02 97 55 3a
       0.0034079407 -0.0027561497 -0.00020281404 0.0008147807
0003c0 10 ab 95 bb d7 c2 9e 3c bd b3 0a 3d d1 a2 17 bc
       -0.0045675114 0.019380016 0.033862818 -0.009255127
0003d0 46 f5 a3 3c 64 50 8e bc c2 8a 92 3b f4 40 07 3b
       0.020014416 -0.017372318 0.0044721076 0.002063808
0003e0 6c 02 49 3c 1b 7f 16 3b c4 95 c5 b9 ae 19 09 3d
       0.012268644 0.0022963944 -0.00037686352 0.033471756
0003f0 93 fb 8a 3c 4e 6f 31 3d 53 59 b0 3b c4 63 73 ba
       0.016965663 0.04331904 0.005381742 -0.00092845806

inception_blocks.0.conv_3x3.0.block.0.bias f4 [12]
000000 46 43 c3 b2 38 79 18 b9 ab 2e cf 35 2b 9f 09 3a
       -2.273158e-08 -0.00014541007 1.5436284e-06 0.0005249853
000010 6d 69 3d 37 c0 42 07 38 91 1b b8 b9 1a e2 34 b8
       1.1289824e-05 3.2248674e-05 -0.00035115753 -4.3125918e-05
000020 01 fd 42 b6 27 67 73 39 22 16 1a 39 62 d9 15 35
       -2.905552e-06 0.00023212713 0.0001469483 5.582316e-07

inception_blocks.0.conv_3x3.0.block.1.weight f4 [12]
000000 7c f6 a8 3a 7e 06 9d 3e 67 b5 3c bb 3a 6d d1 3e
       0.0012890841 0.30669016 -0.0028794648 0.40903646
000010 32 8d f6 b9 c5 8e 54 3e 09 e3 8a 3e de 62 7d bc
       -0.00047025975 0.20757587 0.2712634 -0.015465466
000020 9f 29 31 bc 56 ce c0 3e be f2 57 3e cd ac 0a 3c
       -0.010813146 0.37657422 0.21088693 0.0084640505

inception_blocks.0.conv_3x3.0.block.1.bias f4 [12]
000000 62 77 89 bc 27 6d 48 3e 5a 8e b3 bc d1 54 48 3d
       -0.016780559 0.19572888 -0.021918464 0.048909012
000010 22 95 4c 3d 5b 66 3e 3c 93 22 23 3c fc 13 b0 3d
       0.04994691 0.011621083 0.009956974 0.08597562
000020 c9 b3 e8 bc 10 94 82 3e 91 0f 1c 3e d9 c3 45 bc
       -0.02840604 0.25503588 0.15240313 -0.0120706195

inception_blocks.0.conv_3x3.0.block.1.running_mean f4 [12]
000000 86 0b 05 3a 49 a1 f2 bd 43 e2 b2 3b ae 8c 63 3e
       0.00050752645 -0.11847169 0.0054591014 0.22221634
000010 26 bc 49 bb 60 d2 35 be d8 bc a2 bd a6 c3 cc 3c
       -0.0030782311 -0.17756033 -0.07946175 0.024995636
000020 ce c0 f9 3c 48 7a 13 be 5e 21 1f 3e d7 5c 33 3b
       0.030487444 -0.14402115 0.15540072 0.002736857

inception_blocks.0.conv_3x3.0.block.1.running_var f4 [12]
000000 77 92 a8 35 ec 07 83 3c 25 2c 1f 39 87 d0 f8 3c
       1.2559602e-06 0.015994988 0.00015179867 0.030372871
000010 64 08 50 3a d8 0a 05 3c b0 1c 76 3c 2b 91 05 3a
       0.00079358206 0.008120261 0.015021488 0.0005095179
000020 26 ea cf 39 a2 92 51 3c 50 11 1b 3c 5e 54 95 39
       0.0003965657 0.012791308 0.009464577 0.00028482353

inception_blocks.0.conv_3x3.1.block.0.weight f4 [16, 12, 3, 3]
000000 3d 36 8b 38 9d 95 2f 38 81 e8 52 b9 39 ef ab 39
       6.638139e-05 4.186259e-05 -0.00020113775 0.00032793896
000010 50 6d 26 39 7f dc d4 38 ab 21 d2 b7 cc 66 ab b7
       0.00015871716 0.00010150018 -2.5049629e-05 -2.0432657e-05
000020 8d c8 b8 39 55 4d 22 be fa 41 2b be ae ae b8 bd
       0.00035244637 -0.15849812 -0.16724387 -0.090176925
000030 2a 78 43 3d 3a a0 a6 3c 31 7e a1 bc e1 05 48 3e
       0.04772202 0.020340074 -0.019713493 0.19533493
000040 b0 f0 68 3d dc ba 6b bd cc dd 8a bb d7 09 80 bb
       0.056870162 -0.05755125 -0.004237866 -0.003907423
000050 04 26 08 ba 53 8e 41 3b 63 f6 bf 3b 52 c7 d4 3b
       -0.0005193653 0.0029534295 0.005858229 0.0064934874
000060 f7 ff 3b ba 21 53 70 3b 7f e0 2b 3b 88 7f 22 3e
       -0.00071716256 0.0036670642 0.002622634 0.15868962
000070 3a f8 88 bd 8d 5c 91 be 89 05 7e bc 63 a1 52 be
       -0.066879705 -0.28390923 -0.015504249 -0.20569377
000080 24 99 01 be e9 bf db bd bf ac 8b bd 77 04 2c bd
       -0.12656075 -0.10729963 -0.06820058 -0.041996446
000090 41 05 c8 3c c9 c1 67 3c f2 3c 9b bc f5 6d dc 3c
       0.024416568 0.014145323 -0.01894996 0.0269079
0000a0 3c d7 85 3c 32 41 a2 bb 2b 80 22 bc f0 e0 85 bc
       0.016337983 -0.0049516195 -0.009918253 -0.01634261
0000b0 cc 43 99 bc c2 72 60 bc a4 b2 34 3c 5a 24 42 3d
       -0.018709086 -0.013699235 0.011028919 0.04739795
0000c0 37 e5 4e bc 17 7a 6d 3d 1b e6 7e 3d d0 24 1d 3e
       -0.012627891 0.057977762 0.062231164 0.15346074
0000d0 cd a2 b7 3d 3e 7a 22 3d a0 eb fa bd 19 27 a1 bd
       0.08966599 0.03966736 -0.12251973 -0.078687854
0000e0 75 f6 15 be 91 59 f2 bc 98 d4 76 bd 06 34 d8 bd
       -0.14644797 -0.029583724 -0.06026134 -0.10556798
0000f0 6d 44 bb bd d0 14 91 bd 0e 62 f8 bd 61 4b 87 bc
       -0.091439106 -0.07084048 -0.121280774 -0.016515436
000100 af aa 8a b8 76 c4 6c bd d5 a4 19 bd 00 75 db bb
       -6.612145e-05 -0.057804547 -0.03751071 -0.006697297
000110 c4 1f 59 bd 95 3f 26 bd d5 6f f9 bb e4 35 54 bd
       -0.05300881 -0.04058798 -0.0076122084 -0.051809207
000120 81 b2 04 bc 9b 07 dd bb 5e 08 63 bc 3d e4 8c 3b
       -0.008099199 -0.0067452914 -0.013856975 0.004299669
000130 a7 92 14 3a bf 58 18 bb b8 3e ed ba 48 c3 8d 38
       0.0005667605 -0.0023246256 -0.0018100357 6.759778e-05
000140 f8 87 be 3a d3 88 c8 bd 2d 0b 29 3d 26 c8 b6 bd
       0.0014536371 -0.09791722 0.041270424 -0.08924894
000150 9c 4f f1 3c c0 e0 84 3c 65 8f 9b bd cf d4 3e bd
       0.029456906 0.01622045 -0.0759571 -0.04658967
000160 8a a8 02 ba cd 38 ae bd a2 49 78 3d be e9 04 bc
       -0.0004984221 -0.08506928 0.060617097 -0.008112369
000170 f5 6f 2b bc 80 6f a7 bd d4 e9 0c bc c9 30 78 3c
       -0.010463704 -0.08175564 -0.008600671 0.01514835
000180 37 bf 9d b9 08 5f 9b bc 61 95 a9 bd d6 4d ce 3c
       -0.0003008784 -0.018966213 -0.08280445 0.0251836
000190 5d 41 e5 3c 1e c7 9f 3c 16 33 59 3c d3 b0 80 3c
       0.02798527 0.019504126 0.013256809 0.015709316
0001a0 be 72 4f 3c 89 44 af 3b af d4 f9 ba 0c c0 74 bb
       0.012661634 0.005348746 -0.0019060577 -0.0037345914
0001b0 d0 f8 9e b5 3d 96 d9 36 4c 7d 22 38 b9 86 05 b7
       -1.1844331e-06 6.484594e-06 3.87405e-05 -7.958785e-06
0001c0 9a 43 ba 37 a1 93 c8 35 0e 21 9a 37 7a 07 38 b7
       2.2204407e-05 1.4944127e-06 1.8373623e-05 -1.0968995e-05
0001d0 2b 72 8e b7 6c 21 ac b8 a7 18 a9 ba 03 10 bb ba
       -1.6980883e-05 -8.2078244e-05 -0.0012901024 -0.001427174
0001e0 16 7d 0d 3b a0 ab a8 3a ec 17 9f 3a e7 5d d7 3a
       0.002158945 0.0012868531 0.0012137867 0.0016431183
0001f0 3d 2a e1 b9 63 7b 60 b9 16 83 51 38 7a 05 5a b8
       -0.00042946814 -0.0002140827 4.9951566e-05 -5.198035e-05
000200 d6 83 09 b8 4c d0 0a b9 8d 2d 36 b8 87 de f2 b6
       -3.2786127e-05 -0.00013238302 -4.3434604e-05 -7.2380676e-06
000210 5f 4d 61 37 ae e9 ab b8 b7 03 ed b7 e6 7c aa b9
       1.3429059e-05 -8.197442e-05 -2.8254331e-05 -0.00032517983
000220 4e 95 ae 39 f0 84 c2 39 b5 5a ca ba 75 26 03 ba
       0.00033299107 0.0003710161 -0.001543841 -0.0005002984
000230 c0 d2 15 ba 54 2d 95 38 b7 ab 3b 3a 42 1a f5 3a
       -0.0005715303 7.113317e-05 0.00071590714 0.0018699842
000240 8b 07 2f 39 fd aa 55 b8 63 f0 00 b9 6c 18 ec 39
       0.0001669211 -5.0942403e-05 -0.00012296582 0.00045031623
000250 f1 6c 91 39 df 43 8a 39 e5 3e 2e 39 d2 40 4d 39
       0.00027737723 0.0002637198 0.00016617363 0.00019574471
000260 0f 7d c1 b8 54 9b 88 39 50 81 71 b9 dc 2e 04 ba
       -9.226251e-05 0.0002605567 -0.00023031724 -0.0005042383
000270 b4 dc 9d b9 4b cc 89 ba 14 a7 5c ba 19 40 38 b9
       -0.0003010981 -0.0010513155 -0.00084172306 -0.00017571486
000280 b6 51 fb b9 b6 49 39 b8 c4 6f 8d 39 af 6f d2 3a
       -0.0004793533 -4.4176086e-05 0.00026976888 0.0016055013
000290 04 11 30 3b ea f1 35 3b a5 7a 77 3b f4 45 4e 3b
       0.002686561 0.00277626 0.003776231 0.00314748
0002a0 b2 df 23 3b f7 61 0b 3b f7 c7 1e 3b 3e 8b 67 3a
       0.002500516 0.0021268108 0.0024228075 0.00088326994
0002b0 65 f0 22 3a 9d 3d ce 38 b8 7f ff 39 96 1d d5 39
       0.0006215631 9.834322e-05 0.00048732548 0.0004064857
0002c0 f2 1b 4e 39 91 dc fd 39 1b 61 79 39 c4 68 16 39
       0.00019656101 0.00048420255 0.00023782665 0.00014344143
0002d0 9f be 8a b5 58 45 16 36 48 f3 e9 b6 92 0c 2b 36
       -1.0337279e-06 2.2392105e-06 -6.972263e-06 2.5488303e-06
0002e0 22 bc 7b 34 00 18 d1 36 ea a8 99 b6 1b 61 d6 b5
       2.3444639e-07 6.2314793e-06 -4.5794195e-06 -1.5972504e-06
0002f0 c8 20 bb 36 a8 3a 54 3b 98 8d 19 3b 4e 2d 19 3b
       5.5768505e-06 0.0032383595 0.0023430344 0.002337295
000300 d7 96 70 3a fe 94 4d 3a f6 2b de 3a 7e 07 86 3b
       0.00091777503 0.0007842331 0.0016950357 0.0040902486
000310 e5 17 81 3b b2 42 87 3b a2 26 87 ba 4c 49 f5 38
       0.003939616 0.0041278237 -0.0010311196 0.00011696163
000320 37 89 19 3a b6 fb 0a 3b 6a c0 47 3b fd ee 55 3b
       0.00058569334 0.002120716 0.0030479678 0.0032643669
000330 e0 e0 6d 3a 7b 79 4e b8 f7 e4 39 38 26 9c 8a b9
       0.00090743415 -4.9227365e-05 4.4320677e-05 -0.0002643775
000340 dd 18 88 b9 1a 16 93 b9 06 c0 b8 b9 13 f2 80 b9
       -0.00025958466 -0.00028054492 -0.00035238283 -0.00024594422
000350 d4 ca 82 b9 d9 f4 b8 38 48 fe a4 38 08 49 b3 b7
       -0.0002494665 8.81941e-05 7.867493e-05 -2.137247e-05
000360 d5 a1 62 38 66 90 61 b8 ab d9 35 37 8f c2 f6 b7
       5.4033317e-05 -5.3778662e-05 1.08391205e-05 -2.9416084e-05
000370 6f 8a bc 35 04 92 c2 37 17 39 25 36 7a be 4d 36
       1.4047381e-06 2.3194596e-05 2.4620147e-06 3.0658252e-06
000380 cd 1b 8a b8 d6 67 af ba 5d 16 d8 bb 51 57 ab bb
       -6.585531e-05 -0.0013382386 -0.006594463 -0.005228915
000390 17 d3 0f b9 df c1 fc bb 5f 23 16 bc fe fb 66 3b
       -0.0001371618 -0.007713541 -0.009163707 0.0035245414
0003a0 8a a9 34 3b f8 3b 0a 3c 96 d9 91 38 94 d8 29 38
       0.0027566873 0.008437149 6.954667e-05 4.0494444e-05
0003b0 e1 3e 6e 37 a8 a3 5b b8 35 28 7f 37 78 0b af 36
       1.4200546e-05 -5.2366086e-05 1.5208546e-05 5.2167416e-06
0003c0 54 87 8c b7 29 75 a0 38 44 e3 e3 b8 89 4e 27 3c
       -1.6752318e-05 7.651217e-05 -0.00010866535 0.010211595
0003d0 2c fd 27 3c 24 83 1d 3c 62 87 19 3c 74 a2 86 3c
       0.010253232 0.009613786 0.009370657 0.016434886
0003e0 02 12 84 3c 2b 7f 8c ba 89 48 bc ba 04 7a 3d bb
       0.016121868 -0.0010719051 -0.0014364879 -0.0028911838
0003f0 53 3c 2f ba c5 f8 04 ba fb 36 be b9 b4 37 3f 39
       -0.0006684709 -0.000507247 -0.00036280588 0.0001823593

inception_blocks.0.conv_3x3.1.block.0.bias f4 [16]
000000 68 80 92 b9 d3 db cd 33 2e b8 65 35 4b c3 cd b8
       -0.0002794296 9.586042e-08 8.5577165e-07 -9.811538e-05
000010 d5 62 1c b3 4a fc 8d 38 f3 37 19 39 55 f9 c9 37
       -3.6411468e-08 6.7703964e-05 0.0001461206 2.4077171e-05
000020 40 7c 01 b9 c6 ce 14 39 d5 c6 c6 b8 1c fe 4f b7
       -0.00012348685 0.00014191409 -9.478411e-05 -1.2397326e-05
000030 80 11 05 39 15 4b b6 b8 bd 0d 7a 38 30 7c 32 b9
       0.00012690388 -8.6924214e-05 5.961744e-05 -0.00017021666

inception_blocks.0.conv_3x3.1.block.1.weight f4 [16]
000000 7d 2a 9c 3e 99 33 d3 ba 5e 31 08 bc 5a 8b 83 3e
       0.30501166 -0.00161134 -0.008312551 0.25692254
000010 bf db 15 3a 6e 93 cc 3e 29 1b 4e 3e 74 19 5d 3e
       0.00057166436 0.3995623 0.20127548 0.21591741
000020 8d 93 7b 3e 46 5a 82 3e 84 9e 39 3e 04 c1 bc bc
       0.24568005 0.25459498 0.18126875 -0.023041256
000030 c2 44 93 3e 03 19 93 3e ac 34 97 3e 1c de 28 3e
       0.28763396 0.2873002 0.29532373 0.16490978

inception_blocks.0.conv_3x3.1.block.1.bias f4 [16]
000000 72 32 ae bb 18 da 86 bc 07 f8 09 bd 8b bd 30 bd
       -0.005316072 -0.016461417 -0.033683803 -0.043149512
000010 21 a9 20 bc 96 47 4c bd 3e fb e5 3d cb 41 76 bd
       -0.0098059485 -0.049872957 0.11229561 -0.06012134
000020 12 a9 be 3d 6d fc 6e 3d 36 91 1f bd ff 4a 84 bb
       0.09309591 0.0583462 -0.038956843 -0.0040372605
000030 5d 3a 90 3d c6 64 eb 3b 6c 45 6b 3e 21 23 76 3b
       0.07042382 0.007183644 0.22975701 0.003755756

inception_blocks.0.conv_3x3.1.block.1.running_mean f4 [16]
000000 ee 71 aa be 70 d3 16 3c 0c 39 fc 3c 41 50 70 bc
       -0.33290046 0.009205684 0.03078892 -0.0146675715
000010 5e 99 17 b5 af 54 db 3d 8b 12 0c 3e b1 c6 c0 3b
       -5.647506e-07 0.107095115 0.13678949 0.005883061
000020 65 06 9a be 08 90 bb bd df aa 48 3c 2a 9c c3 bd
       -0.30083004 -0.09158331 0.01224777 -0.0955127
000030 52 4d b2 bd a0 ec 97 3e 9b b4 52 be 7f d3 2e be
       -0.08706154 0.29672718 -0.20576708 -0.17072867

inception_blocks.0.conv_3x3.1.block.1.running_var f4 [16]
000000 a4 a1 35 3d 53 96 bd 37 fc 63 89 3a 35 bc 6b 3d
       0.044343606 2.2600556e-05 0.0010482068 0.057552535
000010 b3 eb 6c 35 5e c2 b0 3d b6 2a 00 3d a5 db 58 3d
       8.825984e-07 0.086308226 0.031290732 0.052943844
000020 51 e0 24 3d 04 1d 3d 3d b4 1a a8 3c 83 e2 91 3b
       0.040252987 0.04617025 0.020520546 0.004452051
000030 29 37 22 3d ed 18 42 3d 4a 42 83 3d 76 10 c5 3c
       0.039603386 0.047387052 0.06409128 0.0240557

inception_blocks.0.conv_5x5.0.block.0.weight f4 [4, 32, 1, 1]
000000 da f6 06 3d f9 a8 d9 3d 68 5a 7b 3e 04 69 a4 bd
       0.03295026 0.10627932 0.24546206 -0.08027843
000010 e9 35 d6 bb 0c e2 d4 b8 1e 1c 8a bd 76 a5 44 be
       -0.0065371883 -0.00010151052 -0.06743644 -0.19203743
000020 bc ce 46 bb fd c4 b4 3a 60 f2 d9 bc 80 13 77 3a
       -0.0030335626 0.0013791617 -0.026604831 0.0009425208
000030 37 2b 27 3d 8c 83 49 bc 49 5f 87 3a 81 50 a0 3b
       0.040812697 -0.01229943 0.001032808 0.0048924093
000040 04 fa 42 3c 5a 6f 8d be 74 c5 e9 3b 3a 64 2c bd
       0.011900429 -0.27624017 0.007134134 -0.04208777
000050 1b 1e 87 3b 18 4d 78 be e2 ba 20 3d 1e 62 cd bb
       0.004123462 -0.24248159 0.039240725 -0.0062678
000060 d0 54 45 3e c0 21 e8 bc 45 64 78 bb 56 bd 0d 3e
       0.19270635 -0.028336406 -0.0037901562 0.13841757
000070 a3 e4 05 3c fe 69 87 be 93 d9 db 3b 2e 98 36 3c
       0.008172187 -0.26448053 0.0067092865 0.011144681
000080 15 8a 42 3c 69 06 07 be 62 da d0 3d 7b c9 3f be
       0.011873742 -0.13186039 0.10197903 -0.18729202
000090 dd c7 67 38 b6 86 05 38 2a f1 ae bd 56 f8 8f bd
       5.526083e-05 3.183513e-05 -0.08542092 -0.07029788
0000a0 3c 06 12 bc 3f a8 cc 3b ee 79 9a bb 71 07 d0 39
       -0.008912619 0.0062456424 -0.004714242 0.00039678396
0000b0 63 df c4 3d 52 f8 24 bd e3 34 94 39 14 e5 0e 3b
       0.0961292 -0.04027588 0.00028268163 0.0021804022
0000c0 51 93 24 3a 8e 41 64 bd 29 3b d6 bc 30 17 aa bc
       0.00062780554 -0.05572658 -0.026151257 -0.02076301
0000d0 ed bf dc 3c dc b3 87 3d b7 6f 4f 3d 90 21 67 3b
       0.026946986 0.06626102 0.05064365 0.0035267808
0000e0 e7 ac 37 be f4 e9 24 bd cb 94 78 3b 37 5b 3a be
       -0.17937051 -0.040262178 0.0037930484 -0.18198858
0000f0 d8 25 27 bc c5 6a 84 3d 19 d6 0c bc 79 ed 19 3d
       -0.010201894 0.06465677 -0.008595967 0.037579987
000100 49 d6 cc b6 99 bf 83 3a dc 7d 32 b8 83 4e fa 39
       -6.10462e-06 0.0010051607 -4.2555723e-05 0.00047742212
000110 6d 46 dc 37 71 26 17 b7 b6 7c c6 38 d3 03 b4 ba
       2.6258838e-05 -9.009252e-06 9.464605e-05 -0.001373405
000120 7c ac f0 b8 24 03 21 37 9a b1 f1 38 46 44 41 b8
       -0.000114762195 9.597079e-06 0.000115248564 -4.607837e-05
000130 32 55 d4 39 5e 83 4b 31 ec 91 00 38 d2 4f 16 37
       0.00040499266 2.9615062e-09 3.065348e-05 8.959281e-06
000140 40 ea 7f 37 60 3e ed ba d2 df b9 b6 ec 77 ec 37
       1.5253725e-05 -0.0018100254 -5.5394858e-06 2.8189235e-05
000150 6c d6 14 32 96 8a 99 38 c6 e1 1a 39 1d 14 3d 39
       8.663488e-09 7.321422e-05 0.00014770692 0.00018031937
000160 19 d9 b9 37 7b cc a7 b7 8a f8 22 b8 89 e7 47 bb
       2.2154813e-05 -2.000317e-05 -3.885528e-05 -0.0030502996
000170 db 61 b7 37 fe 4c 1d 3b 3d 36 f6 b0 be 61 39 b6
       2.1860867e-05 0.002400219 -1.7914271e-09 -2.7624042e-06
000180 7b 80 d5 b7 71 ca ee ba cf a7 c3 3a 9f 86 b1 ba
       -2.5451407e-05 -0.0018218291 0.001492733 -0.0013544149
000190 2a 59 e3 b7 d1 0d 56 36 1a 2d 03 3c a0 9d ae b9
       -2.7102029e-05 3.1896527e-06 0.0080063585 -0.00033305306
0001a0 d2 d0 21 37 ed 59 db 37 63 f3 1c 39 4b 9e 62 38
       9.644968e-06 2.614871e-05 0.00014967988 5.403002e-05
0001b0 05 40 fb 39 80 fd 11 35 19 0d 15 b8 8e 21 09 39
       0.0004792215 5.43856e-07 -3.5536566e-05 0.00013077838
0001c0 f9 3d a1 37 f2 4f cc ba 99 5b ea 37 0a e5 11 b4
       1.9221554e-05 -0.001558779 2.7937627e-05 -1.3587501e-07
0001d0 c7 f3 6a 39 d6 40 a1 3a 20 a2 75 38 35 f7 fb b8
       0.00022406793 0.0012302648 5.8563543e-05 -0.000120146586
0001e0 cf 68 e2 3a 85 6d f5 b7 08 a3 6f 38 28 c1 ea ba
       0.0017273667 -2.9257275e-05 5.7133875e-05 -0.0017910348
0001f0 5c 64 e6 36 23 57 67 39 99 19 28 b6 39 77 09 37
       6.8662175e-06 0.00022062338 -2.504885e-06 8.193595e-06

inception_blocks.0.conv_5x5.0.block.0.bias f4 [4]
000000 56 42 03 b9 7e 45 22 b9 58 c3 67 34 6b a1 05 35
       -0.00012517846 -0.00015475412 2.1584617e-07 4.9781255e-07

inception_blocks.0.conv_5x5.0.block.1.weight f4 [4]
000000 c1 3e 8a 3e f7 0a 73 3e 69 fc 17 3b c0 29 c6 bb
       0.27001002 0.23734652 0.002319122 -0.0060474575

inception_blocks.0.conv_5x5.0.block.1.bias f4 [4]
000000 b5 2f 49 3e 4d d0 1a 3d 29 fa 08 bc 29 ff 62 bc
       0.19647105 0.037796307 -0.008360424 -0.01385478

inception_blocks.0.conv_5x5.0.block.1.running_mean f4 [4]
000000 a1 80 04 be 44 af f7 bd 77 76 ee b9 13 93 83 3b
       -0.12939693 -0.12093976 -0.0004548316 0.0040153353

inception_blocks.0.conv_5x5.0.block.1.running_var f4 [4]
000000 18 26 33 3c 06 70 95 3c 76 05 a0 35 c9 30 c7 36
       0.010934375 0.018241894 1.1922518e-06 5.9363415e-06
