models/inception/Inception1_RMSprop_32_lr1e-05_m0.99_wd0.001/Inception1_RMSprop_32_lr1e-05_m0.99_wd0.001_best.pth (torch, 823647 bytes, 262 tensors)

input_net.block.0.weight f4 [32, 1, 3, 3]
00000000: a029 95bd 3fbc 5b3e 92d8 823e 5a34 fcbd
00000010: de4e 0bbe bc6a b03d 9585 6ebc 89b7 64be
00000020: 1ebd 86bd 5c40 4b3e 0923 bdbd 7b63 a1be
00000030: 5c2d 6d3e f96f 033e 70da f4be 7863 983d
00000040: bd9b e7bd 6779 3b3e 2026 b6bb 49cd 723d
00000050: b73e 693e 6bc3 2ebe 582c 823e 7dbb 2e3e
00000060: dabb 8abe 9c00 8dbd a2cf 71be a2c7 81be
00000070: 41ec 643e dd63 59be ed18 943e 23f0 423e
00000080: 2658 56be ed7a 503e bff1 9b3d 007c 5ebe
00000090: 37ca 203c a0a4 453c deb6 413c 3a96 073c
000000a0: 2e83 363c a985 1a3c 7cf8 6e3c 66b9 7b3c
000000b0: cfd0 5b3c ccaf 183d 63da 9abc 1e6e 38bd
000000c0: 4da3 2dba f2e3 39bd 6ce4 3ebd c432 0c3c
000000d0: 837b cbbb 6d6a b93b b162 bbbe e778 a8be
000000e0: 5733 54be 24ae 5a3e a55b 5cbe 59e3 2d3e
000000f0: 6d84 30bd c730 7e3e 97ed 8f3e 5ae3 8ebe
00000100: 04f5 1cbd 3a4d 333d 53b9 65be 9a95 60be
00000110: 57c3 2abd 66e3 583e 4785 883e a64a 593e
00000120: 61d3 34bc 23b5 8fbc 29ee 40bc 8890 543c
00000130: 8f37 3f3c 9602 4d3c a104 2b3d 3fcd 113d
00000140: bf40 013d 3f2a b73b d111 44bc 526e 18bd
00000150: db4c df3d 6ae9 273e aa95 303e 66bf 6cbc
00000160: aee6 81bd 3598 97bc a0ad f53c 6223 153d
00000170: 3eae ce3c bd04 443d 4266 893c 6bd7 acbc
00000180: 8833 6e3d 4243 513d a4a9 c0bb 06a9 e03c
00000190: 23b9 af3c f9a4 ca3c fa3c 643c d160 803c
000001a0: 038a 483c f707 af39 bf0c 9cba 660f c0ba
000001b0: 912a cc3b a615 033c 8b52 0d3c de79 5d3c
000001c0: 2ba9 9e3b f24c 513c 7658 16bc 19a3 9fbb
000001d0: de78 43ba 2005 28bc 4343 ccbb 318c ccbb
000001e0: 98ac 2cbc 2b8a 1fbc 2b28 76bc 6bea 4dbc
000001f0: 667a 28bc 1199 12bc c394 383b 074e 543b
00000200: 76df 8e3b 8be1 973a b53b 08bb 6ca3 433a
00000210: d0f6 1239 552b b3ba fdb9 53ba b19c 013a
00000220: 28fc 983b dd1e 0a3b 41ab 42ba a7bc 43ba
00000230: c549 27b9 5580 af3b 3b69 003b 4ca4 22bb
00000240: eeca 7e39 5061 6639 29fe 4739 f4fe ee39
00000250: 19f7 0a3a dd35 0e3a 233e 243a c2b4 333a
00000260: 43de 283a ded3 9fbe 99b0 8dbd efde 743e
00000270: 1200 3bbd 2b89 16be deea ad3d fe24 813e
00000280: 940b c93d 13c8 6d3d b48a 9d3d fffe 1fbd
00000290: 189f cb3d 6a1a 8fbe a7c1 663e 95d7 80bd
000002a0: 80e4 b5be 8857 803e 760a fa3c 4d6b c2bc
000002b0: 9c8e 38bd 5220 8abd b6bd a1bc 7e74 14bd
000002c0: d0b8 81bd c1d5 153c d896 6b3c edb5 97bc
000002d0: 11a4 a93c 7290 b23c 8d11 813b 671c a03c
000002e0: c681 a93c 48f7 eeb9 3968 5b3c 0c58 cfba
000002f0: b7a0 0bbc 319c 1a3e 214f 793e 6e75 9bbd
00000300: 8b81 efbd d673 5abe e7a0 adbe c39a 853e
00000310: a0e2 103e 234c 52bd e2e3 a83d 1952 413d
00000320: 9c2d 0e3d c7eb 2d3d ccc9 cabc a08d e83c
00000330: 393d 193c b082 19bc c0af 8a3d ce98 3e3c
00000340: 4d06 a73c f4ac 813c 7a43 b0bb 6844 09bc
00000350: 731b 01bc 1714 90bc ed39 86bc b79b 56bc
00000360: bd34 123e c76a 83be 644d 96be 0d66 b73c
00000370: 29c4 3e3e d513 223e 6784 8bbd 3692 abbb
00000380: af71 c63d d085 48bc dc12 7abc 208f 9dbc
00000390: ae35 bebb 6889 e4bb f496 29bc d0d7 613b
000003a0: c378 293b 8bc1 7d3b a235 6bbe a457 ebbd
000003b0: 451b 553e 49ca ecbd ee2a bd3d ef47 223e
000003c0: 7620 a43d 99c5 22bc 50ef 0cbe 573b 12bd
000003d0: b90e 8f3e 4c0b c2be 320e 5b3d 67ed c7bc
000003e0: 5192 11be ac25 22be 932b 9d3e 1a16 453e
000003f0: e11d 0c38 f1a1 0f38 cdc8 0cb9 c28e dfb8
-0.0728333 0.21458529 0.25555855 -0.12314673 -0.13604304 0.08614108 -0.014558216 -0.22335638
-0.0657904 0.1984877 -0.09235198 -0.3152121 0.23161834 0.12835683 -0.47822905 0.07440847
-0.113090016 0.1830803 -0.005558744 0.059277806 0.2277783 -0.17066734 0.25424457 0.17063709
-0.27096444 -0.06884882 -0.23614362 -0.2534762 0.22355749 -0.21229501 0.28925267 0.19036917
-0.20932063 0.20359392 0.07614469 -0.2172699 0.009813837 0.012063175 0.011823384 0.008275563
0.011139674 0.009431281 0.0145856105 0.015364027 0.013416483 0.037277028 -0.018902963 -0.04502689
-0.000662376 -0.0453834 -0.04660456 0.008557025 -0.006209792 0.005658439 -0.36598733 -0.3290474
-0.2072271 0.21355492 -0.21519335 0.16981257 -0.04309504 0.24823295 0.28110954 -0.2790783
-0.038319603 0.04377482 -0.22433977 -0.21932068 -0.041690197 0.21180496 0.26664183 0.21219882
-0.011036725 -0.017542427 -0.011775532 0.012973912 0.011670961 0.012512824 0.04175246 0.03559613
0.031555887 0.005589753 -0.011967138 -0.037214585 0.10903331 0.16397634 0.17244592 -0.01444993
-0.06342827 -0.018505195 0.029990017 0.036410697 0.02522957 0.04785608 0.016772393 -0.021098813
0.058154613 0.051089533 -0.0058795977 0.027424347 0.021450585 0.024736868 0.013930554 0.015671166
0.012239936 0.00033384535 -0.0011905654 -0.0014653027 0.0062306602 0.008000767 0.008625637 0.013517825
0.0048419437 0.012774693 -0.009176364 -0.0048717377 -0.000745667 -0.010255128 -0.006233604 -0.006242298
-0.010539196 -0.009737532 -0.015024225 -0.012568097 -0.010283088 -0.008947627 0.002816484 0.003239514
0.0043601347 0.0011587603 -0.0020787541 0.00074630114 0.0001401559 -0.001366953 -0.00080767256 0.00049443083
0.0046687312 0.0021075525 -0.00074260315 -0.0007466771 -0.00015953842 0.0053558745 0.0019593972 -0.0024817167
0.00024298925 0.00021970761 0.00019072801 0.00045584852 0.00053011026 0.00054248964 0.00062653626 0.0006855243
0.0006441811 -0.3121633 -0.06918449 0.23913167 -0.045654364 -0.14700763 0.08492063 0.25223535
0.098166615 0.058052134 0.07692471 -0.039061543 0.09942454 -0.2794984 0.2253481 -0.06291119
-0.35525894 0.2506678 0.030522566 -0.023732806 -0.045057878 -0.06744446 -0.019743782 -0.036243908
-0.06334078 0.009145201 0.014379226 -0.018519366 0.020708116 0.021797393 0.00393886 0.019544793
0.020691764 -0.00045579136 0.013391548 -0.0015819087 -0.008522204 0.15098645 0.24346592 -0.07590757
-0.1169463 -0.2133325 -0.3391182 0.26094636 0.1414895 -0.05134214 0.0824659 0.047197435
0.034711465 0.042461183 -0.024754427 0.028387845 0.0093529755 -0.009369537 0.06771803 0.011633111
0.020388747 0.01582954 -0.0053791376 -0.008378126 -0.00788008 -0.017587705 -0.016385043 -0.013098649
0.1427793 -0.25667402 -0.2935592 0.022387529 0.18629517 0.15827878 -0.06812363 -0.0052359356
0.09689652 -0.012238935 -0.0152632855 -0.019233286 -0.005804739 -0.006974388 -0.010350931 0.003446091
0.0025859333 0.0038720097 -0.22969678 -0.114913255 0.20811184 -0.1156202 0.09236704 0.15847753
0.08014004 -0.009934806 -0.13763165 -0.035701122 0.2794092 -0.37899244 0.053480335 -0.024405194
-0.14215972 -0.15834683 0.30697307 0.19246712 3.3406428e-05 3.4244676e-05 -0.00013426245 -0.00010660059

input_net.block.0.bias f4 [32]
00000000: 752b d9b6 e41e c838 7835 1ab9 d9e8 6d39
00000010: b787 d132 0ec0 7cb7 4cc3 0238 3657 0538
00000020: 2007 d7b5 d971 b8b8 3f8d 0634 033d 7534
00000030: 5b84 e335 3049 51b5 53c2 2db4 ad90 ab34
00000040: 30cb 4f31 5f17 cfb8 3a01 2a39 cb20 a836
00000050: 5599 48b7 656c 9e38 c74d 2cb8 0e10 c3b7
00000060: 86ad 4e37 125a 54b4 646b 87b8 ae21 4438
00000070: f216 d4b2 406a d1b8 f503 8e32 54ed d8b7
-6.472163e-06 9.542497e-05 -0.00014706503 0.00022688824 2.4392518e-08 -1.5065087e-05 3.11763e-05 3.1790893e-05
-1.6020822e-06 -8.7950095e-05 1.2531108e-07 2.2839599e-07 1.6951338e-06 -7.796507e-07 -1.6182575e-07 3.1956498e-07
3.0237963e-09 -9.8748824e-05 0.0001621292 5.0106078e-06 -1.1956629e-05 7.554217e-05 -4.108043e-05 -2.3253288e-05
1.2318958e-05 -1.9776806e-07 -6.457305e-05 4.6761408e-05 -2.4690483e-08 -9.985687e-05 1.6532775e-08 -2.5859721e-05

input_net.block.1.weight f4 [32]
00000000: 39cc 4b3e d685 043f 1b20 d93e a8b8 a23e
00000010: 5f86 533b d76a a8bc 68ef 123f 16c1 c83e
00000020: 2326 d83b 83d6 593e 69e5 b0bc 90c0 a03b
00000030: 9002 a03b f535 b2bc 6efd abba 9e42 693b
00000040: 3622 f6b9 01ba 9b3e ba37 413e 0a72 34bd
00000050: ac1e 823c d1d0 933e c479 af3d 2471 e43c
00000060: 9a40 893e f146 8bbc df36 283e d6cf 8e3e
00000070: 6786 b33b 4fa0 da3e ac31 30bb 6aad 233e
0.19902124 0.5176672 0.42407307 0.31781507 0.0032276136 -0.020558758 0.57396555 0.39209813
0.006596343 0.21273236 -0.021593766 0.0049057677 0.004883118 -0.021754244 -0.0013121793 0.0035592685
-0.00046946266 0.30415347 0.18868914 -0.04405407 0.015883766 0.28870252 0.08568147 0.02788598
0.268071 -0.017001601 0.16427182 0.2789294 0.0054786685 0.4270043 -0.0026885075 0.15984121

input_net.block.1.bias f4 [32]
00000000: b5fa b13c d371 a83d 4ed2 b73d e968 7f3e
00000010: aabe cfbc 5e19 f4bc e75f c53e 0074 133e
00000020: 86d8 0a3d f24a 8bbd 1817 4a3d df89 eabc
00000030: d1ea 0bbd b5d6 be38 8b85 18bd 4900 d8bc
00000040: ec81 71bc 32f3 2e3e 77b8 173d 8ced 053b
00000050: 8cb3 91bc a82b 413e 27cb 97bc f46b bc3b
00000060: 1b9c 23bd e35e 36bc d154 6abb 89cc 943e
00000070: 174b 0abc 4a93 cb3d 01f8 1dbc 8e30 c13d
0.021725992 0.08224835 0.08975659 0.24942364 -0.02535947 -0.029797252 0.3854973 0.14399719
0.0338979 -0.06801404 0.04933843 -0.028630195 -0.034159485 9.099898e-05 -0.03723673 -0.026367323
-0.014740448 0.17084959 0.037041154 0.0020435778 -0.01778581 0.1886431 -0.018529488 0.0057501737
-0.039943796 -0.011131021 -0.003575612 0.29062298 -0.008440754 0.099402025 -0.009641648 0.09433089

input_net.block.1.running_mean f4 [32]
00000000: 3144 e13a 5b5e 3b3a 6b0a 843b 17b9 8ab8
00000010: bfda 64ba 9890 083a 8a89 31ba 9cb4 90bb
00000020: aa6d 98ba 308f 25ba 073f 05bb 21ec 12ba
00000030: 5bf6 23b8 6d3d 523a 724a 3938 24fd 03b9
00000040: d93f 2eb8 4e70 7bbb bc99 283a 14ac c03a
00000050: f062 34ba 96cf 4ebb 3d72 08bb d9bd 243a
00000060: d803 4d3a 069d 123a dfe2 783a 5a5d 24bb
00000070: 04b2 42b7 674b 8c3b 1b43 3c36 cb9b 81b8
0.001718646 0.0007147544 0.004029562 -6.6148285e-05 -0.00087301055 0.00052095344 -0.0006772509 -0.0044160616
-0.0011629362 -0.0006315587 -0.0020331757 -0.0005604644 -3.9091665e-05 0.00080200174 4.417677e-05 -0.00012587436
-4.1544296e-05 -0.00383665 0.00064315996 0.0014699721 -0.0006881198 -0.0031556836 -0.0020820044 0.0006284393
0.0007820702 0.00055928563 0.00094942556 -0.0025080056 -1.1604749e-05 0.0042814496 2.8053244e-06 -6.180218e-05

input_net.block.1.running_var f4 [32]
00000000: 48c8 403d 93a5 683d d641 783d abdf 003d
00000010: e2ec 233c 6de7 483c bd7d 4a3e b33b b13d
00000020: 82a1 453c 44df c73d 8323 4c3d b552 513c
00000030: 5a36 ef3a bece d43b 4c73 2939 515c a338
00000040: 74aa 5a37 e0fe 3b3d 8bba 5c3c 58d3 6b3d
00000050: 4631 cd3b fa65 fe3c 9124 8f3d acf4 323a
00000060: 691b c53c 11e3 163b 7a5b 253c 8880 ee3c
00000070: e574 0634 abf1 f33d a683 fb34 8631 413d
0.047066003 0.05679853 0.06060966 0.031463306 0.010005208 0.012262207 0.19774528 0.08653965
0.012062432 0.097593814 0.049838554 0.012776067 0.0018250451 0.006494372 0.00016160047 7.789641e-05
1.3033499e-05 0.045897365 0.01347221 0.0575746 0.0062619774 0.031054486 0.06989396 0.000682662
0.024060922 0.0023023526 0.0100926105 0.029114023 1.2522248e-07 0.11911329 4.684818e-07 0.04716637

inception_blocks.0.conv_1x1.block.0.weight f4 [8, 32, 1, 1]
00000000: 71c2 10bd ceef a8ba f293 46bd 60bf 00bd
00000010: 6eaa b938 21df 683c 30d4 113d f958 1e3d
00000020: 250d 64ba 39b7 533c 4438 86bc c14b 4b3a
00000030: 8671 b7b9 e919 46bc a65c 08ba 0239 b737
00000040: 7471 7d37 f6f8 803d d4e5 23bb 3b40 63bb
00000050: cfd1 d8bb 8e70 18bc a26f 993c 1e3c e4bb
00000060: 51aa bf3c d1b6 33ba 74a3 65bc 8bee 0b3d
00000070: eeed aa36 9188 3cbb dab4 6137 3d77 b9bb
00000080: d42f 0dbe a1c5 6a3e 6240 1abe 94f4 1cbd
00000090: 2e75 6cbb d567 2cbd 46cf 3f3e 83a1 11bd
000000a0: d766 9ebc f2b9 dfbd 62f8 043d b9cf 583c
000000b0: 0cab f23b e77d 36bc ae53 313c 8294 11bb
000000c0: c863 8639 cbd7 14be b28f 46bd 08c7 9ebc
000000d0: d8a4 973a 8dfe 27bd 9a55 bcbd 9995 093c
000000e0: f825 9b3d e1af 5ebb a6cc 04bd 4943 c53d
000000f0: 489c 183a 3d01 97bd 937a 2838 3a44 173e
00000100: 7206 063d 74ba c9bd cc8d c3bc eb4f 2f3e
00000110: e106 63bc 5958 0dbd 2325 443d 2203 a63d
00000120: 4b54 7dbb e9b3 fabc 8862 5dbc a5c9 3eba
00000130: 8fcd b8bb c9bd 4cbc f420 503a d366 b23a
00000140: 90c3 3638 a9c5 c03d b306 813c 4d40 03bd
00000150: e207 06bb b614 89bd 4d42 fbba 3921 d43a
00000160: df0e 923c bf94 393c 11c7 0fbd 1800 7b3d
00000170: 5ee9 93b8 34d4 9e3d c85b 14b8 0fe0 18bc
00000180: ed99 d3bd 4e27 fabd 703a a33d 2821 2abc
00000190: 00d8 8e3c dfa0 d83c 385c 47be 36e6 50be
000001a0: 5982 8ebb 9ff0 e2bc 8175 94bc b976 4a3b
000001b0: 63da 1e3b 2187 fdba 24f9 95bc 23e1 ef3b
000001c0: ea01 ccb8 91c6 3dbe c6d7 963d fab5 503c
000001d0: 77e2 77bc 94b2 c1ba 4ab1 9bbd 4012 6b3b
000001e0: 7be3 16be b54c c73a dfbe 57bd 9e12 3e3b
000001f0: e0d7 7fb8 bb5e ebbd b7a0 c3b9 d4d5 cc3c
00000200: 0615 a33d 655d 61be 8042 9e3d 5ecf bbbe
00000210: 2f77 64bb bce2 daba a25e b5bc e833 bb3d
00000220: d71b 4abc a528 a5bd f9b2 0f3c ff3d 543c
00000230: f763 c23b e7a8 83bb 8ecf b7ba 81ff 933c
00000240: cef5 6739 1668 843c 3eab f23d 3cbb 833b
00000250: ada8 50bc 5a67 0cbd 57ca 883d 7588 0dbc
00000260: 19cf d93c 187c 52bc a8d7 93bd 9812 ce3d
00000270: 496b d638 50ee e53d 02b7 ddb9 6682 2ebe
00000280: 6a13 a3bc 2f33 4c3d 04bf f8bc 4be0 013c
00000290: 24fc 28b7 8211 cf3b ab3d 743d 1829 b93c
000002a0: a4de 9f3c 7a13 333c 2cc0 233b 630e 86b6
000002b0: 901d e936 fa7f 30b9 3e63 5eb6 311e e235
000002c0: 3fd6 af36 41cd 293c d366 b0bc bcca cebb
000002d0: 710b bc39 21e3 6ebb 98c5 c63b 08c1 87bb
000002e0: 7cc5 083d cb8b c438 b4b6 413c 3c17 d83c
000002f0: 997b 2736 b1a3 f2bb a91d 3236 970f 1d3d
00000300: 2721 0a3d b353 5a3c 73c7 f1bd 066d 81bc
00000310: e8a1 223b 1e02 733d f9ed 2cbe e327 9cbc
00000320: 0681 073d 1446 e3bc fac7 4cbd 79fc 573b
00000330: 6e5e 52bc 7573 0fbb 7f03 4bbc 3164 71ba
00000340: 35b9 f7b8 4d3d b53d a92a 93bc 9a5b 663d
00000350: e953 d2bc 59f5 743d 28dc 0abd d9da 9abc
00000360: f902 acbc 4719 04bc 8da7 a93c e02b 4bbe
00000370: e4a5 a439 487f 363e 57ad 0a39 1472 c6bc
00000380: dcbe 2dbd 6aa7 43be 3247 9ebd 1868 fabd
00000390: adf3 bcbb 114a bdbd fd12 453e bc41 dd3d
000003a0: b3b5 75bc 8b09 d0bd 11e8 5a3d 891f 26bc
000003b0: 2199 0ebc c5bf 44bc 7ad5 023c 50b1 2bbb
000003c0: 7332 bf38 319e 493d 797b 093d 096b 8abd
000003d0: 4fc9 b93c 6f42 19bd 77e5 76bd 23e8 42bb
000003e0: bdcf 06be 151e 9cbc 53c3 243d 5652 92bc
000003f0: 9a5d 8d39 cd01 30be 4d14 88b9 d074 6cbd
-0.035341684 -0.001288885 -0.048480935 -0.03143251 8.8532324e-05 0.014213354 0.03560275 0.03865907
-0.00086994685 0.012922102 -0.016384251 0.00077551237 -0.00034989062 -0.012091138 -0.0005201794 2.1841846e-05
1.51063905e-05 0.062974855 -0.0025008814 -0.0034675736 -0.006616808 -0.009304179 0.018729988 -0.0069651743
0.023396643 -0.000685555 -0.014016021 0.03416304 5.0940935e-06 -0.0028767923 1.3453153e-05 -0.0056599663
-0.13787776 0.22926952 -0.15063623 -0.038319185 -0.0036080587 -0.04209121 0.18731412 -0.03555442
-0.019336147 -0.10924138 0.03246344 0.013233119 0.0074056443 -0.011138416 0.010823173 -0.0022213762
0.00025632815 -0.14535443 -0.048476882 -0.019382015 0.0011569513 -0.041014243 -0.09196015 0.008397483
0.07575601 -0.0033979344 -0.03242173 0.09631974 0.00058216276 -0.07373283 4.0168477e-05 0.1477212
0.03272099 -0.09850016 -0.023871325 0.1712033 -0.0138566205 -0.034508083 0.04788698 0.08106066
-0.003865498 -0.030603366 -0.013512261 -0.0007277972 -0.005639739 -0.01249642 0.0007939481 0.0013610966
4.3574313e-05 0.09412701 0.015750265 -0.032043744 -0.0020451476 -0.066934034 -0.001916954 0.0016184218
0.017829357 0.011326968 -0.035101954 0.061279386 -7.052974e-05 0.07755318 -3.5371428e-05 -0.0093307635
-0.103320934 -0.12214528 0.079701304 -0.010383882 0.017436981 0.026443897 -0.19468772 -0.20400319
-0.0043490347 -0.027702628 -0.018122436 0.0030893518 0.0024239055 -0.001934264 -0.018307276 0.0073205396
-9.7278345e-05 -0.18532778 0.07365374 0.012738699 -0.015129677 -0.0014777952 -0.076021746 0.0035869032
-0.14735214 0.0015205356 -0.052672263 0.0029002796 -6.0997787e-05 -0.11492678 -0.0003731304 0.025004305
0.07962994 -0.22008283 0.077275276 -0.36681646 -0.0034861078 -0.0016699652 -0.022139851 0.0914076
-0.012335739 -0.08064393 0.008770698 0.012954234 0.005932327 -0.0040179375 -0.0014023648 0.01806617
0.00022121446 0.016162913 0.11849068 0.004020123 -0.012735528 -0.03427825 0.06679218 -0.008638491
0.02658801 -0.012846969 -0.072188675 0.1006214 0.000102242986 0.11227095 -0.00042288756 -0.1704193
-0.019906718 0.0498535 -0.03036452 0.007927011 -1.0072286e-05 0.0063192258 0.059629124 0.022602603
0.019515343 0.010929937 0.002498637 -3.995186e-06 6.9473826e-06 -0.00016832343 -3.3138344e-06 1.6847099e-06
5.240348e-06 0.010363878 -0.021533405 -0.006310789 0.0003586668 -0.0036451297 0.0060660355 -0.004142884
0.03339146 9.372047e-05 0.011823345 0.026378267 2.4956882e-06 -0.0074047674 2.6541331e-06 0.038344946
0.033723023 0.0133256195 -0.1180562 -0.015799057 0.0024815742 0.05932819 -0.16887654 -0.019061988
0.03308203 -0.027743377 -0.0499954 0.0032956882 -0.012839897 -0.0021888886 -0.01239097 -0.000920835
-0.00011812375 0.08849583 -0.017964678 0.0562397 -0.025674777 0.059804294 -0.033901364 -0.018903183
-0.020997511 -0.008062667 0.020709777 -0.19840956 0.00031404116 0.17821991 0.0001322528 -0.024224319
-0.042418346 -0.19106832 -0.07728423 -0.122268856 -0.005766353 -0.09242643 0.19245525 0.108035535
-0.014996934 -0.1015807 0.053443972 -0.0101393545 -0.008703501 -0.012008612 0.007985467 -0.0026198216
9.1169866e-05 0.04922313 0.03356502 -0.067586966 0.022679 -0.03741687 -0.06027743 -0.0029740415
-0.13165183 -0.019057313 0.04022534 -0.017861526 0.00026963354 -0.17188187 -0.00025955067 -0.05772859

inception_blocks.0.conv_1x1.block.0.bias f4 [8]
00000000: aff0 ddb5 f5ec 0c39 d8c8 8a37 8df9 83b8
00000010: a6bd b6b8 d243 ff34 40dd 00b8 c85c 8a37
-1.6535831e-06 0.00013439714 1.6544407e-05 -6.293049e-05 -8.713761e-05 4.7546797e-07 -3.0723633e-05 1.6494087e-05

inception_blocks.0.conv_1x1.block.1.weight f4 [8]
00000000: 4b79 14bc 3f62 9b3e eace 123e 259a dd3e
00000010: 8b6d ad3e fcb6 003c 7e32 553e fe58 3d3e
-0.009062122 0.30348393 0.14336744 0.43281665 0.33872637 0.007856127 0.20820042 0.18490979

inception_blocks.0.conv_1x1.block.1.bias f4 [8]
00000000: ad24 7c3b a91d 4d3d 31e0 f5bd f48b 7f3e
00000010: 4839 b13e 4f99 10bd 5fbb e73d 5f5f 073e
0.003847401 0.050077114 -0.12005652 0.24955732 0.34614015 -0.035302456 0.11315035 0.13219975

inception_blocks.0.conv_1x1.block.1.running_mean f4 [8]
00000000: 0558 c93c 4948 9d3d 0fdc bc3d b326 5fbe
00000010: 4390 b6bd 53f1 543d 113f cebd 3a2b 0bbd
0.024578104 0.07679803 0.0922166 -0.21792106 -0.089142345 0.051987957 -0.10070623 -0.03397677

inception_blocks.0.conv_1x1.block.1.running_var f4 [8]
00000000: 1918 113b bde5 c23c 4928 043c 3fbc 053d
00000010: 0ac0 8c3c 4d3d 183b f170 0a3c 59f1 433c
0.0022139607 0.023791188 0.008066245 0.03265023 0.017181415 0.0023229897 0.008449779 0.011959397

inception_blocks.0.conv_3x3.0.block.0.weight f4 [12, 32, 1, 1]
00000000: c24d 9738 e561 30ba da14 97b9 1bba 32ba
00000010: 6d81 03b6 998f 71b7 ae40 5aba ff7d 60b9
00000020: 53e4 70b7 b8ad 81b7 03e0 89b8 b9d9 cfb7
00000030: 9414 83b7 994d 2b36 6314 0d38 d623 21b4
00000040: c7e4 9437 9fbc f537 7c78 1839 42fd a6b8
00000050: 73c3 e0b4 382c c438 e4d7 8bb8 2842 3ab8
00000060: 4ce5 e838 9d3c 8436 0c7b 69b9 9ba7 d939
00000070: e720 f2b6 cea1 8ab8 a5af 9e37 a54f 5d38
00000080: 9a4b b3bc 0bde ac3d 63c1 adbd 5aef ae3d
00000090: ea62 eb3c dce4 b53c cc64 a6be 9d10 d5bd
000000a0: 5eeb ad3c e32d 3b3d d4da 4f3c f191 c7bb
000000b0: 1baa 77bb 8f35 203c 10f6 0bbc 906b 0cbc
000000c0: dcf2 e939 2216 ccbd 6b47 e7bd 4e0a 293c
000000d0: 6a1f eabc c4f2 f4bc d00a 4638 2ab4 6fbc
000000e0: bf48 9cbd 2b39 62bc e6c6 a33c 3dfb eebd
000000f0: 21e8 c336 bccc 393e 97f5 2cba da09 213c
00000100: 28f1 c53c 716c b63b 2229 a23c a860 1937
00000110: 2a61 a6b9 1610 c5bb 0604 fa3c f16d b13c
00000120: 9674 a8ba ac85 bd3b 1860 2c3c 3fd9 00b8
00000130: efe1 ce39 ce67 9c39 1681 abb9 f6c6 2e39
00000140: a5d8 a4b6 0e1a 813c c10c 33bc e92d 59bc
00000150: 4327 283a 565a 2a38 d1fa e1bb 1a5b 0c3b
00000160: 04b3 0dbc aa3b c43a 11b4 c13c 9370 41bd
00000170: d683 3936 78be d13c d0d4 3cb7 c96f e73c
00000180: cb97 f53c 6748 3f3d fadc 79bb 940c 9ebd
00000190: 7d81 da39 db01 2abd e63e be3e c5b9 243e
000001a0: 7a0c a73c 911f 06be b709 c83c a5a9 80bc
000001b0: ad3d 40bd dd00 cabb 6f46 68bd 1d99 c5bc
000001c0: 72f0 41b9 33de 8f3d efde 04bb 7c03 4fbd
000001d0: 5a09 893c b21e 21bc c026 9bbd 95c0 05bc
000001e0: 1e83 7cbd ac56 6dbb f6d7 fdbc ad3d 5a3d
000001f0: 123d ef39 5279 b1bc d0f0 2db9 39f4 2d3e
00000200: 128f 153c 8019 893d 0ef8 cdbd 416b d5bd
00000210: 4833 4a3c 1e20 503c 097b edbd 0dc8 643d
00000220: 9089 8a3b d491 403d 65e1 db3c 2d6b 58ba
00000230: dc87 b93b 4962 343d 1eeb 9bb9 b2a8 dcb9
00000240: 10ce b0b8 a4a0 203e 74ba afbc 668b 5abc
00000250: 636d 363b 870d b5bc a455 013d c954 0b3b
00000260: 4462 6bbd 770d 15bb ee2b de39 3a6a a4bd
00000270: e561 55b9 90aa 7c3d 6e21 d5b7 42fe 973d
00000280: deee ecbd 326a ed3c 73db 65be 96c0 46bd
00000290: 2b8a 8e3c c415 833c 95bd 13be ab14 71bd
000002a0: a36d f9bc d40f a2bd d63c 6dba 7ad2 a4b9
000002b0: 28e9 1c3b 2391 e43c 73ac 0d3c 2e89 c1b9
000002c0: 665d d639 61d9 e0bc 2594 fcbd 3dcc 233b
000002d0: bd22 5f3c bc55 01be 0981 edbc 0586 84bb
000002e0: 8efa 9abd 2a23 8c39 1838 7dbd 0157 b33d
000002f0: 8208 2c39 9cbe 35be ef30 8a38 f48d 06bd
00000300: 51f7 403d 7ea7 a43d 2658 d73d 7bf8 513d
00000310: 8050 c23b 74b6 b0bc 36a4 afbd 8576 e5bc
00000320: 0c72 983b 747d c43c fdd6 42bc 5448 8e3a
00000330: 61d5 3cbc 6553 66bc 7104 69bc dbdd a5bc
00000340: c685 773a 71e9 2cbe 4faa 563b 45ab ff3c
00000350: dec9 c5bc 2097 dbbc 6b66 bbbb bedf efbc
00000360: cbe6 69bc 59cc 4cbc b989 c2bc c2cb 2dbe
00000370: 0ff7 43b6 2c1a 9f3e d7fb 07ba ef23 cc3b
00000380: 4bba 933d ae18 9b3d 7b0e 243d 594f e4bb
00000390: f0c6 8438 1eb9 563b b644 eb3d 4f4d c93d
000003a0: 0b24 563c f340 0c3d a9bc 523c 0c7f 1939
000003b0: e279 693c e5fa 6abc 2bb2 13bb 6635 043a
000003c0: fa3d b3b9 7556 633b ec16 4a3d f62a 6abc
000003d0: cc3b 62bc e386 8c3c b3c4 b63c 631a 11bc
000003e0: 5c24 813c 9d1a 92bb cc36 823d a2e9 ed3a
000003f0: ef98 2d3a bd94 883d 60dd 9ab8 cb61 5d3d
7.2147246e-05 -0.00067284546 -0.000288165 -0.0006817893 -1.9595857e-06 -1.4398153e-05 -0.0008325678 -0.00021409242
-1.4358276e-05 -1.5458892e-05 -6.5743945e-05 -2.4777708e-05 -1.5626e-05 2.5526153e-06 3.3636006e-05 -1.500733e-07
1.7749508e-05 2.929411e-05 0.00014540734 -7.96267e-05 -4.186546e-07 9.354245e-05 -6.668249e-05 -4.440747e-05
0.00011105332 3.940963e-06 -0.0002226645 0.0004151434 -7.2159924e-06 -6.610491e-05 1.8916859e-05 5.276468e-05
-0.021886636 0.08440789 -0.08484151 0.085417464 0.02873369 0.022203855 -0.32498777 -0.10403559
0.021230396 0.045698058 0.01268645 -0.0060903956 -0.00377906 0.009778394 -0.008542553 -0.008570567
0.00044622167 -0.09965159 -0.11292919 0.010317398 -0.028579433 -0.029900916 4.721695e-05 -0.014630357
-0.07631063 -0.013807575 0.019992303 -0.11669014 5.838476e-06 0.18144506 -0.0006597875 0.009829009
0.024162844 0.0055671264 0.019795004 9.142015e-06 -0.0003173438 -0.0060138805 0.030519497 0.02165887
-0.0012852128 0.005783757 0.010520957 -3.0719904e-05 0.00039459715 0.0002983198 -0.00032711838 0.00016668052
-4.9128016e-06 0.015759494 -0.010928334 -0.013255575 0.0006414542 4.061529e-05 -0.0068963547 0.0021416605
-0.008648638 0.0014971395 0.023645433 -0.0472265 2.7643887e-06 0.025603518 -1.12552225e-05 0.028251546
0.029979607 0.046699908 -0.0038126097 -0.07717243 0.00041676676 -0.041505676 0.37157363 0.1608649
0.020391691 -0.13097979 0.024418695 -0.015705893 -0.04693382 -0.0061646537 -0.056707796 -0.024120862
-0.00018495487 0.07024803 -0.002027448 -0.050540432 0.016728092 -0.0098339785 -0.0757575 -0.008163591
-0.06164848 -0.003621499 -0.030986767 0.053281475 0.00045631133 -0.021664295 -0.00016588275 0.16987695
0.009128349 0.06694317 -0.10057078 -0.10420848 0.012341328 0.01270297 -0.11595733 0.055854846
0.0042278245 0.047014073 0.026840875 -0.00082557165 0.0056619477 0.044039045 -0.0002973908 -0.00042087358
-8.430716e-05 0.1568628 -0.021451212 -0.013338899 0.0027836196 -0.022101177 0.031575814 0.0021260253
-0.05746676 -0.0022743621 0.0004237587 -0.080280736 -0.00020349731 0.0616861 -2.5407146e-05 0.07421543
-0.11568998 0.028981302 -0.22446994 -0.048523508 0.017399868 0.01600159 -0.14427789 -0.0588576
-0.030447787 -0.07913175 -0.0009049898 -0.00031437335 0.0023942683 0.027901238 0.008647072 -0.00036914035
0.00040886848 -0.027447404 -0.12332944 0.0024993562 0.013619122 -0.12630361 -0.028992193 -0.0040442967
-0.07567321 0.0002672908 -0.061821073 0.08756829 0.00016406368 -0.17748493 6.5894674e-05 -0.03285022
0.04711086 0.08039759 0.1051486 0.05126236 0.0059300065 -0.021571375 -0.085762426 -0.028010616
0.0046522673 0.023985602 -0.0118920775 0.0010855296 -0.011525483 -0.014057969 -0.01422225 -0.02024739
0.0009442236 -0.16885926 0.003275532 0.031209597 -0.02414411 -0.02680546 -0.0057189963 -0.029281493
-0.014276217 -0.012499892 -0.023747312 -0.16972259 -2.9201071e-06 0.31074655 -0.00051873684 0.0062298696
0.07213267 0.07573067 0.040052872 -0.006967467 6.3313055e-05 0.0032764147 0.11487715 0.098291986
0.013070117 0.034241628 0.012862363 0.00014638546 0.0142502505 -0.0143420445 -0.0022536616 0.00050433574
-0.00034187717 0.0034688984 0.049338266 -0.014292469 -0.013808202 0.017154163 0.02231059 -0.008856389
0.015764408 -0.004458739 0.06358108 0.0018151293 0.0006622215 0.066689946 -7.3845265e-05 0.05404834

inception_blocks.0.conv_3x3.0.block.0.bias f4 [12]
00000000: 754e 28b3 f5cc 14b9 670a 1c36 8067 6a35
00000010: 9008 6fb7 e286 5639 7068 8fb9 1f1f 6138
00000020: 7ea2 9738 f0f4 083a 4956 4d38 705b 36b9
-3.9186904e-08 -0.00014190732 2.3251866e-06 8.7322405e-07 -1.4247504e-05 0.00020458878 -0.00027352897 5.3673164e-05
7.2305076e-05 0.0005224487 4.8956168e-05 -0.00017390936

inception_blocks.0.conv_3x3.0.block.1.weight f4 [12]
00000000: 260c 5f3b 3257 c03e 3297 9d3b a724 ec3e
00000010: 83b0 cd3d aa7c 783e 6ee7 b43e f81b f8bc
00000020: 5801 2b3e 26aa b43e 0ff6 833e 384c 6b3e
0.003403434 0.37566525 0.0048092837 0.46121714 0.100434326 0.24266306 0.35332817 -0.030286774
0.16699731 0.35286063 0.25773665 0.22978294

inception_blocks.0.conv_3x3.0.block.1.bias f4 [12]
00000000: cccf c7bb b512 503e 5703 063c 03e0 22bc
00000010: df33 b0bb 4977 e6bc c546 213c b666 ef3c
00000020: 6682 3fbd bac1 aa3e 5fa6 c53d 9f5d 983b
-0.0060977694 0.20319636 0.008179507 -0.009941104 -0.0053772773 -0.028133051 0.009843533 0.029223781
-0.046755217 0.33350927 0.096508734 0.0046498324

inception_blocks.0.conv_3x3.0.block.1.running_mean f4 [12]
00000000: 40b3 37ba 8239 32be 6bd0 c03c 93b8 6a3e
00000010: 518c 45bd 3a1a 4cbe 029a 89bc 992a 0c3e
00000020: 41ef e13c 6fd0 c2bd f646 613e 257a 7abd
-0.00070076063 -0.1740475 0.023536881 0.22921972 -0.04822952 -0.1993188 -0.01679707 0.13688125
0.027579905 -0.09512412 0.21999726 -0.061151642

inception_blocks.0.conv_3x3.0.block.1.running_var f4 [12]
00000000: c489 7134 5cbe f13c 9b66 d339 95a5 183d
00000010: 9784 293b f100 533c aeb8 af3c 9a70 ca3b
00000020: 7aa8 093c c81d 923c 28fe 843c 75cf 523c
2.2494993e-07 0.029509716 0.00040321503 0.037267286 0.0025866383 0.012878642 0.021450367 0.006177974
0.008401984 0.017836466 0.016234472 0.012866844

inception_blocks.0.conv_3x3.1.block.0.weight f4 [16, 12, 3, 3]
00000000: de44 6337 164d d738 5f72 13b8 d9c7 1939
00000010: 0150 8339 fd72 7139 492f 10b8 1dd3 08b8
00000020: ebfb c6b7 1e78 0bbe 316c 13be b7fc 293d
00000030: fc26 cf3d 80cd 143c b75a bf3d 813f 613e
00000040: 663f 0e3d 8df4 3f3d 478c 4d3c 7b5f 053d
00000050: 420a 713c 4fb7 d03b cb3f d93c 0287 07bc
00000060: 2714 6fbb a457 ac3c 7db1 f43b 0565 9c3d
00000070: 208e 1abd c736 6bbe b01b 06bd d612 19be
00000080: 92fe f1bd bd3c 97bd 1d0d 7ebd 7bce c2bc
00000090: 9d52 ad3c 9297 1fbc d10f 233d b64e 893d
000000a0: 09ab 1a3d ce3f 44bc 721f 813d dd84 d4bc
000000b0: c550 a7bd b05e 503d 1dab 043d 4f94 a43c
000000c0: f68d 0b3d 26b6 ba3d fa14 903d 5f52 223d
000000d0: f46b b83d 7cde 9d3d 1ae9 27be 7aa8 55be
000000e0: 6502 a0bd 1e45 6e3b c9f4 a9bd af68 10bd
000000f0: df9c ee3c 38fd 7bbd 9a1c 97bd 73a2 443d
00000100: 8627 3a3d 3fc3 953d 79b0 0d3d 02f9 5a3d
00000110: 73d9 813d 9836 513d 7b55 7d3d c22f 5f3d
00000120: 82dc bfbb ae97 81bc a440 d53c 0171 37bc
00000130: 3346 89bb f298 723d 9e48 113d 55cc 8fbd
00000140: 6306 a3bb 0ccd c0bd 31e8 f33d e9db 7fbd
00000150: 0c4b 0ebc bf1d f13d 33d1 18be 13ca 033d
00000160: 16a0 70bc d59b 27be 99b5 ad3d 5fbe 763c
00000170: 35b1 963c 8745 9abd c28b 4b39 ff00 b7bb
00000180: 70b2 25bd e21b b1bd e5c9 73bd c8d0 eabd
00000190: 1742 8c3d fdda acbd 3ca0 64bd b4bf 473d
000001a0: f36f dabd 24fe adbd 8de0 3f3d 25f7 1dbd
000001b0: 736a c1b7 ea39 b636 80ee a334 22ca f436
000001c0: a59c 4138 2e3d 3238 714a 22b7 e222 41b7
000001d0: 114e 1fb8 6bde 7f3c bc37 b03c 2730 a53c
000001e0: 5442 153c 8720 2a3c f66c 9e3b 854a 963b
000001f0: 89ee cc3a b4bf 66ba cbdb 283a 64d4 923a
00000200: 7816 1f3a 10fb f9b9 fb14 f6b9 5b03 b3b9
00000210: 842b d2b8 819f cab9 887e 6eba d209 d03a
00000220: 09a6 203b 59e3 b53b 934f a0bb 230e fb3a
00000230: 4957 0b3c 714e 253b 1242 573b bff2 793b
00000240: beac 9236 6111 3aba f1fb 3dbb 7b00 be3a
00000250: 26ca 063a b50d 19bb b354 2b37 fb18 4aba
00000260: 0fdc 29bb 2f28 8b3b 99c1 d53b 319f 203c
00000270: aca9 133c 9608 093c 5e64 143c 63ed 4a3c
00000280: b434 343c 68e2 373c 24a6 1a3c 837a 2b3c
00000290: e361 f63b df91 0a3b 473d 8d3b 7daf 743b
000002a0: c92b 22bb 457e 19bb 96ed 1dbb 966a 1cbb
000002b0: b69c 29bb 15de 0bbb f100 28bb 46a4 f6ba
000002c0: c058 8eba f74f 63ba b23d 13ba 7726 46ba
000002d0: 474c 85b9 4ec1 76ba 5db2 62ba 7c0b 29bb
000002e0: 02cf 67bb b3ce 5eb9 dcc9 1bbb 6545 43bb
000002f0: 8424 e73a 42df c2bb 34ee 9abc b508 83bc
00000300: eb34 5ebc 99b9 8bbc 8687 e7bb 2adb 22bc
00000310: efbc 24bc 0096 9ebb fb45 4d3c f296 9d3c
00000320: ddb7 943c 43d4 323c ef79 da3b aa70 ec3b
00000330: b6c4 2e3c 3776 213c 41e7 103c e321 d73a
00000340: eb66 0d3b 637e 2dbb aeda 0139 2434 883b
00000350: 4f3f 493b 0fde 89b9 85a0 b8b9 94e7 773b
00000360: f190 44b7 e48f 7e36 bde4 2237 100c 1ab7
00000370: 6fce e4b6 db86 7237 0671 3535 44d0 92b5
00000380: ce75 8036 07e8 81bb f330 ffbb 0abf dcbb
00000390: bd95 32bc 267c 47bc 026c 37bc f669 1abc
000003a0: a45e c2bb 69c2 abbb 98ab 6aba 5c62 5dba
000003b0: 29dc 03ba 075c fbb9 8a3f ebb9 2578 93ba
000003c0: 30f5 143a b045 b539 8a72 69ba 8c31 8abb
000003d0: 736c 18bc c766 81bc aa45 683c e1c0 2d3c
000003e0: 465a 9c3b d2ca 633c 7d8e 5e3c 375c 753c
000003f0: 9293 763a b632 a13a 8b45 e9b9 1afc f038
1.3546289e-05 0.00010266357 -3.5154048e-05 0.00014665666 0.00025045875 0.00023026387 -3.4376313e-05 -3.262154e-05
-2.3720748e-05 -0.1362004 -0.1439674 0.041500773 0.101148576 0.009082198 0.09343474 0.21996881
0.03472843 0.04686408 0.012545652 0.03256176 0.014711918 0.0063695083 0.026519677 -0.008271934
-0.0036480518 0.021037884 0.0074674473 0.076364554 -0.037733197 -0.22970115 -0.03274125 -0.14948592
-0.118161336 -0.07384632 -0.062024225 -0.023780098 0.021157557 -0.009740727 0.039810006 0.06704466
0.037760768 -0.011978103 0.06304826 -0.02594226 -0.081697024 0.05087155 0.03238975 0.02009025
0.03407093 0.09116773 0.07035251 0.039629336 0.090049654 0.07708451 -0.16397515 -0.2086505
-0.07812957 0.0036357115 -0.08298642 -0.035256084 0.029127536 -0.061520785 -0.07378502 0.048006486
0.04544785 0.07312631 0.034592126 0.05346013 0.06340303 0.051077455 0.0618491 0.054488905
-0.005855144 -0.015819397 0.0260318 -0.011196376 -0.0041892766 0.05922789 0.035469644 -0.07021395
-0.0049751266 -0.094141096 0.11909521 -0.062465582 -0.008684885 0.11773252 -0.14923553 0.032175135
-0.014686605 -0.16368039 0.08481903 0.015060036 0.018395046 -0.075327925 0.00019411652 -0.0055848355
-0.040453374 -0.08647896 -0.059518714 -0.11465603 0.06848543 -0.08440206 -0.055816874 0.048766807
-0.10665884 -0.08495739 0.046845008 -0.038565774 -2.3056962e-05 5.4307648e-06 3.0534648e-07 7.295298e-06
4.6160672e-05 4.2495485e-05 -9.673285e-06 -1.1511818e-05 -3.798126e-05 0.015616993 0.021510951 0.020164562
0.009110052 0.010383732 0.0048347665 0.00458652 0.0015635054 -0.00088023697 0.0006441443 0.0011202213
0.0006068717 -0.00047680037 -0.00046936408 -0.0003414404 -0.00010021686 -0.00038647282 -0.0009097834 0.0015872067
0.0024513027 0.0055507836 -0.0048922985 0.0019153993 0.008504697 0.0025223757 0.0032845777 0.0038139073
4.371249e-06 -0.00070979266 -0.002898928 0.0014495993 0.0005141817 -0.0023354117 1.0212115e-05 -0.0007709411
-0.0025918519 0.0042467336 0.006523323 0.009803579 0.009012621 0.008363863 0.0090571325 0.012385699
0.0109988935 0.011223413 0.009439025 0.010466221 0.007518993 0.0021144075 0.0043102833 0.0037336044
-0.0024745336 -0.002342121 -0.002409791 -0.002386724 -0.002588076 -0.0021342088 -0.0025635327 -0.0018817268
-0.001086019 -0.00086712785 -0.00056167983 -0.00075588323 -0.00025424568 -0.000941296 -0.0008647794 -0.0025794199
-0.003537119 -0.00021248571 -0.002377144 -0.0029796 0.0017634784 -0.0059470246 -0.018912412 -0.015995363
-0.013562421 -0.017056273 -0.007065716 -0.009939948 -0.010054811 -0.0048396587 0.012528892 0.019237015
0.01815408 0.010914865 0.0066673676 0.007215579 0.010667017 0.009854845 0.008844198 0.0016413297
0.0021576236 -0.0026473037 0.00012383863 0.0041566063 0.00307079 -0.00026296123 -0.0003521481 0.003782724
-1.1716257e-05 3.7932705e-06 9.70921e-06 -9.181924e-06 -6.8189615e-06 1.44557225e-05 6.7592225e-07 -1.0938461e-06
3.8284115e-06 -0.0039644274 -0.0077878176 -0.006736641 -0.010899958 -0.012175595 -0.011195185 -0.009424677
-0.005931692 -0.0052416814 -0.0008951961 -0.00084451376 -0.000503006 -0.00047943016 -0.00044870033 -0.0011251016
0.0005682288 0.00034574931 -0.0008905312 -0.004217332 -0.0093032 -0.015796078 0.014176765 0.010605068
0.0047715036 0.013903337 0.013583777 0.014975599 0.0009406145 0.0012298438 -0.00044493037 0.000114910494

inception_blocks.0.conv_3x3.1.block.0.bias f4 [16]
00000000: 9171 c938 0399 4636 b112 cb33 cd0a c5b8
00000010: fdeb d2b7 8d66 beb7 9a2b 92b8 a1ac acb6
00000020: e726 0338 b271 97b8 cfd8 2637 284a 2e36
00000030: 1e4a c2b8 553b 8738 4998 da38 90c8 b835
9.60558e-05 2.9593364e-06 9.456324e-08 -9.395704e-05 -2.5143841e-05 -2.2697519e-05 -6.969944e-05 -5.146096e-06
3.1269064e-05 -7.2214185e-05 9.944851e-06 2.5971185e-06 -9.264446e-05 6.448353e-05 0.000104234154 1.376744e-06

inception_blocks.0.conv_3x3.1.block.1.weight f4 [16]
00000000: 04fa bb3e 6a0d e33b 4e4a 00bc 3e76 ab3e
00000010: 32b1 e13d 451e c63e 5710 613e 226f 783e
00000020: 4049 853e cd58 943e 9550 253e dab7 563c
00000030: 7a19 703e 5639 953e cdac 9f3e 8232 4e3e
0.36714184 0.0069290893 -0.007830216 0.3348865 0.110201254 0.3869497 0.2197889 0.24261144
0.26032448 0.28974 0.16144021 0.013105357 0.23447219 0.29145306 0.31186524 0.20136455

inception_blocks.0.conv_3x3.1.block.1.bias f4 [16]
00000000: 3bf9 b23d aabb c0bc 987e f1bc 206a 463c
00000010: 0197 ca3d 0760 e1bd a7b2 273e ddd2 8dbd
00000020: 695f c53d f633 aa3d 7f87 38bd c005 acbc
00000030: 840a e03d 2588 283c 7dbb 583e 9cfa 413e
0.08738943 -0.023526985 -0.02947931 0.012110263 0.09892083 -0.11004644 0.16376744 -0.069249846
0.09637339 0.08310692 -0.045051094 -0.020998836 0.10939506 0.010286366 0.21165271 0.18943256

inception_blocks.0.conv_3x3.1.block.1.running_mean f4 [16]
00000000: 3f54 34be 8baf 0a3c e0c9 1bbd dc7f 80bd
00000010: d0b8 e9bc b614 503b 3cea 753e 41c7 663b
00000020: 767c 35be 9085 a3bd e7f7 913e 51a2 dbbb
00000030: 0c29 e839 6866 913e a45f febd a9f6 44be
-0.17610262 0.008464704 -0.03803432 -0.06274387 -0.028530508 0.0031750626 0.24015135 0.003521398
-0.1772326 -0.079844594 0.28509447 -0.0067026992 0.0004428107 0.28398442 -0.12420586 -0.19234718

inception_blocks.0.conv_3x3.1.block.1.running_var f4 [16]
00000000: 4a8f 943d 79ed 843a b431 453b 16d7 543d
00000010: d83e 193d 1939 a13d 752d 233d b16b 533d
00000020: 06e1 4b3d f1f2 263d 2122 be3c 5138 843b
00000030: eaf7 163d 646c a13d 47a4 aa3d f683 1e3d
0.07253893 0.0010141573 0.003008944 0.051962934 0.037413448 0.07872219 0.039838273 0.051616374
0.049775146 0.04075903 0.023209633 0.0040350338 0.036857523 0.07882002 0.08332115 0.038700067

inception_blocks.0.conv_5x5.0.block.0.weight f4 [4, 32, 1, 1]
00000000: a965 e93d efc7 b13d 21ea 853e 5ef7 fdbd
00000010: 6187 08bb 2649 353d c17f 7abd 28a2 2cbe
00000020: c36c 603b ae61 2a3e f61b a8bc 2a25 1e3c
00000030: 89cf ba3c 7562 a0bc 52fc 933c 4be2 1d3b
00000040: 141a 313a 07bc 5ebe e056 0c3e 0789 0e3d
00000050: a5a2 57bc 2642 25be 53f3 613d 0657 13bb
00000060: b5c7 603e 91f6 35bc 9b8e 0bbd 7d8a 0f3e
00000070: 8e93 093a 0b23 4cbe 6b75 4c38 bdf9 8ebd
00000080: d3c3 0f3e b8b7 eebd c674 cb3c be6d 20be
00000090: 35b0 94ba 2184 023c 84c3 d5bd 41cc 41be
000000a0: cb6f 823c 3c08 6b3d 5218 02bd a219 6bbb
000000b0: c181 843c 7117 93bb 1f72 a4bb 14b5 403c
000000c0: cda4 87b7 4151 81bd 5253 553d e5f6 bc3c
000000d0: 4ed1 0fbd dcfd df3d a3e2 b33d bd84 70bc
000000e0: c361 bbbd fb9f 7abc 5aef a33c 4e84 28be
000000f0: 2845 a539 836d 993c 55ef 6c38 dc27 903d
00000100: 53d7 aa3c 214f 29bc d0c6 9cbd f265 bbbc
00000110: 3dc4 81ba 58b4 c8bc a4f2 33bd ae5a eabd
00000120: 4aa0 613c c204 8abd 1c49 02bc 86ee 8cb9
00000130: da0e b83a 5e2d e0bb 4ba3 a23b d317 93b8
00000140: b4d7 85b7 74c9 28bd ce13 e83d e89f 023d
00000150: ba8d 3bbc edd6 073e 418c 0c3c 3d04 aaba
00000160: 7068 a6bc 7bdf d0ba e492 26bc 9cbe e5bc
00000170: c2d4 36b8 6624 80bb 7847 ccb7 7b20 c93c
00000180: be57 d837 6f2a cb36 47fd 1936 826f ceb9
00000190: 1d65 9a30 901d 93ae 2a0a f7b5 3ccf 0eb9
000001a0: 96ea 8537 edd6 87b9 7cf6 f5af 5eb2 1238
000001b0: 40e7 b837 2b46 54b6 9f60 cc36 7bc7 59b8
000001c0: 982b 86b7 9f4e f538 1301 2eb8 5cbc 4db5
000001d0: 641e f2b5 cc81 6d39 d2af 9ab7 5a26 6c36
000001e0: c12e 52b9 d2ca 72b5 74df c938 a295 41b9
000001f0: 9cdb 9737 9358 0f39 4655 bdb7 a5eb 7a37
0.11396343 0.086807124 0.2615519 -0.12400697 -0.0020832645 0.044259213 -0.061156992 -0.16858733
0.0034244515 0.16638824 -0.020521145 0.009652415 0.022804039 -0.019578198 0.018064652 0.002409118
0.00067559 -0.21751414 0.13705015 0.03479865 -0.013161336 -0.16138515 0.055163693 -0.002248229
0.21951182 -0.011106149 -0.034071546 0.14017673 0.00052481226 -0.19935243 4.8746744e-05 -0.069812275
0.14039545 -0.11656135 0.024835955 -0.15666863 -0.0011344018 0.007966072 -0.10437682 -0.18925573
0.015922448 0.0573809 -0.031761475 -0.0035873433 0.016175153 -0.0044888784 -0.005018487 0.011761922
-1.6169995e-05 -0.06314326 0.052081414 0.023066947 -0.035111718 0.10937092 0.08783462 -0.014680085
-0.09149506 -0.015296931 0.020011593 -0.1645672 0.00031522778 0.018728977 5.648968e-05 0.070388526
0.020854628 -0.010333807 -0.07655108 -0.02287576 -0.0009900403 -0.024500057 -0.043932572 -0.11443077
0.013771126 -0.06739189 -0.007952001 -0.00026880595 0.0014042512 -0.0068413457 0.0049633137 -7.013944e-05
-1.595528e-05 -0.041207746 0.113319024 0.03189078 -0.011447364 0.13265581 0.008578361 -0.0012971234
-0.020313472 -0.0015935743 -0.010166857 -0.028044991 -4.3590328e-05 -0.003910589 -2.4351975e-05 0.02455162
2.5790065e-05 6.0548114e-06 2.2946203e-06 -0.00039374462 1.1233713e-09 -6.6900374e-11 -1.8405892e-06 -0.00013619376
1.5964073e-05 -0.0002590934 -4.4740378e-10 3.497523e-05 2.2042193e-05 -3.1631305e-06 6.090922e-06 -5.1922612e-05
-1.5994345e-05 0.00011697155 -4.1485833e-05 -7.664255e-07 -1.803925e-06 0.00022650434 -1.8440103e-05 3.5189064e-06
-0.00020044578 -9.044717e-07 9.626048e-05 -0.00018461657 1.8102866e-05 0.00013670539 -2.2570264e-05 1.49560265e-05

inception_blocks.0.conv_5x5.0.block.0.bias f4 [4]
00000000: 0a89 4e39 a76c 72b8 b145 0438 2623 a7b1
0.00019696742 -5.7798487e-05 3.1536158e-05 -4.8643356e-09

inception_blocks.0.conv_5x5.0.block.1.weight f4 [4]
00000000: 5f99 8e3e af1c 8c3e 8434 f53d fe52 093a
0.27851388 0.27365634 0.11972907 0.0005238502

inception_blocks.0.conv_5x5.0.block.1.bias f4 [4]
00000000: 9153 563e 9cb0 113d 309d e2bd 25e5 86bb
0.20930316 0.03556882 -0.110651374 -0.0041166716

inception_blocks.0.conv_5x5.0.block.1.running_mean f4 [4]
00000000: 4835 a3bd 6dca 23be 9f05 2fbd fd98 b3b8
-0.07969147 -0.15995188 -0.04272997 -8.5638814e-05

inception_blocks.0.conv_5x5.0.block.1.running_var f4 [4]
00000000: a3fb 913c 3148 f63c 9f82 833b 5ea8 2133
0.017820185 0.03006372 0.004013374 3.7638863e-08

inception_blocks.0.conv_5x5.1.block.0.weight f4 [4, 4, 5, 5]
00000000: 7d23 fcbb 7b65 29bd cc4a 27be 70cf 32bc
00000010: 8fa8 4fbd fb61 063e c8e2 803d fa58 743b
00000020: 78df 8e3c c2a4 c6bd c1e0 c13d f380 48bd
00000030: c8d9 a6bd 1593 6ebc b398 34be 1159 e4bc
00000040: a859 5abd 8df2 813c f742 c23d e019 7dbd
00000050: 4f5d 553c 8e95 bcbd faff 78bd d2df cf3d
00000060: 78b9 8ebd de04 9ebd 63a5 e1bd 3bd1 25be
00000070: 8882 12be d7c2 27bd 63fb 983d bb35 373d
00000080: bf25 ef38 a72e a1bd 6d77 22bd 633e f43d
00000090: 9c49 763d de62 fe3c 3abc a3bd 737b 67bc
000000a0: 7753 acbc ae60 67bd 7bf0 c2bd 06e7 66be
000000b0: 69cc 1ebe 101b 9e3b 30af 03bd 6b27 2abc
000000c0: 5790 41bd 8259 92bd 8460 a8bc 5c39 94bc
000000d0: 1b79 d8bc e68d 51bd 2397 6dbd a8d4 5cbb
000000e0: e50f 8d3c f6be 4ebc 2a3b c8bc 41a0 c3bc
000000f0: a34b 213d 4ca2 3b3d cd44 7a3d 4c1e 023d
00000100: ee4d 143d fb3c 94bc 5d35 b3bc f558 a8bc
00000110: 2874 00bc 43df e53c 426d b4bc 71dc a6ba
00000120: c732 a3bb 0663 f5bb 9e8d 673a f40d ceb6
00000130: d0de b0b7 bb60 87b8 0301 9e37 eec9 5a37
00000140: acb2 26b8 3c64 4fb8 5ac8 20b8 1f76 87b8
00000150: 8a6b 0e38 c26a bfb6 5136 9ab7 e8e4 1db8
00000160: f67b 01b8 9dc7 9fb8 ee66 5fb8 b6b2 78b8
00000170: 0e03 98b8 81bb 2ab8 72c4 38b8 7fa7 bb37
00000180: 77be 5b38 236a 0b37 6702 5e34 8884 09b8
00000190: 9288 55bd ebcd c7bd acc3 05be 433e 3cbd
000001a0: ae8f 2f3e 7623 b33d 2242 66bd 7405 d3bc
000001b0: 195a 033b 2b74 c53d 7d2c cdbc d345 59be
000001c0: fc57 6ebd e020 973d b7f1 bdbd 501e 943d
000001d0: 2c67 eebd 159b 7abe 97c3 9d3d 64ae 2d3e
000001e0: 4fb4 293e 4290 b03c b218 e1bd ea0d 033e
000001f0: 5eb0 823e 2ef0 0e3d b9ba 89ba 4809 5bbd
00000200: b7b5 51bd 4cc5 bfbb 81c2 60bd 3112 81bd
00000210: c126 84bd 4dd2 8abd c351 863d 023e 75bd
00000220: 05a3 89bc b17e 573b 4e25 3d3d 5c01 b13d
00000230: e2ae 37be e09c fdbd 2e16 d3bd cbdf d7bb
00000240: f0d4 583d 09de b73c 9c69 97bd abbc 20bd
00000250: f054 af3c adf4 573d 6b37 c63c dd30 d83c
00000260: 813f 0b3d 2937 893c ad3b 7f39 337a 1bbd
00000270: 312a 33bd 78c5 33bd c74c 1ebd df3b 6bbd
00000280: 8c32 823d 1cdb 8b3d 9728 743d dbf0 5f3d
00000290: cd16 583d 085a ab39 742e 753c 47a2 56bc
000002a0: 2611 d43b cc61 d43b 84c7 aebc 4ec3 6dbd
000002b0: 9a4d b0bc d9b6 b2bc fff3 4d3c 41b9 4538
000002c0: 5bc9 c737 abec acb6 a91e 8538 40b7 03b7
000002d0: 3462 93b6 6e37 6738 4911 6a38 821f 81b8
000002e0: cc81 b737 6c11 01b8 aac7 36b7 2f8b c8b7
000002f0: 7203 1e38 0b0a 0f36 6825 3236 27dd 35b8
00000300: 9cc4 0838 d4fd e2b7 9a3a ab36 ef19 8bb3
00000310: e958 abb7 a6a3 af36 cb0b 81b8 e9f3 a537
00000320: 610f a43d 1a1a 963d 60df 7ebc 1cea b53d
00000330: c960 1cbd 1050 e1bd a3d9 c93c 85e0 67bd
00000340: a0f2 bdbd 6144 29be e02c 84bd 0640 c53b
00000350: b9fb ad3d 6cce 523d 7379 e8bd 2f9f a53e
00000360: 2d1c b63c de27 06bd 2a37 a13d fdb8 853c
00000370: b2cb e23d 20a9 bd3b f07f 483d dd2d cebc
00000380: b2d3 62be 2028 4b3d 3ed3 e3bc 80af fe3b
00000390: 2597 dc3c b8ea 913b 1e57 26bc 1526 64bd
000003a0: 68a9 82bc 6b54 f9bc b802 c7bb 8bd4 ff3c
000003b0: 607f 85bd c5aa 19bd 69a3 e8bd 1896 57be
000003c0: 25bc ec3d 236a ab3b aa4d c63b b4e4 7ebb
000003d0: 0149 9abd e717 473e cc73 fd3d 0980 593d
000003e0: 3dd4 813d f857 a93d df70 41bd 81ab e9bc
000003f0: 9265 23bd b9c9 e0bc e4ee 2bbb f73c 87bc
-0.00769466 -0.041356545 -0.16337126 -0.010913715 -0.05069786 0.13123314 0.06293255 0.003728448
0.017440543 -0.09699394 0.094666965 -0.0489511 -0.08147007 -0.014561434 -0.17636375 -0.027874501
-0.05330816 0.015862728 0.09485429 -0.061792254 0.013022735 -0.09208213 -0.060790993 0.10150112
-0.06968969 -0.07715772 -0.11017873 -0.16193096 -0.14307606 -0.040957298 0.07469823 0.044728976
0.00011403439 -0.07870226 -0.039664675 0.11925962 0.060128793 0.031053003 -0.07994886 -0.014128554
-0.021035893 -0.056488685 -0.09518524 -0.22549066 -0.15507664 0.0048250034 -0.032149494 -0.010385375
-0.047256794 -0.071459785 -0.020553835 -0.018093757 -0.026424935 -0.051160716 -0.058005463 -0.003369609
0.017219493 -0.012618771 -0.024442274 -0.023880126 0.039378773 0.045809075 0.06110077 0.031767175
0.036207132 -0.018095484 -0.021876032 -0.02055023 -0.007840194 0.028060561 -0.022024754 -0.0012730492
-0.0049804184 -0.007488611 0.0008833053 -6.1409028e-06 -2.108459e-05 -6.455319e-05 1.8835539e-05 1.3040828e-05
-3.9743885e-05 -4.9445996e-05 -3.8333565e-05 -6.4593034e-05 3.395559e-05 -5.704672e-06 -1.8383524e-05 -3.7644902e-05
-3.0871444e-05 -7.618892e-05 -5.3263204e-05 -5.9294245e-05 -7.248494e-05 -4.0705785e-05 -4.4051973e-05 2.2370134e-05
5.2391053e-05 8.3097575e-06 2.0676235e-07 -3.2786775e-05 -0.052132197 -0.097560726 -0.13062924 -0.045957815
0.17144653 0.08746998 -0.056215413 -0.025759436 0.0020042716 0.09641298 -0.025045628 -0.21218042
-0.058189377 0.07379317 -0.09274619 0.07232344 -0.11640772 -0.24473222 0.077033214 0.16961056
0.16572689 0.021553162 -0.109910384 0.12798277 0.25525182 0.034897022 -0.0010507918 -0.05347565
-0.051198687 -0.005852377 -0.054872993 -0.06302298 -0.06452704 -0.06778393 0.065585636 -0.05987359
-0.016801367 0.003288191 0.046178155 0.086428374 -0.17937806 -0.12383437 -0.10306965 -0.0065879575
0.052937448 0.022444742 -0.0739319 -0.039242428 0.021402806 0.052723575 0.024196347 0.026390487
0.03399611 0.016749935 0.00024340926 -0.037958335 -0.04374141 -0.043889493 -0.03864744 -0.057430144
0.06357297 0.06828901 0.059609022 0.054673057 0.05275612 0.0003268274 0.014964689 -0.013100213
0.006471771 0.006481385 -0.02133537 -0.058047585 -0.021521378 -0.021815704 0.01257038 4.714099e-05
2.3816412e-05 -5.1535512e-06 6.347645e-05 -7.850875e-06 -4.3923737e-06 5.5126315e-05 5.5806046e-05 -6.157068e-05
2.1875741e-05 -3.0772222e-05 -1.0894533e-05 -2.390667e-05 3.7673344e-05 2.1314506e-06 2.654584e-06 -4.3359727e-05
3.2608034e-05 -2.7059497e-05 5.1030192e-06 -6.477409e-08 -2.042619e-05 5.2344576e-06 -6.153396e-05 1.9783112e-05
0.08010746 0.07329197 -0.015556186 0.088825434 -0.03817824 -0.11001599 0.02463991 -0.056610603
-0.09274793 -0.1652999 -0.06453872 0.006019595 0.08495278 0.05146639 -0.113512896 0.3234801
0.022230232 -0.032752864 0.0787185 0.01632356 0.11074008 0.0057879835 0.048950136 -0.025168354
-0.22151068 0.049598813 -0.027810689 0.007772386 0.02692754 0.0044530295 -0.010152606 -0.05570038
-0.01594992 -0.030435761 -0.006073322 0.031229278 -0.065184355 -0.037516374 -0.11359293 -0.2105335
0.11559323 0.0052311583 0.0060517387 -0.0038893642 -0.07533456 0.19442712 0.12375602 0.05310062
0.06339309 0.08268732 -0.047226783 -0.028524162 -0.039891787 -0.027439939 -0.002623492 -0.016508562

inception_blocks.0.conv_5x5.1.block.0.bias f4 [4]
00000000: c132 77b8 982e a236 e3ec 8f37 13a1 06b8
-5.8936657e-05 4.8334005e-06 1.7157237e-05 -3.20981e-05

inception_blocks.0.conv_5x5.1.block.1.weight f4 [4]
00000000: 3ea6 713e b7ca ae3e 7556 6e3e 950c ab3e
0.23598573 0.34139034 0.23275168 0.33408037

inception_blocks.0.conv_5x5.1.block.1.bias f4 [4]
00000000: 6824 843e d39a 513e 1475 833e ab85 d5bb
0.25809026 0.20469217 0.2567526 -0.0065161786

inception_blocks.0.conv_5x5.1.block.1.running_mean f4 [4]
00000000: 204a 64be 3025 36bd d385 cc3c 3516 503d
-0.22293901 -0.04446906 0.024966156 0.05080243

inception_blocks.0.conv_5x5.1.block.1.running_var f4 [4]
00000000: 90a4 b73c f98e c03c 681b d73c fc96 f83c
0.022417337 0.023505675 0.026258186 0.030345432

inception_blocks.0.max_pool.1.block.0.weight f4 [4, 32, 1, 1]
00000000: 114c e2bb c1e2 1bbd 677e 80bc 567a bdbc
00000010: 4df5 a038 94bf 8dbb 63a1 e4bc 3e7b 4fbc
00000020: 6588 78ba 35b9 9f3c 282f 503b 03e8 abb8
00000030: fab6 173a 8d1e 5d36 62a5 bab9 4725 5a37
00000040: 7cd0 dab6 27fe 053d 7ce5 0fbc 9840 1839
00000050: 680b a3b7 ff58 eabb a75c c53a e6de 02b9
00000060: da66 0f3b 4b3e 5039 1a2e 9abb e7d2 293c
00000070: 764f fab7 ceb7 c0bc f898 1bb7 bfc2 43bc
00000080: 2dd8 71bd 4d79 77bd f52e 13bd 219e 263e
00000090: e26f 253c 7ed2 993d 3717 65be 0412 76bd
000000a0: a178 d93c 10fa ad3d 5150 18bd 0e47 223c
000000b0: 509d 7e3c 4590 983c 830d 5dbc fb23 5dbb
000000c0: 0d44 fc39 6727 e2bd 1fe2 d4bd b9a2 85bb
000000d0: ba13 04bc a5b3 413d 48a9 793d 6a1c 483c
000000e0: 6cde ec3c 3a98 e53b 6fe3 38be 9191 b0bd
000000f0: 4565 2c34 399c 97bc 500e 7ab9 175a 43bd
00000100: 938a 553d b246 5ebe 1cf3 bf3d 69ad 0d3d
00000110: 160b 863a 3df0 45bc acd5 4d3d aa7f 393e
00000120: 7f5e 19bc 9785 df3c 7e77 0abc a115 083b
00000130: 72c1 d2bc f715 debb b948 6dba b7c0 6c3a
00000140: 5e84 2fb9 db64 e4ba 2dcd b6bd c805 393d
00000150: 0465 8bba 47ef a93d dd74 ebbc 4193 d9ba
00000160: 22d9 c23d 276a 193c f83f 34be 7de4 9d3c
00000170: 9242 f539 f27c 9fbd ed24 1f37 d1f6 e4bb
00000180: 5030 833d 2069 6cbe b9d7 353d 858e a4bd
00000190: f341 0ebc 7897 ae3c ecf5 c2bd 9d9b ab3c
000001a0: c2b0 40bc e978 6dbd 26f1 a03c 7aaf af3a
000001b0: 36f3 5cbb fe95 9dbc a889 4cbb 53d5 c13b
000001c0: 0b5a fd39 a2fe f03c 1267 fa3d f748 4d3d
000001d0: 6785 98bc 45a1 2bbe 2b01 a63c 32c2 173b
000001e0: 223e 8cbd b7b3 d63a ea16 253e 40a5 cfbd
000001f0: a1f3 353a 754a 9abc c5cd 1eba ab45 94bd
-0.0069060405 -0.038058046 -0.015685273 -0.023129623 7.675085e-05 -0.0043258164 -0.027908986 -0.012663661
-0.00094807736 0.019497493 0.0031766389 -8.197131e-05 0.00057874585 3.294935e-06 -0.00035599904 1.3002492e-05
-6.521177e-06 0.03271308 -0.008782741 0.00014519913 -1.9436426e-05 -0.0071517224 0.001505752 -0.00012480802
0.0021881373 0.00019859632 -0.0047052028 0.010365224 -2.9839324e-05 -0.023525145 -9.274336e-06 -0.011948287
-0.059044052 -0.060418416 -0.035933454 0.16271259 0.010097476 0.07510851 -0.22372137 -0.060075775
0.026546778 0.08494961 -0.03718597 0.009904636 0.015540436 0.01862348 -0.013491991 -0.003374337
0.00048115887 -0.11042672 -0.10394692 -0.004078236 -0.008061344 0.047290463 0.060952455 0.012213806
0.028914653 0.007006672 -0.18055509 -0.086215146 1.605559e-07 -0.01850711 -0.0002384719 -0.04769334
0.052134108 -0.21706656 0.09372541 0.034589205 0.0010226693 -0.012081203 0.0502526 0.18115106
-0.0093609085 0.02728538 -0.008451341 0.0020764845 -0.025727008 -0.0067775208 -0.0009051669 0.00090314023
-0.00016738611 -0.0017425077 -0.08925853 0.04517153 -0.0010634963 0.08297592 -0.028742248 -0.0016599671
0.09514071 0.009363688 -0.17602527 0.01927399 0.0004677964 -0.07787503 9.485736e-06 -0.0069874306
0.06405699 -0.23086977 0.044395182 -0.08034996 -0.008682716 0.02131246 -0.09519562 0.020948226
-0.011760892 -0.057976637 0.019646239 0.0013403737 -0.00337143 -0.01923656 -0.003120998 0.005915323
0.00048323008 0.029418293 0.1222669 0.050118413 -0.018618299 -0.16760738 0.020264229 0.002315652
-0.068477884 0.0016380463 0.16122022 -0.10138941 0.00069409056 -0.018834332 -0.0006057884 -0.072398506

inception_blocks.0.max_pool.1.block.0.bias f4 [4]
00000000: 17d8 26b5 3257 0fb8 9ded 6d37 b538 1138
-6.215427e-07 -3.4175064e-05 1.41816245e-05 3.4623507e-05

inception_blocks.0.max_pool.1.block.1.weight f4 [4]
00000000: 22eb 213b 9840 8e3e 3dd5 6d3e 493f 883e
0.00247068 0.27783656 0.23225875 0.26610783

inception_blocks.0.max_pool.1.block.1.bias f4 [4]
00000000: 6fcb 05bd 5368 3e3e dba5 71bd 66bb 833e
-0.032664713 0.18594484 -0.058996063 0.2572891

inception_blocks.0.max_pool.1.block.1.running_mean f4 [4]
00000000: 55c7 56bd e42e 74be 0748 5a3d 351f 80be
-0.05243619 -0.23846012 0.053291347 -0.2502381

inception_blocks.0.max_pool.1.block.1.running_var f4 [4]
00000000: c6e4 5a3a f3c9 c53c e134 8c3c bc1a 013d
0.000835013 0.024144148 0.017115058 0.031519637
